DeepDoubleX/102X/V02/BvL.onnx (onnx, 237799 bytes, 35 tensors)

ID_pred/kernel:0 f4 [100, 2]
0	0x3edbf908	0.42963433
1	0xbf2a3c6c	-0.66498446
2	0x3d3b7d91	0.045774046
3	0xbd66606c	-0.0562443
4	0x3d266f58	0.04063353
5	0xbd041f57	-0.03225645
6	0x3c2fdf55	0.010734399
7	0xbdffb5c9	-0.12485845
8	0x3dc1c1b3	0.09460773
9	0xbdcf9d8b	-0.10137471
10	0xbc7fd430	-0.015614554
11	0x3e073881	0.13205148
12	0x3d1ec89a	0.038765527
13	0xbd3f976e	-0.046775274
14	0xbced5295	-0.028970042
15	0x3e016256	0.12635168
16	0xbcf19789	-0.029491203
17	0xbdbe2e83	-0.09286215
18	0xbf19e048	-0.6010785
19	0x3ed8986e	0.42303795
20	0xbd9a7fa9	-0.075438805
21	0xbe18448c	-0.14869899
22	0x3e33f0ab	0.17572276
23	0xbd1c1c41	-0.038112883
24	0x3e4f03a5	0.20216234
25	0xbe84e796	-0.25957936
26	0x3cb504e1	0.022097053
27	0xbd8b0816	-0.06788652
28	0x3e043cb7	0.12913786
29	0x3ce1abfb	0.027547827
30	0xbd9b9fbc	-0.07598826
31	0x3d9a4e5c	0.07534477
32	0x3da4d7e6	0.08048992
33	0x3c52efc0	0.012874544
34	0x3d21ea34	0.039529994
35	0xbd84a006	-0.064758345
36	0x3c1ac198	0.00944557
37	0x3e049bd4	0.12950069
38	0xbce9fe9a	-0.028563786
39	0x3da6b990	0.08140862
40	0x3c924651	0.017855795
41	0xbd95e15d	-0.07318375
42	0x3dc1a22c	0.0945476
43	0xbd9a70dd	-0.07541058
44	0x3e43223e	0.19056031
45	0xb9d57b73	-0.00040718503
46	0x3e229751	0.15878035
47	0x3d78318b	0.060594123
48	0x3e4dd411	0.20100428
49	0x3db38127	0.08764868
50	0x3d9f8163	0.077883504
51	0x3c8641f1	0.016388865
52	0x3ce828db	0.028339794
53	0x3e66d356	0.22541556
54	0x3e86c68e	0.2632336
55	0xbe13e2dd	-0.1444201
56	0xbcad1a64	-0.021130748
57	0xbddb7529	-0.10715706
58	0xbe26d8a3	-0.16293578
59	0xbd0e12f5	-0.034686048
60	0x3d037bca	0.032100476
61	0xbd9540a4	-0.0728772
62	0x3d2a1f04	0.041533485
63	0xbd46c777	-0.04853007
64	0x3d5c36f7	0.053763356
65	0x3e3ac121	0.18237735
66	0x3d13888f	0.036018904
67	0xbd471216	-0.048601232
68	0x3da1db41	0.079031475
69	0xbb813804	-0.003943445
70	0x3e1dc2f8	0.15406406
71	0x3d3f1a2e	0.046655826
72	0x3ecdcb51	0.4019418
73	0xbef130e5	-0.47107616
74	0x3d8922fe	0.06696127
75	0xbbb1caf7	-0.0054258066
76	0xbdb07d5f	-0.08617663
77	0x3cc2f797	0.0237997
78	0x3cebe562	0.028795902
79	0xbd289cba	-0.04116509
80	0xbba6e39f	-0.0050930525
81	0xbde73944	-0.112902194
82	0xbdb8ab65	-0.09017066
83	0x3d80cb1b	0.06288739
84	0xbd37e122	-0.044892438
85	0x3dbc8fbc	0.09207103
86	0x3d8ae65a	0.06782217
87	0xbd064883	-0.032783996
88	0x3deaeda8	0.114711106
89	0x3d24b73d	0.040213812
90	0x3dccaae0	0.09993529
91	0x3c7a7934	0.015287686
92	0x3e271f39	0.16320504
93	0x3d8470f9	0.0646686
94	0xbd1c4b23	-0.038157593
95	0xbe03a6b9	-0.12856568
96	0xbdf51275	-0.11966411
97	0xbe4a2c15	-0.19743378
98	0xbe796d0c	-0.24358004
99	0x3dd8a4c6	0.10578303
100	0x3df9d8e5	0.121995725
101	0x3d560223	0.05224813
102	0x3e581d13	0.21104841
103	0x3da7b116	0.08188073
104	0x3d0c1d27	0.03420749
105	0xbce84fb9	-0.028358327
106	0x3db1cf3a	0.086821035
107	0xbe6dcc9a	-0.2322258
108	0xbd32b076	-0.043625318
109	0xbdd607a4	-0.10450676
110	0xbe48eea9	-0.19622292
111	0x3d2a7acd	0.04162102
112	0x3de8fc3b	0.11376234
113	0x3ccebf77	0.025237782
114	0x3df389d7	0.11891525
115	0x3d24192c	0.04006307
116	0xbc52da1a	-0.012869382
117	0x3dab75bf	0.08372068
118	0x3d952b5b	0.0728366
119	0xbcac363e	-0.021021958
120	0xbd357f2c	-0.044310734
121	0xbe039b82	-0.1285229
122	0xbb7e43c0	-0.0038797706
123	0xbd91895d	-0.07106278
124	0xbb98c8d5	-0.004662613
125	0xbd8af07a	-0.067841485
126	0x3cc852c8	0.024453536
127	0x3dfbf8e0	0.123033285
128	0xbc4c73fd	-0.012478826
129	0xbdc006f4	-0.09376326
130	0x3c66c267	0.014084435
131	0xbd965fa4	-0.07342461
132	0x3d898453	0.06714692
133	0xbdd5f9e0	-0.104480505
134	0x3d2c4492	0.04205758
135	0xbcbb450a	-0.022860069
136	0x3e8536d4	0.26018393
137	0x3c417820	0.011808425
138	0x3e2aaa26	0.16666469
139	0x3b27a3a9	0.0025579727
140	0x3dad9678	0.08475965
141	0xbdbb07b2	-0.09132327
142	0xbdde155a	-0.10843916
143	0x3ddeae1c	0.108730525
144	0xbcd4c036	-0.02597056
145	0xbde0865d	-0.10963128
146	0xbd84607c	-0.064637154
147	0x3d648732	0.055792995
148	0x3dce014b	0.1005884
149	0x3cbc8f8f	0.023017673
150	0x3e1d73d3	0.15376215
151	0xbe0af478	-0.1356982
152	0xbddd3b32	-0.10802306
153	0xbe2ec8f3	-0.17068844
154	0x3dabd610	0.083904386
155	0x3e4d8726	0.20071086
156	0x3db8ffbf	0.09033155
157	0xbbabde0b	-0.0052449754
158	0x3e37fd14	0.17967635
159	0x3dbe3257	0.09286945
160	0x3d3b6f9b	0.045760732
161	0xbe3bba78	-0.18332851
162	0x3d37400f	0.044738825
163	0xbd47da78	-0.048792332
164	0xbe6cedcd	-0.23137589
165	0x3d950394	0.07276073
166	0x3d697a1a	0.05700121
167	0xbb917fa3	-0.0044402643
168	0x3e4cbf0d	0.19994755
169	0x3c8f8fdb	0.01752465
170	0xbe46ff16	-0.19433245
171	0xbd79c9a9	-0.060983334
172	0x3d85faca	0.06541975
173	0xbdbeed08	-0.09322554
174	0x3dcdb022	0.1004336
175	0xbd3414f6	-0.043965302
176	0xbddfad8b	-0.109217726
177	0xbe2fbad2	-0.1716111
178	0x3e606bb5	0.21916087
179	0x3d9f89cb	0.07789954
180	0x3e3140d3	0.17309885
181	0x3caf316c	0.02138587
182	0x3e08bd1d	0.13353391
183	0x3d655ad2	0.055994816
184	0xbd905049	-0.07046563
185	0xbe36b6b9	-0.1784314
186	0x3b8c7945	0.0042869174
187	0xbdebefc7	-0.11520343
188	0xbda43698	-0.080182254
189	0x3e3f578f	0.18685745
190	0xbd11e818	-0.035621732
191	0xbe659630	-0.22420573
192	0xbd9af276	-0.07565777
193	0x3db7a251	0.08966506
194	0xbd7dacb6	-0.061932288
195	0x3d6173bd	0.055042017
196	0x3df585e3	0.119884275
197	0xb8851620	-6.346055e-05
198	0x3ed2d583	0.41178522
199	0xbe83e495	-0.25760332

ID_pred/bias:0 f4 [2]
0	0x3e09d760	0.13461065
1	0xbe09d6d8	-0.13460863

fc1_relu/kernel:0 f4 [155, 100]
0	0x3ee0d84e	0.43915027
1	0x3e92a375	0.28640333
2	0x3eb43d00	0.3520279
3	0xbe52e4f0	-0.20595145
4	0x3e56fdbb	0.20995228
5	0x3ed52c7a	0.41635495
6	0xbe91c055	-0.2846705
7	0x3e29af7d	0.1657085
8	0xbd154dc5	-0.03645112
9	0xbba506e4	-0.005036222
10	0x3de9a4d2	0.1140839
11	0x3fb82cf6	1.4388721
12	0xbe9af818	-0.30267406
13	0xbe33142c	-0.17488164
14	0x3e9f2212	0.3108068
15	0xbe177e17	-0.14794193
16	0xbda66a52	-0.08125748
17	0xbe82ee86	-0.25572604
18	0xbe37ae9b	-0.179377
19	0xbe28343d	-0.16426177
20	0x3e5ca853	0.21548586
21	0x3dc6663f	0.09687471
22	0xbe0f8fb9	-0.1401967
23	0xbe9b31e0	-0.3031149
24	0xbd53448f	-0.051579054
25	0x3e07ab76	0.13249001
26	0xbdca9cca	-0.098931864
27	0x3e7ff59b	0.24996035
28	0x3d08732f	0.033312973
29	0x3e993ecb	0.2993072
30	0x3f19e984	0.6012194
31	0xbe84037d	-0.2578391
32	0xbe6922a8	-0.22767127
33	0x3e419f1d	0.18908353
34	0x3ce386ab	0.027774176
35	0x3dff29d3	0.12459149
36	0x3c8b8b86	0.017034303
37	0x3e244f02	0.16045764
38	0xbe5efd18	-0.21776235
39	0xbe3bf273	-0.18354206
40	0xbe57d5cb	-0.2107765
41	0xbd699306	-0.057024978
42	0xbeb61abc	-0.35567272
43	0x3f320200	0.695343
44	0xbeaac40f	-0.33352706
45	0x3d83d742	0.064375415
46	0xbda5dd74	-0.080988795
47	0xbe3d07b2	-0.18459967
48	0x3c82444a	0.015901703
49	0x3e298105	0.16553123
50	0xbcca0fcd	-0.024665738
51	0x3d7c17e0	0.061546206
52	0xbd49ed7f	-0.04929876
53	0x3e801367	0.25014803
54	0x3eb3da0f	0.35127303
55	0xbd2af55a	-0.04173789
56	0xbe0ad8cf	-0.13559268
57	0x3eb8b029	0.360719
58	0x3e597cc7	0.21239005
59	0xbc82148f	-0.015878944
60	0xbdc42875	-0.09578029
61	0x3e19a671	0.15004899
62	0x3d67dc54	0.056606606
63	0xbe8446fb	-0.25835404
64	0xbdb18c3c	-0.08669326
65	0xbd6e203f	-0.05813622
66	0xbeb4b43a	-0.35293752
67	0x3e0e6267	0.13904725
68	0x3f3f69a4	0.7477057
69	0xbf10d75a	-0.565786
70	0xbeb66c36	-0.35629433
71	0xbefff342	-0.49990278
72	0x3eb2dae6	0.3493263
73	0x3e519e10	0.20470452
74	0xbddef42f	-0.10886418
75	0x3f84256d	1.0323921
76	0x3e2ad875	0.16684134
77	0x3d97d1ac	0.074130386
78	0xbddaf4cd	-0.10691223
79	0xbe92997a	-0.28632718
80	0xbeaa1a4a	-0.33223182
81	0x3eead25a	0.4586361
82	0xbe35c2c5	-0.1775008
83	0xbd0c41b3	-0.034242343
84	0x3df399f9	0.11894602
85	0xbe7cef1d	-0.2470059
86	0x3f1db4af	0.61603826
87	0x3e8f1524	0.27945817
88	0xbf1a7bf9	-0.6034542
89	0xbe8183e6	-0.25295943
90	0xbe111437	-0.14167868
91	0xbad3a79f	-0.0016147977
92	0xbe6843cc	-0.22682112
93	0xbeb8a34a	-0.3606208
94	0xbde6a593	-0.112620495
95	0x3c8b3ab6	0.016995769
96	0xbf1bf350	-0.6091814
97	0x3d3c3032	0.0459444
98	0xbdbf3739	-0.09336705
99	0xbe8aef5c	-0.27135742
100	0x3f18e260	0.5972042
101	0xbda1e600	-0.07905197
102	0xbe1a9bf8	-0.1509856
103	0x3de88f3f	0.11355447
104	0x3e0cfa42	0.13767341
105	0x3dd84b20	0.10561204
106	0x3d9af9fb	0.07567211
107	0xbec7006d	-0.38867512
108	0xbd97996d	-0.074023105
109	0x3e03ecb8	0.1288327
110	0xbdd40b3e	-0.10353707
111	0xbe23e3f3	-0.16004924
112	0xbcbd8b44	-0.023137696
113	0xbef0ec93	-0.47055492
114	0x3eae8edd	0.3409337
115	0x3d63475a	0.055487968
116	0xbd7a114e	-0.06105166
117	0x3e8a683e	0.27032655
118	0x3e7d5b7f	0.24741934
119	0x3d915536	0.07096331
120	0x3d27d5b8	0.040975302
121	0x3f15bf79	0.5849529
122	0x3f019da1	0.5063115
123	0x3ec33707	0.3812792
124	0x3ebd8cfc	0.37021625
125	0xbd8a8743	-0.067640804
126	0xbc99b453	-0.018762743
127	0xbddef54f	-0.10886633
128	0x3d59d839	0.05318472
129	0x3f47f424	0.78106904
130	0x3f3b47e7	0.7315659
131	0x3e71fbc0	0.23631191
132	0x3d579c8b	0.052639525
133	0xbce4f5e1	-0.027949275
134	0xbe2a6451	-0.1663983
135	0x3e92e973	0.28693733
136	0x3f551c92	0.8324672
137	0x3e283da3	0.16429763
138	0x3cf2ce68	0.029639438
139	0xbdfaf41e	-0.12253593
140	0x3e8efad7	0.2792575
141	0xbb78e726	-0.0037979572
142	0x3e98f0f6	0.2987134
143	0xbf26646e	-0.64996994
144	0xbe347af1	-0.17625023
145	0xbf168a6e	-0.58804977
146	0x3f124d2b	0.57149
147	0xbbaf97fa	-0.005358693
148	0xbee59d2f	-0.44846484
149	0x3bd0888e	0.006363935
150	0x3c4457b0	0.011983797
151	0xbde9b115	-0.11410729
152	0xbe0c0dbd	-0.13677116
153	0xbebd3c54	-0.3696009
154	0x3d122d26	0.03568759
155	0xbe7b84f4	-0.24562436
156	0xbedfa5a2	-0.43681055
157	0xbe3b8816	-0.18313631
158	0xbf186881	-0.5953446
159	0xbefc89b4	-0.4932381
160	0xbe56e3f7	-0.20985399
161	0xbdf16779	-0.11787314
162	0xbe6207cd	-0.22073288
163	0x3dc8a5ad	0.09797225
164	0xbe98b21c	-0.29823387
165	0xbc5ecf53	-0.013599235
166	0xbea3240d	-0.31863442
167	0xbe8b8f0e	-0.2725758
168	0xbdb44e0c	-0.08803949
169	0x3e599d42	0.21251395
170	0xbe6db62f	-0.23214029
171	0x3c783ef6	0.01515173
172	0x3e4975f3	0.196739
173	0x3e711408	0.23542798
174	0x3e8b06bb	0.27153572
175	0xbf164ee6	-0.5871414
176	0xbe50bec7	-0.20385276
177	0x3c04b951	0.0081008235
178	0xbd2c9a13	-0.042139124
179	0xbe0b5d26	-0.13609752
180	0x3e49079a	0.19631806
181	0xbeb346fc	-0.35015094
182	0x3f10241e	0.5630511
183	0xbe510996	-0.20413813
184	0x3ee9c121	0.45655158
185	0x3d979172	0.07400788
186	0x3dcc35f3	0.099712275
187	0xbe204315	-0.1565059
188	0xbc61a855	-0.013773044
189	0xbd8568b6	-0.06514113
190	0xbdb8c300	-0.09021568
191	0xbe53dbf9	-0.20689382
192	0x3eb4a83b	0.352846
193	0xbf20d010	-0.6281748
194	0xbdc8289e	-0.09773372
195	0x3efea645	0.4973623
196	0x3ed729be	0.42024034
197	0xbdccea87	-0.1000567
198	0xbf263abf	-0.6493339
199	0x3d1a136e	0.037616186
200	0x3eb1c0f3	0.3471752
201	0x3e3e85f6	0.1860579
202	0xbe992aaf	-0.29915377
203	0x3e7321be	0.2374334
204	0x3e865412	0.26236016
205	0x3d5bbe29	0.053648148
206	0x3e814982	0.25251395
207	0xbd954915	-0.0728933
208	0x3a98ce19	0.0011658102
209	0xbe91cf98	-0.28478694
210	0x3e7a9be2	0.24473527
211	0x3e301253	0.1719449
212	0x3e2a1ae6	0.16611823
213	0x3dec4893	0.1153728
214	0xbf059c88	-0.5219197
215	0xbe761149	-0.24030031
216	0xbe1b69fb	-0.15177147
217	0xbce25918	-0.027630374
218	0xbd499dde	-0.04922282
219	0x3ce8bf1f	0.028411446
220	0xbd4401fe	-0.047853462
221	0xbef0e4f8	-0.4704969
222	0xbf097a4c	-0.53702235
223	0xbe8e9d4d	-0.27854386
224	0xbf6b30c8	-0.9187131
225	0xbde1c87a	-0.11024566
226	0xbe9e49ac	-0.30915582
227	0x3e1be6a9	0.15224709
228	0x3afed605	0.0019442445
229	0xbc983695	-0.018580714
230	0x3f47fe50	0.78122425
231	0xbcb9bcc2	-0.022673015
232	0x3df3d62f	0.11906087
233	0xbea583e4	-0.32327187
234	0x3d9d9c2e	0.076958045
235	0xbe9c14ac	-0.3048452
236	0x3ef6a325	0.48171344
237	0xbf47ec7a	-0.7809521
238	0xbe4e26d0	-0.20131993
239	0x3e03c6de	0.1286883
240	0x3efd54c8	0.49478745
241	0x3d62cff6	0.05537411
242	0xbe3a06c5	-0.18166645
243	0xbf315f99	-0.69286495
244	0x3e6870e0	0.22699308
245	0xbe48ab88	-0.19596684
246	0xbe08e468	-0.1336838
247	0xbddaf828	-0.10691863
248	0xbd996adc	-0.07491085
249	0xbe2051d9	-0.15656222
250	0x3e1c6272	0.15271929
251	0xbe24808a	-0.16064659
252	0x3daf2737	0.085524015
253	0x3eaff450	0.34366083
254	0xbe803468	-0.25039983
255	0x3e5af0e8	0.21380961

fc1_relu/bias:0 f4 [100]
0	0xbf2d762f	-0.6775846
1	0x3e704854	0.23465091
2	0x3e111d58	0.1417135
3	0xbf559e16	-0.83444345
4	0xbf05730a	-0.5212866
5	0xbee1e80d	-0.44122353
6	0x3e0904e4	0.13380772
7	0xbebef0a0	-0.37292957
8	0x3de0c0fb	0.10974308
9	0xbf8b501c	-1.0883822
10	0x3e759107	0.23981105
11	0xbeaf2379	-0.3420675
12	0xbf5f6227	-0.87259144
13	0x3e7e6a0f	0.24845146
14	0xbeeaef96	-0.45885915
15	0xbeaa35db	-0.33244213
16	0x3e04f280	0.12983131
17	0xbe60d9c4	-0.21958071
18	0xbe533891	-0.20627047
19	0xbe6acbe5	-0.22929342
20	0xbe82ab8e	-0.2552151
21	0xbf74091b	-0.95326394
22	0xbed4dd3e	-0.41575044
23	0x3dc34d00	0.09536171
24	0xbec0ddd1	-0.37669232
25	0x3da5b8df	0.08091902
26	0xbf8cf69f	-1.1012763
27	0xbf6beb51	-0.9215594
28	0x3d35ce2a	0.044386066
29	0xbe801c1b	-0.25021443
30	0x3cb6553a	0.022257436
31	0x3e5efcd2	0.21776131
32	0xbdffd04d	-0.12490902
33	0x3dddc999	0.10829467
34	0x3e8b16e9	0.27165917
35	0xbc9a40d8	-0.018829748
36	0xbf19cade	-0.60075176
37	0x3e3ee835	0.18643267
38	0xbe3ac0ac	-0.18237561
39	0x3e81f782	0.25384146
40	0xbc17e747	-0.009271449
41	0xbf053282	-0.52030194
42	0xbe9afba8	-0.30270123
43	0xbe419058	-0.18902719
44	0x3d93fab4	0.07225552
45	0x3dccc0f3	0.0999774
46	0xbf0dcf5b	-0.55394524
47	0x3e803258	0.2503841
48	0x3e627e96	0.22118601
49	0xbfd75931	-1.6824094
50	0x3e03891d	0.12845273
51	0xbf4ed310	-0.80790806
52	0x3dfd54c2	0.12369682
53	0xbf106c47	-0.5641522
54	0x3dd0ef94	0.10201946
55	0xbf3d0151	-0.73830134
56	0x3e3090d1	0.17242743
57	0x3e4881ad	0.19580717
58	0xbe9877fb	-0.29779038
59	0x3e81ad60	0.25327587
60	0x3e8a08e6	0.26959914
61	0x3dc09fcf	0.09405481
62	0x3dec4ee2	0.11538483
63	0xbec05084	-0.3756143
64	0x3eae7c20	0.34079075
65	0x3e8e6ae1	0.27815917
66	0xbe944f1e	-0.28966612
67	0x3deee70a	0.11665161
68	0xbf3c053a	-0.73445475
69	0xbe7101be	-0.23535821
70	0xbdbc6120	-0.091982126
71	0xbee1bf0b	-0.44091067
72	0xbefeed6a	-0.49790508
73	0xbeaf9299	-0.34291533
74	0xbde6f8a7	-0.112778954
75	0xbf7205b1	-0.94539934
76	0x3e10d427	0.1414343
77	0xbe1bc4e7	-0.15211831
78	0x3d2417b1	0.040061656
79	0x3e73e218	0.23816717
80	0xbf6456e1	-0.89195067
81	0xbb79545b	-0.0038044665
82	0xbf04b0fb	-0.5183255
83	0x3df7c891	0.12098802
84	0xbf51a12a	-0.8188654
85	0xbdb17d34	-0.08666459
86	0xbded330d	-0.11582003
87	0xbee0ba65	-0.43892208
88	0x3da4166f	0.08012091
89	0xbec52474	-0.38504374
90	0xbdd67b62	-0.10472752
91	0x3e70a1b7	0.2349919
92	0x3d52583f	0.05135369
93	0x3e3465eb	0.17617004
94	0xbf6736bf	-0.9031791
95	0xbf1c7fa7	-0.6113228
96	0xbef0a753	-0.47002658
97	0xbeeda4ae	-0.46414703
98	0xbe83a117	-0.2570884
99	0xbf7ff1f7	-0.99978584

scale f4 [5]
0	0x3e46ad01	0.19401933
1	0x3ea1d4b3	0.3160759
2	0x3ea7da0e	0.3278355
3	0x3fd00d4a	1.6254056
4	0x3eac18b8	0.3361261

bias f4 [5]
0	0xc0292d00	-2.6433716
1	0xbf489084	-0.78345513
2	0xbf656095	-0.896005
3	0x3ed3e647	0.41386625
4	0xbdbd2294	-0.09235111

mean f4 [5]
0	0x00000000	0.0
1	0x00000000	0.0
2	0x00000000	0.0
3	0x80000000	-0.0
4	0x00000000	0.0

var f4 [5]
0	0x3f800000	1.0
1	0x3f800000	1.0
2	0x3f800000	1.0
3	0x3f800000	1.0
4	0x3f800000	1.0

tensor_w f4 [1, 150, 32]
0	0x3ec8757e	0.3915214
1	0xbd0826ec	-0.033240244
2	0x3e6d1011	0.2315066
3	0xbdc86664	-0.097851545
4	0xbe6ebd3f	-0.23314379
5	0x3da54ea4	0.0807164
6	0x3e64da01	0.22348787
7	0xbd824e45	-0.06362585
8	0x3e01fc73	0.12693958
9	0x3dd8eec5	0.10592417
10	0x3c7a1a04	0.015264992
11	0x3e011b55	0.12608083
12	0x3e7a0ab6	0.24418148
13	0x3eb7954f	0.358561
14	0xbe4446d6	-0.19167647
15	0x3e990b99	0.2989166
16	0x3dd448da	0.10365458
17	0x3dcca4a7	0.099923424
18	0x3eb6d03f	0.35705754
19	0x3ef6a6c8	0.4817412
20	0x3e4b0e44	0.1982966
21	0x3dfb0378	0.12256521
22	0xbe99c8ef	-0.30036113
23	0x3d9cf78a	0.07664402
24	0x3e89a3cc	0.2688278
25	0x3e996bfc	0.29965198
26	0xbd514803	-0.051094066
27	0x3eb17f02	0.34667212
28	0x3f0d1fbe	0.5512656
29	0x3efc46b1	0.49272683
30	0x3e0bef28	0.1366545
31	0x3df34aba	0.11879487
32	0x3df5dafe	0.1200466
33	0x3e0a312f	0.13495325
34	0x3db39d91	0.08770288
35	0x3e460426	0.1933752
36	0x3d075599	0.033040617
37	0x3d99430a	0.0748349
38	0x3f166561	0.5874844
39	0xbd527d71	-0.05138916
40	0x3eef2dd3	0.4671465
41	0xbe1af800	-0.15133667
42	0xbe3adb5c	-0.18247741
43	0x3f7cb117	0.9870772
44	0x3fbabdca	1.4589169
45	0x3f09b838	0.5379672
46	0xbcda5d1d	-0.026655728
47	0xbe52d32e	-0.20588371
48	0x3e8309c4	0.25593388
49	0xbe58d2be	-0.21174142
50	0x3e865d9d	0.26243296
51	0x3d915d9a	0.07097931
52	0x3f5586dd	0.8340891
53	0x3eff99da	0.49922067
54	0x3f3e9465	0.7444518
55	0x3e50dc4b	0.20396535
56	0x3f49e41d	0.788637
57	0xbe0d11ac	-0.13776273
58	0x3c13041e	0.00897315
59	0x3de9355a	0.11387129
60	0x3d946f9f	0.072478525
61	0x3eae47ca	0.34039146
62	0x3fd9f6fd	1.70285
63	0x3e81a341	0.25319865
64	0x3dba395e	0.09092973
65	0x3e0511d0	0.12995076
66	0x3e04c29f	0.12964867
67	0x3f78cfc1	0.9719201
68	0x3e988837	0.29791424
69	0x3e390c5c	0.18071121
70	0x3dedf142	0.11618282
71	0x3ea332d1	0.31874707
72	0x3dee455d	0.11634324
73	0x3f271122	0.6526052
74	0x3e89fc5e	0.26950353
75	0x3e87eec4	0.2654935
76	0x3f5c1d0e	0.85981834
77	0x3dd23f40	0.1026597
78	0xbc661b69	-0.014044621
79	0xbe0fae39	-0.14031304
80	0x3ee9856b	0.45609602
81	0x3ceb24e2	0.02870411
82	0x3d9c191a	0.07621975
83	0x3ec8d3fe	0.39224237
84	0x3eed7efb	0.4638594
85	0x3eef2f8f	0.46715972
86	0x3f7ee55e	0.99568737
87	0x3e076930	0.1322372
88	0xbd1ef967	-0.038812067
89	0x3f266c42	0.6500894
90	0x3f81bcf0	1.0135784
91	0x3f2dc0df	0.6787242
92	0xbe8cd06e	-0.2750277
93	0xbd73440d	-0.05939107
94	0x3f623556	0.88362634
95	0x3ed917f3	0.42401084
96	0x3de76572	0.11298646
97	0x3e021f17	0.12707172
98	0x3d7acca6	0.061230324
99	0x3c1de033	0.009635973
100	0x3fd972d2	1.6988165
101	0xbd73a9a2	-0.059487946
102	0xbf24a7f5	-0.6431878
103	0xbd8f0a8a	-0.06984432
104	0x3bbd73c0	0.0057816207
105	0x3e19848a	0.14991966
106	0x3f42da21	0.7611409
107	0xbdbb5272	-0.091465846
108	0x3e13a9c9	0.14420237
109	0x3bb916c7	0.005648467
110	0x3e0b6531	0.1361282
111	0xbf65c9e1	-0.8976117
112	0xbdfae030	-0.122497916
113	0xbed655b1	-0.41862252
114	0xbdc5b79c	-0.09654161
115	0xbebf54a9	-0.37369278
116	0x3e3e2813	0.18569975
117	0x3edfb7a8	0.43694806
118	0x3e6ae8f0	0.22940421
119	0xbdbf2cb3	-0.093346976
120	0x3ddf7a1f	0.109119646
121	0xbea645ff	-0.32475278
122	0xbd6ae5c4	-0.057348028
123	0xbd7c7b8c	-0.06164126
124	0x3cf26469	0.029588895
125	0xbec7d892	-0.39032418
126	0x3d137fad	0.036010433
127	0xbd1ac069	-0.037781153
128	0x3f920eec	1.1410804
129	0x3e13baf3	0.14426784
130	0x3d4f7264	0.0506462
131	0x3f73d34d	0.95244294
132	0x3de624f0	0.11237514
133	0xbdbf545d	-0.09342263
134	0xbc96f370	-0.018426627
135	0xbe1d32b6	-0.15351376
136	0x3f29b234	0.6628754
137	0x3fb8ec61	1.4447137
138	0x3e74ab07	0.23893367
139	0x3f519cef	0.81880087
140	0x3e746311	0.23865916
141	0x3f200fbc	0.6252401
142	0x3e8c0286	0.27345675
143	0xbee75808	-0.4518435
144	0x3efbcdac	0.49180353
145	0x3fc2c7b3	1.5217193
146	0x3f9c0bf0	1.2191143
147	0xbe617fcd	-0.22021408
148	0x3e3ff871	0.18747117
149	0x3e92de61	0.28685287
150	0x3d342a8e	0.043985896
151	0x3f0a0047	0.53906673
152	0x3ea2932c	0.31752908
153	0x3eddd931	0.43329766
154	0x3f746ee2	0.95481694
155	0x3e985bf8	0.29757667
156	0xbd6409ab	-0.055673283
157	0x3e9fc1ed	0.3120264
158	0x3f268146	0.65041006
159	0x3eccd3d8	0.40005374
160	0x3f8d0bf1	1.1019269
161	0xbf9b8e41	-1.2152787
162	0x3f2b5162	0.66921055
163	0x3f2c84ab	0.67389935
164	0xbef90e69	-0.48643807
165	0x3ea58591	0.32328466
166	0x3f7f5f33	0.9975464
167	0xbf1e7070	-0.61890316
168	0x40015297	2.020666
169	0x3ff9e27c	1.9522243
170	0x3e40aba8	0.18815482
171	0x3f85f471	1.0465223
172	0x3f87e181	1.0615693
173	0x3fc47584	1.5348363
174	0xbf3346d2	-0.7002994
175	0x3ed0058d	0.40629235
176	0xbecc6ed9	-0.3992832
177	0x3f64882d	0.8927029
178	0x4002d7f8	2.0444317
179	0xbfb8aea8	-1.4428301
180	0x3eb94178	0.3618276
181	0xbf3ae8be	-0.73011386
182	0xbdd6030c	-0.104498
183	0x3dee6a5a	0.11641379
184	0x3f929f84	1.145493
185	0x3f63f36b	0.890433
186	0x3ff615db	1.922542
187	0x3ffc0060	1.9687614
188	0xbfa842f8	-1.3145437
189	0x3d86203d	0.06549118
190	0x3f505664	0.8138182
191	0xbed4a80f	-0.4153447
192	0x3e8cb212	0.27479607
193	0x3e4e0686	0.20119676
194	0x3d9ede9e	0.077573046
195	0xbe8178d8	-0.2528751
196	0x3e5000bc	0.2031278
197	0xbe9bd54a	-0.30436164
198	0x3f1902d8	0.59769964
199	0xbe8937b7	-0.2680032
200	0xbcacf61b	-0.021113446
201	0x3e785cff	0.24254225
202	0xbe603f34	-0.2189911
203	0x3e8bc776	0.27300614
204	0x3de21dba	0.11040826
205	0x3f2179f7	0.6307673
206	0xbe8ad42f	-0.27115008
207	0x3e3f6edf	0.18694638
208	0x3da4fcee	0.08056055
209	0x3f4175cc	0.7557037
210	0xbe2c37b8	-0.1681813
211	0xbec8ea9c	-0.39241493
212	0xbcef1d14	-0.02918867
213	0x3e9398ba	0.2882746
214	0xbe85a385	-0.26101318
215	0x3e3f5688	0.18685353
216	0xbeb0d5e8	-0.34538198
217	0x3eaef418	0.34170604
218	0x3db19ca4	0.08672455
219	0x3ed7f99f	0.42182633
220	0x3f60cb04	0.8780978
221	0xbd390f6e	-0.04518073
222	0x3d25e389	0.040500198
223	0x3e065767	0.13119279
224	0x3f26a2e7	0.6509232
225	0x3f12d36f	0.5735387
226	0x3e5aea58	0.21378458
227	0x3ed94834	0.424379
228	0x3e9c3837	0.3051164
229	0x3e9db696	0.30803365
230	0xbe9c7e8f	-0.30565307
231	0x3c11fb2d	0.008909983
232	0x3f5f3ed6	0.87205255
233	0x3e66e50e	0.22548315
234	0x3e95b8c6	0.29242533
235	0x3e0b6406	0.13612375
236	0x3e8d8ab8	0.27644897
237	0x3e99cd59	0.3003948
238	0xbecc12ac	-0.39857996
239	0x3f5da50c	0.86579967
240	0x3d865e6a	0.06560977
241	0x3e736062	0.23767236
242	0x3e94aba3	0.29037198
243	0xbe1ad75e	-0.15121219
244	0xbea72106	-0.32642382
245	0x3ed5ff74	0.41796458
246	0xbdd3ff94	-0.10351482
247	0x3e8e05d0	0.2773881
248	0x3f1a757b	0.6033551
249	0x3e10bab7	0.14133726
250	0x3e889e4f	0.2668328
251	0x3d753797	0.059867468
252	0xbe45da3c	-0.19321531
253	0xbc9d58de	-0.019207414
254	0x3b86ba4f	0.004111565
255	0x3dee228d	0.11627684

tensor_r f4 [1, 150, 50]
0	0x395c75fc	0.00021024788
1	0xbf2ad5e1	-0.66732603
2	0x3eaab38c	0.33340108
3	0x3ebae300	0.36501312
4	0xbe91fcd6	-0.2851321
5	0xbd8b495c	-0.068011016
6	0xbf0276dd	-0.5096262
7	0x3cb9f729	0.022700863
8	0x3bc4d9c7	0.0060074064
9	0xbd9ef6a2	-0.07761885
10	0xbe9f26f4	-0.31084406
11	0xbc96c1e9	-0.01840301
12	0x3ddc25b9	0.107493825
13	0x3e72a16a	0.23694387
14	0x3f0b0124	0.54298615
15	0x3f42c66d	0.76084024
16	0x3e8e52e8	0.27797627
17	0x3da663f5	0.08124534
18	0xbe8e5891	-0.27801946
19	0xbef0dff1	-0.47045854
20	0x3e9286d1	0.28618482
21	0x3e7bf932	0.24606779
22	0xbe08136f	-0.13288663
23	0x3c1704e4	0.009217475
24	0xbe018796	-0.12649378
25	0xbd9a27a4	-0.07527092
26	0xbd30e843	-0.043190252
27	0x3f04288e	0.5162438
28	0x3e8a6165	0.2702743
29	0x3f19c422	0.600649
30	0xbe22400f	-0.15844749
31	0x3a77a073	0.0009446211
32	0x3f360ac0	0.71110153
33	0xbd84b78e	-0.06480323
34	0x3eaeac06	0.34115618
35	0xbede61b4	-0.43433917
36	0xbe4a5bdc	-0.19761604
37	0xbf0d9bbf	-0.55315775
38	0x3f07bcc6	0.5302242
39	0x3eca81b1	0.39552072
40	0x3f64b445	0.8933757
41	0x3e8a6e06	0.27037066
42	0x3ceff56f	0.029291837
43	0xbde96944	-0.11397031
44	0xbe84a170	-0.25904417
45	0x3db9168f	0.09037506
46	0xbea13e93	-0.31493053
47	0xbe892a06	-0.26789874
48	0x3ea57908	0.32318902
49	0xbd353db3	-0.044248294
50	0x3de067e5	0.10957316
51	0x3eff95f0	0.4991908
52	0x3e17804a	0.14795032
53	0x3eb152d1	0.34633496
54	0x3dafb589	0.08579547
55	0x3eb0c81e	0.34527677
56	0xbe21db61	-0.15806343
57	0x3e662497	0.22474895
58	0x3b72b738	0.0037035476
59	0xbf0564e3	-0.52107066
60	0xbc74358e	-0.014905347
61	0x3d378cba	0.04481194
62	0xbe3cd2ab	-0.18439738
63	0xbf09d078	-0.53833723
64	0xbdcf7990	-0.10130608
65	0x3ed3f456	0.4139735
66	0x3d8b5897	0.068040065
67	0x3d2c38bb	0.04204629
68	0xbe6cdfa1	-0.23132183
69	0xbe82c4e8	-0.25540853
70	0x3f417c62	0.7558042
71	0x3ee79a81	0.45235065
72	0xbd178856	-0.036995254
73	0x3e21a97b	0.15787308
74	0xbe013e98	-0.12621534
75	0x3dfe9d56	0.12432353
76	0xbe5623b9	-0.20912065
77	0x3e6d0424	0.23146111
78	0x3dbc81cf	0.092044465
79	0x3db99b39	0.090628095
80	0xbdc85e9a	-0.09783669
81	0x3e687c7f	0.22703741
82	0x3dd9ab93	0.10628428
83	0x3efad78a	0.48992568
84	0x3e18d16e	0.14923641
85	0x3e4fc2b3	0.20289116
86	0x3ecae0bb	0.3962458
87	0xbe88c96e	-0.2671618
88	0x3c829597	0.01594047
89	0xbe583165	-0.21112593
90	0x3ee2f4a5	0.44327274
91	0x3eb49719	0.35271528
92	0xbdc59fdd	-0.09649632
93	0x3ec02150	0.37525415
94	0xbebd2516	-0.36942357
95	0x3ee200fd	0.4414138
96	0x3ed730c1	0.42029384
97	0x3ef42915	0.47687593
98	0xbe5116b0	-0.20418811
99	0x3e429a02	0.19004062
100	0x3f48c703	0.7842867
101	0x3a0a5f99	0.00052785274
102	0x3cdf3390	0.027246267
103	0x3ddfba23	0.10924175
104	0xbde3573c	-0.11100623
105	0xbe1db4ad	-0.15400954
106	0x3e40ca70	0.18827224
107	0xbe943ddf	-0.28953454
108	0x3e8095f9	0.2511442
109	0x3d9d3d7a	0.07677741
110	0x3c5a93c5	0.013340895
111	0xbe469487	-0.19392596
112	0x3e97b610	0.2963109
113	0xbf0cdc01	-0.550232
114	0xbedf98e2	-0.43671328
115	0x3e0f74df	0.14009427
116	0x3df18619	0.11793155
117	0xbbcacd2c	-0.006189009
118	0xbd42ea97	-0.047587004
119	0x3e881a37	0.265825
120	0x3efd9df8	0.49534583
121	0x3e251eb3	0.16124992
122	0x3e956476	0.29178208
123	0x3e4b5e09	0.1986009
124	0xbec15c8e	-0.37765926
125	0x3dff6dc0	0.12472105
126	0xbc84e6e9	-0.016223388
127	0x3eb39f13	0.35082301
128	0x3e289837	0.16464315
129	0x3da96b12	0.08272375
130	0x3eaa464e	0.33256763
131	0x3e0babb6	0.13639721
132	0xbf58a12c	-0.8462093
133	0x3e860552	0.26175934
134	0xbd93747b	-0.07199951
135	0x3f1d6dbe	0.6149558
136	0xbdbaf4d0	-0.091287255
137	0x3f3290d1	0.6975222
138	0x3d6cb874	0.057793096
139	0x3e399b2c	0.181256
140	0x3e5fad66	0.2184349
141	0xbf09d620	-0.53842354
142	0x3e70ffbc	0.23535055
143	0x3e188972	0.14896181
144	0xbde17175	-0.11007968
145	0xbc5ed337	-0.013600162
146	0x3da5844c	0.08081874
147	0x3e3648f6	0.1780127
148	0x3edc120f	0.42982528
149	0xbe4a3750	-0.19747663
150	0xbe6844a0	-0.22682428
151	0x3e107d1d	0.14110227
152	0xbde6a908	-0.11262709
153	0xbda8f696	-0.082501575
154	0xbdc38dc8	-0.09548527
155	0x3d947446	0.0724874
156	0xbedaf72d	-0.42766705
157	0x3e6c7a35	0.23093493
158	0x3efadb29	0.4899533
159	0xbe776d6c	-0.24162835
160	0x3f40cf18	0.75316
161	0x3f1c7eda	0.6113106
162	0x3f147c11	0.5800181
163	0xbf131778	-0.57457685
164	0x3cb266ca	0.02177753
165	0xbe17c484	-0.14821059
166	0x3e03b842	0.12863258
167	0x3f522dfb	0.8210141
168	0x3ce49e62	0.027907554
169	0xbdd55f79	-0.104186006
170	0x3b4eb178	0.0031538885
171	0x3f10ee35	0.56613475
172	0xbe4635ae	-0.19356415
173	0x3e377f9c	0.17919773
174	0x3d9ac2d6	0.07556693
175	0xbf34155d	-0.703451
176	0xbef0a3a9	-0.46999863
177	0x3ecd7f4e	0.40136188
178	0x3ea0aba2	0.31380945
179	0xbd18a07d	-0.03726243
180	0xbda8afa0	-0.08236623
181	0xbe8ff23e	-0.28114504
182	0x3eca7fdd	0.39550677
183	0xbe1fa18d	-0.1558897
184	0xbe7494fc	-0.23884958
185	0xbeaebfb2	-0.34130627
186	0x3e8b6d98	0.2723205
187	0xbecb47d4	-0.39703238
188	0x3d3b28b2	0.045693107
189	0x3da1546d	0.07877431
190	0xbf64d1fd	-0.89382917
191	0x3f24531c	0.64189315
192	0xbea267c7	-0.317198
193	0xbf09b878	-0.537971
194	0xbf000b92	-0.50017655
195	0xbe67d5fe	-0.22640225
196	0xbf0d25af	-0.55135626
197	0x3d22acd4	0.039715603
198	0xbd2a4c13	-0.041576456
199	0x3e39e83c	0.18154997
200	0xbe9532d3	-0.29140338
201	0x3e1c493f	0.15262316
202	0x3deb2148	0.11480957
203	0xbbc02e63	-0.0058649047
204	0x3ecb03bd	0.3965129
205	0x3eda87ab	0.4268163
206	0x3e0966cb	0.13418119
207	0xbec7c232	-0.39015347
208	0xbde91a1f	-0.11381935
209	0xbf8e420b	-1.1113905
210	0xbec99d2e	-0.3937773
211	0xbdd2bb41	-0.10289622
212	0xbd48d73f	-0.0490334
213	0xbedd7e0b	-0.43260226
214	0xbdc4572c	-0.09586939
215	0xbe85b317	-0.26113197
216	0x3ea5e749	0.3240302
217	0x3e8e68eb	0.2781442
218	0x3e94de5a	0.2907589
219	0xbdceae00	-0.100917816
220	0xbd86077e	-0.06544398
221	0x3e66fd30	0.22557521
222	0xbe063b1c	-0.13108486
223	0xbed82623	-0.42216596
224	0x3ea9d79b	0.33172306
225	0x3ecc461b	0.39897236
226	0x3daf8d5d	0.08571885
227	0x3a38c187	0.0007047881
228	0xbeb75533	-0.3580719
229	0x3ccd7573	0.025080418
230	0x3e43e5a4	0.1913057
231	0xbda54d45	-0.080713786
232	0x3e40ff93	0.18847494
233	0xbe6ca596	-0.23110041
234	0xbeecf15c	-0.46277893
235	0xbe7570c8	-0.23968804
236	0x3f981b3a	1.1883309
237	0xbe196335	-0.1497925
238	0xbe4fb5ba	-0.20284167
239	0xbd3dc8df	-0.046334144
240	0xbd84c2cd	-0.06482468
241	0xbe01665a	-0.126367
242	0xbdae68f6	-0.085161135
243	0x3e2cf467	0.16890107
244	0xbe964397	-0.29348442
245	0xbefa7d30	-0.48923635
246	0x3d51bcd9	0.05120549
247	0x3eae7427	0.34072992
248	0xbe4b5a7c	-0.19858736
249	0x3d1e2c75	0.038616616
250	0x3e56e6a6	0.20986423
251	0x3edbda56	0.42940015
252	0x3d0c58a5	0.034264226
253	0x3f3f4a17	0.7472243
254	0x3e985d04	0.29758465
255	0xbe282efe	-0.16424176

tensor_b f4 [1, 300]
0	0x3e4be3e3	0.1991115
1	0x3e3e2044	0.18566996
2	0x3e9829ed	0.29719487
3	0x3f82956e	1.0201852
4	0x3e09847a	0.13429442
5	0x3ee69dc4	0.4504224
6	0x3ef3764c	0.4755119
7	0x3f076a52	0.52896607
8	0x3da38020	0.07983422
9	0x3f1f50e0	0.6223278
10	0x3f70757c	0.93929267
11	0x3f111398	0.5667052
12	0x3d8937f1	0.06700123
13	0x3ee0a37e	0.43874735
14	0x3e514a44	0.20438486
15	0x3ee53e03	0.44773874
16	0x3f1115d6	0.56673944
17	0x3e587d52	0.21141556
18	0x3db7c8df	0.0897386
19	0x3f1b023d	0.6055029
20	0x3f03482e	0.5128201
21	0x3e0b15d7	0.1358255
22	0x3f1811ac	0.59401965
23	0x3f005c75	0.5014108
24	0x3e66d67e	0.2254276
25	0x3f2ccb57	0.6749777
26	0x3d8e426b	0.06946262
27	0x3b544c97	0.0032394284
28	0x3ecdd886	0.40204257
29	0x3ed2755e	0.4110517
30	0x3ea8f1ff	0.32997128
31	0x3e1a868f	0.15090393
32	0x3e85e26c	0.2614931
33	0x3f130a8a	0.57437956
34	0x3f51c534	0.81941533
35	0x3f1de913	0.6168377
36	0x3e4307c6	0.19045934
37	0x3eb272a0	0.34853077
38	0x3ed9119c	0.42396247
39	0x3ee7f233	0.4530197
40	0x3f3786d8	0.7169013
41	0x3f68640e	0.9077767
42	0x3ed69db2	0.41917187
43	0x3e8a2115	0.26978365
44	0xbd9cf82c	-0.076645225
45	0x3f12a94f	0.57289594
46	0x3f060409	0.5234991
47	0x3e8ddda8	0.27708173
48	0x3efd7aef	0.49507853
49	0x3f39a0b0	0.72510815
50	0xbe73108f	-0.23736785
51	0xbec67815	-0.3876349
52	0xbeafd37d	-0.3434104
53	0xbe713196	-0.23554072
54	0xbe57848e	-0.2104666
55	0xbe755cfa	-0.23961249
56	0xbf1a539e	-0.6028384
57	0xbec3b893	-0.38226756
58	0xbe997bdc	-0.2997731
59	0x3dbd2cf4	0.0923709
60	0xbd6d9b87	-0.05800965
61	0xbde38a83	-0.111104034
62	0x3d84e5fe	0.0648918
63	0xbf323564	-0.6961272
64	0xbf51c7de	-0.819456
65	0xbea2d414	-0.31802428
66	0xbe800506	-0.25003833
67	0xbe97cdd4	-0.29649222
68	0xbe90875f	-0.2822828
69	0x3cea7847	0.028621806
70	0xbd879062	-0.06619336
71	0xbedeed2d	-0.43540326
72	0xbe3a6a0f	-0.1820452
73	0xbeb52ccb	-0.35385737
74	0xbf4801d5	-0.78127795
75	0xbe65bbdc	-0.22434944
76	0xbee4a3fa	-0.44656354
77	0xbf1fcfbb	-0.62426347
78	0xbec11c48	-0.3771689
79	0xbe7f07d0	-0.24905324
80	0xbe2ab40c	-0.16670245
81	0x3ba5dce5	0.005061733
82	0xbe0787c2	-0.13235381
83	0xbe81179d	-0.25213328
84	0xbfb24fdd	-1.3930622
85	0xbeec3aeb	-0.461387
86	0xbd4b8af5	-0.049693067
87	0x3d997641	0.07493258
88	0xbd966ffd	-0.07345579
89	0xbe890603	-0.267624
90	0xbde8c0d5	-0.11364905
91	0xbe06648e	-0.13124296
92	0xbee610b8	-0.4493463
93	0xbeb56ac7	-0.35433027
94	0xbe09dcea	-0.13463178
95	0xbf0ebe65	-0.5575927
96	0xbed5470e	-0.41655773
97	0xbe4e509e	-0.2014794
98	0xbe5bde1e	-0.2147145
99	0xbe852e91	-0.2601209
100	0xbd4ae44b	-0.049534123
101	0xbd8bd585	-0.06827835
102	0x3e576436	0.21034321
103	0x3d20a38b	0.039218467
104	0xbd860ba9	-0.06545193
105	0x3e46cb2e	0.19413444
106	0xbd284772	-0.04108376
107	0x3d9a7675	0.07542125
108	0xbe2755f4	-0.16341382
109	0x3b8f3c31	0.004371189
110	0x3c5722c1	0.013130845
111	0x3c84a298	0.016190812
112	0x3e61b81b	0.22042887
113	0xbf0a5a5a	-0.54044116
114	0xbe997332	-0.299707
115	0xbd90bbcc	-0.070670694
116	0x3e65bd5b	0.22435515
117	0x3e4b6a6d	0.19864817
118	0xbdd4d605	-0.103923835
119	0xbd2494ad	-0.04018085
120	0xbd0490b8	-0.032364577
121	0x3da6bb26	0.081411645
122	0xbdcb3bf7	-0.09923547
123	0x3edb5f68	0.42846227
124	0xbce33186	-0.027733576
125	0x3e0a786e	0.13522503
126	0xbe498b9d	-0.19682164
127	0x3dc2a991	0.095049985
128	0xbdd39bb2	-0.10332431
129	0xbe904b1e	-0.2818231
130	0xbd005651	-0.031332318
131	0xbe246425	-0.16053827
132	0x3d5efaa4	0.05443825
133	0x3e85ab12	0.2610708
134	0xbd976f58	-0.07394284
135	0xbe2f498a	-0.17117897
136	0x3d699506	0.057026885
137	0xbdae438e	-0.08508979
138	0xbe16887f	-0.14700507
139	0x3e8a3b5f	0.26998422
140	0x3effe471	0.49978974
141	0xbbf6b52c	-0.0075289216
142	0x3e5e4fdf	0.21710156
143	0x3ea3d709	0.31999996
144	0x3dc55691	0.09635652
145	0xbe6f4328	-0.23365462
146	0x3e0a6366	0.1351448
147	0x3d4a76ab	0.049429577
148	0xbe29b841	-0.16574194
149	0xbdd9d99e	-0.1063721
150	0x00000000	0.0
151	0x00000000	0.0
152	0x00000000	0.0
153	0x00000000	0.0
154	0x00000000	0.0
155	0x00000000	0.0
156	0x00000000	0.0
157	0x00000000	0.0
158	0x00000000	0.0
159	0x00000000	0.0
160	0x00000000	0.0
161	0x00000000	0.0
162	0x00000000	0.0
163	0x00000000	0.0
164	0x00000000	0.0
165	0x00000000	0.0
166	0x00000000	0.0
167	0x00000000	0.0
168	0x00000000	0.0
169	0x00000000	0.0
170	0x00000000	0.0
171	0x00000000	0.0
172	0x00000000	0.0
173	0x00000000	0.0
174	0x00000000	0.0
175	0x00000000	0.0
176	0x00000000	0.0
177	0x00000000	0.0
178	0x00000000	0.0
179	0x00000000	0.0
180	0x00000000	0.0
181	0x00000000	0.0
182	0x00000000	0.0
183	0x00000000	0.0
184	0x00000000	0.0
185	0x00000000	0.0
186	0x00000000	0.0
187	0x00000000	0.0
188	0x00000000	0.0
189	0x00000000	0.0
190	0x00000000	0.0
191	0x00000000	0.0
192	0x00000000	0.0
193	0x00000000	0.0
194	0x00000000	0.0
195	0x00000000	0.0
196	0x00000000	0.0
197	0x00000000	0.0
198	0x00000000	0.0
199	0x00000000	0.0
200	0x00000000	0.0
201	0x00000000	0.0
202	0x00000000	0.0
203	0x00000000	0.0
204	0x00000000	0.0
205	0x00000000	0.0
206	0x00000000	0.0
207	0x00000000	0.0
208	0x00000000	0.0
209	0x00000000	0.0
210	0x00000000	0.0
211	0x00000000	0.0
212	0x00000000	0.0
213	0x00000000	0.0
214	0x00000000	0.0
215	0x00000000	0.0
216	0x00000000	0.0
217	0x00000000	0.0
218	0x00000000	0.0
219	0x00000000	0.0
220	0x00000000	0.0
221	0x00000000	0.0
222	0x00000000	0.0
223	0x00000000	0.0
224	0x00000000	0.0
225	0x00000000	0.0
226	0x00000000	0.0
227	0x00000000	0.0
228	0x00000000	0.0
229	0x00000000	0.0
230	0x00000000	0.0
231	0x00000000	0.0
232	0x00000000	0.0
233	0x00000000	0.0
234	0x00000000	0.0
235	0x00000000	0.0
236	0x00000000	0.0
237	0x00000000	0.0
238	0x00000000	0.0
239	0x00000000	0.0
240	0x00000000	0.0
241	0x00000000	0.0
242	0x00000000	0.0
243	0x00000000	0.0
244	0x00000000	0.0
245	0x00000000	0.0
246	0x00000000	0.0
247	0x00000000	0.0
248	0x00000000	0.0
249	0x00000000	0.0
250	0x00000000	0.0
251	0x00000000	0.0
252	0x00000000	0.0
253	0x00000000	0.0
254	0x00000000	0.0
255	0x00000000	0.0

tensor_w1 f4 [1, 150, 32]
0	0x3e4a141e	0.19734237
1	0x3ee742c3	0.45168123
2	0xbd213934	-0.039361194
3	0x3ecffb90	0.40621614
4	0x3eec6a4c	0.46174848
5	0x3e0f439c	0.13990635
6	0x3d8d68c3	0.06904747
7	0x3ec89b0a	0.39180785
8	0xbc83afce	-0.016075041
9	0x3eaad4ac	0.3336538
10	0xbc276f2c	-0.0102193765
11	0x3e8151b8	0.2525766
12	0x3f2794c5	0.6546138
13	0x3aa2534d	0.0012384445
14	0x3df62299	0.12018318
15	0x3e5476f5	0.20748504
16	0x3f3fa36e	0.7485875
17	0x3f0c7389	0.5486379
18	0x3bbae31a	0.005703342
19	0x3eb685d7	0.35648987
20	0x3ebc02e6	0.3672096
21	0xbe4402c8	-0.19141686
22	0x3e4798c3	0.19491868
23	0x3c3b78a9	0.011442342
24	0xbc3cb4e7	-0.01151774
25	0xbbad4d1a	-0.0052887322
26	0x3efb5fff	0.49096677
27	0x3f312a6f	0.69205374
28	0x3e22bca5	0.15892275
29	0x3e9fdb40	0.31221962
30	0x3f01fd83	0.50777453
31	0x3e0b88b9	0.13626374
32	0x3e3e59a3	0.18588881
33	0x3e4fdc29	0.20298828
34	0x3dd10c41	0.10207415
35	0x3e6189f9	0.22025289
36	0xbddbb119	-0.10727138
37	0x3c548a2f	0.012972399
38	0x3d117145	0.035508413
39	0xbe07458d	-0.13210125
40	0x3d8b7b27	0.06810599
41	0x3ca4c7dc	0.020114832
42	0xbd46b28a	-0.048510112
43	0x3c4d1de4	0.0125193335
44	0x3d609e1f	0.054838296
45	0xbec244d8	-0.3794315
46	0x3de05524	0.10953739
47	0xbda8f0a0	-0.082490206
48	0x3de37348	0.111059725
49	0xbd1cbef2	-0.038268037
50	0x3d36f9f8	0.044671983
51	0xbde5d0bb	-0.11221453
52	0x3bc7a4ce	0.0060926443
53	0x3c699fab	0.014259259
54	0x3de12b91	0.10994638
55	0x3f80cf03	1.0063175
56	0x3d761c95	0.06008585
57	0x3eb8dec0	0.36107445
58	0x3ea14b0a	0.31502563
59	0x3c64762d	0.013944191
60	0xbdc271df	-0.094943754
61	0x3eb8944b	0.3605064
62	0x3caca610	0.021075279
63	0xbe144933	-0.14481048
64	0x3f2b454c	0.66902614
65	0xbe628d7d	-0.22124286
66	0x3f93f9d9	1.1560622
67	0xbd842577	-0.06452458
68	0x3edd501d	0.43225184
69	0x3e19a181	0.15003015
70	0xbcf1dcb4	-0.029524185
71	0x3d2aa0a0	0.04165709
72	0x3e08a966	0.1334587
73	0x3d88a5a4	0.066722184
74	0x3ed09c1d	0.40744105
75	0x3ea1686a	0.31524974
76	0x3e97b8e7	0.29633257
77	0x3f0b308e	0.54370964
78	0x3e6f54d2	0.233722
79	0x3f298134	0.66212773
80	0x3f143d24	0.57905793
81	0x3d515c06	0.05111315
82	0x3eb7e0f5	0.35913816
83	0x3e502731	0.2032745
84	0x3e91bef1	0.2846599
85	0x3f0a2289	0.53958946
86	0x3f79b3ec	0.97540164
87	0x3f3de330	0.74174786
88	0x3f0032cd	0.50077516
89	0x3df366ec	0.11884865
90	0x3ef845d5	0.48490778
91	0xbeb1e694	-0.3474623
92	0xbf3e150f	-0.7425088
93	0x3f301685	0.6878436
94	0xbc82a79e	-0.015949067
95	0xbf0dcdea	-0.55392325
96	0xbe2d5f40	-0.16930866
97	0x3e33187d	0.1748981
98	0x3e5f07ec	0.21780366
99	0x3dc9fef7	0.09863084
100	0xbcfb24dc	-0.030657224
101	0x3f547cdf	0.8300304
102	0x3ed8143a	0.42202932
103	0x3e5c6656	0.21523413
104	0xbde5f3f4	-0.11228171
105	0x3f254cf9	0.64570576
106	0xbe57a545	-0.21059139
107	0x3f0a1c26	0.539492
108	0xbef6c044	-0.48193562
109	0xbe998db0	-0.2999091
110	0x3ca30804	0.019901283
111	0x3e526bd5	0.20548947
112	0x3ec8da45	0.39229026
113	0x3f65dbd5	0.8978856
114	0x3e70e0ed	0.23523302
115	0xbdcaecf3	-0.09908476
116	0x3f6d057c	0.92586493
117	0x3d8daef7	0.069181375
118	0xbe17f87c	-0.14840883
119	0x3eb23241	0.34803966
120	0xbe4d2b15	-0.20035966
121	0x3f0c7f97	0.54882187
122	0x3cf5ae3e	0.029990312
123	0x3e1486cc	0.14504546
124	0x3f1244e6	0.5713638
125	0xbc0e0c9a	-0.008669997
126	0x3f54a106	0.830582
127	0xbd995c70	-0.07488334
128	0xbdb04869	-0.08607561
129	0x3e2bdf5d	0.16784425
130	0x3e10b801	0.14132692
131	0x3e34050b	0.17580049
132	0xbd1869a6	-0.03721013
133	0x3fa2a4f7	1.2706593
134	0x3e9723eb	0.2951959
135	0x3d35d1b8	0.044389457
136	0xbe01e99f	-0.12686776
137	0xbd1d6599	-0.03842697
138	0x3e9489b0	0.29011297
139	0xbce6243e	-0.028093453
140	0x3fd013b7	1.6256016
141	0x3c9efdc3	0.019408112
142	0x3f2016bf	0.6253471
143	0x3dbfc614	0.09363952
144	0x3d45b584	0.04826881
145	0x3d88e658	0.066845596
146	0x3e91805b	0.2841824
147	0x3de9d008	0.11416632
148	0xbc978bed	-0.018499339
149	0x3d8f54f4	0.069986254
150	0x3d9b1545	0.07572416
151	0x3f8708ec	1.0549598
152	0xbe2b6dd1	-0.1674111
153	0x3e182b67	0.14860307
154	0x3f16981b	0.58825845
155	0x3e602637	0.21889578
156	0x3f7c220a	0.9848944
157	0x3d8195d9	0.06327409
158	0xbc72e582	-0.014825227
159	0x3e93bc28	0.2885449
160	0xbdd7cfb1	-0.10537661
161	0x3e84457b	0.2583426
162	0xbe4b97c8	-0.19882119
163	0x3ef27b0d	0.47359505
164	0xbe55b06b	-0.2086808
165	0xbbf1730b	-0.0073684505
166	0x3e4cee7c	0.2001285
167	0x3de4e96a	0.11177333
168	0x3cb559dc	0.022137575
169	0x3a85c4ed	0.0010205783
170	0x3e88dd98	0.26731563
171	0x3c02a9c5	0.0079750465
172	0x3c2aeb71	0.01043211
173	0x3df96642	0.12177707
174	0x3d53c07e	0.051697247
175	0x3e498e01	0.19683076
176	0xbdf8fc35	-0.1215748
177	0x3d2a7987	0.041619804
178	0x3df034e9	0.11728842
179	0x3e82960d	0.25505105
180	0x3ce9eb5c	0.02855461
181	0xbef37fa0	-0.47558308
182	0x3f2a552d	0.6653622
183	0x3ef9450e	0.48685497
184	0xbed0be10	-0.40770006
185	0x3f048fda	0.51782
186	0xbe1a7e6b	-0.15087287
187	0x3e6741ab	0.22583644
188	0x3ea89037	0.32922527
189	0x3e206852	0.15664795
190	0x3c4ebfc9	0.012618967
191	0x3f021172	0.5080787
192	0x3c922db6	0.017844062
193	0x3c63a32c	0.013893884
194	0x3e0a6196	0.13513789
195	0xbd9e81e1	-0.07739616
196	0xbde80ece	-0.11330949
197	0xbcff22a8	-0.031144455
198	0x3e7be63a	0.24599543
199	0x3dd1f27e	0.1025133
200	0xbdc9d019	-0.098541446
201	0xbd4cc22d	-0.049989868
202	0xbdd2d248	-0.10294014
203	0xbd908458	-0.070564926
204	0xbc397860	-0.011320204
205	0x3dfa7d00	0.12230873
206	0x3d9caf51	0.076506265
207	0xbda75a8e	-0.08171569
208	0xbe5e1c96	-0.21690592
209	0xbd4f0dbc	-0.050550207
210	0x3df9d77a	0.12199302
211	0x3dc6ab06	0.09700589
212	0xbcfc0777	-0.030765278
213	0xbd5417cd	-0.05178051
214	0x3dadebc5	0.08492235
215	0x3ee12404	0.4397279
216	0xbe6942ce	-0.2277939
217	0x3dd0a6fd	0.101881005
218	0xbd5caef7	-0.053877797
219	0x3eb504df	0.3535528
220	0x3f1ef421	0.6209126
221	0x3e2d97fd	0.1695251
222	0xbbf17507	-0.007368687
223	0x3eb4bc93	0.3530012
224	0xbeccd0b9	-0.40002993
225	0x3f63bb2c	0.88957477
226	0xbef79264	-0.48353875
227	0x3e22467f	0.15847205
228	0x3e5848dd	0.21121545
229	0x3ca5e292	0.020249639
230	0xbd4531c7	-0.048143174
231	0x3f45d3f4	0.7727654
232	0x3e29eb33	0.16593628
233	0x3d6078cb	0.054802697
234	0x3ef7d940	0.48407936
235	0x3ac4e8aa	0.0015022953
236	0x3dbfa13c	0.09356925
237	0x3ed27a26	0.41108817
238	0x3e9921ff	0.2990875
239	0x3e73d90d	0.23813267
240	0x3f127ca7	0.57221454
241	0x3d57e4f5	0.052708585
242	0x3d4a048f	0.049320754
243	0x39093242	0.0001308406
244	0xbd11b0ae	-0.035568886
245	0xbe8f97ab	-0.280454
246	0xbdb607be	-0.088881955
247	0xbd71f736	-0.05907365
248	0xbf270170	-0.6523657
249	0xbe82869b	-0.2549332
250	0x3f296593	0.66170615
251	0x3f5dd419	0.8665176
252	0xbefc4201	-0.49269107
253	0xbed64ff0	-0.41857862
254	0x3e193974	0.14963323
255	0x3f47776b	0.7791659

tensor_r1 f4 [1, 150, 50]
0	0xbee7cf71	-0.45275453
1	0x3d4eaaf6	0.05045601
2	0xbd5afdfe	-0.053464882
3	0xbcc3a592	-0.023882661
4	0x3de4b666	0.11167602
5	0xbd9c6dae	-0.07638107
6	0x3c240866	0.010011768
7	0xbe06155c	-0.13094085
8	0xbe918c47	-0.28427336
9	0x3daa08b3	0.083024405
10	0xbe9e387e	-0.30902475
11	0x3e0a7ba4	0.13523728
12	0xbe74bb4a	-0.2389957
13	0x3d3a73c5	0.045520563
14	0xbee419e8	-0.44551015
15	0x3c58cef4	0.013232935
16	0x3f196ea1	0.5993443
17	0x3e69803f	0.22802828
18	0xbe098214	-0.13428527
19	0xbea746df	-0.32671258
20	0xbbbf8ec0	-0.0058458745
21	0xbe156658	-0.14589822
22	0x3e136ebd	0.14397712
23	0x3dacee63	0.08443906
24	0xbe2e57fe	-0.17025754
25	0xbdcbaf4f	-0.09945547
26	0x3db8c728	0.09022361
27	0x3d9565d9	0.072948165
28	0xbd969479	-0.07352538
29	0xbe5ce807	-0.21572886
30	0xbe29c240	-0.16578007
31	0xbc972401	-0.018449785
32	0xbdfde3ac	-0.123969406
33	0xbe5a7e26	-0.21337184
34	0x3d5b27c5	0.053504724
35	0x3e051b3e	0.12998673
36	0x3e0e5b1c	0.13901943
37	0xbe74bd5f	-0.23900364
38	0xbe41340e	-0.18867514
39	0xbe9cce7b	-0.30626282
40	0x3e42d67b	0.1902713
41	0xbd29128f	-0.041277464
42	0xbe2797d9	-0.16366519
43	0xbddda4e0	-0.10822463
44	0xbcd03746	-0.025416981
45	0xbe21f5a4	-0.1581636
46	0xbd29445e	-0.041324966
47	0x3ecd4e81	0.40098956
48	0xbd954205	-0.07287983
49	0xbe405f98	-0.18786466
50	0x3dc0953f	0.094034664
51	0xbe0f6bb3	-0.14005928
52	0x3e510e24	0.2041555
53	0xbf4474e4	-0.7674086
54	0xbd9c54a5	-0.07633332
55	0x3e74fc1a	0.23924294
56	0xbe4f2139	-0.20227517
57	0xbe3da3a6	-0.18519458
58	0x3e724e5c	0.23662704
59	0x3e1eef14	0.15520889
60	0xbd885761	-0.06657291
61	0x3ec77216	0.38954228
62	0xbd888ce6	-0.06667499
63	0xbe12ace7	-0.1432377
64	0xbe5f87ce	-0.21829149
65	0x3e3456da	0.17611256
66	0xbd0247aa	-0.031806625
67	0x3e103558	0.14082849
68	0x3e8cdcc8	0.27512193
69	0xbe753f4e	-0.2394993
70	0x3e53e3cb	0.20692365
71	0x3e6105f2	0.21974924
72	0x3dbc65ec	0.091991276
73	0xbdb2fcc0	-0.087396145
74	0xbd458ebc	-0.048231825
75	0xbcdd46a3	-0.027011221
76	0x3f5c5142	0.8606149
77	0x3ec993a0	0.3937044
78	0xbeec36cb	-0.46135554
79	0x3f0b1d3f	0.543415
80	0x3e2948d8	0.16531694
81	0x3eca4619	0.39506605
82	0x3e97e1b2	0.2966438
83	0x3df0158b	0.11722859
84	0x3e5b1bcf	0.21397327
85	0xbedb625b	-0.42848477
86	0xbf37eddc	-0.7184732
87	0xbee9725e	-0.45595068
88	0xbafab979	-0.0019128761
89	0xbe361095	-0.17779763
90	0xbe16a586	-0.1471158
91	0x3ebc1dc0	0.36741447
92	0xbe971212	-0.29505974
93	0xbe056b63	-0.13029246
94	0xbe2e9b83	-0.1705151
95	0x3e05f1e0	0.13080549
96	0x3dd9b2a9	0.1062978
97	0x3e13fa58	0.14450967
98	0xbd2ae63e	-0.041723482
99	0x3dce3c5d	0.10070107
100	0xbe8c0825	-0.27349964
101	0xbebb6cd3	-0.36606464
102	0x3ed96d10	0.4246602
103	0xbdb6b46b	-0.08921131
104	0x3da4049f	0.08008694
105	0xbbc0c14b	-0.0058824173
106	0xbd485e0c	-0.048917815
107	0xbdd61f18	-0.104551494
108	0x3ea6e0a5	0.32593265
109	0x3e3bd688	0.18343556
110	0xbe260866	-0.16214141
111	0xbf509252	-0.8147327
112	0xbe5ba3ba	-0.21449175
113	0xbdbd93c0	-0.09256697
114	0xbe1db8bc	-0.15402502
115	0xbeb2ba25	-0.34907642
116	0xbef164db	-0.4714726
117	0x3e63a70b	0.2223169
118	0xbed4f15b	-0.4159039
119	0xbdf042d5	-0.11731497
120	0x3f160191	0.5859614
121	0x3e19b582	0.15010646
122	0x3e32ee31	0.17473675
123	0xbef646e8	-0.48100972
124	0xbe4f8dab	-0.20268886
125	0xbe4dcd78	-0.20097911
126	0x3e172b1e	0.14762542
127	0xbc8e0344	-0.017335542
128	0xbe74760b	-0.23873155
129	0x3ec60716	0.3867728
130	0x3da66b8a	0.0812598
131	0xbeec3623	-0.46135053
132	0xb9618179	-0.00021505904
133	0x3da77962	0.08177449
134	0x3deb76a2	0.11497237
135	0x3e618704	0.2202416
136	0xbdc5d411	-0.09659589
137	0xbdc1b3d4	-0.094581276
138	0x3e4ebb77	0.201887
139	0xbd52f3b2	-0.051501937
140	0xbe550d8d	-0.2080595
141	0x3e9079ee	0.28218025
142	0x3cf72382	0.030168299
143	0xbe10a1e2	-0.14124253
144	0x3ce781f3	0.028260207
145	0xbef50192	-0.4785276
146	0x3d0a6b3f	0.033793684
147	0xbddd77db	-0.10813876
148	0xbf73c788	-0.95226336
149	0xbe39de6b	-0.18151252
150	0xbd9a21c6	-0.07525973
151	0x3de96ef3	0.11398115
152	0xbd085b0a	-0.033289947
153	0xbdbd13f1	-0.09232319
154	0x3d857932	0.06517257
155	0x3e58c46f	0.21168683
156	0x3c9241ed	0.017853701
157	0x3df39cac	0.11895117
158	0xbdfd9d5e	-0.12383531
159	0x3e0c9f41	0.13732626
160	0xbe879bb2	-0.26485974
161	0x3d75c211	0.05999953
162	0xbeb08412	-0.34475762
163	0xbd91ef08	-0.0712567
164	0xbe9295de	-0.28629965
165	0xbe9acd48	-0.30234742
166	0xbe6a10a2	-0.22857907
167	0x3e0f6cb4	0.1400631
168	0x3e263dcd	0.16234513
169	0x3df5634e	0.119818315
170	0x3bc6c3f8	0.0060658418
171	0x3d221fa1	0.039580945
172	0x3e424978	0.18973339
173	0x3dbd0f18	0.092313945
174	0xbe91e90f	-0.28498122
175	0x3db7c244	0.089726
176	0x3e9df062	0.3084746
177	0x3cf7657e	0.030199762
178	0xbe9575d3	-0.29191455
179	0xbea706e1	-0.32622436
180	0xbd474e38	-0.04865858
181	0x3eecd015	0.46252504
182	0x3e07ec11	0.13273646
183	0xbe3c6c3f	-0.18400668
184	0x3d813f29	0.06310875
185	0xbe913e76	-0.28367966
186	0xbc7473db	-0.0149202
187	0xbe7c294d	-0.2462513
188	0x3d0392d4	0.032122448
189	0xbd782389	-0.060580764
190	0xbe8053bc	-0.25063884
191	0xbd965aef	-0.07341563
192	0x3dd6a7f7	0.104812555
193	0x3e027534	0.12740022
194	0xbe30e28d	-0.17273922
195	0xbe52ddf4	-0.20592481
196	0xbe0d2a6d	-0.13785715
197	0xbe24aadb	-0.16080801
198	0x3cb20f65	0.021735856
199	0xbdc5d9d1	-0.09660686
200	0xbdfe7aaf	-0.12425744
201	0xbe639beb	-0.22227447
202	0x3d448fa8	0.047988564
203	0xbf550603	-0.832123
204	0xbf2bacb4	-0.670604
205	0xbce29cae	-0.027662601
206	0xbd878ced	-0.06618676
207	0x3df714b1	0.120644934
208	0x3e11582b	0.1419379
209	0xbf1c8c44	-0.6115153
210	0xbeee5439	-0.46548632
211	0x3f12b105	0.5730136
212	0x3d9edd9f	0.077571146
213	0x3c6117f3	0.01373862
214	0xbf20b121	-0.6277028
215	0x3d44cfa1	0.048049573
216	0xbe20ac70	-0.1569078
217	0x3d899010	0.06716931
218	0xbc7b3317	-0.015332005
219	0xbe8c4bf5	-0.274017
220	0x3d73bad1	0.059504334
221	0xbc81fd74	-0.015867926
222	0xbf0f65df	-0.5601482
223	0xbe759e20	-0.23986101
224	0x3dbe269a	0.092847064
225	0x3bed42d0	0.0072406307
226	0x3d0a7891	0.033806387
227	0xbd47dd7e	-0.048795216
228	0xbea12ef0	-0.31481123
229	0xbd3d58ae	-0.04622715
230	0x3b179ddb	0.002313486
231	0x3e8af1ae	0.27137512
232	0xbeb905b1	-0.36137155
233	0x3e840577	0.2578542
234	0x3f24906e	0.6428288
235	0x3f1f898c	0.62319255
236	0xbe2f6fff	-0.17132567
237	0xbe3baa16	-0.18326601
238	0x3dc69e0e	0.09698115
239	0xbe1c2505	-0.15248497
240	0x3d7e0b5d	0.062022556
241	0x3df01db8	0.117244184
242	0xbe4ee5fb	-0.20204918
243	0xbf0bb53e	-0.5457343
244	0xbf18d5fa	-0.597015
245	0xbe8a3266	-0.26991576
246	0xbb453bcf	-0.0030095463
247	0x3de74a95	0.11293522
248	0xbcff41d0	-0.031159312
249	0xbddcf5cb	-0.10789069
250	0xbf8a70b8	-1.0815649
251	0x3e909061	0.28235152
252	0x3e332bbd	0.17497154
253	0xbdfa051d	-0.122080065
254	0xbe16e1a8	-0.14734519
255	0x3dfe30e7	0.12411671
