DeepDoubleX/102X/V02/CvB.onnx (onnx, 237799 bytes, 35 tensors)

ID_pred/kernel:0 f4 [100, 2]
00000000: f592 e3bd 7834 003e b2c6 edbb 460b 6abe
00000010: f1e6 093e 134e 7e3d cd4f df3d 17d8 33bd
00000020: dcfe 063e d191 91bd fc2f c23d 0e78 79bd
00000030: 7675 11bc 9b7b 493e 1aec 37bd ce55 963c
00000040: 6729 91bd 4dd2 cd3a 0162 4dbd 0676 763d
00000050: 1c06 c2bd fb23 7b3e 2e92 cf3d b95e 70be
00000060: 83e9 983d 3cec 263e cac7 08be 8464 a63e
00000070: f624 1a3e 28e2 19bd 9a70 12be b92c 8cbd
00000080: 95c5 dabd 87e6 14bd eac5 51be e151 003e
00000090: 4c69 b9bd 3e38 2cbe d06f 953c cfe7 dc3d
000000a0: 0756 633c f6c4 69bd 3423 86bd 3c54 74be
000000b0: 8021 d0bc 904d b73d 00a6 b13b 6fce 963e
000000c0: 6c1e 3ebe 04fd e5bd 3618 08be b1eb b03c
000000d0: 1666 bbbd 365a 9fbc cd3a 7d3d 7bdc 7bbd
000000e0: 1942 afbd ce40 9c3d 25d8 d63d f5ce 79be
000000f0: 7b50 ab3d 1842 f2bd 5779 12bd e7f8 f8bd
00000100: f40d a0be 14c3 0b3e 476d 413e f325 36be
00000110: 6734 293e c3cd cdbd 71ec 773e 338b 233d
00000120: 00eb bcbd 400d 773d 9b1e 05be f47d d33d
00000130: 846b b73d a8e5 0abd e308 5abd 516e 533c
00000140: 6688 97bd e6db 183e e0e2 d1bd 4963 34be
00000150: 3496 d63d aad5 c9bd 1c8f 66bd 34dc cc3b
00000160: af7f 703c 93f5 b93d e7b1 01bd 2698 9c3e
00000170: a2c6 cbbd b108 e63d 298a c63d b6aa de3c
00000180: 47de 5d3e 7d21 7fbd dbd8 05be 7a0b 093c
00000190: 456b dabd bab0 04bd fb07 1f3c 8af8 a73d
000001a0: 375e 373d ad5d 04be 8121 1bbd 5d52 dd3d
000001b0: b33b 0abe be16 8dbd b3f5 243e 95ee aa3d
000001c0: dcb1 65be 7e3f 673e cb5b 2dbd 8602 3e3e
000001d0: c8b9 30be 82aa f83c 6e07 7b3d 3c5c 10be
000001e0: e866 34be 3233 9cbd 3be5 543d fb7d 06bd
000001f0: 28e0 4bbd 011f 17be 82fe a93d 02d3 7fbd
00000200: 9b25 9bbc a22e 03be cffa a03d 4a70 8dbb
00000210: c976 9a3d cb59 edbc 8a67 3f3e 5851 ce3d
00000220: b0f9 0dbd 99e5 ebbd 8f0e fcbd 49be 1a3e
00000230: 23af 713e 3936 763d b8f1 6bbd 2f35 4d3d
00000240: 99b1 cabd c6c9 813d 8895 78bd 69ee 373d
00000250: 181a 81be 9d63 8b3e c029 e5bd 9d3f 063e
00000260: 31fb d3bd ef5d b5bb e629 873d a7be 78bc
00000270: 5a84 48be 72af 523e e39c 053d 0d43 4ebe
00000280: cd03 0abc 1f50 1ebe f070 adbd fa3c 8d3c
00000290: 4370 d5bd db1a 3a3c 6750 693d 57b2 12be
000002a0: 8f0e b0bd c5ac 33be ba99 1b3e 25bd 6f3a
000002b0: a09a 2b3c c0ce dbbd 213f ea3d 4a2b f23c
000002c0: b5c1 cdbc dd36 c9bd f80b bebd 41ce 30be
000002d0: 1c29 3bbe 9744 26bd b386 903c 322b d33d
000002e0: 3066 8d3d a737 3cbd 376a 363e 31ac fc3c
000002f0: 0baf 38bd 6af2 603e 5c16 87bd c82a 2fbe
00000300: c6a3 f0bc 1ebc cdbd a716 9c3d dea4 f2bd
00000310: d9b2 6a3e d1bf 2a3d 9fb1 863e b62b 87be
-0.11112014 0.12520015 -0.0072563523 -0.22855863 0.13467003 0.062086176 0.10903893 -0.04390725
0.13183159 -0.071078904 0.094818085 -0.06090551 -0.0088781025 0.19676058 -0.0449029 0.018351462
-0.07087975 0.0015702933 -0.050142292 0.06017115 -0.094738215 0.24525444 0.101353034 -0.23473634
0.07466414 0.16301054 -0.13357463 0.32498562 0.15053162 -0.037569195 -0.14300767 -0.06844468
-0.10682217 -0.03635266 -0.20485654 0.12531234 -0.09053287 -0.1681833 0.018241793 0.107864015
0.013875491 -0.057072602 -0.06549683 -0.23860258 -0.025406599 0.08950341 0.0054214 0.2945437
-0.18566293 -0.112298995 -0.13290486 0.021596761 -0.09150331 -0.019452196 0.061823655 -0.061489563
-0.08557529 0.07629548 0.10490445 -0.24395354 0.0836496 -0.11829013 -0.03576025 -0.12156849
-0.31260645 0.13648635 0.18889342 -0.17787914 0.16523896 -0.100490116 0.24211289 0.039927673
-0.0922451 0.06031537 -0.12999956 0.10326758 0.08956054 -0.033910424 -0.05323113 0.012904719
-0.07399063 0.14927635 -0.10248351 -0.17616 0.10477868 -0.09855206 -0.056288823 0.006251836
0.01467888 0.09080043 -0.0316638 0.3058483 -0.099499956 0.112321265 0.09694321 0.02718101
0.21666823 -0.062287796 -0.13071005 0.008364553 -0.10664991 -0.032395102 0.009706493 0.08201702
0.044767585 -0.1292636 -0.03787375 0.10806725 -0.13499336 -0.06889103 0.16109352 0.08346287
-0.22431129 0.22582814 -0.04232387 0.1855565 -0.1725837 0.030354742 0.061286382 -0.14097685
-0.1761738 -0.07626952 0.051976424 -0.032834988 -0.04977432 -0.14757921 0.08300497 -0.062457092
-0.01893883 -0.12810758 0.07860338 -0.0043163644 0.07542188 -0.02897348 0.18691841 0.10074109
-0.03466195 -0.11518402 -0.12307464 0.1511165 0.23601966 0.060110305 -0.057603568 0.050099548
-0.09897155 0.06337313 -0.06068948 0.0449051 -0.2521522 0.27224436 -0.11189604 0.13110204
-0.10350645 -0.0055348794 0.06599788 -0.015182174 -0.19581738 0.2057474 0.032620322 -0.20142765
-0.008423758 -0.15460251 -0.08468807 0.01724099 -0.10421803 0.011358942 0.056961443 -0.14325844
-0.08596527 -0.17546375 0.15195361 0.0009145311 0.010473877 -0.10732794 0.11437822 0.029561657
-0.02511678 -0.098249175 -0.092796266 -0.1726618 -0.182774 -0.040592756 0.017642355 0.10310973
0.06904256 -0.04595151 0.17813955 0.030843826 -0.04508881 0.21967474 -0.065960616 -0.17106164
-0.029374968 -0.10045646 0.07621508 -0.11847852 0.22919787 0.041686837 0.2630739 -0.26400536

ID_pred/bias:0 f4 [2]
00000000: fd31 863e 7531 86be
0.26210013 -0.26209608

fc1_relu/kernel:0 f4 [155, 100]
00000000: cad8 b3be 4335 9b3d d452 60bd 30e5 d7bc
00000010: f499 3cbe 5cd3 f6bd 3994 863c 4aaa fdbc
00000020: 807a 14bd 49b7 ddbc 6333 623f b358 ea3c
00000030: aeaf 49be 5ef7 bbbd 2bc8 cf3d 71b5 c53d
00000040: 59d8 82be 8cb4 1f3d 0972 29be ce6a d13d
00000050: fe58 89bc a0b6 67bd f1fe febe 96cf 9dbc
00000060: 4888 ad3d 10f0 eebd ee6c 21bd d299 cc3a
00000070: 8b9e 4bbd a169 163e 36e1 063e 31e9 753d
00000080: bbc3 bcbc 6861 ecbe 9f7e 67bf 5f9a 4e3e
00000090: 41bf 7a3e 82cd 2bbe 789b a23d 1a56 07bd
000000a0: ac0f 80be cb93 14bd 8477 053d 1462 943d
000000b0: efda bbbd 6d94 09bd 0d3b 4c3d 43a4 d63c
000000c0: 846b 94b8 7f4e 93bc 338a 7d3d 3ed9 55bd
000000d0: 3e2e c53c 2f1a 02bb a9cd e13d 2db2 f43d
000000e0: bf3a b7bd a8e3 2fbf eb7b 8abe 94f7 af3d
000000f0: e240 03be b1af 12be eac4 b33b 7e37 233d
00000100: f62d 093e 3949 39bd 5c07 a23d 6742 603e
00000110: 1058 11bd c1c5 993d a1be b9be 235e 67be
00000120: 3d57 3ebd 7a55 dcbe 970e 6e3a dbd7 b0ba
00000130: 9099 8ebe 7323 9fbc 1928 a2bc 59e5 863d
00000140: 9cbc b43c 899c c23d fd39 313e abd0 af3d
00000150: a62d 82bd 30c4 89bd 53c4 c83c 78fa 2e3b
00000160: ce3d c9bc 20a3 9dbd 9007 c8bd 1bde 89bd
00000170: a699 c33d 5ba2 443c 8202 3d3f 90f1 febd
00000180: ce3b b1bc f251 c5bb 73ff c3bd 7e3b 8f39
00000190: 29fa 26bd c7a2 da3d 0b5b 9dbd 9a0f 923e
000001a0: 0f0a 0e3f 2908 143e 1b9b 273d 53f6 95bd
000001b0: 1ca0 1bbe 16d1 ba3d 2908 ba3d d3fb a6bd
000001c0: 0a87 cebd 513a 553f a037 c6bd a6b6 113d
000001d0: f0c2 7fbd 89d5 a23d effa f13c cff8 46bd
000001e0: 6829 65be c5e6 10bd 82fa 873b 2ec7 103e
000001f0: 6040 09be f9db 813d 0641 2a3d 7a56 40be
00000200: ef40 ef3c 3969 b23e 2c91 cc3c 533d 503c
00000210: 9515 493d e14b f0bd f4d8 01be 2343 783d
00000220: e07d f13d d982 83be f7cb 2e3e 4b7e 9fbc
00000230: 325e 853d cba1 bcbb 4bb3 243e c105 1fbd
00000240: ab71 fbbc 6d04 2a3f 470f 003e b8de b43c
00000250: 6cf5 2a3e 636d 913c 8128 dabb 06c5 9e3d
00000260: 907d bf3d 6cfc 973e 0423 0abe 38df 983d
00000270: e982 033f fa8b 86be 1cb0 563e c9da ef3c
00000280: d851 543c 55a0 6f3d 32d8 13bd 9489 50be
00000290: be44 84be 9e06 a7bd 25e4 31bc 0b23 3c3e
000002a0: d209 a43e 5968 f43d 3b92 dabc 3736 9dbe
000002b0: 3149 d2be db28 093c ac40 2f3e 1da5 49be
000002c0: aa3b 2fbe 9b4d 90bc b77a 0a3e 9d40 ccbc
000002d0: 1b3c be3b 5c4a bc3d c491 20be 5195 0cbd
000002e0: ec40 dcbc 3a06 853e 6670 473e a249 d7bd
000002f0: 3740 84bb e9f7 1bbd ecc6 bbbd ea5a 3bbe
00000300: ec86 343e 7726 bb3e 106f ff3d d6d4 0b3a
00000310: f272 83bd e01c 343e 8b9c 463e edd1 503f
00000320: 6331 863d f938 7bbe 3dc7 b4bc 63ac 15be
00000330: 8d60 aebd 50db cabd 6fdf 35bb a804 343d
00000340: 6559 813e a747 e7bd 29ac 88be 51f8 adbd
00000350: f85d 1d3e 2c34 843e d37d b23d 4e1b c9bd
00000360: 3046 1b3d bbf5 ccbd e244 c8bd 97c7 ea3d
00000370: 3c7a 563d 4c20 ddbc 7843 18be c1be c4bd
00000380: 4fa7 a73e 7146 8cbd 5c41 e2bd 5544 e53b
00000390: a089 833d 4828 1bbf ab2f d8bd ed8b cdbd
000003a0: eec3 c73d 6025 633e 365a 313e 3bfc 903b
000003b0: 6bfd 45be 2591 4b3e 3e48 f9bd 55da 143e
000003c0: 2881 c3bd b585 08bd 6bdf 2cbe 9b1c eb3d
000003d0: f0fa 87bd 5612 b33e e44a a0bd 9f07 e4bc
000003e0: e9d1 7dbe a5bf be3d a785 a13d de2a ccbd
000003f0: c24a af3b 6d4d 06bf 467c 843e 0ca6 2fbd
-0.35126334 0.07578518 -0.05476649 -0.026354402 -0.18418103 -0.12052032 0.0164281 -0.03096499
-0.036249638 -0.027064936 0.8835966 0.028606748 -0.19695923 -0.09178041 0.10145601 0.09653748
-0.25555685 0.038990542 -0.16547407 0.102254495 -0.016766068 -0.05657065 -0.4980388 -0.019264024
0.08473259 -0.11666882 -0.039410524 0.0015609807 -0.049711745 0.14688732 0.13171849 0.06003684
-0.02304255 -0.46168065 -0.90427583 0.20176075 0.2448702 -0.16777614 0.079398096 -0.033041097
-0.25011957 -0.03627376 0.032584682 0.072452694 -0.09172618 -0.033588815 0.049861003 0.026201373
-7.077216e-05 -0.017981766 0.061899375 -0.05220913 0.024069902 -0.0019852032 0.11025555 0.11948047
-0.08946752 -0.6870675 -0.27047667 0.08592144 -0.1281772 -0.14324833 0.0054861205 0.039847843
0.13396439 -0.045235846 0.0791156 0.2190033 -0.035484374 0.07508422 -0.3627825 -0.22594504
-0.046469916 -0.43033963 0.00090811535 -0.0013492064 -0.27851534 -0.019426083 -0.01979451 0.06586713
0.022062592 0.09502513 0.17307277 0.08584722 -0.06356363 -0.06726873 0.024507677 0.0026699584
-0.024565604 -0.07697129 -0.097670674 -0.067318164 0.095507905 0.012001599 0.7383195 -0.12448418
-0.021634962 -0.0060217315 -0.095702074 0.0002731941 -0.040765915 0.106755786 -0.07683381 0.28527528
0.554841 0.14456238 0.040919404 -0.07322373 -0.15197796 0.09121911 0.09083588 -0.081535004
-0.100843504 0.8329211 -0.096785784 0.035574578 -0.062441766 0.07950885 0.0295386 -0.048577126
-0.22379076 -0.03537633 0.004149736 0.14138481 -0.13403463 0.063407846 0.041565917 -0.18782988
0.029205767 0.34845904 0.024971567 0.012709933 0.049092848 -0.11733223 -0.12680417 0.0606109
0.11791587 -0.25685766 0.17069994 -0.0194694 0.06512107 -0.005756592 0.1608402 -0.038823847
-0.03069385 0.66413003 0.12505828 0.022078857 0.16695184 0.017752355 -0.0066576605 0.07752423
0.09350121 0.2968477 -0.1348992 0.074644506 0.5137163 -0.2627867 0.20965618 0.02927913
0.012958966 0.058502514 -0.03609485 -0.20364982 -0.25833696 -0.08155559 -0.010857617 0.18372743
0.32038742 0.11933965 -0.026681056 -0.30705425 -0.41071466 0.008371557 0.17114514 -0.19691892
-0.17112604 -0.01761513 0.13523374 -0.024933154 0.005805505 0.091938704 -0.15680605 -0.034322087
-0.026886426 0.25981313 0.1947647 -0.10512091 -0.0040359753 -0.038078222 -0.09168801 -0.182964
0.17629594 0.36552784 0.12472355 0.0005334144 -0.064184085 0.1758914 0.19395654 0.8157032
0.065523885 -0.24533452 -0.02206766 -0.14616542 -0.08514509 -0.09905112 -0.0027751585 0.043949753
0.25263515 -0.112929635 -0.26693848 -0.08494628 0.15367877 0.25821054 0.08715405 -0.09819661
0.037908733 -0.10007807 -0.09778763 0.1146385 0.052362666 -0.02699294 -0.14869487 -0.09606696
0.32744834 -0.06849373 -0.110476226 0.006996671 0.06422734 -0.6060834 -0.10555967 -0.10036454
0.097541675 0.22182226 0.17319569 0.0044245995 -0.19334953 0.19879587 -0.12171982 0.14536412
-0.09546119 -0.033330638 -0.16882102 0.114800654 -0.066396594 0.34974927 -0.07826784 -0.027835665
-0.24787106 0.09313897 0.0788682 -0.09969114 0.005349488 -0.5246189 0.25876063 -0.042882964

fc1_relu/bias:0 f4 [100]
00000000: 4fb2 febe c475 d9be 7b40 d63d 51fc 933d
00000010: bfbb 6bbd 241f 4cbd a063 b3be 77ac 6ebd
00000020: 71c7 8ebd 5a72 41be c7fa 7bbf 4e15 17bf
00000030: 5ddb 9dbd 2f62 02bf ff3e 82be 866a 80bd
00000040: c615 e73c fcdf e9be f117 2a3e 8a0a 00be
00000050: 107e d03d 0199 81be ae01 0fbe 65f0 5abf
00000060: 1e57 bebd 5c48 62be a1a7 9dbd 6f0a 8bbd
00000070: 279d eabe a71d c6be 951b 97bd 3658 ed3d
00000080: 9b28 70bf 2e9e 25bf 4ad5 1fbf b1bd 16bd
00000090: 7d2f 1cbf 1fe2 dcbe 2b37 013b afd8 89bc
000000a0: f453 febe 9b53 053e 1593 a6bd 542d 92bd
000000b0: 9815 e0bd 4693 1cbf 8c79 14bf 1048 0c3e
000000c0: 853c b0be 1e6e 86be 0402 4fbc ef28 6bbd
000000d0: 6b7e 6fbd 9bcb 49be 2c6d 52bd 77f3 f53d
000000e0: a0ad dbbe b1d7 abbe 02c7 c2be c9c1 bbbd
000000f0: 7e37 f5bd 7444 a83d 059d 7f3d 1658 8cbe
00000100: 5f30 803d 241b 8b3d 0b13 77bc 9cfc 213e
00000110: 94df 213e 1890 b7be ca97 81be f3ba c4bd
00000120: 44c9 d0be 7aae d2bd 35ce 84bf 3d15 36bf
00000130: c49e 2abe e763 fa3d 619f 2dbf 23e6 d7bd
00000140: 2485 bdbd 3bdf 31be 2732 08be 2ec5 cabe
00000150: 444c 653d 710e 11be 19e0 b53d 8896 913d
00000160: 70fd e63d 8f0f dc3d f1b0 85be e2cf f6bd
00000170: 9fcb 023e b2e8 ae3d d562 4abf 78e7 993d
00000180: dc5e d03d fa7b 84be a394 6bbd e102 b7be
-0.49745414 -0.4247266 0.104615174 0.0722586 -0.057552096 -0.049834386 -0.35036945 -0.058269944
-0.06971634 -0.18891278 -0.9842953 -0.59016883 -0.07707856 -0.50931066 -0.25438687 -0.06270318
0.028208625 -0.456787 0.16610695 -0.1250402 0.101802945 -0.25312045 -0.13965484 -0.8552306
-0.0929396 -0.22097915 -0.07697988 -0.067890994 -0.45823023 -0.38694498 -0.07378308 0.115890905
-0.9381196 -0.6469449 -0.6243483 -0.036801998 -0.6100996 -0.43141267 0.001971672 -0.016826956
-0.49673426 0.13020174 -0.081335224 -0.07137552 -0.10941619 -0.6116222 -0.57997966 0.13699365
-0.34421173 -0.26255888 -0.012634758 -0.057412084 -0.05847017 -0.19706576 -0.051373646 0.12009328
-0.42905903 -0.33562997 -0.38042456 -0.09167821 -0.11973475 0.082161814 0.062405605 -0.27410954
0.06259226 0.06792286 -0.015080224 0.15819019 0.15807945 -0.35852122 -0.25311118 -0.0960597
-0.40778553 -0.10287185 -1.0375429 -0.7112616 -0.16662127 0.12226086 -0.6782132 -0.10541942
-0.0925391 -0.17370312 -0.13300382 -0.3960356 0.055980936 -0.14165665 0.08880634 0.0710879
0.11278808 0.10745155 -0.26111558 -0.12051369 0.12772988 0.08540477 -0.79057056 0.07514852
0.10174343 -0.25875837 -0.057514798 -0.35744384

scale f4 [5]
00000000: 2518 123e 02aa 1e3f ddad ac3e 2466 c43f
00000010: dcd9 ca3e
0.14267023 0.6197816 0.33726397 1.5343671 0.3961934

bias f4 [5]
00000000: 75ae e1bf 2bc5 d7bf 9911 7abf 0e99 b83e
00000010: acb7 613d
-1.7631365 -1.6857046 -0.976831 0.3605427 0.055106804

mean f4 [5]
00000000: 0000 0000 0000 0000 0000 0000 0000 0080
00000010: 0000 0000
0.0 0.0 0.0 -0.0 0.0

var f4 [5]
00000000: 0000 803f 0000 803f 0000 803f 0000 803f
00000010: 0000 803f
1.0 1.0 1.0 1.0 1.0

tensor_w f4 [1, 150, 32]
00000000: 486d d93e 7b4d c3bd accb a93d 0043 87bf
00000010: 53d2 3d3e 7811 813d c1fc d63e ee99 c23d
00000020: 7f75 7d3d f009 033e 73a0 463d 958d 0dbd
00000030: 635c e8be ba35 043e 08d9 f73c ad1e a53d
00000040: a7d9 003e cd16 45bd c4a4 8a3e 6fef 11be
00000050: 6a96 0cbd 9cea 213d c5e8 bc3e ac67 8d3e
00000060: af14 bfbe 0534 873e 1a73 33bd 7dc7 8abe
00000070: 0b91 f33d 50ad 25bd 26d4 9d3e 9f65 ffbe
00000080: 247a 93bc 9d74 293e e9e3 0d3f 0be1 913d
00000090: 57ab b4bc afd5 8fbe a430 ae3e e3fa 853d
000000a0: a260 4d3e 4894 603b 3b0b 1abf cf15 bdbe
000000b0: 1b8c 35bf 236d 2f3e f419 1a3e 5cbe 1bbe
000000c0: 8323 87bd 13a7 9ebb 332e 8b3e 5c3e 4c3e
000000d0: 82b8 1c3e e11f 033e 0a55 863c 7003 dd3c
000000e0: 180b 0fbf 4668 433f 749f 7e3e e6a4 cebe
000000f0: 61ec fc3e 1bea eb3d a7c0 88be 933e 14bf
00000100: 71be e53e d63e f43e 7e0a b03d 592a 99be
00000110: 61e9 123c b7c6 44bd eb67 b23e 5580 093f
00000120: 73ca 203c 76f7 b43c 4ecf 903d 2231 1e3e
00000130: 7ece 2bbe be4d 7cba 8f8e 913f 6847 4f3c
00000140: 70d0 483d da2a 7c3f 3fa7 2f3d cc37 c53b
00000150: 9a76 be3d f20b 803d 476f 823e ff5c c23d
00000160: 3c46 babd 4514 5ebf e853 ba3d 1856 d3be
00000170: 07a7 523e cd9d c33d 0a2c 393f 3d68 6bbe
00000180: 3991 233f a352 593f 11ff f5bd e680 dfbd
00000190: fbbd 06bf b5fa 06bd bbc0 663f ff46 3f3f
000001a0: 2efb d3be e0da 0cbe 6dfb 9e3d 0e24 8b3e
000001b0: baa4 d0bb ed1d 32be d4fc 6d3f 4d25 15be
000001c0: 5763 0dbf e8c6 923f e37c 12be 1ff1 85bd
000001d0: ab51 9dbe a8f2 77be 7e13 f33d 33da b63e
000001e0: df65 05be f44e 073f 5428 c93d 66ab febd
000001f0: 86f6 cebe 55e5 27be cd1a 8b3f a029 c03d
00000200: de16 7a3e 6996 8c3e 18ac 383c 37f6 eebd
00000210: 8605 03bf e307 533e b985 e13e e71c a0bd
00000220: 2dc1 863a ddce bd3e 273f 76be ba6c b43a
00000230: ca53 91bd 9d25 003e 05cf a53a e745 0b3e
00000240: 9531 0d3f c2eb 033f 479c 40be c4af 363f
00000250: 4c85 653f e9e1 2c3d 47c7 d23e 0d7c c63e
00000260: 0db8 87bc 925b cd3e 14c8 d7bd 083c ae3e
00000270: 2f17 e73e 37cd 303e afdf 7d3e 86d9 3fbe
00000280: 8875 d2bd d2c1 403f 5324 e73d 0603 d7bd
00000290: f2a7 453d 1e47 5f3d 18b8 4f3d 489c 9f3e
000002a0: 3c70 153b b9bf 443d 670a 473e df1b fc3e
000002b0: bae2 073f 3ba6 5e3e 3d13 cb3e 7ab4 c93d
000002c0: 7b25 2d3e a7f4 8c3e a618 333e 595a 13be
000002d0: aec6 d33c 020a 5d3c 720b c23e 74d1 083f
000002e0: 8a8a 1a3e 3394 e33e 69d7 51bc c916 2d3e
000002f0: d4c3 b4bb ccf2 363d 26af c93e 6414 173e
00000300: 9ff1 e13f 0833 143e f7a2 053f 3bf4 80be
00000310: 8a1f 2d3f 797a 5a3c 9b2f 123f a07b 05bc
00000320: 06b4 993e 64f7 313e 5a48 60be 42c4 b7be
00000330: cb97 82bf dd4b d23d 73a0 2c3e a522 4abe
00000340: 4377 c23e 46ad 4c3e ac5c f23e f772 ff3e
00000350: 0b51 993d 8de4 c73e f016 86be dbe2 5fbe
00000360: 2f7a 33bf c3d8 e33e 5b20 1d3e 0c6f ffbe
00000370: 04c4 433e 6fb6 433c 037a 2c3e c9f1 5cbf
00000380: 861c 0e3e 6ee0 1d3f b855 693e 4ac8 aa3f
00000390: a1fa ff3d 5246 fe3b ce42 783d 958a ae3e
000003a0: af5d 523d 624c 2f3e 77cd c53c 5800 e53e
000003b0: e74b 4cbd 6b98 973e f925 a53e 2331 a8bc
000003c0: 69ca 1c3e e026 b23f fc44 333e 5731 f4bd
000003d0: 67c0 003e 5e4c b23e 16a1 ce3d 6d3c 2e3d
000003e0: 4145 3d3f d8ed 473e a93f a83e 05b1 3b3f
000003f0: ce60 983d 68d3 2cbd 9bff fc3d 3be5 403e
0.42466187 -0.095362626 0.082908005 -1.0567322 0.18537264 0.0630216 0.4198971 0.09502016
0.06187963 0.1279676 0.04849286 -0.03455885 -0.45382985 0.1291112 0.030254856 0.080624916
0.12583028 -0.048117448 0.2707883 -0.14251493 -0.034323134 0.03953038 0.3689634 0.27618158
-0.37320468 0.26406875 -0.04381094 -0.27105322 0.11892899 -0.040448487 0.3082592 -0.49882218
-0.018002577 0.1654839 0.5542589 0.07123002 -0.022054357 -0.28092715 0.34021485 0.065419935
0.20056394 0.003426807 -0.60173386 -0.369307 -0.7091691 0.17131476 0.15048963 -0.15209335
-0.0659857 -0.004841694 0.27183685 0.19945663 0.15304759 0.1280513 0.016397972 0.026979178
-0.558763 0.76330984 0.24865514 -0.40360183 0.49399093 0.115192614 -0.26709482 -0.5790798
0.44871858 0.4770419 0.08595751 -0.2991512 0.008966775 -0.04804107 0.34844908 0.53711444
0.009813893 0.022090655 0.0707079 0.1544843 -0.1677799 -0.00096246216 1.137163 0.012651302
0.049026906 0.98502886 0.042884108 0.0060186144 0.09299965 0.062522784 0.25475523 0.09490394
-0.090954274 -0.8674968 0.09098035 -0.41276622 0.20571528 0.095515825 0.72332823 -0.22988982
0.6389347 0.8489172 -0.12011541 -0.10913257 -0.5263364 -0.032953937 0.90137833 0.74717706
-0.41402572 -0.13755369 0.077627994 0.27175945 -0.006367293 -0.17394228 0.9296391 -0.1456501
-0.55229706 1.1466951 -0.14305453 -0.06540131 -0.3072637 -0.2421366 0.11868952 0.35713348
-0.13027142 0.5285485 0.09822145 -0.124350354 -0.40422457 -0.16396077 1.0867554 0.09382939
0.24422786 0.27458504 0.011271499 -0.116680555 -0.51180303 0.20608477 0.44047335 -0.07818013
0.001028096 0.37071887 -0.24047528 0.0013765313 -0.070960596 0.12514348 0.0012650198 0.13600884
0.5515378 0.5153161 -0.18809615 0.7136195 0.8965652 0.042207632 0.41167662 0.38766518
-0.016567254 0.40108925 -0.10536209 0.34030175 0.45134875 0.17265783 0.2479236 -0.18735322
-0.102763236 0.75295746 0.11286225 -0.104986235 0.04825587 0.054511182 0.050712675 0.3117392
0.0022802493 0.048034403 0.19437562 0.49240014 0.5308033 0.217431 0.39663115 0.09848876
0.16908829 0.27530405 0.17489871 -0.14389934 0.025851574 0.013491156 0.37899357 0.534446
0.15091911 0.44449005 -0.012807705 0.16903223 -0.0055165086 0.044665143 0.3939144 0.14753872
1.7651862 0.14472592 0.5220179 -0.25186333 0.6762625 0.013334864 0.5710389 -0.00814715
0.3002016 0.17379528 -0.219026 -0.3589192 -1.0202574 0.10268376 0.16858082 -0.19739778
0.37981614 0.19987974 0.47336328 0.498924 0.07486161 0.39041558 -0.26189375 -0.21863882
-0.7010831 0.44501314 0.15344374 -0.4988941 0.19117743 0.011945351 0.16843419 -0.86306435
0.13878068 0.6167058 0.22786605 1.3342373 0.124989755 0.0077598477 0.060610585 0.34090105
0.051358875 0.17118981 0.024145825 0.44726825 -0.049877074 0.29608473 0.32255533 -0.020531243
0.15311588 1.3918114 0.17506784 -0.11923473 0.12573396 0.3482389 0.100893185 0.042538095
0.739338 0.19524324 0.3286107 0.73316985 0.07440339 -0.0421938 0.123534404 0.18837444

tensor_r f4 [1, 150, 50]
00000000: 28b1 88be 6aa8 b0bd 159c 36bc c439 ab3d
00000010: 6576 733d bd62 d7bd bff4 983e adf4 863c
00000020: 9291 183f 2297 83b9 faaa 003f 0ab7 543d
00000030: b335 803e ffde c4be 7876 febc b490 833e
00000040: f6f8 8d3d 2be5 a43e c295 313e 87fe c63e
00000050: bdb9 a4be cf20 8dbe a757 9ebb ab5f 0fbe
00000060: 393a f0bd a926 483e 4fa2 3ebf d46e 0ebe
00000070: 5ee6 403c 58c4 513d 4dff a4be 1ecc e33d
00000080: 9de4 6dbe 8001 c43e e7e0 70bd e116 11bf
00000090: a3f9 adbc 0b33 30bf df66 853e 44ab 05be
000000a0: 2084 05bf f02a 9bbd ed11 963d 02e2 a0bc
000000b0: ed38 7ebe 2386 bd3e 81fc ca3e 565b b43e
000000c0: ab2f 57be 1330 6b3e be71 d13e 8066 3f3f
000000d0: b7ae c3bd 36fe edbe fd16 a73e 8fbe 603d
000000e0: c286 073f 0baf 6dbe 184c f4be c8a7 c2be
000000f0: 1f92 2b3e 7dbd 2d3f 8eb2 2e3f 8b50 953e
00000100: 1e66 4cbd f35f ec3e 6903 3dbe 070f 003f
00000110: dfe3 8abe 8424 55bd f952 8a3f c242 ae3e
00000120: 0023 15be 6fcb 63bd 69c2 963e d930 cdbd
00000130: d08e ac3c d1e2 b0bd 7dbd 87bd 7acf ff3e
00000140: d0f2 ccbe 7405 b53d eac2 443e f145 9c3e
00000150: 17dc 61bd f8d6 f5be cc7c df3e 7352 75be
00000160: 097a 10be 8621 abbe 6e23 23bf 1c73 843d
00000170: f624 70be 82e3 bb3d 24d7 32be da9d b13e
00000180: a5ce 4e3b e2b2 003e 7f51 813d 3072 a03e
00000190: 7208 803b 4879 33be 20b6 473c 2335 463e
000001a0: 05fb 87bd 0ff9 943e 29d5 973e 8437 28be
000001b0: 3173 6a3e ef07 30be 5415 c13d 8902 583d
000001c0: b4bf 3c3e cd5f e1bd 8f19 b83c fe3f ca3c
000001d0: 5bcc c6be 76d5 843e 5616 38be b422 013e
000001e0: 65c4 963e e112 7ebd bea5 3d3e 1b24 70bd
000001f0: 88fb 70bc 434a e0bc d96d aabd 436d 313d
00000200: 46b2 373f ef91 20be f284 9d3d 46ed fbbd
00000210: 1eac c7be 3b68 953e 4471 043e f2dc a83d
00000220: 2006 9a3b b057 5ebe d23d 3bbd cff4 793d
00000230: 7fa2 8cbc a7c4 f6bd bf7a b33d 8904 11be
00000240: b5c4 57bd e0fc 8c3d 65c7 a53e 59b8 94be
00000250: 56fe 4abe 6b5e 703e 4f74 1abc 5d7d 7abe
00000260: a914 b9be cd0f e0be 113a 943e 5030 0e3f
00000270: 7e60 3f3e 9801 76be 713c f23d 0b66 8fbe
00000280: ec14 663e c621 823f c97e 4cbf 2565 b93e
00000290: 3dee 91be 46e1 103d dc9c bebd c762 7dbe
000002a0: 0c19 7ebe 6c08 84be 3087 fdbd 68ce 21be
000002b0: 607f ddbd 9319 69be e7b1 b6be 75d1 853d
000002c0: 1234 abbe 747f 053d 30e3 ec3e cd19 2b3d
000002d0: 463b 39be d68c 48be 0730 153e 3e5a b93e
000002e0: bb90 4cbe f6bf c3bc ce8b 573d 8c1e 0ebf
000002f0: 5ac6 553e 08d8 48bf 9ca4 5ebe c65c d33e
00000300: 89dd f73c 7fe1 80bd 0ac5 323d 993f f03e
00000310: a461 97bc b4ed a3be 4ec1 f03e c7da b93e
00000320: ab91 f3bc 2c7e 8b3d 14ca 82bd 9e5c 273e
00000330: fcc5 013f 862a ae3e 7cf3 7dbc 7570 c1be
00000340: 954e 13bd 5fdf b73e 01ee bb3e 4263 fd3e
00000350: cbf5 d8be 8ff3 28be 4437 b9bd bd6b 5fbd
00000360: f045 acbe 4573 af3d 4c7e a6be b59c afba
00000370: 08ea d63c 0d17 a3be a29d 1abe 3315 f8bc
00000380: 0bcd f4bd 0186 38bc f3a3 da3d 61c0 663e
00000390: f0e7 dabc b127 9d3d c52e 93be 64b3 233e
000003a0: ce0f 6b3d c42e 1b3e e869 193e b33d 9fbe
000003b0: 2b3f cd3e 818b 23bd f87e 86be 07f9 c43d
000003c0: 0edf a6be d4d6 543e a1ed 80be 141d 3f3e
000003d0: 4c95 16be 2045 083f b454 b83d 9819 04bd
000003e0: 333f 7fbd 756e aa3e 708b 6abe 23e6 4fbe
000003f0: 8c1a 483e 4c70 493f b151 bcbd 0870 953f
-0.2669766 -0.086258724 -0.011145611 0.08360627 0.05943908 -0.1051688 0.29874226 0.016474092
0.5959712 -0.0002509887 0.5026089 0.051932372 0.2504097 -0.38451383 -0.03106235 0.25696337
0.06932251 0.3220609 0.17342284 0.38866064 -0.32172957 -0.27564093 -0.0048322263 -0.14001338
-0.11729855 0.19545998 -0.74466413 -0.13909465 0.011773674 0.05121264 -0.3222603 0.11122917
-0.2323174 0.38282394 -0.058808234 -0.56675535 -0.0212372 -0.68827885 0.26055047 -0.13053614
-0.5215473 -0.07576549 0.07327638 -0.019639019 -0.24826403 0.370164 0.3964577 0.35225934
-0.21014278 0.22967558 0.4090709 0.7476578 -0.095548086 -0.4648301 0.32634726 0.05486923
0.5294 -0.23211305 -0.47714305 -0.38018632 0.1675496 0.6786726 0.682412 0.29163012
-0.049902074 0.46166953 -0.18458332 0.5002293 -0.27126977 -0.052036777 1.0806571 0.34035307
-0.14564133 -0.05561393 0.29445198 -0.100190826 0.021064192 -0.08637012 -0.06627939 0.4996298
-0.40029 0.08838931 0.19214979 0.3052211 -0.055141535 -0.4801557 0.436499 -0.23957233
-0.14109053 -0.33424014 -0.63725936 0.06467268 -0.234516 0.09174253 -0.17464882 0.34690744
0.0031556275 0.12568238 0.06314372 0.31337118 0.0039072568 -0.17526734 0.012189418 0.19356208
-0.06639675 0.29096267 0.29654816 -0.16427428 0.22895505 -0.17190526 0.09427896 0.052736793
0.18432504 -0.11004601 0.022473125 0.024688717 -0.38827786 0.25944108 -0.1797727 0.12610894
0.29446712 -0.062029723 0.18520257 -0.058628183 -0.014708407 -0.02737916 -0.08321733 0.04331709
0.717564 -0.15680669 0.07691373 -0.12301116 -0.38998502 0.29181084 0.12933832 0.08245267
0.004700437 -0.21713138 -0.045713253 0.061024483 -0.017167328 -0.12049227 0.08763646 -0.14161886
-0.05267783 0.068841696 0.32378688 -0.29046896 -0.19823584 0.23473518 -0.009427144 -0.24461885
-0.36148575 -0.43762055 0.2895055 0.5554247 0.18689153 -0.24024045 0.118279345 -0.2800754
0.22468919 1.0166557 -0.7988096 0.3620998 -0.28502074 0.035371087 -0.09307262 -0.24744712
-0.24814242 -0.25787675 -0.123793006 -0.15801394 -0.108153105 -0.22763662 -0.35682604 0.065340914
-0.33438164 0.032592252 0.4626708 0.041772652 -0.18089017 -0.19584975 0.14569102 0.36201662
-0.19977085 -0.023895245 0.052623563 -0.5551536 0.20876446 -0.7845464 -0.21742481 0.41281718
0.030257003 -0.0629301 0.043644942 0.4692352 -0.018479176 -0.3201729 0.4702248 0.36299726
-0.029732546 0.06811175 -0.063861996 0.16343924 0.50692725 0.34016818 -0.015499946 -0.3778111
-0.035963614 0.35912606 0.3670502 0.4948979 -0.42375025 -0.1649916 -0.09043744 -0.054546107
-0.33647108 0.08566908 -0.32518232 -0.0013398143 0.026234642 -0.31853524 -0.15099195 -0.030283546
-0.11953171 -0.011262418 0.10675802 0.22534324 -0.026721925 0.07673586 -0.2874662 0.15986401
0.05738812 0.15154558 0.14981806 -0.3110176 0.40087256 -0.039927963 -0.26268744 0.09617811
-0.32592052 0.20785075 -0.25181296 0.18663436 -0.1470539 0.53230476 0.09000531 -0.03225097
-0.06231613 0.33287397 -0.22904754 -0.20302634 0.19541377 0.78686976 -0.09195269 1.1674814

tensor_b f4 [1, 300]
00000000: a723 173f 441b c83e 301f 003e ee90 2c3f
00000010: 9d66 d23e b353 a43d 06a1 9f3e c897 aa3e
00000020: a1a9 ae3e 54af f73e 1254 f83e 481a 4b3e
00000030: 6ba6 0abe 54c5 9fbd 3480 e53d e9b7 bf3e
00000040: 9e71 a73e 0c72 5c3e 0293 0b3f 3475 363e
00000050: a03a e63e dadf c33c f113 d43e 4eb0 93be
00000060: ea3c 703e 19b2 da3e 8b58 323e 7806 493f
00000070: 898f 383e 32b9 bc3d 6615 1d3f df62 bf3e
00000080: 07e2 bf3e 5093 943e bdaf 843d f016 a83e
00000090: eb29 573e 8893 8c3d 3f80 e13e 7f06 983e
000000a0: 8590 de3e 1467 663e b0da 93bc 3cb7 203f
000000b0: f86d 8a3e 0ba3 9ebd c5fa 8d3e 7b23 b93e
000000c0: bf1d 663e b6dc b63e 4def da3d 5f53 88be
000000d0: eaeb c0bc a79b dabe da3f babd 90e5 86be
000000e0: 1daa 2abd 253f 283e b786 b9be 1ac1 0cbe
000000f0: ab63 6c3d f27d 063e b927 c93c 029f 0c3c
00000100: a9af 78be 088d 40be fba5 8bbe 93c3 14be
00000110: 96e6 75be 6120 01be a53c a83d e159 e83c
00000120: 0f74 a4bd d5f6 f5bd f952 36be a465 50be
00000130: 8c84 1f3c 9fbe e7bd 6ca3 b6be 90a4 29be
00000140: 280d 92be a015 26be 5a2d 95be 611f 46be
00000150: bb37 09be 3e46 18be 111e 3fbe b5d5 40be
00000160: fae5 a23c 93b3 35bd 3099 1abb 39e1 68bd
00000170: 73ab a23c b4da 59be 08c0 ab3d 4777 cd3d
00000180: 29ff 9bbe 1786 36be 85de 9a3d 718e 613d
00000190: 73a4 d2bc 580d cdbd d869 14be d632 133f
000001a0: c991 b83d 399c 313e f82c aebe 019d 80bd
000001b0: a1bc 37bd c5c3 8fbd db0b 6ebc 3e8b 273d
000001c0: 900c 2dbe f80d 6ebd ea9e ab3d 946a 7cbd
000001d0: 9e04 73be d45e c33e 4f00 363e 4824 4c3e
000001e0: e079 dcbd ca9a 3cbe 35e8 e43d 4e7c 82be
000001f0: b817 45be 49b7 683e cc66 5dbd 0e4b 85be
00000200: 4bd5 c43d 2d62 3abe cbe8 88bd f6cf 273e
00000210: 670a 5f3e 3008 593d 3fb5 2b3a f780 5dbd
00000220: 06ec e3ba 807f a7bd df48 323e 67ab 8c3d
00000230: 9c87 80be 3c4e 883a d883 793d bfda 5abd
00000240: cfd5 433d 2508 803e c7c7 483d e6dc efbd
00000250: 0b33 293d 6829 df3d 0000 0000 0000 0000
00000260: 0000 0000 0000 0000 0000 0000 0000 0000
00000270: 0000 0000 0000 0000 0000 0000 0000 0000
00000280: 0000 0000 0000 0000 0000 0000 0000 0000
00000290: 0000 0000 0000 0000 0000 0000 0000 0000
000002a0: 0000 0000 0000 0000 0000 0000 0000 0000
000002b0: 0000 0000 0000 0000 0000 0000 0000 0000
000002c0: 0000 0000 0000 0000 0000 0000 0000 0000
000002d0: 0000 0000 0000 0000 0000 0000 0000 0000
000002e0: 0000 0000 0000 0000 0000 0000 0000 0000
000002f0: 0000 0000 0000 0000 0000 0000 0000 0000
00000300: 0000 0000 0000 0000 0000 0000 0000 0000
00000310: 0000 0000 0000 0000 0000 0000 0000 0000
00000320: 0000 0000 0000 0000 0000 0000 0000 0000
00000330: 0000 0000 0000 0000 0000 0000 0000 0000
00000340: 0000 0000 0000 0000 0000 0000 0000 0000
00000350: 0000 0000 0000 0000 0000 0000 0000 0000
00000360: 0000 0000 0000 0000 0000 0000 0000 0000
00000370: 0000 0000 0000 0000 0000 0000 0000 0000
00000380: 0000 0000 0000 0000 0000 0000 0000 0000
00000390: 0000 0000 0000 0000 0000 0000 0000 0000
000003a0: 0000 0000 0000 0000 0000 0000 0000 0000
000003b0: 0000 0000 0000 0000 0000 0000 0000 0000
000003c0: 0000 0000 0000 0000 0000 0000 0000 0000
000003d0: 0000 0000 0000 0000 0000 0000 0000 0000
000003e0: 0000 0000 0000 0000 0000 0000 0000 0000
000003f0: 0000 0000 0000 0000 0000 0000 0000 0000
0.59038776 0.39083302 0.12511897 0.67408645 0.41093913 0.08023777 0.3117754 0.33318925
0.34113792 0.48375952 0.4850164 0.19834244 -0.13540046 -0.07801309 0.112060934 0.37445
0.3270387 0.2152788 0.5452119 0.17818147 0.44966602 0.023910452 0.41421464 -0.28845447
0.23460737 0.42714003 0.17416589 0.78525496 0.18023504 0.09215011 0.61360776 0.3738012
0.37477133 0.2901864 0.06478832 0.3283 0.21012084 0.06864077 0.44043157 0.29692456
0.43469635 0.22500259 -0.018048614 0.62779593 0.27037024 -0.07745942 0.27730384 0.36159882
0.22472285 0.35715264 0.10690174 -0.26626107 -0.023549993 -0.42696878 -0.0909421 -0.26347017
-0.04166614 0.16430338 -0.36235592 -0.13745537 0.05771224 0.13133982 0.024555074 0.008582832
-0.24285759 -0.18803799 -0.2727507 -0.1452773 -0.24013743 -0.12610008 0.08214692 0.02836317
-0.08029949 -0.1200997 -0.17805089 -0.20351273 0.0097361915 -0.11315655 -0.35671556 -0.16566682
-0.28525662 -0.16219187 -0.29136163 -0.19347908 -0.13400166 -0.14870545 -0.18663813 -0.18831523
0.019885052 -0.04436071 -0.0023589842 -0.056855414 0.019857144 -0.21274835 0.083862364 0.10032516
-0.3046811 -0.17824589 0.075619735 0.055067483 -0.025713181 -0.10012311 -0.14493501 0.57499444
0.09012181 0.1734475 -0.34018683 -0.06279946 -0.044857625 -0.07019762 -0.014529194 0.040904276
-0.16899323 -0.05811879 0.0837992 -0.06162508 -0.2373223 0.38158286 0.17773555 0.19935715
-0.10765433 -0.18418422 0.111771025 -0.25485462 -0.19247329 0.22726168 -0.054053113 -0.26033825
0.09610995 -0.18201514 -0.06685027 0.16387925 0.21781312 0.052986324 0.000655014 -0.05407807
-0.0017389066 -0.081786156 0.1741061 0.0686863 -0.25103462 0.0010399292 0.06091675 -0.05343127
0.047811326 0.25006214 0.049018648 -0.11712055 0.041308444 0.108965695 0.0 0.0
0.0 0.0 0.0 0.0 0.0 0.0 0.0 0.0
0.0 0.0 0.0 0.0 0.0 0.0 0.0 0.0
0.0 0.0 0.0 0.0 0.0 0.0 0.0 0.0
0.0 0.0 0.0 0.0 0.0 0.0 0.0 0.0
0.0 0.0 0.0 0.0 0.0 0.0 0.0 0.0
0.0 0.0 0.0 0.0 0.0 0.0 0.0 0.0
0.0 0.0 0.0 0.0 0.0 0.0 0.0 0.0
0.0 0.0 0.0 0.0 0.0 0.0 0.0 0.0
0.0 0.0 0.0 0.0 0.0 0.0 0.0 0.0
0.0 0.0 0.0 0.0 0.0 0.0 0.0 0.0
0.0 0.0 0.0 0.0 0.0 0.0 0.0 0.0
0.0 0.0 0.0 0.0 0.0 0.0 0.0 0.0
0.0 0.0 0.0 0.0 0.0 0.0 0.0 0.0

tensor_w1 f4 [1, 150, 32]
00000000: b15f e5bd cd3b f8be d01d d83c f657 193e
00000010: fb43 49be 89e0 913e 1363 9c3e 3d50 ac3f
00000020: 3120 773d 5568 d4bd 798e 143f 579e df3e
00000030: 0a71 863e dee7 28bf 7ea2 7f3e 1355 b63e
00000040: 9658 c73f 2b96 2bbe 4d68 55be 468d 773e
00000050: 3137 9c3e 4ce0 e13e b4c5 c93d 712e cd3e
00000060: d942 2f3e 1966 593f 1213 6b3f 2182 bc3e
00000070: 2b1c 50be e319 d73c 4965 c33e 2bc7 9d3e
00000080: 18cf 2cbd 146d 12bd 92a2 0f3d bcb5 ee3e
00000090: e185 e63d 0d3f a53e e135 ec3e a4f2 c03c
000000a0: ff9f 203f 2316 7d3d e113 35bb 7898 293f
000000b0: 3d5f 343e 7c61 ec3d 1b0e 183e b324 0b3f
000000c0: b796 033d c8bb 0b3f 8cd3 f0ba 1214 213e
000000d0: d667 33bd dcd8 50be e184 ca3e 181d 8dbe
000000e0: 8da6 593e c9bc 603c 4d04 ae3c 4679 643d
000000f0: e03a 143d a9ca b03d 283c c3bc be7c 783e
00000100: 96cf 763d 3540 cebe 2b36 e73e 0fd8 dabd
00000110: b629 953f e3e2 6e3e 1f26 283e c87d 38be
00000120: 2267 053f b8da 2c3f 7d7f 013e 4710 1e3f
00000130: 9259 763e ffe2 083f 9cdd 0c3f 1a95 7a3e
00000140: 1a7a 393e d08e d93e a4d5 4a3d 9f33 96bd
00000150: c8fc 023e 6b0e b13b b046 a23d 0bbc 5e3c
00000160: 411e da3e 256f 563e 6258 103f a197 293e
00000170: 9a93 95be 388a ab3d 75e9 3d3e e17a 993e
00000180: 2845 8b3c fd14 0f3f d5af 303e 6653 2abd
00000190: 5d12 fb3e 2632 d83e c2a4 ba3d 33a4 903f
000001a0: 9ac1 353e e98a cd3e f6d8 c83e 8872 813e
000001b0: 1407 3f3d 2e8c ac3f e437 9f3d 4503 e63e
000001c0: 4a44 333f 26d6 b63e 3649 e5be b8b0 103f
000001d0: 03e0 8b3d a22b febd d3a2 fa3d 15e5 55be
000001e0: a798 533e 547e a33e 5464 813f d43d 8c3d
000001f0: b81c d73d e785 993d c740 673d 9bea 823c
00000200: f645 93bd d466 0a3d d461 97bb 16ba 523e
00000210: ca03 0ebd 8f7b 273e b22a 473b 7b6b 403d
00000220: 4688 923e 8c81 143d c01c 71bb 426e 683d
00000230: ea71 f2bc a8e3 703b 5442 3dbc 088b b7bc
00000240: fd89 953d da0e 06bb 41d0 a33d 6b6d 953e
00000250: 0173 91bd b43b 41be d59f d33d d742 3fbe
00000260: 623b ed3b 6958 d2bb b813 2d3c 08a7 32bd
00000270: 3a88 023d 3809 613e 0209 143c 3b86 653d
00000280: fe85 fa3b 132f a43c 7593 2dbc 7c07 1e3f
00000290: 2f74 be3d efb7 353f 41f2 bf3e 4e02 0dbc
000002a0: d6e7 a0bc f8f8 04bd 9cc4 a1ba 8595 053e
000002b0: 5a4a 833d d70f 0fbc 7108 3fbc 863f 203f
000002c0: bfe4 d7bc b5cf 9f3e e274 c93d da3e 603e
000002d0: c2aa 933d 27ad 64be b357 c23e 555a d8be
000002e0: 5475 e9bc e11d 56bc fde8 3ebc f22a 8abd
000002f0: 0d42 24bc 3dae 6c3e b05a cebd abf5 373e
00000300: ad7f 983e 9704 943e f7e0 2e3e f348 763e
00000310: 4f17 8fbe 2aac 443e ff47 3e3e 937d 833d
00000320: 4ae0 a83d 190a b73d 5058 fd3d 4211 2b3e
00000330: 910a a4bd 853e 05be 2e43 593e 7985 913e
00000340: 461d a1bc 716c d33c b0d0 cabd 88fe da3e
00000350: 5a8a a4bc 6033 bebd 3b44 5b3d b9bd fe3d
00000360: e5b2 1f3e e57b 923d da85 703e 9575 a73d
00000370: aede 7f3e 67a1 c53e 5e27 893e 9f1f b73d
00000380: 8793 90be d707 a5bb e43d a53e b60a 5e3e
00000390: 3b3f 01bd c2ed 473f 3c25 1f3f 1b84 9d3c
000003a0: 3211 e93e 1ba6 f23d 71f9 a73c 619d 91be
000003b0: 023c a83e 9f08 323d c341 833e 06b1 4a3f
000003c0: 8967 5bbd 7011 a13e b928 19bf 468f afbe
000003d0: 4e23 d9bd 6960 cabe c530 823e 2b81 19bf
000003e0: 31ab 563e c95d 783c d3f1 583e c686 44bd
000003f0: f665 063c d274 10bf c071 e13d 7fa3 663e
-0.11199892 -0.48483124 0.026381403 0.1497496 -0.19654839 0.2849162 0.30544338 1.3461987
0.060333434 -0.10371462 0.58029896 0.4367549 0.26258117 -0.659788 0.2496433 0.3561178
1.5573909 -0.16756503 -0.20840569 0.24174985 0.30510858 0.44116437 0.09852162 0.40074494
0.17115344 0.84921414 0.91825974 0.3681803 -0.20323245 0.026257461 0.38163212 0.30816016
-0.042189687 -0.035748556 0.03506715 0.46623027 0.11256004 0.32274666 0.46134856 0.0235532
0.62744135 0.06178869 -0.0027630257 0.66248274 0.17614456 0.11542031 0.14849131 0.54352874
0.032126155 0.54583406 -0.0018373593 0.15730312 -0.043800198 -0.20395225 0.39554504 -0.2756126
0.2125494 0.013716885 0.021242285 0.055779718 0.03618896 0.08632404 -0.023832396 0.24266335
0.060256563 -0.4028336 0.45158514 -0.10685741 1.1653354 0.23328738 0.16420792 -0.18016732
0.52110493 0.6752124 0.12646289 0.6174359 0.24057606 0.5347137 0.5502565 0.2447094
0.18112984 0.4249177 0.04952015 -0.07334065 0.12791741 0.00540333 0.07923639 0.013594638
0.42601207 0.20940836 0.5638486 0.16561748 -0.29214174 0.083759725 0.18546088 0.29976562
0.01700075 0.558914 0.17254575 -0.04158344 0.49037448 0.4222576 0.09113456 1.130011
0.17749634 0.40145043 0.39228028 0.25282693 0.04663761 1.348028 0.07774332 0.4492437
0.70026076 0.35710257 -0.44782418 0.5651965 0.06829836 -0.12410666 0.122380875 -0.20888169
0.20663701 0.31932318 1.0108743 0.0684773 0.105035245 0.07496243 0.05645826 0.01598101
-0.07191078 0.03378947 -0.0046198163 0.20578799 -0.034671582 0.16355728 0.0030390439 0.0469775
0.28619593 0.036256358 -0.0036790818 0.056745775 -0.029595334 0.0036756787 -0.011551458 -0.022405162
0.0730171 -0.002045563 0.07998706 0.29185042 -0.071020134 -0.18870431 0.1033322 -0.18677841
0.007239745 -0.0064192307 0.010563783 -0.043616325 0.031868197 0.21976173 0.009035351 0.056036215
0.0076453676 0.020041978 -0.0105942385 0.6173017 0.09299504 0.70983785 0.37489513 -0.0086065065
-0.019641798 -0.032463998 -0.0012341919 0.13045318 0.06410666 -0.008731804 -0.011659727 0.6259693
-0.026354192 0.31213155 0.09836747 0.21898976 0.07210304 -0.22331677 0.37957534 -0.42256418
-0.02849833 -0.013068647 -0.011652228 -0.067464724 -0.010025513 0.23113342 -0.10075891 0.17964809
0.2978491 0.28909752 0.17078005 0.24051265 -0.2794747 0.192063 0.18582152 0.06420436
0.08245905 0.08937473 0.1237036 0.16705802 -0.08009828 -0.1301213 0.21217033 0.28422144
-0.019667279 0.025808545 -0.09903085 0.42772317 -0.020085502 -0.09287143 0.053531867 0.124385305
0.15595587 0.07152537 0.2348856 0.08176724 0.2498729 0.38599703 0.26787847 0.08941578
-0.28237554 -0.005036335 0.3227378 0.21683773 -0.031554442 0.78097165 0.6216619 0.019228032
0.4552093 0.11848088 0.020504685 -0.28440383 0.32858282 0.043465253 0.2563611 0.79176366
-0.053565536 0.31458616 -0.5982776 -0.34288996 -0.10602437 -0.3952668 0.25427833 -0.5996272
0.20963742 0.015159079 0.21185999 -0.047980092 0.00820302 -0.56428254 0.11008024 0.22523306

tensor_r1 f4 [1, 150, 50]
00000000: b425 82be aed1 c0bd d0a9 dc3d 2f93 edbd
00000010: 64c5 ec3d 3e66 103e 78e8 a1be 5334 963a
00000020: 7b5e 7d3e 1421 83be 655c 8cbe 8596 96be
00000030: c71d ddbc 59f9 b3be ce54 89be afcd 243e
00000040: 3af6 8e3e 6754 1b3d e9ed e1bd 9cc0 6cbc
00000050: c857 8bbe 9f7f e53d a541 b73d 022e d23d
00000060: 5d18 b73b eea1 e6bd e9e0 863b 23ac 0a3e
00000070: 0fb9 f93e 5997 2e3e 4a46 683e bbf5 943e
00000080: 3d20 0a3f 2fb6 693e 47fe 1cbd 5338 0a3e
00000090: d65c b0bd 1dd7 34bd 5ce0 453e 4898 38be
000000a0: 647f 45be 160e 9a3d a64f 14be a38f ae3d
000000b0: 25a9 5b3d bf07 043e 2242 67bd de15 273e
000000c0: 8835 7fbe f847 a0be cb9d 20be 9044 a23d
000000d0: b563 223d beea 1b3f 2b83 39bc fca8 79be
000000e0: dba4 873c f9a2 513e af72 b03e cf99 2d3e
000000f0: b6e0 29be 142b 4cbe d3e2 38be 9479 113e
00000100: 836d a93e 713c 3e3e 4f19 083e 5903 b4be
00000110: 68ec 9fbd 75b7 b13e 2aec e8be 3aa8 a73d
00000120: 86c3 ebbe 56a2 9f3e 58bd 47be 835a 353f
00000130: 32cf 3ebe c1d8 5cbe 6032 7f3e 6ddd 1dbd
00000140: 41ba 92bd eb23 243f 56f5 12bd 0fb6 da3e
00000150: dc01 0d3e f14d 2fbd 1451 d5be 33bb 04bf
00000160: d244 e3be ae30 f23e 9553 983c f6fd 2e3c
00000170: 1c5b c83e 3749 a1be a2f3 ce3d 5cac 263f
00000180: 35d4 91be ceef 48bd fb15 3ebf 7831 e33d
00000190: c852 55be 84fd 173e e162 61be ff73 333f
000001a0: e252 8d3e c7bb fe3c a329 eabd 0b1c 273e
000001b0: 3635 9cbe 2471 a9be 23fb 8cbd 9e58 2dbf
000001c0: 5152 92be 0bc4 413e 3920 b13e cd84 823d
000001d0: e016 d6bc 3610 1d3f 5667 e13d 5421 f23d
000001e0: 8dad 71be b912 3f3d 203d 20be d349 41be
000001f0: 9d97 9fbe 30d6 923e 7cf9 f4be ab5a 6f3e
00000200: 4089 283e 806c 35be a9ba 583e 8e4b b83c
00000210: 9aa2 0c3f 3cf9 783d 5829 b7be e92d 8abd
00000220: 0fb6 d9be 020d 1d3e b819 13be 7ec6 c03e
00000230: 9cfd c1be 43de 79bc f480 ae3e 3363 a73d
00000240: 29e7 6f3e 47dd cdbc 5287 74bd 7191 993d
00000250: f10f 95bd b87b 9abc 1667 8bbe 7c9b 053e
00000260: 5a51 e33d 7b00 c9be 2a40 6a3d f919 3abe
00000270: ef83 00be 222a 22bd d96e aa3d 7032 b0bd
00000280: 274d 2fbe a01b 26be fb85 5ebe b280 9bbe
00000290: ade9 a5be 1165 9d3e e493 ac3e f696 223e
000002a0: ef84 70be d1bb ccbd 82f3 3bbe 49e4 a2be
000002b0: 1d69 1e3d 8c1b a1be 108d ad3c 6892 ecbd
000002c0: cd6a 213e 66d3 16be 8d09 403e 455b 3f3e
000002d0: 0c0f 8d3d 0622 513d 88a1 7f3e a135 873e
000002e0: cf21 d8bd ef21 cc3e ad33 02be afea 06bd
000002f0: ac1a a93e 9e0c 1a3c 30c2 4f3a 219b 7f3e
00000300: d437 8dbd f566 4bbe ac7c 0b3e dc31 0f3e
00000310: d8ba 49bd bd12 aebd 35dd 5ebe 0321 c2be
00000320: c772 73bd 2bdc 483e 8d8b 293e 7bd9 34bd
00000330: ad8d dd3e a2da 7d3d 95b8 8d3d b035 4a3d
00000340: b2f3 88bb 33d9 3cbd 4738 4cbc 15af a2bd
00000350: be3f 833d 1a6d c2bd ab57 003e f534 393e
00000360: ad8b 1cbe 7f72 9ebc 283d 143e 1ecb a73d
00000370: 3600 583e 7fb0 703b db52 bc3c 19ea 7f3d
00000380: 95a3 e0be 7f02 be3e 7a59 b13d 1a0f 8f3d
00000390: c5f0 dabc 660f d9bd 4ad6 6e3d f58d 173e
000003a0: 2ea5 96bc b669 15be bd89 7cbe 5711 dd3c
000003b0: f085 833d 7f12 18bd 3dd7 28be ee98 a83e
000003c0: bb66 043f 1eba cc3d 6853 a3be f3af 343e
000003d0: 4603 a03c 2577 3e3e 6caf 6a3e e5ac a2be
000003e0: 9b8f f2be f618 da3d 9288 8a3d e022 82be
000003f0: 81c3 573c 3a77 c0be 9fe5 02be 7c64 4abe
-0.2541939 -0.09414993 0.10774577 -0.11600339 0.11561087 0.14101502 -0.31622672 0.0011459686
0.24743073 -0.25611174 -0.2741424 -0.29411712 -0.026991738 -0.35151175 -0.26822513 0.16094087
0.2792223 0.03792229 -0.11031706 -0.0144502185 -0.2721541 0.112059824 0.089480676 0.102626815
0.005587621 -0.112613544 0.004116167 0.13542227 0.48774 0.17049922 0.22683063 0.29093727
0.5395544 0.22823404 -0.038328435 0.13498048 -0.08611457 -0.04415046 0.19323868 -0.1802684
-0.19286877 0.07522218 -0.14483508 0.0852349 0.053628106 0.1289358 -0.056459554 0.16316935
-0.24922764 -0.31304908 -0.15685193 0.079232335 0.03964587 0.60905063 -0.011322777 -0.24380869
0.016558101 0.20472325 0.34462497 0.16953205 -0.16589627 -0.19938308 -0.18055277 0.14206535
0.33091363 0.18577744 0.13290904 -0.35158804 -0.07808763 0.3471028 -0.4549268 0.081863835
-0.4604761 0.3117854 -0.19505823 0.70841235 -0.18633726 -0.2156706 0.2492156 -0.038541246
-0.07164431 0.64117306 -0.0358785 0.42717025 0.1377024 -0.04279894 -0.4166342 -0.51848143
-0.44388443 0.47302765 0.018594543 0.010680666 0.3913201 -0.3150117 0.10105063 0.6510675
-0.28482214 -0.04905682 -0.7425229 0.1109342 -0.2083236 0.14842802 -0.22010376 0.7009887
0.27602297 0.031095399 -0.11433723 0.16319291 -0.30509347 -0.33094132 -0.06883838 -0.67713344
-0.28578427 0.1892244 0.34594896 0.06372986 -0.026133955 0.6135286 0.11006038 0.11822763
-0.2360136 0.046648715 -0.15648317 -0.18875818 -0.3117036 0.28679037 -0.4784659 0.23374431
0.16458607 -0.1771717 0.21164955 0.022496965 0.5493561 0.060784563 -0.3577373 -0.06747038
-0.42521712 0.15336993 -0.1436528 0.37651438 -0.378888 -0.015250745 0.34082758 0.081732176
0.23428024 -0.025129927 -0.059699364 0.07498444 -0.07278431 -0.018857822 -0.27227086 0.13047594
0.11099501 -0.3925818 0.057190098 -0.1817397 -0.12550329 -0.039590962 0.08321924 -0.0860337
-0.17119275 -0.16221476 -0.21730797 -0.30371624 -0.32404843 0.3074117 0.33706582 0.158779
-0.2348821 -0.09996761 -0.1835461 -0.31814793 0.038674463 -0.3146633 0.021185428 -0.11551362
0.15763398 -0.1472908 0.18753643 0.1868716 0.068876356 0.051057838 0.24963963 0.26408103
-0.105533235 0.3986964 -0.12715025 -0.032938655 0.33028162 0.009402422 0.00079253595 0.2496152
-0.06895414 -0.19863494 0.13621777 0.13983864 -0.049250454 -0.08499668 -0.21764071 -0.3791581
-0.059435632 0.19615237 0.1655714 -0.044152718 0.43272153 0.061976083 0.06919972 0.049367607
-0.0041794414 -0.046105575 -0.012464589 -0.079435505 0.06408642 -0.09493466 0.12533443 0.18086608
-0.15287657 -0.019341705 0.14476454 0.081930384 0.2109383 0.0036726294 0.022988727 0.062479112
-0.43874803 0.3711128 0.086596444 0.06985302 -0.026726136 -0.1059864 0.05830983 0.14800246
-0.01838931 -0.14591107 -0.24661918 0.026985807 0.06422031 -0.037127014 -0.16488357 0.32929176
0.51719254 0.099964365 -0.3189957 0.17645244 0.01953281 0.18600138 0.2291848 -0.31772533
-0.47375187 0.10649292 0.0676433 -0.25417233 0.01316917 -0.37590963 -0.12782906 -0.19764894

tensor_b1 f4 [1, 300]
00000000: 4e71 0f3d 73f2 843d 4222 9d3d 1dcd 4e3e
00000010: daf9 9a3e f476 263e 97db 0e3d 780f aa3e
00000020: 39e0 40be faaa 863d ff05 5ebd f850 883e
00000030: 7234 ae3e aab0 873d 9380 57bd a8e5 c13e
00000040: fff2 45bc 186a ff3e f66d 0e3e d1e8 c33c
00000050: 4da3 d23b 6063 053e 542d c33d c7f6 9f3e
00000060: 7ff1 6e3e f5fe 19be 4a3d 393e fcdd 3fbe
00000070: 85e9 c33d f986 3f3e f241 853d f259 813e
00000080: 036f b13d 0012 453f d788 2c3d 0abc 183f
00000090: b375 0a3b 4eae c2bd fd0c 26bd 38c2 663e
000000a0: 0ac3 fd3c 2bc1 2b3e 8f50 5c3d 2272 243e
000000b0: 3612 353e ca29 1f3f a6d7 22be 8e3d 18be
000000c0: a303 9f3d a778 483e e84e 49be f9eb 1fbe
000000d0: bade 89bd 5be4 dd3c deae e5be ef07 d23d
000000e0: 8847 783d 1324 8d3e 5962 523c 4cc2 4abe
000000f0: e015 283c f3e4 13bd d317 5cbe a4aa 63be
00000100: 9ff1 b73b d7e5 8b3c 4f9a 5dbd 7e5e 43be
00000110: 3fea 26be 12b0 c73b 132a 8cbe 4dfb 393e
00000120: bddf 4dbe 3e53 193e 4808 dd3d 4808 d8bd
00000130: e4a2 b1be a87e 8c3d 3121 0fbe 9924 aebe
00000140: 0e49 6d3e dd61 f53e b8dd e5bd 672e 2abd
00000150: ac81 f93d 97e9 f1bc 5cba 82bd 2b7c 6e3d
00000160: 63dc 86bd 007b dbbe 6f8f a6bc a54b 123e
00000170: 30c8 e03d 4df7 b9bc f3d6 f23c 2e53 f4bd
00000180: a95e 13bd 22be b33d fc56 503e d68b 3d3b
00000190: 7e04 07be 3c98 3c3d a0ae b7bd 902f fbbd
000001a0: 3462 493e 4008 80be f276 cfbd 23d0 4e3e
000001b0: 1f2e 3d3e 8a28 42bd 57fb 503e 8859 863e
000001c0: 2170 55be df5f 92be ce59 5fbc c0d3 fb3d
000001d0: 97e6 9cbc f794 9f3e d2ee b2bd 6f50 e0bd
000001e0: 94b8 c2bd 9840 26be cfdd aebe bcff 4d3e
000001f0: caed 21be aa77 25be 9bc7 463e 1f26 923d
00000200: 8a90 e9bc bf6e 743e 2425 79be adf9 c0be
00000210: cf44 5a3d 1f0e cebd 1bb8 80bd 6cb6 343e
00000220: 53a5 32be e324 dabb 6533 1c3f 47aa 33be
00000230: 46ff 7f3e 054a 343d 42fd 79bd c756 573e
00000240: 0e87 623d bc12 80bd ab1a 0ebe 185d 94be
00000250: d7ee eebe 8354 09bd 0000 0000 0000 0000
00000260: 0000 0000 0000 0000 0000 0000 0000 0000
00000270: 0000 0000 0000 0000 0000 0000 0000 0000
00000280: 0000 0000 0000 0000 0000 0000 0000 0000
00000290: 0000 0000 0000 0000 0000 0000 0000 0000
000002a0: 0000 0000 0000 0000 0000 0000 0000 0000
000002b0: 0000 0000 0000 0000 0000 0000 0000 0000
000002c0: 0000 0000 0000 0000 0000 0000 0000 0000
000002d0: 0000 0000 0000 0000 0000 0000 0000 0000
000002e0: 0000 0000 0000 0000 0000 0000 0000 0000
000002f0: 0000 0000 0000 0000 0000 0000 0000 0000
00000300: 0000 0000 0000 0000 0000 0000 0000 0000
00000310: 0000 0000 0000 0000 0000 0000 0000 0000
00000320: 0000 0000 0000 0000 0000 0000 0000 0000
00000330: 0000 0000 0000 0000 0000 0000 0000 0000
00000340: 0000 0000 0000 0000 0000 0000 0000 0000
00000350: 0000 0000 0000 0000 0000 0000 0000 0000
00000360: 0000 0000 0000 0000 0000 0000 0000 0000
00000370: 0000 0000 0000 0000 0000 0000 0000 0000
00000380: 0000 0000 0000 0000 0000 0000 0000 0000
00000390: 0000 0000 0000 0000 0000 0000 0000 0000
000003a0: 0000 0000 0000 0000 0000 0000 0000 0000
000003b0: 0000 0000 0000 0000 0000 0000 0000 0000
000003c0: 0000 0000 0000 0000 0000 0000 0000 0000
000003d0: 0000 0000 0000 0000 0000 0000 0000 0000
000003e0: 0000 0000 0000 0000 0000 0000 0000 0000
000003f0: 0000 0000 0000 0000 0000 0000 0000 0000
0.035020165 0.06491556 0.0767255 0.20195432 0.30268747 0.16256315 0.034877386 0.33214927
-0.18835534 0.0657558 -0.054204937 0.26624274 0.34024388 0.06625493 -0.052612852 0.37870526
-0.012081861 0.4988563 0.13909134 0.023914726 0.0064281584 0.1302619 0.0953013 0.31242964
0.23334311 -0.15038665 0.18089786 -0.18737024 0.09566025 0.18703832 0.06506719 0.25263935
0.08663752 0.7698059 0.04212269 0.59661925 0.0021127283 -0.09505902 -0.04053973 0.22535026
0.030976791 0.16772906 0.053787764 0.16059163 0.17682728 0.6217314 -0.15902576 -0.14867231
0.077643655 0.19577275 -0.19659007 -0.1561736 -0.06731935 0.027086427 -0.44859976 0.102554195
0.060615093 0.27566585 0.012840831 -0.19800681 0.010259122 -0.036107015 -0.21493463 -0.22233063
0.0056135203 0.01707737 -0.05410224 -0.19079015 -0.16300295 0.0060939873 -0.2737585 0.1816227
-0.2010488 0.1497316 0.10792595 -0.105484545 -0.34694588 0.06860095 -0.13977505 -0.34012297
0.231724 0.47926226 -0.1122393 -0.04154816 0.12182936 -0.02953033 -0.063832015 0.058223885
-0.06585004 -0.4286728 -0.020332066 0.14286669 0.10975683 -0.02270093 0.029643511 -0.11929928
-0.035978947 0.08776499 0.20345682 0.002892246 -0.13185307 0.04604362 -0.08968854 -0.12264931
0.19666368 -0.25006294 -0.10130109 0.20196585 0.18474625 -0.047401942 0.20408379 0.26240182
-0.20843555 -0.2858877 -0.013632251 0.122962475 -0.019152923 0.3116834 -0.087369576 -0.109528415
-0.09507862 -0.16235578 -0.34153602 0.20117086 -0.15813366 -0.1615893 0.19412081 0.07136177
-0.028511304 0.23870371 -0.24330574 -0.37690488 0.053288277 -0.10061287 -0.06285115 0.17647713
-0.17445879 -0.0066572293 0.6101592 -0.17545424 0.24999723 0.044015903 -0.06103254 0.21029197
0.05530458 -0.06253573 -0.1387736 -0.28977275 -0.46666595 -0.033527862 0.0 0.0
0.0 0.0 0.0 0.0 0.0 0.0 0.0 0.0
0.0 0.0 0.0 0.0 0.0 0.0 0.0 0.0
0.0 0.0 0.0 0.0 0.0 0.0 0.0 0.0
0.0 0.0 0.0 0.0 0.0 0.0 0.0 0.0
0.0 0.0 0.0 0.0 0.0 0.0 0.0 0.0
0.0 0.0 0.0 0.0 0.0 0.0 0.0 0.0
0.0 0.0 0.0 0.0 0.0 0.0 0.0 0.0
0.0 0.0 0.0 0.0 0.0 0.0 0.0 0.0
0.0 0.0 0.0 0.0 0.0 0.0 0.0 0.0
0.0 0.0 0.0 0.0 0.0 0.0 0.0 0.0
0.0 0.0 0.0 0.0 0.0 0.0 0.0 0.0
0.0 0.0 0.0 0.0 0.0 0.0 0.0 0.0
0.0 0.0 0.0 0.0 0.0 0.0 0.0 0.0
