DeepDoubleX/102X/V02/CvL.onnx (onnx, 237799 bytes, 35 tensors)

ID_pred/kernel:0 f4 [100, 2]
000000 42 35 c9 3d 42 15 bd 3c 89 d7 ec bc 12 56 db bd
       0.09824611 0.023081426 -0.028911369 -0.10709776
000010 1e bc bc 3d b5 8b 6d 3c e3 52 55 bd f1 e4 cf 3d
       0.09215568 0.014498641 -0.052081 0.10151089
000020 0d 07 df 3c bb 57 c8 bd 98 13 f4 3c 79 3f 50 be
       0.027225042 -0.09782358 0.0297945 -0.20336713
000030 f8 60 b6 3d 93 cf 81 bc 3f c8 e4 3c 39 7a 66 bd
       0.08905214 -0.01584605 0.027927516 -0.056268904
000040 ff d1 10 3d 25 01 28 bd 49 0c 08 be 0d 27 b1 3c
       0.035356518 -0.041016717 -0.13285936 0.021625066
000050 45 1f 74 3e 5b fa 68 be 47 85 81 3d 51 48 4a bc
       0.23840053 -0.22751753 0.06324249 -0.012346343
000060 31 39 19 3e 7b 68 e1 bd 6c 70 be 3e c9 39 df be
       0.14963223 -0.11006256 0.37195146 -0.43598774
000070 63 79 41 3c fd a7 af bd 8a 3e 9b be 45 d2 9f 3e
       0.011808726 -0.08576963 -0.3032115 0.3121511
000080 f1 a5 d5 3d 1a 49 9b 3b 0c 35 bd bc 3f 48 e0 3d
       0.104320414 0.004738939 -0.023096584 0.1095128
000090 0d 14 dd 3c e0 33 47 bd 77 d7 e2 bd 32 91 40 be
       0.0269871 -0.048633456 -0.11076253 -0.18805388
0000a0 72 79 b1 3d 4b 34 2c 3c 7d f4 85 bd aa f3 12 be
       0.08665742 0.0105105145 -0.06540773 -0.14350763
0000b0 03 6a 19 3e d3 df aa bc 2b 72 93 3d 28 88 74 bb
       0.14981847 -0.02085868 0.0719951 -0.00373126
0000c0 a4 4a e6 3c ee 6b 5e bd 18 6c d4 bd 7d da 4b be
       0.028111763 -0.05430215 -0.1037218 -0.19907565
0000d0 5d 4a ab 3d 32 fb 2a bd 27 55 04 3e d1 74 5a 3d
       0.08363793 -0.041743465 0.12923108 0.05333406
0000e0 67 a2 1e bd 6f 33 a2 3d bf 7b 18 3d 58 ff 99 bd
       -0.038729098 0.079199664 0.03722739 -0.07519406
0000f0 30 ed bb 3d 58 59 4e 3c 39 dc 86 bd 57 82 76 be
       0.09176099 0.012594543 -0.06584973 -0.24073158
000100 dc ac 79 3b 59 65 99 bd fc ff 20 3d 6c 0f 83 bd
       0.0038097417 -0.07490034 0.039306626 -0.06399426
000110 ff 53 0c bd 48 00 f0 3d 99 8c ab b9 8b b3 4b be
       -0.034259792 0.11718804 -0.00032720415 -0.19892709
000120 98 17 82 3d b6 a2 34 bd ac 2b 51 bd bb 24 c2 3d
       0.063521564 -0.044100486 -0.05106704 0.09479662
000130 43 f5 81 bc d9 05 b9 bd 39 0a 26 bb cd 07 29 3e
       -0.01586402 -0.090343185 -0.0025335683 0.16506882
000140 d1 0f 82 3d 0a d2 50 bd 6c b4 81 3b 27 32 4f be
       0.06350673 -0.05098156 0.0039582755 -0.20233975
000150 3a 07 e5 bc 6b 04 c7 3d 4b 60 27 3e a3 4f ad 3d
       -0.027957547 0.097176395 0.16345327 0.08462455
000160 6e f4 81 be 78 05 66 3e 93 94 3c 3c 41 4c 53 3e
       -0.25381798 0.22463024 0.011510032 0.20634557
000170 2d 6e bc 3d d5 e4 7d bd 50 5e 58 3d f0 8b 20 bd
       0.09200702 -0.06198581 0.05282432 -0.039195955
000180 9e 03 0c bc ef f0 41 be bc 94 2c bd 1c 04 f9 bd
       -0.008545784 -0.18939565 -0.04213403 -0.12158987
000190 3e be 34 3e fe b9 e0 3c 02 f5 99 3e e0 ce 96 be
       0.17650697 0.027432438 0.3006974 -0.29454708
0001a0 82 1d eb 3d b5 5c 20 3d 56 28 8f 3d 7d 91 44 3e
       0.114802375 0.039150912 0.06990115 0.19196124
0001b0 40 f4 ed bd d9 b3 e3 3d e1 f6 df 3c 0e b3 85 bd
       -0.116188526 0.111182876 0.0273394 -0.065282926
0001c0 66 0a 3c 3d dc 89 7b bd 87 e3 8a 3d ee ca 37 be
       0.045908354 -0.06141077 0.06781679 -0.17948505
0001d0 dd 2c ea 3d a9 c8 13 3d 50 37 ca 3d 9e b0 3d bd
       0.11434338 0.036080036 0.09873831 -0.046311013
0001e0 40 76 69 3e 99 2c 81 bd a2 36 32 bc f5 1c cf bd
       0.22799015 -0.063073345 -0.010877283 -0.10112945
0001f0 cb 27 b3 bb 62 41 da 3d 37 de a8 3d 89 a7 ad bd
       -0.00546739 0.10657002 0.08245509 -0.084792204
000200 f7 39 85 3d ac 06 5e bd 0a c8 52 3c b9 a7 53 be
       0.065051965 -0.05420558 0.012865076 -0.2066945
000210 43 58 4b bc 3a 90 b6 bd ec 30 de bd 0c eb f3 3c
       -0.01241118 -0.08914228 -0.10849175 0.029775165
000220 9e 47 17 3e f4 21 34 3d e5 b3 f1 3e d6 44 02 bf
       0.14773414 0.043977693 0.4720756 -0.50886285
000230 8a b5 00 bd 30 06 f4 bd 27 cc 69 bd 25 a6 0d be
       -0.03142313 -0.11915243 -0.05707946 -0.1383291
000240 e0 9c 65 3c da 49 82 bd ad 7d c1 3d ca 9c 8c 3c
       0.014014453 -0.06361742 0.09447799 0.017164607
000250 9d 9d 7a 3d e5 10 69 bd 23 38 2b 3d b3 ba 95 bd
       0.061185468 -0.056900878 0.041801583 -0.07311001
000260 53 05 9c 3d ba d7 54 39 aa 79 8e 3c 55 22 a2 bd
       0.07618203 0.0002029826 0.017391998 -0.079167046
000270 5a 85 88 bd 22 7f 0f be 74 8f 05 3f 56 55 c8 be
       -0.0666606 -0.14013341 0.5217202 -0.39127606
000280 57 ee 58 bd ba 0e 67 3d 90 92 82 3d dd 4f 60 bc
       -0.052961674 0.05641053 0.06375611 -0.013690916
000290 c2 8e aa bd 14 33 04 3d 3b 9c 8b bd ef 35 77 3d
       -0.0832801 0.032275274 -0.06816908 0.06035417
0002a0 98 57 50 bc 81 2f d4 3d 0e e5 2e 3e 22 1e c3 3d
       -0.0127161965 0.10360623 0.17079565 0.09527232
0002b0 fb 7e ae bd 94 f3 d0 3d 88 f3 5b 3d 4f f1 99 bd
       -0.08520313 0.10202709 0.053699046 -0.07516729
0002c0 3c d1 64 3d 80 13 9c bd 36 31 ce 3d fc e0 7a 3c
       0.055863604 -0.07620907 0.1006798 0.0153124295
0002d0 d0 4b 0e be 12 48 ec 3c 0c 1a 7a 3e 4e 48 21 be
       -0.13896108 0.02884296 0.24423999 -0.15750238
0002e0 bb a7 23 3e 0e ea 7a be 10 22 fe bd 02 e4 5d 3e
       0.15981953 -0.24503347 -0.12408841 0.2166901
0002f0 7f 74 80 3d 7e 18 fc bc d5 81 db bd 3b ef 03 3a
       0.0627222 -0.030773398 -0.10718123 0.00050329015
000300 2f 58 95 bd 25 5c 23 be 6f 33 02 bc 25 42 b3 bd
       -0.0729221 -0.15953119 -0.007946833 -0.087528504
000310 b2 59 92 3c 5d d1 0b 3e 11 9f 91 bd 00 bb 16 be
       0.017865036 0.13654085 -0.07110418 -0.14719772

ID_pred/bias:0 f4 [2]
000000 04 54 4c 3f d7 53 4c bf
       0.798157 -0.7981543

fc1_relu/kernel:0 f4 [155, 100]
000000 fa f1 2b bd dc 41 fc 3d dc fc a4 3c 77 88 e5 be
       -0.041978814 0.12317249 0.020140104 -0.44830677
000010 5e 46 4b be fd 2e 81 be bf cd 96 bd 74 d5 9a 3e
       -0.19851062 -0.25231162 -0.07363462 0.30240977
000020 ce 25 a8 3d 0a 91 52 be 35 5f 6a 3f ad 48 aa 3c
       0.08210336 -0.2056314 0.91551524 0.020786608
000030 ca c9 df bd a1 51 2d bf 20 c4 c1 be ad bd 0d 3d
       -0.1092716 -0.6770268 -0.37844944 0.034604717
000040 77 e5 fa 3b b0 28 16 bf d4 2a 17 3e a6 1c 32 3e
       0.007656749 -0.58655834 0.14762431 0.17393741
000050 00 28 a5 3d df ec 9d bd 16 6b 84 bd f8 dd 1b 3e
       0.0806427 -0.07711195 -0.064657375 0.15221393
000060 9d 43 92 3e 4c 70 8e bc b8 85 1c bf f8 9c 66 be
       0.2856721 -0.017387532 -0.6114154 -0.22520816
000070 6f a9 f7 bd ca a8 33 3e e5 46 1d 3d a8 ff d5 be
       -0.12092864 0.17544857 0.03839769 -0.41796613
000080 da 18 16 be c9 39 ce bd 68 8a dc 3d 3e a5 17 be
       -0.14657918 -0.100696154 0.107685864 -0.14809129
000090 fe 58 1b 3f 90 e1 d3 bd a5 05 ce 3d 5d 76 dd 3d
       0.60682666 -0.10345757 0.1005967 0.10813592
0000a0 71 49 94 3e f1 ea 85 3e 3e 58 30 be 92 42 63 bd
       0.2896228 0.2615581 -0.17221162 -0.05548341
0000b0 d1 ca a7 3e fa 27 9f be ff a9 9f be 60 c0 09 3f
       0.32771924 -0.31085187 -0.31184384 0.53809166
0000c0 90 a1 91 3e 57 cc e7 3d 8d 32 b7 bd d8 b6 99 3e
       0.28443575 0.113182716 -0.08945189 0.3002231
0000d0 04 23 6a 3d 34 5b 29 be ef 89 8b be 12 05 02 bf
       0.0571623 -0.16538697 -0.27253672 -0.50788987
0000e0 af f1 23 3e f0 0a 67 be 02 83 07 3e d9 7a 6c 3e
       0.16010164 -0.22562766 0.1323357 0.23093738
0000f0 60 cd dd 3f e7 0c c1 3d 90 5e 90 be 04 fa a4 be
       1.73283 0.09426289 -0.28197145 -0.32221997
000100 3c ab 22 bf 2e 19 b7 3b c9 00 9e bc 04 74 9c 3e
       -0.6354253 0.0055877184 -0.019287484 0.30557263
000110 2d 8e 0d 3d d6 c2 4a 3e d8 1e 08 3f b8 9c e3 bd
       0.034559418 0.19800887 0.53172064 -0.11113876
000120 5a 5b 16 be 04 ba 21 3d c2 7d aa be d1 5e e5 be
       -0.14683285 0.03948404 -0.3329907 -0.44798902
000130 d6 77 06 3e 5f 10 92 3c ff 22 99 bd c0 f5 0b bf
       0.13131651 0.017830072 -0.07477378 -0.5467186
000140 ba 36 81 bd 66 ea e9 3d ca ff ce bd 5e 18 ae 3d
       -0.063092664 0.11421661 -0.10107382 0.085007414
000150 6d e6 7c 3e f1 9b b7 3d 0b af 9e bd c7 db bd 3d
       0.24697275 0.0896529 -0.077482305 0.09270435
000160 25 05 23 3c f2 d8 9f be 5c 6d f1 be e8 2a fa 3d
       0.009949957 -0.31220204 -0.47153747 0.12215215
000170 af f9 10 bf 99 a7 a5 bb aa 88 dd be 48 e5 d7 be
       -0.56630987 -0.0050553796 -0.4326833 -0.42167115
000180 ae 19 03 3f 34 7d a2 3c 26 08 a4 3e d8 4b 8c 3d
       0.5121106 0.019835092 0.32037467 0.068504035
000190 49 d4 8a be 2f cd c8 bd ef b8 44 bd da dd af 3e
       -0.27115086 -0.09804761 -0.04802793 0.34348947
0001a0 1f 96 a4 3e 7c ec 85 3c 3c 96 04 be cc 5b e5 3e
       0.32145783 0.016348116 -0.12947935 0.44796598
0001b0 d8 a7 10 be 85 ab 18 bd 74 6e 27 3f e8 f3 01 be
       -0.14126527 -0.03727295 0.65402913 -0.12690699
0001c0 5a 87 45 3e 43 a2 5c 3e f2 00 ab bc 00 99 1d 3f
       0.19289914 0.21546273 -0.020874474 0.61561584
0001d0 e3 78 f5 3d 61 d8 96 3e 1c 2a c1 bd 67 6a 54 bd
       0.11985948 0.2946196 -0.0943186 -0.051859286
0001e0 e0 a8 49 bd 88 5d 96 bd 0a 92 85 be 60 9f 93 ba
       -0.049233317 -0.073420584 -0.2608798 -0.0011262707
0001f0 67 5e 84 3d f1 b6 6c bd f4 02 9f be df 74 98 be
       0.06463318 -0.057791654 -0.3105694 -0.29776666
000200 91 aa 2d 3f 53 78 b7 3e 59 94 34 be 92 43 0a be
       0.6783839 0.35833988 -0.17634715 -0.13502339
000210 3c 52 79 be b3 3a 1d be 73 20 f9 be 0b a6 a8 3e
       -0.24347776 -0.15354423 -0.4865757 0.3293918
000220 9a 75 ee 3e 3e d4 67 bd 39 4c 83 bd 3c d0 f7 bd
       0.46574098 -0.056598894 -0.06411023 -0.121002644
000230 90 3a 26 be 2d 70 68 3f bb e6 38 3e c4 75 93 3c
       -0.16233277 0.90796167 0.18056767 0.018000491
000240 9d c1 01 3f 50 6d 97 3c 5f 92 e2 3c e2 51 2d 3e
       0.50686055 0.018484741 0.027657686 0.16925767
000250 ce c3 be be 44 b3 9b be 41 b8 1e 3f 07 be a6 be
       -0.37258762 -0.30410206 0.619999 -0.32566854
000260 59 6d 8b be 89 72 b3 3e 8e 07 02 3e ef e0 2d bb
       -0.27231863 0.3504832 0.12698194 -0.0026531776
000270 1a fe ef 3e 5c b6 dd 3e 22 eb 9c 3d 17 02 25 3f
       0.46873552 0.43303192 0.076620355 0.64456314
000280 b0 36 4c bd ce c8 16 3e 71 24 5c 3e f5 3e fa 3e
       -0.04985684 0.14725038 0.21498276 0.48876157
000290 4c c7 af be 05 37 ef 3e 92 f5 84 bd 7e 9a 0e 3f
       -0.3433174 0.46721664 -0.06492151 0.55704486
0002a0 d6 84 c8 be 12 c3 d4 3f 44 0e bd be 0a 79 e9 bd
       -0.39163846 1.6622031 -0.36924946 -0.114000395
0002b0 1c 8f 0a be bd e5 b9 3c 07 6a 48 3e 9c 26 1c 3d
       -0.13531154 0.022692556 0.19571696 0.03812276
0002c0 72 1a 0f 3d 30 43 a2 be 4f 3b e5 bd c8 d2 93 3e
       0.03493733 -0.31691885 -0.11192953 0.2887175
0002d0 30 33 93 be d1 87 8c 3d 88 56 74 bc d9 f8 9c bd
       -0.2874999 0.068618424 -0.014913209 -0.076646514
0002e0 1c 10 13 bf 10 31 5b be c7 c6 8e bd 10 a9 89 bc
       -0.57446456 -0.21405435 -0.069715075 -0.016804248
0002f0 d0 57 24 3f 8f bd ac bc a3 35 da 3d 23 46 dd 3f
       0.6419649 -0.021086482 0.10654762 1.7287029
000300 e6 0a 82 bd e1 8b 5d 3e c3 68 8b 3e 98 0f 1a bc
       -0.06349735 0.21635391 0.27228364 -0.009403132
000310 bf de ad 3d 7a a9 53 be 65 6d d3 3e 11 28 9d bd
       0.08489751 -0.20670119 0.412944 -0.07673658
000320 1a 05 a4 3e b3 60 2c 3e 3e 62 0e 3e 31 6e 54 3e
       0.32035142 0.16833763 0.13904664 0.2074516
000330 3e 14 0d be 68 26 06 3f 7c 99 b5 3e a0 67 19 3d
       -0.13777253 0.52402353 0.35468662 0.03745234
000340 0d 3f be bd cf 9a f5 3d 57 85 27 3f 5c 6c 37 3d
       -0.0928937 0.11992418 0.65437835 0.044781074
000350 42 54 b8 be f4 57 ad bd 62 4c 81 be e3 43 81 bf
       -0.36001784 -0.08464041 -0.25253588 -1.0098842
000360 93 3b ae 3d 1e 48 d0 3e 2e 93 5d bd d3 0a 26 bc
       0.08507457 0.4068002 -0.05409544 -0.010134417
000370 9c c4 92 bc 26 09 e4 be 0f 3a 41 3e 28 e0 83 be
       -0.017916016 -0.4453823 0.18869804 -0.25756955
000380 d5 01 b4 3e 95 ae 40 3d 2a e0 f7 be a8 d9 d0 3e
       0.35157648 0.047041494 -0.4841321 0.4079106
000390 83 8e 0a 3e f8 8b 42 be 69 3b c0 bd 2d 7b af 3e
       0.13530926 -0.18998706 -0.093863316 0.34273663
0003a0 ce 87 97 bd 49 93 7f be 0d 38 0e bd f1 35 dc 3d
       -0.073989496 -0.24958529 -0.034721423 0.10752476
0003b0 8f 4b e1 be 3f 10 81 be 5c 07 ff bd d4 89 48 3d
       -0.4400296 -0.25207707 -0.124525756 0.04895957
0003c0 63 5c b1 bb 73 1f 81 bf 3d 5e cd 3d 83 14 0c 3f
       -0.0054126247 -1.0087723 0.1002774 0.547188
0003d0 00 82 17 bf 5b d6 a4 3e 49 7b e1 bd 06 d7 d9 bd
       -0.5918274 0.3219479 -0.11009843 -0.106367156
0003e0 70 15 5c 3f 04 e5 e6 3c 74 2d 3b be dc 4a a7 be
       0.8597021 0.028185375 -0.18279058 -0.326743
0003f0 43 8c ce 3e 4b 41 43 bd 8c 3f 81 be 17 14 08 3e
       0.40341386 -0.04766969 -0.25243795 0.13288914

fc1_relu/bias:0 f4 [100]
000000 96 60 88 3e 64 b3 90 3e 76 89 43 3e e3 a8 a9 be
       0.2663619 0.28261864 0.19095406 -0.33136663
000010 03 88 25 bf 79 cb 4b bf e3 ab 07 be 4e 8d ec 3d
       -0.6466066 -0.7960735 -0.13249163 0.11550389
000020 5d f1 5c 3e aa 7a f9 be a8 45 34 bf 6b 52 7d 3e
       0.21576448 -0.48726398 -0.70418787 0.24738471
000030 dd 58 ae bf 4f 5d eb bf 0c ad 22 3d 9d 7c b8 bf
       -1.3620869 -1.838785 0.03971581 -1.4413029
000040 c2 46 8c 3c 45 97 30 bf ba 31 53 3e 0b cd 70 3e
       0.017123584 -0.6898082 0.20624438 0.23515718
000050 ea 5a 67 3e a1 30 80 3e 3b eb 13 bf 9c 05 6b 3e
       0.22593275 0.250371 -0.5778081 0.22951359
000060 02 28 27 3d 2b 56 48 3e af 70 dd bd cc 14 92 3e
       0.04080964 0.1956412 -0.10812508 0.28531492
000070 86 ff b7 be 29 56 d6 bc d2 ee 04 3e 5c c1 ed be
       -0.35937136 -0.026164131 0.12981728 -0.46436584
000080 6e f3 67 3e 15 9c cd 3d cc 1e d8 be ec c5 7f bf
       0.22651455 0.10039536 -0.42210996 -0.9991138
000090 12 1f 9d be a8 2c d4 be 7e df 85 3e 48 a5 b2 be
       -0.30687767 -0.4144032 0.26147074 -0.34891725
0000a0 e6 2c af be d0 67 8c bf b1 f4 d4 be dc 1e 54 3e
       -0.34213942 -1.0969181 -0.41592935 0.20714897
0000b0 e9 c6 ec bf 70 7a 00 bf eb db bc be 6f 0e 65 be
       -1.8498203 -0.50186825 -0.36886534 -0.22368787
0000c0 b9 14 d6 be 53 26 6a 3e e4 0c 6f bf 3e 22 57 bf
       -0.41812685 0.22866182 -0.93379045 -0.84036624
0000d0 26 14 91 3e e4 df 0b bf 14 7c 4a bf a4 47 39 bd
       0.28335685 -0.54638505 -0.7909558 -0.045234337
0000e0 aa 2d 20 3e 4e c7 4f bf ec ba 62 3e 87 44 4f bf
       0.1564242 -0.8116349 0.22141618 -0.8096394
0000f0 dd b1 64 bf 9a f6 7d bc 93 4b 8c be 7e f7 2e bf
       -0.893339 -0.015500689 -0.2740141 -0.68346393
000100 c4 2e b9 bc 8d 5b 47 bf ff d6 6e 3e 05 79 a9 be
       -0.022605307 -0.7787407 0.23324202 -0.33100143
000110 cc 6e b3 3d 2c 95 0d bf a0 79 1b bd 12 e5 8f 3e
       0.08761367 -0.55305743 -0.037957788 0.28104454
000120 eb a5 77 3e cb 0e 71 3e 5f eb a7 bd c9 b0 2f bf
       0.24184386 0.235408 -0.0819919 -0.6862913
000130 8c 81 5c 3e 88 4f 3d 3b 4d ea 5f 3e 56 f8 d2 bf
       0.21533793 0.0028886516 0.21866722 -1.6482036
000140 ab 5d fa be 34 e9 6d 3e 54 23 92 be da f4 e0 bd
       -0.48899588 0.23233491 -0.28542578 -0.10984202
000150 67 e8 df be 56 b6 4e 3e a0 32 e5 be 2f 50 07 be
       -0.43731996 0.20186743 -0.44765186 -0.13214181
000160 48 01 f4 bd 75 85 85 3e 7b fd 06 bf c3 24 5c bf
       -0.11914307 0.26078382 -0.5273053 -0.85993594
000170 a9 87 82 bf a2 fc 7a bf bd b3 28 be 24 b6 b3 be
       -1.019765 -0.9804174 -0.16474815 -0.350999
000180 00 e2 a2 be f4 02 54 3e a1 5c f7 be 1e e8 47 3e
       -0.3181305 0.20704252 -0.48312858 0.1952214

scale f4 [5]
000000 aa cb ea 3d b8 a0 81 3e cf a9 42 3e 58 4a 88 3f
       0.11464627 0.2531793 0.1901009 1.0647688
000010 d0 27 a0 3e
       0.31280375

bias f4 [5]
000000 58 6e b1 bf 18 bc 24 bf 60 d7 cb be 50 b4 d4 3e
       -1.3861799 -0.6434951 -0.39812756 0.41543818
000010 db 0e a7 3c
       0.020392826

mean f4 [5]
000000 00 00 00 00 00 00 00 00 00 00 00 00 00 00 00 80
       0.0 0.0 0.0 -0.0
000010 00 00 00 80
       -0.0

var f4 [5]
000000 00 00 80 3f 00 00 80 3f 00 00 80 3f 00 00 80 3f
       1.0 1.0 1.0 1.0
000010 00 00 80 3f
       1.0

tensor_w f4 [1, 150, 32]
000000 bf 64 20 3f 8b 36 df 3e 05 7f 77 3f e8 24 29 3f
       0.62653726 0.435963 0.9667819 0.6607194
000010 16 98 f4 3e 43 9a 90 3e 4d 01 39 3f 29 3d 19 bd
       0.47772282 0.28242692 0.7226761 -0.037411842
000020 2f 82 8c 3e bc 89 c9 3e 79 ef 29 3f ab 46 af 3e
       0.27443072 0.39362895 0.6638103 0.34233603
000030 c9 02 22 3e 2c db e7 3e f6 92 46 3e 1b 6d 49 3e
       0.15821375 0.45284402 0.19391999 0.19670527
000040 8e d1 eb 3e e2 e6 30 3f 1c 57 63 3e 9d 46 53 3e
       0.46058315 0.691023 0.22201198 0.20632406
000050 b9 38 9c bd 31 f9 1d 3f 7f a0 6b 3e d3 14 92 3e
       -0.076280065 0.6170836 0.23010443 0.28531513
000060 0a 56 59 3e c6 1e f2 3d 53 5c 4d be 14 b6 c3 3d
       0.21224228 0.11822276 -0.2005475 0.09556213
000070 27 72 23 3e 47 0c 48 3e af 8c 2f be 69 78 a2 3e
       0.15961514 0.19535933 -0.1714351 0.3173249
000080 16 ce c7 3f 3a 18 eb 3e 4b ae 30 3e 0a 87 09 be
       1.5609767 0.4591692 0.17253987 -0.1343042
000090 59 72 9a 3e d9 8d a3 3f fc e5 f6 3e 10 30 ee 3e
       0.30165365 1.2777663 0.4822234 0.46521044
0000a0 b3 9f 86 3f 79 b8 27 3f ea 5b 29 3e 0d c8 2f 3f
       1.0517486 0.6551586 0.16538969 0.6866463
0000b0 4d 22 a0 3f fb d9 73 3e e0 96 f9 3d 2d d7 15 3f
       1.2510468 0.23813622 0.1218698 0.5853146
0000c0 42 86 02 3f 3c 7f 26 3e df 0b be 3e f3 20 0c 3e
       0.5098611 0.16259474 0.37118432 0.13684444
0000d0 c5 13 3b 3f 01 f1 43 3e 82 6a 42 3c a8 e5 89 3e
       0.7307704 0.19134904 0.011866214 0.26933026
0000e0 7b 1d 3b 3e 17 96 65 3d 5a 99 0d 3e da 1e 22 3e
       0.18272965 0.05605134 0.1382803 0.15832081
0000f0 ec 68 88 3f 8e cb fa 3d 1c 8d b2 3e 83 de d9 3d
       1.065702 0.12245856 0.34873283 0.10638144
000100 c8 9b d8 3e 9c 46 92 3d a5 5a 95 3e 08 a7 14 3e
       0.42306352 0.07142374 0.2917072 0.14516842
000110 49 42 22 3e 7d d2 d9 3e 26 67 b9 3e 69 92 2a 3b
       0.15845598 0.42543402 0.3621151 0.0026027209
000120 dc b4 ec bd 98 7d ee bd 3d 33 ed 3d b0 4f 41 3e
       -0.11557934 -0.11645049 0.115820386 0.18878055
000130 e7 f7 ab 3e b0 2a 9b 3e 82 20 db be dc 29 49 be
       0.33587572 0.30306005 -0.4279824 -0.19644874
000140 89 9c 12 3f 20 e2 3d 3f 21 7c 19 3e a8 4a 40 3e
       0.57270104 0.74173164 0.14988758 0.18778479
000150 11 11 8b 3e a6 1b c3 3e 49 7a bd 3e 1d f0 99 be
       0.27161458 0.38107032 0.3700736 -0.30066004
000160 a5 73 9b 3e f6 c4 cf 3e 2e 7b d2 3e 71 75 e9 3c
       0.30361667 0.40579957 0.41109604 0.028498383
000170 7a 0c 7e bd 9c 16 20 bd b0 0b df 3c 50 da b7 3e
       -0.062023617 -0.039084062 0.027227253 0.35908747
000180 1f 98 b6 bd c4 4b d4 3c fe ae 98 bd 32 e9 53 3f
       -0.089157335 0.025915034 -0.07455252 0.827777
000190 d3 bf f1 bd ef 43 0e 3f 1d 6a 0e be 7e 0c 2c 3f
       -0.11804166 0.5557241 -0.13907667 0.6720656
0001a0 7d 71 ab 3c dc 48 e1 3e 64 c4 a0 bd 51 89 8e bd
       0.020928139 0.440009 -0.078499585 -0.06959785
0001b0 77 05 b9 3e 0a 1c 5f bd f8 0a 89 3d b1 e9 a2 3d
       0.36136982 -0.0544701 0.06691545 0.07954729
0001c0 03 04 4f 3e 20 4b 1c bd 8b b4 b7 be d2 43 b1 3e
       0.20216374 -0.038157582 -0.3587993 0.34622055
0001d0 71 d5 94 3e a4 53 91 3e 20 a3 19 be 45 f1 dd be
       0.29069093 0.28384125 -0.15003633 -0.43348137
0001e0 0c 84 0d 3d 04 f1 1e bd 49 5b 78 be 79 6f 9b bd
       0.034549758 -0.03880407 -0.24253573 -0.07589621
0001f0 3b 06 67 be fb 64 b3 be 13 0c 7e be ee 31 75 3e
       -0.2256097 -0.3503798 -0.24809293 0.23944828
000200 35 f2 f5 3e f5 83 ef 3d 9b 9f 92 be 08 48 cc 3e
       0.48036352 0.11695091 -0.28637394 0.39898705
000210 cf 4c 83 3e a7 25 23 3f 0c 18 f2 3e 54 7d bd 3e
       0.25644538 0.6372933 0.4728397 0.3700968
000220 23 0d 95 3e 54 b4 26 3f ca aa 2d 3d 04 3a fa 3e
       0.29111585 0.6511891 0.042399205 0.48872387
000230 f8 9d 05 3f da 76 52 be 07 f6 10 3f 82 dc 68 bd
       0.52194166 -0.20553151 0.5662541 -0.056850918
000240 08 49 40 3f 28 1e 61 bb 15 a2 3a 3f ba 1e 92 3e
       0.75111437 -0.003435025 0.7290357 0.28539068
000250 14 3d 77 3e e9 b1 91 3e f8 c0 d8 be 07 0b b3 bc
       0.24144393 0.28456047 -0.42334723 -0.021855844
000260 0f a4 18 3d ae 6e 25 3e f9 c1 d6 be df 10 22 3e
       0.037265833 0.16155502 -0.41944864 0.15826748
000270 ea 22 17 3f 29 40 4c 3c cd dc 43 be c5 32 95 3d
       0.5903765 0.012466469 -0.19127198 0.07285074
000280 3a 43 9d 3e 50 71 5a 3d 61 70 eb bd 83 30 40 3f
       0.30715352 0.05333072 -0.11496044 0.75074023
000290 08 30 9b 3e df b3 3f 3e 1f 78 1f be db 10 8d 3f
       0.30310082 0.18720959 -0.15573166 1.1020769
0002a0 c2 fa 27 be f1 9a 97 3e 25 c1 43 3f bc ca f0 bd
       -0.1640425 0.29610398 0.7646659 -0.117574185
0002b0 09 15 d4 be dc ff ec 3e f5 eb 46 be 76 07 6a 3f
       -0.414223 0.46288955 -0.19425948 0.91417634
0002c0 14 81 01 3f 92 b9 ee 3d 11 ea 07 bf a0 3a cf 3e
       0.5058758 0.116564885 -0.5309153 0.40474415
0002d0 86 d6 4d be 72 04 17 3f 3e 78 9a 3e d6 4e fc 3e
       -0.20101365 0.5899116 0.30169863 0.49278897
0002e0 d6 97 b2 bd 97 3d b6 3e 46 ed 23 be 0a e7 c2 3d
       -0.08720367 0.35593864 -0.16008481 0.095167235
0002f0 f5 fc ac 3d 61 57 ad be 00 5c ce 3e de 9f ae 3d
       0.08446685 -0.33855727 0.40304565 0.08526586
000300 2b 8e 6d 3f ef bf a4 3f 51 c0 de be 53 cf 1c 3e
       0.92795056 1.2871073 -0.435061 0.15313463
000310 8b 10 62 3d c7 49 e9 3e ee 90 4b 3f 1a ed ee 3e
       0.055191558 0.455641 0.7951802 0.4666527
000320 49 ed 95 3f 3c b3 a8 3f 8e 03 fb 3d 5f d0 32 3f
       1.1713039 1.3179698 0.122565374 0.698492
000330 89 99 9a 3e bc f4 8a bd f1 35 2e 3e 63 d7 a5 bd
       0.30195263 -0.06784961 0.17012765 -0.080977224
000340 7c 14 e7 3f e3 8b e5 be 78 69 c1 3f cc 48 d1 3e
       1.8053126 -0.44833288 1.5110312 0.40875852
000350 a2 87 18 3f 03 5c 91 3f 39 7c 2d be 8e 28 a3 3d
       0.5958196 1.1356205 -0.16941918 0.079667196
000360 1d f2 59 be 83 19 42 be 64 08 fe bd 6b 8e e0 3e
       -0.21283765 -0.18955044 -0.12403944 0.43858656
000370 ba bc a0 3f ab 28 07 bf 1e 3f 29 be 95 97 98 be
       1.2557595 -0.5279643 -0.16527984 -0.29803148
000380 eb 35 22 3d 74 55 1b 3e a6 e7 c5 bd bf 5d 3b bc
       0.0396022 0.15169317 -0.09663324 -0.011435925
000390 dc d7 a6 3e 1f 6b a1 3e 1c 7b 0e 3d fb a2 88 3e
       0.32586563 0.3152704 0.034785375 0.26686844
0003a0 2f d4 20 3e d5 bf 2f 3f 40 86 2b 3d 2f f6 e8 3e
       0.15705942 0.6865209 0.041876078 0.45500323
0003b0 0e ca a6 3e 9f 93 c2 3e e3 fa ab 3e 67 56 8e bd
       0.3257603 0.3800325 0.3358985 -0.06950074
0003c0 97 b4 3d 3f 2d 2f 05 3f 56 3a ea 3d 34 aa 5c 3d
       0.74103683 0.5202511 0.11436908 0.053873256
0003d0 55 6c dd 3e b3 57 aa 3d ce 1c fc be 7a d0 87 be
       0.43246713 0.083175085 -0.49240726 -0.26526242
0003e0 1c b1 ca 3e 4f 44 76 3e dd 55 3a 3f 2a ca d0 3d
       0.3958825 0.24049495 0.72787267 0.1019481
0003f0 75 37 44 3e 38 c1 e2 3c 53 4d 5f 3e 62 6c 45 bd
       0.1916178 0.027680025 0.2180684 -0.048199065

tensor_r f4 [1, 150, 50]
000000 ff 36 3c bd bd a1 8a 3e cc e5 3b bd 0c 26 39 3f
       -0.045950886 0.27076522 -0.04587345 0.7232368
000010 4c 35 29 3e 11 27 d6 3e 1a 7b 0b 3e 14 95 9a be
       0.16524237 0.4182668 0.13621178 -0.30191863
000020 7d f2 2d 3f f7 88 c1 3e 17 dc 79 be b8 64 fb 3e
       0.6794813 0.37799808 -0.24400364 0.4910028
000030 b8 21 06 bf 88 01 40 be e2 d7 1e 3e 54 cc 09 3d
       -0.523952 -0.18750584 0.1551204 0.033642128
000040 18 90 b5 be 08 1f 11 3d 89 48 3c be 37 4a 16 3f
       -0.35461497 0.035429984 -0.18387045 0.5870699
000050 0a 8b 12 3d 8e 3a a5 be d5 b9 81 bf 62 69 59 3e
       0.03577713 -0.32271236 -1.0134836 0.21231607
000060 c5 c2 06 3e 78 99 77 3d 70 d1 8d 3c 74 8c 1e 3e
       0.13160236 0.060449094 0.017311782 0.15483266
000070 e2 29 af be 4f 5d 13 bf 23 f7 74 bd 4c d7 8d 3e
       -0.34211642 -0.5756425 -0.059806 0.2770332
000080 b4 0c 64 be 72 13 73 bd 60 0b 0d be 14 40 ff be
       -0.22270471 -0.059344716 -0.1377387 -0.49853575
000090 9e d8 49 bd 5b f3 8c be 3f 02 c8 bb 3d 71 a1 3d
       -0.049278848 -0.27529415 -0.0061037834 0.078829266
0000a0 8c 6a bf 3e 9e eb db 3e c1 1c 02 3f 39 d7 0b be
       0.37385976 0.429532 0.50825125 -0.1365632
0000b0 b4 d2 14 3f 6c 09 7e 3f e6 3d a6 be e9 11 9c be
       0.5813401 0.99233127 -0.324691 -0.30482414
0000c0 41 c2 ef 3d 6a a3 81 3a 35 c3 1f bf 3a 2e b5 3e
       0.11706973 0.000989062 -0.6240724 0.3538683
0000d0 4d de 0d 3e 8d c4 b4 3e d4 a1 5c be fc 45 b3 3e
       0.13854332 0.35306206 -0.21546108 0.3501433
0000e0 ff 0e cc be 0f 4c 04 bd c4 3a 07 3f e4 b7 76 be
       -0.3985519 -0.032299098 0.52824044 -0.24093586
0000f0 6d 0b 3b be de 8d 0a 3e 58 af 87 be a5 fa 8e be
       -0.18266077 0.1353068 -0.26500964 -0.27925602
000100 e8 e4 16 3e 61 a8 b3 3d 30 b7 9d be f7 2d 1f be
       0.14735758 0.0877235 -0.30803823 -0.15544878
000110 12 01 9b 3e fd d8 9c bd 5c 88 3a be ea 30 32 bd
       0.30274254 -0.07658575 -0.1821608 -0.04350368
000120 26 fd 75 be 16 e2 31 be 32 99 db 3e 83 97 07 3f
       -0.2402235 -0.17371401 0.42890316 0.52965564
000130 f2 33 c2 3c a8 1a 19 3e 10 ba af 3e ac cb 22 be
       0.02370641 0.14951575 0.34321642 -0.15898007
000140 9f 1b 40 3d 1f 64 39 be 1d 60 ee bd 70 8a 07 3e
       0.04690134 -0.181046 -0.11639426 0.13236403
000150 1a 7d cb 3c dc d5 ab be cc 3a ac 3c 29 e4 15 be
       0.024839927 -0.335616 0.02102413 -0.14637817
000160 f3 bc a7 3e e2 5d 22 3f 7e 3d 07 3e 6f 37 37 3d
       0.32761344 0.63424504 0.13207051 0.0447306
000170 44 a4 34 be 13 5b fc be c4 d2 be 3c 5b 95 f2 3d
       -0.17640787 -0.49288234 0.02329386 0.118448935
000180 25 74 10 3d e8 bb 3e 3b 11 69 bc 3e c9 12 cc bd
       0.035267014 0.00291037 0.3679891 -0.099645205
000190 30 28 06 3f 65 ff 62 3f de 56 cc bd 6e 23 87 3c
       0.5240507 0.8867095 -0.09977506 0.016496386
0001a0 19 e8 cf 3e 68 65 68 3f 3b 42 2d 3b 84 dd 82 be
       0.40606764 0.90779734 0.0026437182 -0.25559628
0001b0 d0 ef 1b 3d 89 84 56 3f 70 39 f2 be bb 91 d6 bd
       0.0380705 0.8379598 -0.47309446 -0.10477015
0001c0 a5 cd 57 3e 3a 4e b7 be ab e6 d7 3e d6 b0 94 3f
       0.21074541 -0.3580187 0.42168173 1.1616466
0001d0 38 d7 0f bf 3c 5e 7e 3e 1c 4e 3c bf c4 06 aa 3e
       -0.5618777 0.24840635 -0.73556685 0.33208287
0001e0 32 d1 62 bf 47 91 9f be fe 05 6a 3f 15 3e 39 3e
       -0.88600457 -0.31165525 0.91415393 0.18090089
0001f0 83 09 89 be 33 51 bc 3e d6 d9 39 bf 65 7a 37 3f
       -0.2676507 0.367807 -0.72598016 0.71671134
000200 d4 98 a0 be cc 5f e1 be 02 dc 16 3f 27 d1 1d bd
       -0.313666 -0.440184 0.58929455 -0.03852954
000210 f6 a1 a1 3b 01 47 9f 3d ad aa fc bd 6d cf fb 3e
       0.0049326373 0.07777215 -0.12337241 0.4918169
000220 a1 5a 79 3e d9 7b 20 3f 21 40 3d bf 13 3e 85 3f
       0.24350978 0.62688977 -0.7392598 1.0409569
000230 6b af d9 be 61 43 59 3e bf 4c 4a be c9 eb d0 3e
       -0.42516646 0.2121711 -0.19755839 0.4080489
000240 b5 65 f3 3e 5f d2 a9 be 22 56 77 be 6a c1 df bd
       0.47538534 -0.33168313 -0.24153951 -0.10925563
000250 43 22 ed bd 07 e0 c8 bd c7 15 a3 3e c6 80 9a 3e
       -0.115788005 -0.09808355 0.31852552 0.3017637
000260 38 72 b8 3e 11 5d 4f 3f 33 e7 33 3f 55 ff 17 3f
       0.36024642 0.81001383 0.70274657 0.5937398
000270 4d bb b3 be 32 6f a6 3f 00 8e bd be 32 76 97 3f
       -0.35103837 1.3002684 -0.370224 1.1832945
000280 ae b8 19 bf 56 ea c7 be 36 64 23 3f 86 5c 74 be
       -0.60047424 -0.39045972 0.63824785 -0.2386342
000290 7e ed 16 bd 02 67 28 3f 30 83 84 bf 6a b8 10 3e
       -0.036847584 0.6578218 -1.0352535 0.14132848
0002a0 5e 5a 91 be 39 7e 03 3f 67 1c b4 be 30 4d 6b 3f
       -0.28389257 0.51364475 -0.3517792 0.91914654
0002b0 f8 87 16 bf 31 29 55 3c a0 8c 04 3d dd c0 91 3e
       -0.5880122 0.013010309 0.032360673 0.28467456
0002c0 0a 48 61 3e d7 c6 98 3c 1a 86 72 bd 05 81 14 bf
       0.22000137 0.018649502 -0.05920992 -0.5800937
0002d0 a0 d6 65 3e 87 a1 9e 3d 57 2d 01 bf b0 41 92 3d
       0.22445154 0.07745653 -0.5045981 0.07141435
0002e0 b4 f4 10 bf 16 61 d9 be d4 53 0b bf dc 51 cd 3e
       -0.5662339 -0.42456883 -0.54424787 0.40101516
0002f0 90 f0 b6 be fd 69 13 3f 3b cd 0d be 57 f9 81 be
       -0.3573041 0.575836 -0.1384782 -0.25385544
000300 9f 2d 9c 3c 09 d7 c9 be 83 7e 5b 3e f0 63 93 3e
       0.019064723 -0.3942187 0.21434979 0.28787184
000310 9b 78 b6 3e 4d 0d b0 be 81 bc 21 3e c3 2d de be
       0.3563889 -0.34385148 0.15794565 -0.43394288
000320 d7 f5 4f 3e 6e ad 36 bf f4 9c bd 3e 52 36 89 be
       0.20308624 -0.7135838 0.37033808 -0.26799256
000330 88 62 65 3f 50 16 ef 3c 07 75 be bd c1 bb ca 3e
       0.8960347 0.029185444 -0.09299665 0.3959637
000340 88 45 0a 3f f1 11 52 3f 17 32 7b bf 27 df 47 3e
       0.54012346 0.82058626 -0.98123306 0.1951872
000350 ca 4d bb bd 52 68 24 3e 67 9d 5e bd 14 7b 73 3f
       -0.091456965 0.1605542 -0.05434933 0.9510968
000360 bc e2 05 3f 18 33 c2 3e f6 6a f1 be b2 8f e9 3e
       0.52299094 0.37929606 -0.47151917 0.45617443
000370 79 0d 95 bf 57 14 4a be 4d 3e 33 be 06 63 00 bd
       -1.1644737 -0.19734322 -0.17504235 -0.031344436
000380 3c b9 8b 3c 6e c8 c8 bd d6 5c c3 bd 85 c0 74 3d
       0.0170561 -0.09803854 -0.095391914 0.059753913
000390 19 72 c1 be 48 e6 70 be aa 8a 5f be f6 4f 57 be
       -0.37782362 -0.23525345 -0.2183024 -0.21026596
0003a0 6f fd 6c be 6a 93 ba 3e f5 c3 bf be a5 a7 8e be
       -0.23143552 0.36440593 -0.3745419 -0.27862278
0003b0 b1 74 08 be e0 ce 6c be e3 00 86 bf 61 b3 a5 bc
       -0.13325764 -0.23125792 -1.0469021 -0.020227136
0003c0 08 42 41 3e c7 24 a3 bd c7 3e 90 3d 67 53 8a 3d
       0.18872845 -0.07965999 0.07043224 0.06754189
0003d0 d0 b3 31 3f 75 c3 95 bd d3 30 f9 3d 0d e5 60 be
       0.69415 -0.07312671 0.121675156 -0.21962376
0003e0 6a c2 12 3d f4 81 be bd b0 ee 7e bb 33 5f de 3e
       0.03582994 -0.0930213 -0.0038899593 0.43432006
0003f0 c6 39 c2 3e 5f 02 9b 3e 40 57 77 3f 6f 08 87 bd
       0.37934703 0.30275247 0.9661751 -0.065934055

tensor_b f4 [1, 300]
000000 87 70 c8 3e 4e 7c 24 3f 6e 64 fb 3e cf 99 6f 3f
       0.39148352 0.64252174 0.4910006 0.9359407
000010 1e 4b 36 3f 12 4f ce 3e 78 f7 3b 3f 78 6d 00 3f
       0.7120837 0.402947 0.7342448 0.50167036
000020 ee 14 e4 3e d0 51 c3 3e 19 b1 3a 3f bd 87 05 3f
       0.44547218 0.38148355 0.7292648 0.52160245
000030 3d f9 05 3f d2 01 16 3f fa fb 01 3f 24 1d a2 3e
       0.5233343 0.5859653 0.5077511 0.31662858
000040 b8 54 8e 3e a3 d4 6a 3f f2 ac eb 3e c4 3e 17 3f
       0.2779901 0.9173071 0.46030384 0.5908015
000050 b7 57 f3 3e 34 de 22 3f 3c 74 c6 3e d8 ea d9 3e
       0.4752786 0.63620305 0.38760555 0.42561984
000060 50 83 ff 3e 63 d0 08 3f f4 17 97 3e 5c 0f 0a 3f
       0.4990487 0.5344297 0.29510462 0.53929687
000070 d0 75 11 3f 6d 54 b3 3e 93 90 28 3f d9 6a 17 3f
       0.5682039 0.3502535 0.658456 0.5914741
000080 17 62 40 3f c2 97 90 3e 59 c3 b5 3e c2 95 d3 3e
       0.75149673 0.28240782 0.355006 0.41325194
000090 92 74 15 3f 04 b9 50 3f 55 43 86 3f 37 f9 3d 3f
       0.58381 0.8153231 1.0489298 0.74208397
0000a0 2d 50 cc 3e 3d e7 56 3f 8a 63 be 3e 9b 7a 8d 3e
       0.3990492 0.8394659 0.37185317 0.27632603
0000b0 22 00 8b 3e cf cb ff 3e 1a 89 09 3f 35 79 e5 3e
       0.2714854 0.4996018 0.53724825 0.44819036
0000c0 8a 64 08 3f c1 78 ef 3d 65 8f 6d bf f6 c0 4d bf
       0.5327841 0.11692954 -0.9279693 -0.8037256
0000d0 88 1d 12 3e 52 8f d1 be a0 de b8 be 23 73 e4 be
       0.14269078 -0.40929657 -0.3610735 -0.44619092
0000e0 1d 45 e1 bb 76 71 4e be 6d 58 fc bb d3 5f 5d 3d
       -0.006874694 -0.2016047 -0.007700971 0.054046463
0000f0 42 e9 98 3e 6e f6 f4 be a7 cb f3 be d6 9a 4a be
       0.29865462 -0.4784426 -0.47616312 -0.19785628
000100 e7 6b b7 3e ac 43 62 3d 3a 71 96 3e 8a 20 8c be
       0.3582451 0.05524032 0.2938326 -0.27368575
000110 ef 28 26 bf 13 47 86 be 8a 33 d1 3c 4a 21 8a be
       -0.6490621 -0.262261 0.025537271 -0.26978523
000120 fe d2 22 3e 20 42 e1 bd c7 fd 86 bd 37 59 37 bf
       0.159008 -0.109989405 -0.06591373 -0.71620506
000130 ab 27 f1 bc 8a 30 a0 be 67 b4 8f be 21 4d 01 be
       -0.02943786 -0.31287032 -0.28067324 -0.12627079
000140 31 c3 e6 be 8e ff 9c be 00 83 dc 3e d1 1d 44 be
       -0.45070794 -0.30663723 0.43068695 -0.19151999
000150 25 c9 28 3d 23 1f 0c 3d 6b 94 4d 3e 0b 8d b9 3e
       0.04120745 0.03420938 0.20076148 0.3624042
000160 91 77 eb bb de 88 10 bf 97 d4 03 bf 99 61 2c be
       -0.0071858843 -0.5645884 -0.5149626 -0.16834106
000170 85 16 94 be e5 48 1d bf 2d 84 43 bf 6d 42 77 3d
       -0.2892343 -0.61439353 -0.7637356 0.060366083
000180 04 e0 82 bf de be c7 be 83 21 79 be 44 96 85 bf
       -1.0224614 -0.39012808 -0.2432919 -1.0436482
000190 b9 d5 08 be b6 3e 5d be c5 1c 37 bd 6e 4e 06 bd
       -0.13362779 -0.21605954 -0.04470517 -0.03278964
0001a0 33 7f dc bd a2 49 86 3e aa 88 17 3e 96 55 8c bd
       -0.10766449 0.26228052 0.14798227 -0.06852262
0001b0 12 89 8d 3e ad db 1d 3e 1e 4e 54 be 04 a8 a9 3e
       0.2764364 0.15415831 -0.20732924 0.33135998
0001c0 57 30 ea bd 3b 4a a9 bd ce ce 25 be 84 ba 89 3d
       -0.11435001 -0.082661115 -0.16192171 0.06725028
0001d0 13 e0 b0 3c 03 ef a8 bd b3 9a 55 bd f2 b2 ca bd
       0.021591222 -0.08248713 -0.052149486 -0.09897412
0001e0 8f 74 a2 bd 2e 51 d1 3c 49 67 23 be ce 47 d7 bd
       -0.07932388 0.025551405 -0.15957369 -0.105117425
0001f0 ff b1 2f bd 65 98 d8 bc c8 ff f4 3d c8 7f 10 bd
       -0.04289436 -0.026439855 0.11962849 -0.03527811
000200 99 0d 04 3e f3 13 55 3d 55 7e 4c be bc 66 c2 3d
       0.12895812 0.05202098 -0.19970067 0.09492251
000210 c6 32 d2 bc a3 9c 10 3e 87 db 1b bc 94 d5 5d be
       -0.025658976 0.14122252 -0.009512789 -0.21663505
000220 48 b4 5c 3c 26 03 cf bd c7 b3 d9 3d e4 6f ec 3d
       0.013470717 -0.101080224 0.10629993 0.11544779
000230 4f ea ac 3e 3c 6f e8 bc 73 28 cb 3c 00 c8 00 be
       0.33772513 -0.028373353 0.024799561 -0.12576294
000240 d4 ae a2 3e bd eb c4 3d 82 58 d5 3c 4f 34 e0 3d
       0.31774008 0.09615276 0.02604318 0.10947477
000250 9b 9c 36 bb d9 9b a7 be 00 00 00 00 00 00 00 00
       -0.002786434 -0.3273609 0.0 0.0
000260 00 00 00 00 00 00 00 00 00 00 00 00 00 00 00 00
       0.0 0.0 0.0 0.0
000270 00 00 00 00 00 00 00 00 00 00 00 00 00 00 00 00
       0.0 0.0 0.0 0.0
000280 00 00 00 00 00 00 00 00 00 00 00 00 00 00 00 00
       0.0 0.0 0.0 0.0
000290 00 00 00 00 00 00 00 00 00 00 00 00 00 00 00 00
       0.0 0.0 0.0 0.0
0002a0 00 00 00 00 00 00 00 00 00 00 00 00 00 00 00 00
       0.0 0.0 0.0 0.0
0002b0 00 00 00 00 00 00 00 00 00 00 00 00 00 00 00 00
       0.0 0.0 0.0 0.0
0002c0 00 00 00 00 00 00 00 00 00 00 00 00 00 00 00 00
       0.0 0.0 0.0 0.0
0002d0 00 00 00 00 00 00 00 00 00 00 00 00 00 00 00 00
       0.0 0.0 0.0 0.0
0002e0 00 00 00 00 00 00 00 00 00 00 00 00 00 00 00 00
       0.0 0.0 0.0 0.0
0002f0 00 00 00 00 00 00 00 00 00 00 00 00 00 00 00 00
       0.0 0.0 0.0 0.0
000300 00 00 00 00 00 00 00 00 00 00 00 00 00 00 00 00
       0.0 0.0 0.0 0.0
000310 00 00 00 00 00 00 00 00 00 00 00 00 00 00 00 00
       0.0 0.0 0.0 0.0
000320 00 00 00 00 00 00 00 00 00 00 00 00 00 00 00 00
       0.0 0.0 0.0 0.0
000330 00 00 00 00 00 00 00 00 00 00 00 00 00 00 00 00
       0.0 0.0 0.0 0.0
000340 00 00 00 00 00 00 00 00 00 00 00 00 00 00 00 00
       0.0 0.0 0.0 0.0
000350 00 00 00 00 00 00 00 00 00 00 00 00 00 00 00 00
       0.0 0.0 0.0 0.0
000360 00 00 00 00 00 00 00 00 00 00 00 00 00 00 00 00
       0.0 0.0 0.0 0.0
000370 00 00 00 00 00 00 00 00 00 00 00 00 00 00 00 00
       0.0 0.0 0.0 0.0
000380 00 00 00 00 00 00 00 00 00 00 00 00 00 00 00 00
       0.0 0.0 0.0 0.0
000390 00 00 00 00 00 00 00 00 00 00 00 00 00 00 00 00
       0.0 0.0 0.0 0.0
0003a0 00 00 00 00 00 00 00 00 00 00 00 00 00 00 00 00
       0.0 0.0 0.0 0.0
0003b0 00 00 00 00 00 00 00 00 00 00 00 00 00 00 00 00
       0.0 0.0 0.0 0.0
0003c0 00 00 00 00 00 00 00 00 00 00 00 00 00 00 00 00
       0.0 0.0 0.0 0.0
0003d0 00 00 00 00 00 00 00 00 00 00 00 00 00 00 00 00
       0.0 0.0 0.0 0.0
0003e0 00 00 00 00 00 00 00 00 00 00 00 00 00 00 00 00
       0.0 0.0 0.0 0.0
0003f0 00 00 00 00 00 00 00 00 00 00 00 00 00 00 00 00
       0.0 0.0 0.0 0.0

tensor_w1 f4 [1, 150, 32]
000000 c2 ee a0 bd 01 07 c1 3d 83 61 cf bd ff 99 79 3e
       -0.078580394 0.09425164 -0.10126021 0.24375151
000010 dd df 2d bc 04 63 12 3f c7 f3 96 3c 6c 79 c9 3d
       -0.010612455 0.57182336 0.018426789 0.098376125
000020 18 f0 9f 3e 8b 1b e6 bd a1 4b ce 3c 4d 02 ca bd
       0.31237864 -0.11235722 0.025182547 -0.0986372
000030 54 75 ee bd 8d 42 73 3d 1a 3c ab bc 92 21 c9 3d
       -0.11643472 0.05938964 -0.020902682 0.09820856
000040 69 2d 06 be f8 2f 61 3f 22 2b cb 3e 10 4b 87 bd
       -0.1310326 0.8796382 0.39681345 -0.06606114
000050 51 ea ef 3e a5 36 c4 3e 8b 88 34 3e e2 b5 4a 3f
       0.46858457 0.3832294 0.17630212 0.7918378
000060 f3 75 08 3c 90 c6 67 3a 83 6d 0a be 34 b9 ec 3d
       0.008328903 0.0008841539 -0.13518338 0.11558762
000070 a2 a4 a4 3c b3 ba 06 3e c7 2a 76 bd 6e 53 db bd
       0.020098034 0.13157158 -0.06009939 -0.10709272
000080 97 3d 94 3d 32 18 98 3d 2c 84 89 3d 0d 32 13 3e
       0.0723831 0.0742649 0.06714663 0.14374562
000090 e1 bb 8d 3d ed 26 97 3f 38 09 0d 3e e7 d2 0e 3e
       0.06920601 1.1808754 0.13773048 0.1394764
0000a0 12 d8 11 3f be 47 d5 bd 0e 5d 80 3e c4 8d 46 3e
       0.5697032 -0.10414074 0.25070995 0.19390017
0000b0 6c 24 a2 3e 8a 59 05 3e 58 9e 81 be 3e c6 98 3d
       0.31668413 0.13022438 -0.2531612 0.07459687
0000c0 0f 28 be 3d a1 68 71 3f 06 3e a1 3f 50 4e 42 be
       0.09284984 0.94300276 1.2597053 -0.18975186
0000d0 ab 89 28 40 3e a0 a5 3e 6e 98 c2 bd c2 fc b4 3e
       2.6334026 0.32348818 -0.0950173 0.3534909
0000e0 3f 5d 9a bd e4 7b 8b bd f3 f8 13 bc 06 bf 9a 3d
       -0.075373165 -0.0681074 -0.009031522 0.07555966
0000f0 90 fb 78 be 06 cc ae 3d e4 12 a6 bd 45 9b 12 3b
       -0.24314713 0.08535008 -0.08109072 0.002237038
000100 8f 91 b9 bd fb 4f 95 3e 72 18 9a 3c 42 43 f2 3e
       -0.09060966 0.29162583 0.018810485 0.4731694
000110 5f 50 d8 3b 35 d4 fc 3e 82 3a 95 3c 9e f6 4a 3e
       0.006601378 0.4938065 0.018216375 0.1982064
000120 44 62 08 3f 1d fe 1b 3e ce c4 fe 3d 2c b9 de bd
       0.5327494 0.15233655 0.12439881 -0.108751625
000130 d9 1e fd 3d 4b 47 83 3e 04 1a 10 be 6b dc b0 3e
       0.12359399 0.2564033 -0.14072424 0.34543166
000140 21 5e 5c be 1f 75 c9 3e 50 d3 a9 3e 94 65 0b bd
       -0.21520282 0.3934717 0.3316903 -0.03403242
000150 ea 13 05 3e ed 53 e7 bb a9 af d9 3c c4 e5 4f 3e
       0.12995878 -0.0070595653 0.02657302 0.20302492
000160 f3 3c 05 3d 89 ff 27 3c 6a 9e f2 3d 34 4b 7b 3e
       0.03252883 0.010253795 0.11846621 0.24540406
000170 51 d8 97 be a1 6c 0a 3e 6b d6 4a bc 39 a5 09 3e
       -0.29657224 0.13518001 -0.012380223 0.13441934
000180 2c 41 43 3c c7 7c 9c 3d 41 44 47 be 6e ea a8 3e
       0.011917394 0.07640987 -0.1945963 0.32991356
000190 e3 09 fa 3a 8d 0d 08 3f a2 66 f2 bd b7 98 08 3e
       0.0019076433 0.53145677 -0.11835982 0.13339506
0001a0 91 4a 85 3f a0 d4 8e 3b 18 7b 8d 3e d2 9c 8f be
       1.0413381 0.004358843 0.27632976 -0.28049332
0001b0 ab 05 50 bd a4 93 f7 3d 4e f5 77 bd 26 e2 e6 3d
       -0.050786655 0.12088707 -0.060536675 0.11273603
0001c0 3d 5b 4a 3d fa c9 52 3f 3c cc 56 3e a4 78 a2 3f
       0.049403418 0.8233944 0.20976347 1.2693067
0001d0 44 a2 9e 3e 45 cd e0 3e 68 8c b6 3f 0f 49 21 3f
       0.30983174 0.43906608 1.4261599 0.63002104
0001e0 a8 bc 4e 3c 75 95 1d bc af e6 ed 3f 23 79 67 3d
       0.012618221 -0.009618153 1.8586024 0.05651201
0001f0 b2 fa 41 be c8 cd 55 3d c6 dc d4 bd c2 f4 83 be
       -0.18943289 0.0521982 -0.10393672 -0.25772673
000200 25 27 7e 3e aa 6f 9d 3e 2f 00 2b 3d 74 8d b9 bd
       0.2481962 0.30749255 0.041748222 -0.09060183
000210 42 ad 44 3e a7 3f 9e 3e a2 54 5b 3e a9 4e ea 3e
       0.19206718 0.30907938 0.21419004 0.45763138
000220 68 87 2e 3f a7 9c 4e 3e de ac 3e 3f 15 39 fa 3d
       0.68175364 0.20176946 0.74482524 0.12217919
000230 bc 9f 74 3e 6d 61 5f 3e e2 ec f8 bd c9 ab 6d 3e
       0.23889059 0.21814509 -0.12154557 0.23210062
000240 ee 25 2e 3d b9 3f 6a be d7 cf f8 bd 15 bd a6 3d
       0.04251664 -0.22875871 -0.12149017 0.08141533
000250 9b 1c cf bd cb 1a 77 be 2b 10 e2 3d 95 32 3b be
       -0.10112878 -0.24131314 0.1103824 -0.18281014
000260 de 3d 1d 3e f0 f2 2c be b4 35 a5 3e 23 38 74 3e
       0.15355632 -0.16889548 0.32267535 0.2384954
000270 33 34 4a bd 91 e0 25 3e 48 10 be 3d 8a be 0b 3f
       -0.049366187 0.16198947 0.09280449 0.54587615
000280 5c 16 26 3f 0b a3 fb bd 77 61 b5 bd a3 b5 1f 3f
       0.6487787 -0.12286957 -0.088564806 0.6238653
000290 3c 38 8a 3e 33 37 d8 be 88 11 2d 3e 5f 9f 82 3d
       0.26996028 -0.42229614 0.16901219 0.06378054
0002a0 7c 6f 49 be 07 26 7b be bf 6a b8 3f 28 3c 87 3e
       -0.19671434 -0.24526225 1.4407576 0.26413083
0002b0 84 3e 2d be 1b bd 35 be e1 74 b7 3d 16 b3 f1 bc
       -0.16918379 -0.1774792 0.0895784 -0.02950434
0002c0 e2 1a 85 3e 81 43 47 3e 0e 8b 98 3e 70 68 66 3c
       0.25997072 0.19459344 0.2979359 0.014062986
0002d0 f3 8a 99 bd d9 4e 05 3f f4 2d 89 bc 80 9e a6 3e
       -0.074972056 0.52073437 -0.016745545 0.325428
0002e0 de 2a 07 3e 5a ed 79 3c 50 03 0c be b7 30 37 3e
       0.13199946 0.015254343 -0.13673139 0.17889677
0002f0 f5 44 9e 3d ee 31 02 3e 23 77 ac bd 9c c5 24 be
       0.07727996 0.12714359 -0.08421161 -0.16091007
000300 35 88 08 3d 6e 41 2c 3e 7b eb 41 bf db a0 0b 40
       0.033333022 0.16821834 -0.7574994 2.1816928
000310 5b e4 21 3e 2f d9 3f 3e f6 46 2c 3f 46 63 6b 3f
       0.15809767 0.18735193 0.6729578 0.91948354
000320 d5 18 b4 3e 35 30 14 bf fa e1 3d 3f 40 99 9e 3f
       0.35175195 -0.5788606 0.7417294 1.2390518
000330 b6 09 b4 3d 09 66 9d 3b 49 73 4a 3d ad 9c bb 3e
       0.08790915 0.0048034233 0.04942635 0.36642972
000340 74 f1 65 3f d5 e5 2e 3f 63 e2 1b 3f 08 af 17 bf
       0.89821553 0.68319446 0.60892314 -0.5925145
000350 4d 31 c2 3d da 78 a2 3f c8 46 04 bf c4 c5 25 3f
       0.0948206 1.2693131 -0.51670504 0.6475489
000360 cf e0 5c 3d 41 7b d3 3d f8 ca 3a bf e0 c6 a8 3e
       0.05392533 0.10326243 -0.72965956 0.3296423
000370 a1 f4 88 be f2 b8 f2 3e d8 07 2f bf 83 b4 06 3f
       -0.26749137 0.47406727 -0.68371344 0.5261919
000380 29 ce c6 3e 4c ee f8 3e fd 04 89 3e 56 90 9a 3e
       0.38829163 0.48619306 0.26761618 0.30188245
000390 d8 ec a8 3e ea 38 a7 be 7e 03 f9 3d a8 75 4e bc
       0.32993197 -0.3266061 0.12158869 -0.012601294
0003a0 28 39 0c 3f e2 c4 08 3e 25 cd c3 3e ae 37 96 3f
       0.54774714 0.13356355 0.3824245 1.1735742
0003b0 d9 8b d2 3e fa 03 7c 3e 51 6a dd 3d 3e c1 d5 3d
       0.4112232 0.24610892 0.10811294 0.10437249
0003c0 f3 54 16 3d a4 b8 10 3e df 70 81 3e 1d 4a 5f be
       0.036702108 0.14132935 0.25281426 -0.21805616
0003d0 ca 1f 8f bc 2f 1a 3f bd 03 f9 f1 bd ab af 15 3f
       -0.017471213 -0.04665583 -0.11815073 0.58471173
0003e0 d6 5e a1 3e 7d 20 98 bd 50 d1 a7 3e 1d 6f 19 3f
       0.31517667 -0.07428072 0.3277688 0.5993517
0003f0 21 48 ee be 23 1b f5 3e 6e c9 c7 3e 8c 52 5a be
       -0.46539405 0.47872266 0.39020866 -0.21320552

tensor_r1 f4 [1, 150, 50]
000000 62 10 90 3f 3d dd c3 bd 35 eb 01 3f b8 db 21 3e
       1.1255 -0.09563682 0.5074952 0.15806472
000010 96 f7 bd 3d 13 5c 81 3e f9 75 a2 3e b2 b4 ec 3d
       0.09275739 0.2526556 0.3173063 0.115579024
000020 44 ec 6c ba 7d cb ab 3d 3d 20 7a 3c 7a fa 15 3f
       -0.0009037892 0.08388422 0.015266475 0.5858532
000030 32 fd ae be b2 dc 03 bd 6b 51 8b 3d 3b 69 19 3e
       -0.34177548 -0.032192893 0.068026386 0.14981548
000040 99 f7 02 be d8 ba 0e be e5 22 d0 be 58 fd 22 3e
       -0.12789764 -0.13938463 -0.40651622 0.15916955
000050 03 ed df be 4e 0d 2b 3d 0e 36 0c 3e 89 ad 1b 3e
       -0.43735513 0.041760735 0.13692495 0.15202917
000060 66 32 a2 bc 44 85 bc bd fa bb 15 3e 7b 45 e6 3c
       -0.019799422 -0.09205106 0.14622489 0.028109303
000070 9f fb 73 bd e5 ae 7b 3e 72 d5 8c be ba cf 22 3f
       -0.059566136 0.24578436 -0.27506596 0.63598216
000080 2e 02 87 bd 7e 30 0e bd a8 f5 fd 3c 0a e8 30 3d
       -0.065922126 -0.034714215 0.031000927 0.04319004
000090 2f fe d9 bd ba 7d a3 bc 27 63 d7 3c b9 cc 09 be
       -0.10644185 -0.019957412 0.026292397 -0.13457002
0000a0 54 9a 69 3e a8 0c 20 3e ef fe c4 3d d8 19 10 be
       0.22812778 0.15629828 0.09618937 -0.14072359
0000b0 4d 2e b5 3d 37 cb af 3c 90 87 37 bd 1c 2e 5a 3e
       0.08846722 0.021459205 -0.044807017 0.21306652
0000c0 ab d2 a4 3d f9 f7 fa bd ce e3 b1 3e 29 6d 18 3f
       0.08047994 -0.12254328 0.34744114 0.59541565
0000d0 bc 16 89 3e 49 40 48 3e 3f e9 e1 3d ac 1d b5 3d
       0.26775157 0.19555773 0.11030816 0.0884355
0000e0 ab c9 43 3e 81 98 9a 3d b8 96 d8 bd d9 bf 0e bd
       0.19119899 0.07548619 -0.10575622 -0.03485093
0000f0 04 86 8d bd 48 c3 d2 3e c8 0f 08 3e fd 13 13 bd
       -0.06910327 0.41164613 0.1328727 -0.035907734
000100 97 97 b8 3c 03 0a 41 bd 40 25 b0 3d 49 d3 0e be
       0.022533221 -0.04712869 0.08600855 -0.13947786
000110 8a 25 1a 3e 81 74 dc 3e b6 9a 51 be e9 1a 5c 3d
       0.15053383 0.43057635 -0.20469174 0.0537366
000120 d5 9e 83 3c bf 97 05 bc 03 49 52 3e 54 7b 30 3e
       0.016066948 -0.008153855 0.20535664 0.17234546
000130 f9 81 d9 bd a4 db df 3d 4b 3b 6b be c5 61 19 be
       -0.106204934 0.10930565 -0.22971837 -0.14978702
000140 73 66 50 3d 3d f6 94 be d4 cd a3 3c 53 98 5f 3e
       0.050878953 -0.29094115 0.019995607 0.21835451
000150 da 06 86 3d d1 e8 d9 bd f1 b1 73 3d 85 13 9d bc
       0.065442756 -0.10640109 0.05949587 -0.019174347
000160 9b e2 d1 bd b2 cf 3e 3e 66 71 38 3e f9 87 99 3d
       -0.102483 0.18633917 0.18012008 0.07496638
000170 57 54 71 3e 93 1a 8c 3d 05 fc c4 bd ce b6 d2 bc
       0.2356733 0.06841006 -0.096183814 -0.025721934
000180 76 64 24 bd 3b 13 86 3e d0 4a 69 be bd 53 2c 3b
       -0.04013487 0.26186547 -0.22782445 0.002629503
000190 78 a4 3c be b0 36 f3 3e 61 24 a4 3f dc 02 9e be
       -0.18422115 0.4750266 1.2823602 -0.30861557
0001a0 59 50 16 3e 1d 73 46 3f 9b d5 46 be 88 27 08 3e
       0.14679088 0.775194 -0.19417422 0.1329633
0001b0 d3 69 49 be 48 1e 51 3e 34 e0 b2 bc c6 9c 3a bf
       -0.19669275 0.20421708 -0.021835424 -0.7289547
0001c0 9f b8 6e 3d c3 6a b6 bd 48 8a 4a be 54 10 9d bd
       0.058281537 -0.08907082 -0.19779313 -0.0766913
0001d0 21 eb 54 be 3b 35 d9 be 29 cf a9 bd eb ed 1c be
       -0.2079282 -0.42423424 -0.08291466 -0.15325134
0001e0 9c 98 75 3e 86 56 9f be 81 4a d2 be 8a 0e 18 bf
       0.23983997 -0.311207 -0.41072467 -0.59397185
0001f0 ba 19 67 3e 79 a4 fc 3d 7f 85 94 3b a0 e6 5e 3e
       0.22568408 0.12336058 0.0045325155 0.21767664
000200 83 58 86 be 1c f7 f5 3c 31 8b 6a 3e ff 7c 52 3f
       -0.26239404 0.030025057 0.2290466 0.8222198
000210 5f b2 29 be a1 87 eb bd 05 4b 7a be a7 cc 9c 3d
       -0.1657195 -0.115004785 -0.2444268 0.07656222
000220 bb a5 8b 3e 7b 37 17 be 9a 49 f9 3e a6 94 6b bf
       0.2727488 -0.14767258 0.48688966 -0.92023695
000230 65 54 d2 3e cf 63 9b 3e bd d6 41 be 97 57 4a 3d
       0.41080013 0.30349585 -0.18929572 0.04939994
000240 75 9c cf bd d8 3b df 3c 46 ae bf bd 42 63 c5 b7
       -0.10137264 0.027250215 -0.09359412 -2.353045e-05
000250 c2 0e b0 3d e1 74 3d 3d b8 b2 f6 3e 88 18 3a be
       0.08596565 0.046254043 0.48183227 -0.1817342
000260 81 36 5b be a7 ec f8 3e 7e e2 67 3d 1b 7b 51 bd
       -0.2140751 0.4861805 0.056612484 -0.051142793
000270 6e cb d7 3d 24 0e 10 be c3 0f 27 3c 39 71 40 3e
       0.10536848 -0.14067894 0.010196629 0.18793191
000280 f2 b7 4b bc 30 cd ee 3d e1 f5 36 3d da 40 b8 bc
       -0.012433993 0.1166023 0.044668082 -0.022491861
000290 e7 8f e3 3c cb 20 6e 3d 4c c4 74 3d 62 4d a7 3d
       0.027778579 0.058136743 0.059757516 0.081690565
0002a0 1f 57 5c bd a3 5e b6 bd 90 c6 47 be 23 1f 40 bd
       -0.053794023 -0.08904769 -0.1950934 -0.046904694
0002b0 00 cc 20 be 5f 57 8e 3d 3b fb f1 bd 27 01 88 3e
       -0.1570282 0.069502585 -0.118154965 0.2656338
0002c0 c1 15 1e 3e fe b0 2d bb 7e 55 a0 3d 44 6e 3b bb
       0.15437986 -0.00265032 0.07828806 -0.002859966
0002d0 be 72 17 be 82 28 60 3e 9d 09 25 3e 10 25 f0 bd
       -0.14789864 0.21890453 0.16116948 -0.11725819
0002e0 1f 7b 81 bd 0b bb 61 3d d7 5d 7c be 57 14 2a be
       -0.063223116 0.05511002 -0.24645172 -0.16609322
0002f0 46 b9 ca 3e 79 ef db be 4f 5b e1 3c b9 f9 de 3c
       0.39594477 -0.4295614 0.02750936 0.027218686
000300 0c 57 d5 3c 7f 2f a1 be 8b 78 82 3d ff b0 5f 3e
       0.026042484 -0.3148155 0.06370648 0.21844862
000310 9d 52 dc 3d 47 28 90 be c3 4e a9 be 11 f4 7a be
       0.10757945 -0.2815573 -0.33067903 -0.24507166
000320 8d c5 c0 3d 1f ed 00 3d 15 e3 7f be 2e a8 4f be
       0.0941268 0.031476136 -0.24988969 -0.20278999
000330 27 dc 3d 3e 74 bd d0 3d 9c 4a 09 3e 7a 65 97 be
       0.18541013 0.10192385 0.13407367 -0.29569608
000340 cb 3c 36 bd b9 87 b4 be e3 f7 99 bd b9 fd 31 3e
       -0.04449157 -0.35259798 -0.07517984 0.17381944
000350 7f d0 92 3d dc 3c c0 3e 3b 5e 05 3e 64 c6 37 3d
       0.07168674 0.37546432 0.13024227 0.044866934
000360 d1 7a 17 3e 69 74 45 3e b8 22 9b be 03 79 87 bd
       0.14792944 0.19282688 -0.30299926 -0.06614878
000370 f9 68 89 3d e9 c6 46 3e 5b bd 39 be 4c dc dd 3d
       0.06709475 0.19411816 -0.1813864 0.10833034
000380 00 3d a2 bd 71 ff 1f 3f 4d e2 59 3f 06 43 3a 3d
       -0.07921791 0.6249915 0.8511093 0.045474075
000390 81 04 93 be 59 e9 16 3e c6 68 d8 bd 40 b4 c2 3e
       -0.28714374 0.14737453 -0.10566859 0.38028145
0003a0 e7 6e 7a be 06 63 0d 3d 29 9d 1d 3a d0 15 4f 3f
       -0.24456368 0.034518264 0.00060124934 0.8089266
0003b0 46 6a 62 3e 52 d0 6d 3d ff 93 82 3d 16 77 32 3e
       0.22110853 0.058059998 0.06375884 0.1742824
0003c0 ec a4 17 be 51 c4 ba 3d 5e 41 d4 3d b3 6b 7c 3e
       -0.14809006 0.09119476 0.1036403 0.24650459
0003d0 47 7a a3 3e fa 06 2b bd 0c 90 70 3e ab 12 60 3e
       0.31929228 -0.0417547 0.2349245 0.21882121
0003e0 c9 05 85 3e 2a e4 3e be 58 ff 3c 3f 6a 5b 4c 3d
       0.25980976 -0.18641725 0.73827124 0.049891867
0003f0 93 5f 46 3f 87 3d 40 3e ae b1 18 be 35 2e 5f 3e
       0.77489585 0.18773471 -0.1491153 0.2179497
