ParticleNetAK4/CHS/V01/particle-net.onnx (onnx, 938331 bytes, 42 tensors)

pf_conv.conv.0.weight f4 [23]
0	0x404a3314	3.1593676
1	0x40521c8c	3.2829924
2	0xbd1db008	-0.038497955
3	0x3ff5de3f	1.9208449
4	0xbd19e733	-0.037574004
5	0x3ed8326e	0.42225975
6	0x3f359151	0.7092486
7	0x3f2db833	0.6785919
8	0x3f5ea08b	0.8696372
9	0x3f87ea51	1.0618383
10	0xbd38045e	-0.04492604
11	0x3f2574bd	0.64631253
12	0x3f3f01d3	0.7461216
13	0x3f537582	0.8260118
14	0x3ff03808	1.8767099
15	0x3f1ebcae	0.6200665
16	0x3fa44bba	1.283561
17	0x3fd2472c	1.642797
18	0x3f8d79a2	1.1052744
19	0x402e3719	2.722113
20	0x3ea781c8	0.32716203
21	0x3f63c4cf	0.8897218
22	0x3f03a9a2	0.51430714

pf_conv.conv.0.bias f4 [23]
0	0x3bf35d3f	0.0074268873
1	0xbb2d784f	-0.0026469415
2	0xb91be466	-0.00014867037
3	0x3b130b75	0.002243725
4	0x3712958b	8.737096e-06
5	0x3a85b062	0.0010199661
6	0xba1d874a	-0.00060092343
7	0xba113288	-0.0005538841
8	0xb8b2c2e6	-8.524004e-05
9	0x3a11d3cd	0.0005562872
10	0x36a4d2e9	4.912134e-06
11	0x3901c938	0.00012377359
12	0xb866a2c4	-5.498786e-05
13	0x397a4380	0.00023867004
14	0x3a81864f	0.0009881946
15	0xba9599bb	-0.0011413613
16	0xbb28091e	-0.00256402
17	0xbae80506	-0.0017701692
18	0x3935f220	0.00017351704
19	0x39c3af1b	0.00037323762
20	0x3a912717	0.0011074272
21	0xba752c4c	-0.0009352609
22	0xba775f68	-0.0009436519

pf_conv.conv.0.running_mean f4 [23]
0	0xbd988f67	-0.07449227
1	0x3c78aed7	0.015178404
2	0x39e0655a	0.00042800122
3	0xba1712a4	-0.00057629705
4	0xbad6161d	-0.0016333495
5	0x3c21fa5c	0.0098863505
6	0xbea2888d	-0.31744805
7	0xbec6f223	-0.3885661
8	0xbf061fb3	-0.5239212
9	0x3eb9d28f	0.36293456
10	0xbc01ed84	-0.007930163
11	0x3f6e64f7	0.9312281
12	0x3b7e4138	0.0038796198
13	0x3e29abd2	0.1656945
14	0x3ee39e36	0.44456643
15	0x3d825f10	0.06365788
16	0x3f13fd80	0.57808685
17	0x3e4ce313	0.20008497
18	0x3f4efb08	0.80851793
19	0x3f28736e	0.6580113
20	0x3e6582fb	0.22413246
21	0x3e072d97	0.13200985
22	0x3e788ff2	0.24273661

pf_conv.conv.0.running_var f4 [23]
0	0x3ea1c322	0.31594187
1	0x3eaa11bd	0.33216658
2	0x3c683cc3	0.014174643
3	0x3c6d7ae4	0.014494631
4	0x3f2117ad	0.6292675
5	0x3eb9f690	0.36320925
6	0x3eed8251	0.46388486
7	0x3f07c248	0.53030825
8	0x3e9a6c72	0.30160862
9	0x3e6c91f5	0.23102553
10	0x4086bfb6	4.210902
11	0x4041bb07	3.0270402
12	0x4062b145	3.5420697
13	0x401961a2	2.396584
14	0x3ea095e2	0.31364352
15	0x3cf02985	0.029316673
16	0x3e737596	0.23775324
17	0x406c4f01	3.692322
18	0x402ac097	2.6680048
19	0x402326e9	2.54925
20	0x40c0a4b9	6.0201077
21	0x3d238fc2	0.03993202
22	0x3e20fe3c	0.15721983

sv_conv.conv.0.weight f4 [11]
0	0x400fe5eb	2.248408
1	0x4066b38c	3.6047087
2	0x3f32d056	0.69849145
3	0x3e224149	0.15845217
4	0x3db5b7b4	0.08872929
5	0x3fc95c17	1.5731229
6	0x3f54ca95	0.83121616
7	0x405f73a3	3.491433
8	0xbe0d76c3	-0.13814835
9	0x3f9e94df	1.2389182
10	0x402e9b42	2.7282262

sv_conv.conv.0.bias f4 [11]
0	0xb7a8425f	-2.0058067e-05
1	0x390f16db	0.00013646057
2	0x382d36fb	4.129762e-05
3	0x3734d98a	1.0779486e-05
4	0x36aa7007	5.0794365e-06
5	0xb5f04ee5	-1.7904355e-06
6	0xb7948fde	-1.7709968e-05
7	0xb578ea2a	-9.2727953e-07
8	0x38dc9b7b	0.00010519378
9	0xb7048b2b	-7.900216e-06
10	0xb9a54317	-0.00031521238

sv_conv.conv.0.running_mean f4 [11]
0	0xbdcdcb8a	-0.100485876
1	0x3d43a92f	0.047768768
2	0xb9a7d665	-0.00032012459
3	0xbb8b14ab	-0.004244407
4	0xbb9f2b30	-0.0048574433
5	0x3d58ec1f	0.052959558
6	0x3d00244a	0.031284608
7	0xbd8406e4	-0.06446627
8	0x3d314c90	0.043285906
9	0x3d3acbb1	0.04560441
10	0x3d313a21	0.043268327

sv_conv.conv.0.running_var f4 [11]
0	0x3e055ffd	0.13024898
1	0x3de9b5d0	0.11411631
2	0x3aac5e93	0.0013150744
3	0x3d7f9ec7	0.06240728
4	0x3e616223	0.22010092
5	0x3f0422cd	0.516156
6	0x3e3b5ceb	0.18297164
7	0x3da7e387	0.08197694
8	0x3e0cf1d8	0.13764131
9	0x3e19f3a8	0.15034354
10	0x3e0d10b4	0.13775903

pn.fc.0.0.weight f4 [128, 256]
0	0xbe2b247f	-0.16713141
1	0x3f4c517c	0.79811835
2	0x3f20c3dd	0.62798864
3	0xbf61b066	-0.8815979
4	0xbf488357	-0.7832541
5	0x3e1771b3	0.14789467
6	0x3f1a176b	0.60191983
7	0x3f1dc9de	0.6163615
8	0x3f152897	0.5826506
9	0xbf31b3f3	-0.69415206
10	0xbde0313d	-0.109468915
11	0x3dc9bce3	0.098504804
12	0xbf2d89a0	-0.67788124
13	0xbeea8368	-0.4580338
14	0xbf1ffe32	-0.62497246
15	0xbf1c0025	-0.6093772
16	0x3f41dad0	0.75724506
17	0xbeee87ec	-0.46588075
18	0x3de80d24	0.113306314
19	0x3d056573	0.032567453
20	0x3ea679c3	0.32514772
21	0x3f509f48	0.81493044
22	0xbd52a30e	-0.051425032
23	0x3f1653c6	0.5872158
24	0xbfc41809	-1.5319835
25	0x3cfc509b	0.030800154
26	0x3f1f6df1	0.6227713
27	0xbc8f2e92	-0.017478261
28	0x3f251908	0.6449132
29	0x3fc10e3f	1.5082473
30	0xbdddac5e	-0.10823892
31	0x3ec0d6e2	0.37663943
32	0x3e4c82f2	0.19971827
33	0xbe1edb10	-0.15513253
34	0xbee497c2	-0.44647032
35	0xbf68095e	-0.90639293
36	0x3d476292	0.04867799
37	0x3ed77e9a	0.42088777
38	0xbf86e00c	-1.0537124
39	0xbea868b4	-0.32892382
40	0xbe04a881	-0.12954904
41	0x3f2d67d3	0.6773655
42	0x3dced62c	0.10099444
43	0xbf174f4d	-0.5910538
44	0xbcceab4b	-0.025228163
45	0x3ff5ba5e	1.91975
46	0xbf9594d4	-1.1686044
47	0xbf08bbd8	-0.53411627
48	0xbf41dd93	-0.7572872
49	0xbf1909b6	-0.5978044
50	0x3f379e03	0.7172548
51	0xbfbec9a8	-1.4905291
52	0x3da8bb0a	0.082388
53	0x3eb9d381	0.36294177
54	0xbf69c3d4	-0.91314435
55	0x3ed129b0	0.40852118
56	0x3f63c46a	0.8897158
57	0xbf23b608	-0.6394963
58	0x3f22a4dc	0.63532805
59	0xbe7e4ba1	-0.24833538
60	0xbf0f81da	-0.5605751
61	0xbf09a88b	-0.537728
62	0xbd9f2cbc	-0.07772204
63	0x3f3f6c5b	0.7477471
64	0xbbdaa0d4	-0.0066720042
65	0x3dcce5a4	0.10004738
66	0x3f747654	0.95493054
67	0x3f1cad60	0.6120205
68	0x3fc72ef9	1.556121
69	0x3f8c2981	1.0950166
70	0xbe8f3132	-0.2796722
71	0xbe36b513	-0.17842512
72	0xbfc54eb3	-1.5414642
73	0x400cce3d	2.2000878
74	0xbf2c105d	-0.6721247
75	0x3f1bc4ec	0.60847354
76	0xbf31b383	-0.6941454
77	0x3f905543	1.127602
78	0x3f4f88d4	0.8106816
79	0xbf2a9f95	-0.6664975
80	0xbeddd775	-0.43328443
81	0xbeec7300	-0.46181488
82	0xbe6d34ea	-0.23164716
83	0x3eb7d979	0.35908106
84	0xbf101155	-0.56276447
85	0xbf189239	-0.5959812
86	0x3e9ee564	0.31034386
87	0x3f4de6e3	0.8043043
88	0xbf9d67c6	-1.2297294
89	0x3fcc20ed	1.5947548
90	0x3f660d1a	0.8986374
91	0xbf2d3276	-0.6765512
92	0x3e984543	0.29740342
93	0x3e6a48aa	0.22879282
94	0xbe5fa496	-0.21840128
95	0x3f19db2c	0.60100055
96	0x3fca93bb	1.5826334
97	0x3f457a22	0.77139485
98	0x3dac0850	0.08400023
99	0xbda04311	-0.07825292
100	0x3eeea52b	0.46610388
101	0xbfc8df76	-1.5693195
102	0x3d8c7618	0.06858462
103	0xbda73a6a	-0.081654385
104	0xbf8ead22	-1.1146586
105	0xbc098ce8	-0.008395411
106	0xbf830874	-1.0236955
107	0x3dd19b2a	0.10234673
108	0xbed9152f	-0.42398974
109	0x3e975ae2	0.29561526
110	0x3ed47242	0.41493422
111	0x3e837976	0.25678605
112	0xbf1a4b6a	-0.6027132
113	0x3f9e81a2	1.2383311
114	0xbedb4de2	-0.42832857
115	0x3e2b8ec0	0.16753674
116	0xbfb84775	-1.4396807
117	0x3f076e56	0.52902734
118	0xbf2f4b90	-0.68474674
119	0x3f0a2ce6	0.5397476
120	0xbe9e476c	-0.30913866
121	0x3fae03ab	1.3594869
122	0x3f4d6678	0.8023448
123	0x3f59da47	0.8509869
124	0x3f861f98	1.0478392
125	0x3ec5c34c	0.38625562
126	0x3aa95d89	0.0012921552
127	0x3edef957	0.43549606
128	0x3e4649d2	0.19364098
129	0xbee6fd0d	-0.45114937
130	0xbf0ce9ba	-0.5504414
131	0xbe6d356f	-0.23164915
132	0xbf107ec7	-0.56443447
133	0x3eef7171	0.46766236
134	0xbee83381	-0.45351794
135	0x3ea50a31	0.32234338
136	0x3e89870e	0.2686085
137	0xbee1a7c7	-0.44073316
138	0xbf8189e8	-1.0120211
139	0xbe9523b9	-0.29128817
140	0xbe58ab61	-0.21159126
141	0x3e7881d1	0.24268271
142	0x3cda3691	0.026637347
143	0xbec51082	-0.38489157
144	0xbf84755c	-1.0348315
145	0xbdefe639	-0.11713833
146	0xbf5ff242	-0.8747903
147	0xbf08c006	-0.53418005
148	0x4005e8db	2.0923374
149	0xbf38bb59	-0.7216087
150	0xbfac9363	-1.3482479
151	0x3f0d0778	0.5508952
152	0x3d4dfd3c	0.05029033
153	0xbf2edae9	-0.6830278
154	0xbe2bc688	-0.16774952
155	0xbedd27f4	-0.43194544
156	0x3f812541	1.0089494
157	0x3e585136	0.2112473
158	0xbdc166dc	-0.09443447
159	0x3e8c3124	0.2738124
160	0xbfa181fe	-1.2617795
161	0x3efbb378	0.4916036
162	0x3f9b95d6	1.2155101
163	0xbf08a3aa	-0.5337473
164	0xbf84148e	-1.0318773
165	0xbf7c1226	-0.9846519
166	0xbe8292f9	-0.25502756
167	0xbe06cd5e	-0.13164279
168	0xbe62ade0	-0.2213664
169	0xbdb99aba	-0.09062715
170	0xbebd6e41	-0.3699818
171	0xbf500d93	-0.8127071
172	0x3e1e1659	0.15438212
173	0xbd9d62b5	-0.076848425
174	0xbf2b5217	-0.66922134
175	0xbf48eae8	-0.7848344
176	0xbe1e1daa	-0.15441003
177	0xbec7b5ac	-0.39005792
178	0xbdc64fb6	-0.096831724
179	0xbeaa251d	-0.3323144
180	0x3e52c6a2	0.20583585
181	0x3f03acc7	0.5143551
182	0x3f91242a	1.1339161
183	0x3f6e0359	0.9297386
184	0x3e829c07	0.25509664
185	0xbf4f08a0	-0.80872536
186	0xbe9e2552	-0.30887848
187	0xbe9a95cf	-0.3019242
188	0x3ef03922	0.4691859
189	0x3ea2164e	0.31657642
190	0xbe002423	-0.12513785
191	0xbfb3ea3d	-1.4055859
192	0xbf3075bb	-0.6892964
193	0xbf35da1e	-0.71035945
194	0x3db08abe	0.08620213
195	0x3eaa1ace	0.33223575
196	0x3ef79274	0.48353922
197	0xbeae9cdb	-0.34104046
198	0xbf1e90f0	-0.6193991
199	0xbf0e3f89	-0.55565697
200	0xbd6ed4e4	-0.058308497
201	0xbf4859c3	-0.78261966
202	0x4055e9d8	3.3423977
203	0x3f42603a	0.7592808
204	0xbe1074f1	-0.1410711
205	0x3ec72624	0.38896286
206	0x3e9076ed	0.28215733
207	0xbfc2e9f2	-1.5227644
208	0xbf69ddd2	-0.91354096
209	0xbe1affc3	-0.15136628
210	0xbff7adc9	-1.934991
211	0xbf4a0ac0	-0.78922653
212	0xbdcf66a8	-0.10127002
213	0xbe761289	-0.24030508
214	0xbe8f628f	-0.28004882
215	0xbf747813	-0.9549572
216	0xbd6b88ae	-0.057503395
217	0xbf4109bd	-0.75405484
218	0xbeef97b2	-0.46795422
219	0x3ee57199	0.4481323
220	0xbeac8860	-0.33697796
221	0x3e7cf77d	0.24703784
222	0x3f1b0097	0.60547775
223	0xbea5cb56	-0.32381696
224	0x3f18b7b2	0.59655297
225	0x3f588a33	0.84585875
226	0xbf292cc5	-0.6608394
227	0x3e1cce88	0.1531316
228	0x3d32ac43	0.043621313
229	0x3e71daf7	0.23618685
230	0xbdea8dfd	-0.11452863
231	0xbf2a08d7	-0.6641974
232	0xbe286b29	-0.16447128
233	0x3cb9be0c	0.02267363
234	0x3f1402eb	0.5781695
235	0x3fa875ff	1.316101
236	0x3f46b606	0.77621496
237	0x3ef85d68	0.48508763
238	0x3eb024d7	0.34403107
239	0xbdea2c17	-0.11434191
240	0xbeac8d3d	-0.33701506
241	0xbe7ac58c	-0.2448942
242	0x3ea7f285	0.32802215
243	0xbf54f3bb	-0.83184403
244	0xbea7a951	-0.32746366
245	0xbea10937	-0.31452343
246	0x3f047830	0.5174589
247	0xbfac4623	-1.3458904
248	0x3ec2f6be	0.38078874
249	0xbe0eda27	-0.13950406
250	0x3f241f96	0.64110696
251	0xbf312abb	-0.69205827
252	0xc0077209	-2.1163352
253	0x3fba5814	1.4558129
254	0x3d323c4c	0.043514535
255	0xbe028397	-0.1274551

pn.fc.0.0.bias f4 [128]
0	0x3d003c6c	0.031307623
1	0x3e83d0e6	0.25745314
2	0x3d4f1687	0.050558593
3	0x3e9f2a74	0.31087077
4	0x3eacfdbb	0.3378733
5	0x3e2a6839	0.1664132
6	0xbd1a29a5	-0.03763737
7	0x3e973d0f	0.29538772
8	0x3e971ff4	0.29516566
9	0x3db88792	0.09010233
10	0xbd5c6a06	-0.05381205
11	0x3eb3b52c	0.3509916
12	0x3e0f7cf7	0.14012514
13	0x3e7788d6	0.24173293
14	0x3e0b94fd	0.13631053
15	0xbdf2aeea	-0.118497685
16	0x3eb055dd	0.34440508
17	0x3dec7420	0.115455866
18	0x3e5269a8	0.20548117
19	0xbd5675bb	-0.05235837
20	0x3e5039f2	0.20334604
21	0x3e4412b6	0.19147763
22	0xbd65de9a	-0.056120493
23	0x3e3bd6aa	0.18343607
24	0x3cab4d65	0.020910928
25	0x3e140a31	0.14457013
26	0xbd5ff940	-0.054681063
27	0x3e5dbe4a	0.21654621
28	0x3e555082	0.20831493
29	0xbd027ee6	-0.0318593
30	0x3e1a4317	0.15064655
31	0xbd869261	-0.06570888
32	0x3eae67c3	0.3406354
33	0xbdb79ad2	-0.089650765
34	0x3de72d3c	0.11287925
35	0x3e357215	0.177193
36	0x3e7fba80	0.24973488
37	0x3d440db6	0.04786464
38	0x3e6fcf19	0.23418845
39	0x3e8bacc7	0.27280256
40	0x3b26ade6	0.0025433241
41	0x3d680653	0.056646656
42	0xbdb5fa34	-0.08885613
43	0xba8098d1	-0.0009811168
44	0x3e22dd84	0.15904814
45	0xbd3d9d0b	-0.046292346
46	0xbd2cce12	-0.04218871
47	0xbc89b57a	-0.016810168
48	0xbd9a7226	-0.07541303
49	0x3e59fac7	0.2128707
50	0x3e3a0622	0.18166402
51	0x3e53b3ff	0.20674132
52	0x3d1a93c7	0.037738588
53	0xbd8251e5	-0.063632764
54	0x3e8c4e25	0.2740337
55	0x3b10ce84	0.002209575
56	0x3e89ddec	0.26927125
57	0x3e00db84	0.12583739
58	0x3eec8492	0.46194893
59	0x3ce72a62	0.028218452
60	0xbd95dd4a	-0.07317598
61	0xbc67c04a	-0.014144966
62	0x3e3fc6a2	0.18728116
63	0x3eb442c1	0.3520718
64	0xbd86c1eb	-0.06579956
65	0x3e3163be	0.17323205
66	0x3e01e5ab	0.12685268
67	0xbd1b777e	-0.037955754
68	0xbd872e47	-0.066006236
69	0x3e57e578	0.21083629
70	0x3f0da1dc	0.553251
71	0xbdbe55d6	-0.09293716
72	0x3f023e09	0.5087591
73	0xbe761e62	-0.24035028
74	0xbd8be20c	-0.068302244
75	0x3e4f76f2	0.20260218
76	0xbda12032	-0.07867469
77	0xbd945152	-0.07242073
78	0x3eb733fd	0.3578185
79	0x3e176173	0.14783268
80	0x3e88efce	0.26745456
81	0xbd04168e	-0.032248072
82	0x3dfab36e	0.12241255
83	0x3ed7ca0a	0.4214633
84	0xbdb2b1a8	-0.087252915
85	0x3e706d09	0.23479094
86	0xbe115faa	-0.14196649
87	0xbcf3cc90	-0.029760629
88	0xbf25c6fa	-0.6475674
89	0x3f0d35df	0.55160326
90	0xbe102c92	-0.14079502
91	0x3e8a2e70	0.26988554
92	0x3e005e59	0.12535991
93	0x3e80e96e	0.25178093
94	0xbd7ac61c	-0.061224088
95	0x3cb02588	0.021502271
96	0x3eec833d	0.46193877
97	0xbda072f6	-0.07834427
98	0x3deb483c	0.11488387
99	0x3de846a1	0.113415964
100	0x3e8c208d	0.27368584
101	0x3d0399ab	0.03212897
102	0x3da2bed5	0.079465546
103	0x3d153258	0.036424965
104	0x3e6635a8	0.22481406
105	0x3e0c82a0	0.13721704
106	0xbd946a90	-0.07246888
107	0x3e6b95ee	0.23006412
108	0xbd9fa89c	-0.077958316
109	0xbde2a948	-0.11067444
110	0x3e592df4	0.21208936
111	0x3e7bebb5	0.24601634
112	0xbdcece02	-0.100978866
113	0xbd5e4784	-0.05426742
114	0x3ea234f9	0.3168104
115	0x3d0a594b	0.033776563
116	0xbdd7b6fe	-0.1053295
117	0xbcfc4808	-0.030796066
118	0x3e946e1b	0.28990254
119	0x3c8ef007	0.017448438
120	0x3e9ba580	0.30399704
121	0x3f4309d4	0.7618687
122	0x3ea17867	0.31537172
123	0x3e9fa849	0.3118308
124	0xbdef41a4	-0.11682442
125	0x3eb5f724	0.35540116
126	0xbdbcfbe5	-0.092277326
127	0xbe0ab562	-0.13545755

pn.fc.1.weight f4 [4, 128]
0	0x3ddd0355	0.10791651
1	0xbe8ef042	-0.27917677
2	0x3e0dee6b	0.1386048
3	0xbe66e01e	-0.22546431
4	0x3e731122	0.23737004
5	0x3e0498e1	0.12948944
6	0x3d479086	0.048721813
7	0x3de577f8	0.11204523
8	0x3e576c38	0.21037376
9	0x3dd03db1	0.10168017
10	0xbd771df8	-0.060331315
11	0xbe960da8	-0.29307294
12	0xbe93d0b9	-0.2887018
13	0xbd19d654	-0.037557915
14	0x3e05b680	0.130579
15	0x3ccbcf5c	0.02487915
16	0x3ec44cac	0.38339746
17	0xbf307845	-0.68933517
18	0xbea8af51	-0.32946256
19	0x3c9bd820	0.019023955
20	0xbe283b5e	-0.16428897
21	0xbebf5483	-0.37369165
22	0x3b618cbc	0.003441616
23	0x3e697f68	0.22802508
24	0xbfad3b01	-1.3533632
25	0xbe85aea9	-0.26109818
26	0x3d79c82a	0.060981907
27	0x3e17fb00	0.14841843
28	0xbf1ae776	-0.6050943
29	0x3e4d371d	0.20040555
30	0xbe826c2a	-0.25473148
31	0x3d4e61e8	0.05038634
32	0x3e134d7b	0.14385025
33	0x3c8a939e	0.016916092
34	0x3df9a4ea	0.12189658
35	0x3e903e4e	0.28172535
36	0xbe63a999	-0.22232665
37	0xbe1754d2	-0.1477845
38	0x3d98daf1	0.07463635
39	0x3d8b49fb	0.0680122
40	0x3dd29a8f	0.10283386
41	0x3e0a307b	0.13495056
42	0xbc7d1841	-0.015447677
43	0x3e1c0557	0.15236412
44	0xbe5610ec	-0.20904893
45	0xbd4a92fe	-0.04945659
46	0x3d050b82	0.032481678
47	0xbcaba18a	-0.020951051
48	0x3c3c11d1	0.011478857
49	0x3e506b0e	0.20353338
50	0x3e475c1f	0.19468735
51	0xbe9e2190	-0.3088498
52	0x3ddf673b	0.109083615
53	0xbdc73e7e	-0.09728716
54	0xbe40d8b4	-0.18832666
55	0x3da4d595	0.0804855
56	0xbe184ffc	-0.14874262
57	0xbeaea04d	-0.34106675
58	0x3e466cef	0.19377492
59	0xbeea1628	-0.4572003
60	0xbd4e186a	-0.05031625
61	0xbb421b59	-0.0029618351
62	0xbe03a105	-0.12854393
63	0x3e7474d9	0.23872699
64	0x3cdc0486	0.026857626
65	0xbf2f4e0f	-0.6847848
66	0x3d7bfce9	0.06152049
67	0x3d696014	0.056976393
68	0x3caf06e2	0.021365587
69	0xbed2703e	-0.4110126
70	0x3de9b41b	0.114113055
71	0x3d97031c	0.0737364
72	0x3e52fa22	0.2060323
73	0x3d16e2bf	0.036837336
74	0x3ca0deb0	0.019637436
75	0xbe9dedf0	-0.30845594
76	0xbd09c8a0	-0.033638597
77	0xbdc2f668	-0.095196545
78	0x3dca90e4	0.09890917
79	0x3d58b12a	0.05290333
80	0x3e09dfa6	0.13464221
81	0xbd2eec3c	-0.04270576
82	0xbebd7488	-0.3700297
83	0x3e537d18	0.20653188
84	0xbbe3ec1d	-0.006955637
85	0x3da3d4a1	0.0799954
86	0x3d36facc	0.044672772
87	0xbd4593e0	-0.048236728
88	0xbfb7a44b	-1.4347013
89	0xbebf75a1	-0.3739443
90	0x3dc05a96	0.09392278
91	0xbe4e6eb8	-0.20159423
92	0xbee9fc4b	-0.45700297
93	0xbea7e6b3	-0.32793197
94	0x3d9dcb7c	0.07704827
95	0x3e19bbfc	0.15013117
96	0x3e377e32	0.17919233
97	0xbd164d28	-0.036694676
98	0xbf0cc8c7	-0.5499386
99	0x3e5b9486	0.21443376
100	0x3e2b8a50	0.16751981
101	0x3ecb77df	0.39739892
102	0x3cd6d4e7	0.026224567
103	0x3e2e5306	0.17023858
104	0x3e8865f1	0.26640275
105	0x3d9cb203	0.076511405
106	0x3d95c3fe	0.07312773
107	0xbedca233	-0.43092498
108	0xbc448927	-0.01199559
109	0xba914e58	-0.001108597
110	0xbe05ebcb	-0.13078229
111	0x3e3a37cc	0.18185347
112	0x3c394344	0.011307541
113	0x3c371c64	0.011176202
114	0xbe664823	-0.22488455
115	0x3e1f0fa5	0.15533312
116	0x3d53a96e	0.051675253
117	0xbc9072d4	-0.01763288
118	0x3e3443e3	0.17604022
119	0x3df7b3e7	0.120948605
120	0xbf75c56c	-0.96004367
121	0xbeab3e3c	-0.3344592
122	0xbe86dc2b	-0.2633985
123	0xbf822c58	-1.0169783
124	0xbc8b67bd	-0.01701724
125	0xbe61f4cb	-0.22066037
126	0xbdbb609e	-0.09149288
127	0xbfa42ba8	-1.2825823
128	0x3dbc9d68	0.0920971
129	0xbe7ef854	-0.24899417
130	0x3df9a375	0.1218938
131	0x3db21c8c	0.08696851
132	0xbdcb4136	-0.099245474
133	0x3dc52b76	0.0962743
134	0xba90e67a	-0.0011055015
135	0x3d959f14	0.07305732
136	0xbdbba882	-0.09163
137	0x3da63b3b	0.08116766
138	0x3da6ec2e	0.081505165
139	0xbc98b84f	-0.018642573
140	0xbe6ec8b6	-0.23318753
141	0x3e0b194b	0.13583867
142	0x3ddab695	0.10679356
143	0x3cc3517e	0.02384257
144	0xbe16134a	-0.14655796
145	0xbd6f0d7f	-0.05836248
146	0xbe4be0b2	-0.19909933
147	0x3da3b912	0.07994284
148	0x3e18cdf2	0.14922312
149	0xbe1116fb	-0.14168923
150	0x3dd7ce5a	0.10537405
151	0xbd469e32	-0.04849071
152	0xbd0dcf77	-0.034621682
153	0xbdf6e249	-0.12054879
154	0x3d9553f6	0.07291405
155	0xbdecaa15	-0.11555878
156	0xbe2d8247	-0.16944228
157	0x3d0b4cbd	0.03400873
158	0x3d87cb36	0.06630556
159	0xb9b4fdc8	-0.00034521357
160	0x3da46344	0.08026746
161	0x3da4c3c0	0.08045149
162	0x3dd33fc9	0.103149004
163	0xbe4629c0	-0.19351864
164	0x3bedc33d	0.00725594
165	0x3dc54de2	0.096339956
166	0xbdcb2432	-0.09919013
167	0x3dfc1a42	0.12309696
168	0x3d9a8711	0.07545293
169	0x3de1d579	0.11027045
170	0xbc9122e8	-0.01771684
171	0x3e051daf	0.12999605
172	0x3df58e83	0.119900726
173	0x3d68932c	0.05678098
174	0x3d38d720	0.045127034
175	0x3c8c2832	0.01710901
176	0x3cbdd9d5	0.02317516
177	0xbdf56f5d	-0.119841315
178	0xbd2ad370	-0.04170555
179	0x3e24e028	0.16101134
180	0x3daffe75	0.08593456
181	0x3d95b856	0.0731055
182	0xbe0d59a7	-0.13803731
183	0x3d71d5c6	0.05904176
184	0x3e1a79c1	0.15085508
185	0x3d969af3	0.07353773
186	0xbd2acd1b	-0.04169951
187	0x3df0b9f4	0.11754218
188	0x3d654ac1	0.055979494
189	0x3c1b4696	0.009477278
190	0xbe468856	-0.19387946
191	0xbe39ee98	-0.18157423
192	0xbd69e15e	-0.057099693
193	0x3c1ed411	0.009694115
194	0x3d20b0d0	0.03923112
195	0x3ccb9558	0.024851486
196	0x3d370798	0.044684976
197	0xbe8382bd	-0.25685683
198	0x3da75d77	0.08172124
199	0x3d9af9b4	0.07567158
200	0xbe4c32b9	-0.19941224
201	0x3e3fdc84	0.18736464
202	0xbd4222e0	-0.04739654
203	0x3deda18c	0.11603078
204	0x3caf8994	0.021427907
205	0xbc82d202	-0.01596928
206	0x3dadd47b	0.08487793
207	0x3d31c394	0.04339941
208	0xbd93386b	-0.07188495
209	0xbc98d152	-0.0186545
210	0x3dd32ddb	0.103114806
211	0x3e330969	0.17484058
212	0x3ab31bc6	0.0013664893
213	0x3db119f1	0.08647526
214	0x3e075102	0.13214496
215	0x3cdf900a	0.027290363
216	0xbf1658b1	-0.5872908
217	0xbec0cc13	-0.37655696
218	0x3c85475a	0.016269375
219	0xbe0bf4ca	-0.13667598
220	0xbe20dfeb	-0.15710418
221	0x3dfb137e	0.12259577
222	0x3d856014	0.06512466
223	0x3e06e8e0	0.13174772
224	0x3d6f64a4	0.058445588
225	0x3d811286	0.06302361
226	0x3d00d473	0.031452607
227	0xbd2cefa7	-0.042220738
228	0xbcb307ee	-0.021854367
229	0xbecb56fa	-0.39714795
230	0x3e0e0e2a	0.1387259
231	0xbd7bb6d1	-0.061453644
232	0xbe2a2dfc	-0.16619104
233	0x3d67020f	0.056398448
234	0xbdb0447a	-0.08606811
235	0xbe922dcd	-0.28550568
236	0x3be2849f	0.0069127823
237	0xbcfe1043	-0.031013614
238	0x3df4ef5a	0.11959715
239	0xbe51d640	-0.20491886
240	0xbc7c4c30	-0.015399024
241	0x3d096538	0.033543795
242	0xbdf37096	-0.118867084
243	0x3e078092	0.1323264
244	0xbd1b6a5e	-0.037943237
245	0xbd779e26	-0.060453556
246	0xbe35c1ad	-0.17749663
247	0xbed68185	-0.4189569
248	0x3dd367d8	0.10322541
249	0xbe254ae3	-0.16141848
250	0xbd2d132f	-0.042254623
251	0xbf757af4	-0.95890737
252	0xbd7db386	-0.061938785
253	0xbc8e6ed1	-0.017386826
254	0x3d036838	0.032081813
255	0xbf62436b	-0.8838412

pn.fc.1.bias f4 [4]
0	0xbfbcfed9	-1.4765273
1	0xbf586021	-0.8452168
2	0x3e9c77a1	0.3056002
3	0x3f6c7dc9	0.9237943

445 f4 [32, 23, 1]
0	0xbe0ccef9	-0.13750829
1	0x3da44bf0	0.080222964
2	0x3b6cc708	0.0036129374
3	0x3bac0234	0.005249286
4	0x3d1d6061	0.038421992
5	0x39a6afa9	0.00031792864
6	0x3dc806f7	0.097669534
7	0x3fad73a4	1.3550916
8	0x3e875127	0.26429102
9	0x3df6376b	0.12022289
10	0x3d71e8b3	0.05905981
11	0x3c806178	0.015671477
12	0x3cb62127	0.022232605
13	0xbb4e2a5e	-0.0031458358
14	0xbb48303b	-0.0030546326
15	0xbf15322d	-0.5827969
16	0xbd591091	-0.052994315
17	0x3bdc296b	0.0067188046
18	0xbc0b64de	-0.008507935
19	0xbc91c86d	-0.017795766
20	0xbb6c1650	-0.0036024041
21	0xbe189a7a	-0.14902678
22	0x3e94f260	0.29091167
23	0xbc3eb636	-0.011640122
24	0xbc000acd	-0.007815075
25	0x3d28ce35	0.04121228
26	0xbb555179	-0.0032549782
27	0xbcc9a26e	-0.024613585
28	0x3b3d3c98	0.0028875228
29	0xbdfd178b	-0.12358006
30	0xbdab9653	-0.083782814
31	0xbe113455	-0.1418012
32	0xbe87fcc5	-0.26560035
33	0x3c771f0d	0.015083087
34	0xbd92f34a	-0.0717531
35	0xc02275a8	-2.5384312
36	0x3eaad4ee	0.33365577
37	0xbb65a6c5	-0.003504203
38	0xbdeba747	-0.11506515
39	0x3d5370b6	0.05162116
40	0xbcc026a0	-0.023455918
41	0xbd2c87c9	-0.042121682
42	0xbd4567b3	-0.0481946
43	0x3cc72f90	0.024314672
44	0x3d4abbdd	0.049495567
45	0x3da0d69b	0.07853433
46	0xbd56b0f6	-0.052414857
47	0x3db2644c	0.08710536
48	0xbd0fd666	-0.035116576
49	0x3bc1b0fe	0.0059109917
50	0x3de12e4b	0.10995158
51	0xbc16d3c3	-0.009205761
52	0x3d86bf42	0.06579448
53	0xbf545b31	-0.8295165
54	0x3d661fb1	0.056182567
55	0x3f1ce60e	0.61288536
56	0xbcf2e9f3	-0.029652571
57	0x3d597ae0	0.0530957
58	0xbc6c29fb	-0.014414306
59	0x3d7a6158	0.06112799
60	0x3d658285	0.056032676
61	0xbe2b108c	-0.16705531
62	0xbde707f8	-0.11280817
63	0x3cfaf867	0.030636026
64	0x3e5c750a	0.21529022
65	0x3d6a0a74	0.057138875
66	0xbd38468c	-0.044989154
67	0xc03b6dc2	-2.928574
68	0xbe8a8f87	-0.27062628
69	0x3dba8220	0.091068506
70	0x3dcd46be	0.100232586
71	0x3c63c8ff	0.013902902
72	0xbc039b49	-0.008032628
73	0x3b4c798d	0.003120038
74	0x3ca9fab2	0.020749424
75	0x3e2bd339	0.16779794
76	0xbe66c8c5	-0.22537525
77	0xb9c4d748	-0.0003754443
78	0xbc860b74	-0.016362883
79	0xbd81f72c	-0.063459724
80	0xbe748733	-0.238797
81	0x3bb12d48	0.0054070093
82	0xbee1fe2e	-0.44139236
83	0xbd455ac1	-0.048182253
84	0xbc2fec4b	-0.010737489
85	0xbd9945e2	-0.07484032
86	0xbc541425	-0.012944256
87	0xbe8ca62b	-0.27470526
88	0xbdbdd908	-0.09269911
89	0x3d66cb05	0.05634596
90	0xbdd0884b	-0.10182246
91	0x3e8ad15a	0.27112848
92	0xbb8d2d6a	-0.0043083923
93	0xbcbb6a1a	-0.022877742
94	0x3dcf5eb1	0.10125483
95	0xbc9dda26	-0.01926906
96	0x3d6e3b6b	0.058162134
97	0xc01fba4a	-2.4957452
98	0x3bd07b51	0.0063623567
99	0x3bc2a128	0.0059396215
100	0x3b316e73	0.002707389
101	0x3ea2e7e4	0.31817544
102	0x3dd2d648	0.10294777
103	0xbd149959	-0.036279056
104	0xbf4446ea	-0.76670706
105	0xbc9319b2	-0.017956588
106	0x3d520708	0.051276237
107	0x3da3812c	0.07983622
108	0xbe013535	-0.12617953
109	0x3c6d7f79	0.014495724
110	0xbcd357cf	-0.025798706
111	0x3be6b7a9	0.007040937
112	0xbd7f7a91	-0.062372748
113	0xbd9419f2	-0.07231511
114	0x3d8d3808	0.06895453
115	0xbee2706f	-0.44226405
116	0x3ed535d2	0.41642624
117	0xbcaa9563	-0.020823186
118	0xbfb3544d	-1.4010102
119	0x3daebd0f	0.08532154
120	0x3cfa993b	0.030590644
121	0x3c92c5b5	0.01791654
122	0xbcb31d3f	-0.021864532
123	0x3bb65767	0.0055646184
124	0x3c754232	0.0149693955
125	0xbc912aaf	-0.017720548
126	0x3c37e84c	0.0112248175
127	0xbd2d71e2	-0.042344935
128	0xbd65ee9a	-0.05613575
129	0xbd6ba022	-0.05752576
130	0x3d1697d1	0.036765877
131	0x3e99ab8e	0.30013698
132	0x3ce3d32d	0.027810657
133	0xbb59767f	-0.0033182201
134	0xbca56202	-0.020188335
135	0x3db06b6a	0.086142376
136	0x3cb33718	0.021876857
137	0x3e00ad47	0.125661
138	0x3df1bc33	0.11803474
139	0xbdde00d5	-0.108400024
140	0x3cfa8404	0.030580528
141	0x3fb13fe2	1.384762
142	0x3e1c1975	0.15244086
143	0xbb8bc486	-0.004265371
144	0x3bab1775	0.005221302
145	0x3ca06adb	0.019582203
146	0xbcaab546	-0.020838391
147	0xbd0da1ed	-0.034578253
148	0x3c625962	0.013815256
149	0x3c8efef8	0.017455563
150	0xbd6cc123	-0.057801377
151	0xbb048c14	-0.0020225095
152	0x3e452624	0.1925283
153	0xbf49ab08	-0.787766
154	0xbd6f28a3	-0.058388364
155	0xbc3ccc95	-0.0115233855
156	0xb9953230	-0.00028456887
157	0x3b90df8e	0.004421181
158	0x3deec436	0.11658518
159	0x3d1f62d6	0.038912617
160	0x3c797739	0.015226179
161	0xbc1f008d	-0.009704721
162	0xbc40f375	-0.011776795
163	0x3d25f3b2	0.04051561
164	0x3ce2bdd9	0.027678417
165	0x3cf5a55c	0.029986076
166	0xbc892e28	-0.016745642
167	0xbdda3e6f	-0.106564395
168	0xbd89e815	-0.06733719
169	0xbe0b5ab6	-0.13608822
170	0xbe676aea	-0.22599378
171	0xbd7d6ebc	-0.061873183
172	0xbc74e4db	-0.0149471415
173	0x40190d42	2.3914342
174	0x3e9d5f0e	0.30736583
175	0xbc214415	-0.009842892
176	0xbdbaa837	-0.09114116
177	0x3d9c1053	0.07620301
178	0xbc81023d	-0.015748138
179	0xbdb1f3c7	-0.08689075
180	0xbd7c500b	-0.061599772
181	0x3d430e9f	0.047621366
182	0x3d41459b	0.04718552
183	0x3e084259	0.1330656
184	0x3e29b75e	0.16573855
185	0xbe26abe7	-0.16276513
186	0xbddc9f1d	-0.10772536
187	0x3caa1ebb	0.020766607
188	0xbd643303	-0.05571271
189	0xbd93aaec	-0.07210335
190	0x3f0bd97a	0.5462872
191	0xbf035aa9	-0.5131021
192	0xbd1d54ca	-0.03841094
193	0xbf88fca2	-1.0702097
194	0x3cceadde	0.02522939
195	0x3dee3e13	0.116329335
196	0x3d3ef59e	0.046620958
197	0xbe89e908	-0.269356
198	0x3d48d0ea	0.04902736
199	0xbe390037	-0.18066488
200	0x3e0c191a	0.1368145
201	0x3cce3607	0.025172247
202	0x3e212d96	0.15740046
203	0x3e04d775	0.12972815
204	0xbd1b5da9	-0.03793112
205	0xbfa80fed	-1.312986
206	0xbf4968c7	-0.786755
207	0x3de94e65	0.11391906
208	0xbdee4c12	-0.11635603
209	0x3d87bbbd	0.06627605
210	0x3bd4b28d	0.0064910115
211	0x3e0aade2	0.13542894
212	0x3d308a26	0.0431005
213	0xc03352a1	-2.8019183
214	0x3def4edb	0.11684962
215	0x3e0194b4	0.12654382
216	0xbe5be35d	-0.21473451
217	0x3da46dcc	0.080287546
218	0x3f42d808	0.7611089
219	0x3cba440e	0.02273753
220	0x3da64134	0.08117905
221	0xbd5d19bd	-0.053979624
222	0x3c99c439	0.018770324
223	0xbebbf14d	-0.36707535
224	0x3d791719	0.060813043
225	0xbe549942	-0.20761588
226	0x3db25ffe	0.08709715
227	0xbda6182b	-0.081100784
228	0xbddbb1ee	-0.10727297
229	0xbec9ec76	-0.39438218
230	0xbe173446	-0.14766034
231	0x3e2311ca	0.15924755
232	0x3c5775f5	0.013150682
233	0x3cda6e48	0.026663914
234	0x3c31a3f0	0.010842308
235	0x3b610363	0.0034334294
236	0xbe3b046c	-0.18263406
237	0x3d464483	0.04840518
238	0xbf6708c4	-0.9024775
239	0xbe80b4eb	-0.2513803
240	0x3d6a75c4	0.057241216
241	0xbdf38e7f	-0.11892413
242	0xbd4ad855	-0.049522717
243	0x3ebecee3	0.37267217
244	0x3bc133d1	0.0058960696
245	0xbd65c46b	-0.056095522
246	0x3e8d3a48	0.27583528
247	0x3cf587d9	0.029972004
248	0x3e66e279	0.2254733
249	0xbe69f22d	-0.22846289
250	0xbf167765	-0.5877593
251	0xbbe4fd57	-0.0069882083
252	0x3f2862bc	0.65775657
253	0xbd442f7f	-0.04789686
254	0x39b9457b	0.00035337717
255	0x3db9083b	0.09034773

446 f4 [32]
0	0x3f435dc0	0.76314926
1	0x3ee6f8cf	0.451117
2	0x3facfbca	1.351434
3	0x3f21df70	0.63231564
4	0xbf0bc3ea	-0.54595816
5	0x40cd3055	6.41215
6	0xbe8f9848	-0.2804587
7	0x3e9c2e57	0.30504104
8	0x3fa2cc54	1.2718606
9	0xc002b356	-2.0421958
10	0x3e24f6fc	0.16109842
11	0x3f2005aa	0.6250864
12	0xbfc75399	-1.5572387
13	0x3ec13145	0.37732902
14	0xbde00f69	-0.10940439
15	0x3f1e50b3	0.6184189
16	0x3eb2444e	0.34817737
17	0x3f7456e4	0.95445085
18	0xbf51db20	-0.81974983
19	0xbeb610eb	-0.35559782
20	0x3ffec4f2	1.9903853
21	0xbe868404	-0.26272595
22	0x3fd3f28a	1.6558392
23	0x4047cca2	3.1218648
24	0x404bccd8	3.1843777
25	0x3d485996	0.04891356
26	0x3ffd1368	1.9771547
27	0xbe9c5a41	-0.30537608
28	0xbed52ed2	-0.41637284
29	0x408359c9	4.10471
30	0x3f5492ac	0.83036304
31	0x400550f5	2.0830662

448 f4 [32, 11, 1]
0	0x3d9e40ba	0.07727189
1	0xbb0a888e	-0.0021138522
2	0xbf29dafd	-0.66349775
3	0xbd1a510f	-0.03767496
4	0xbe03fa41	-0.12888433
5	0xbbd0ab94	-0.00636811
6	0x3c4d1319	0.01251676
7	0x3ced5999	0.028973388
8	0xba8444d5	-0.0010091314
9	0xbcade8b8	-0.021229133
10	0xba8ca120	-0.0010729171
11	0x3e4d9d42	0.2007952
12	0x3ccb5243	0.024819499
13	0x3d804298	0.06262702
14	0x3d3db2a5	0.046312947
15	0x3db94e5c	0.09048149
16	0x3dead222	0.11465861
17	0xbdf76c4b	-0.12081202
18	0xbd1a4655	-0.03766473
19	0xbca18b00	-0.0197196
20	0x3deab300	0.11459923
21	0x3db85f22	0.0900252
22	0xbd370609	-0.04468349
23	0xbe0d6260	-0.13807058
24	0x3d4ec44d	0.050480176
25	0x3cc98057	0.02459733
26	0xbd0de0b2	-0.034638114
27	0xbdaa3de2	-0.083125845
28	0xbd562d93	-0.052289557
29	0x3c98675d	0.018603975
30	0x3c096c71	0.008387671
31	0x3c895a5d	0.016766721
32	0x3c1ad453	0.009450036
33	0x3ef69c57	0.48166153
34	0xbea71d92	-0.32639748
35	0x3d0cfd21	0.03442109
36	0xbcd78d24	-0.026312418
37	0xbd85490e	-0.06508075
38	0x3d0d989c	0.034569368
39	0x3c0f093a	0.008730227
40	0xbbb3f3e9	-0.005491723
41	0x3c815fe5	0.015792796
42	0x3d0f661c	0.03500949
43	0x3c8a06ec	0.016849004
44	0xbcf5afac	-0.029990993
45	0xbe8c5528	-0.2740872
46	0x3d3921dc	0.045198306
47	0x3c997567	0.01873274
48	0x3cfe4032	0.03103647
49	0x3d5f27a0	0.05448115
50	0x3d6ae535	0.057347495
51	0xbdcde936	-0.10054247
52	0x3bec1981	0.0072051887
53	0x3c992248	0.018693104
54	0xbdcd6bde	-0.1003034
55	0xbcca3fa6	-0.024688553
56	0x3d9956c9	0.07487256
57	0x3d898cb2	0.067162886
58	0x3c67a5c7	0.0141386455
59	0x3dc15296	0.0943958
60	0x3dd9c96c	0.10634121
61	0x3dceab20	0.10091233
62	0x3d0a8027	0.03381362
63	0xbb447cbc	-0.0029981574
64	0x3dac838c	0.08423528
65	0xbca08691	-0.019595416
66	0x3f87ef42	1.0619891
67	0xbd2c1ba8	-0.042018563
68	0xbcf8e67a	-0.030383337
69	0xbd6a391c	-0.05718337
70	0x3d9f7f35	0.07787935
71	0x3e2988a3	0.16556029
72	0xbe3a838a	-0.1821424
73	0xbd0eedbe	-0.034894697
74	0xbd295d7d	-0.041348923
75	0x3e40159f	0.18758248
76	0x3dd73cd8	0.10509652
77	0x3cf2b58a	0.02962758
78	0xbde2ab1d	-0.110677935
79	0xbc6ac89b	-0.014330055
80	0xbc20cf90	-0.009815112
81	0xbd6ac5ab	-0.057317417
82	0x3d5fc119	0.05462751
83	0xbf1cd981	-0.61269385
84	0xbd09fccf	-0.033688363
85	0xbc8e9f16	-0.017409842
86	0xbe193a0f	-0.14963554
87	0x3e6826dc	0.22671074
88	0x3d7094c9	0.058735643
89	0xbf9aa11e	-1.2080419
90	0xbd28f9a3	-0.041253697
91	0x3b06bca3	0.0020559214
92	0x3c9aefdd	0.018913204
93	0xbe19bcd3	-0.15013437
94	0xbdd3450e	-0.103159055
95	0xbd8267d4	-0.0636746
96	0x3c1647fc	0.009172436
97	0x3d17d672	0.037069745
98	0x3d07c495	0.03314646
99	0x3da9f2f4	0.08298293
100	0xbe18091e	-0.14847228
101	0xbd39bb96	-0.04534491
102	0x3e37d13c	0.1795091
103	0x3be8b039	0.0071010855
104	0xbe768577	-0.2407435
105	0xbf2cf9e4	-0.675688
106	0xbcc999b6	-0.024609428
107	0xbacf3f05	-0.0015811628
108	0x3bd0406e	0.006355337
109	0x3d596bf6	0.053081475
110	0xbd0800f7	-0.033204045
111	0x3d4ee307	0.05050948
112	0xbd3299e6	-0.0436038
113	0x3d7cbf25	0.061705727
114	0x3d7df849	0.06200436
115	0x3e2b63ae	0.16737244
116	0x3d6db13e	0.05803036
117	0xbf462835	-0.774051
118	0x3bd692e1	0.006548271
119	0x3db30d89	0.08742816
120	0x3da17c0c	0.07884988
121	0xbf7ef054	-0.9958546
122	0x3e61e977	0.22061716
123	0xbe1c2777	-0.1524943
124	0x3c8eb3bf	0.017419694
125	0xbdcffc64	-0.101555616
126	0x3dee384e	0.11631833
127	0xbd24762d	-0.040151764
128	0xbe237fd3	-0.1596673
129	0xbb6c8886	-0.0036092116
130	0x3c9e9520	0.019358218
131	0x3d1a580d	0.037681628
132	0xbe0e7e17	-0.13915287
133	0x3d707e8a	0.058714427
134	0xbdc86411	-0.09784711
135	0x3c7f3b5e	0.015578119
136	0xbd983b69	-0.074332066
137	0x3f23f257	0.64041656
138	0x3d8f16b8	0.06986755
139	0x3e1a1c40	0.15049839
140	0x3d31bf3d	0.04339527
141	0x3e217cd4	0.15770274
142	0x3d63997e	0.055566303
143	0x3ee81c31	0.45334008
144	0xbe992853	-0.29913577
145	0x3d9f7c25	0.077873506
146	0xbed6f4cb	-0.41983637
147	0xbcec95fb	-0.02888011
148	0xbd5cf27c	-0.05394219
149	0x3e7daced	0.24772997
150	0xbd93798d	-0.07200918
151	0xbcdba35d	-0.026811296
152	0x3cefeed5	0.029288689
153	0xbbe67b4c	-0.007033741
154	0x3b067a89	0.0020519814
155	0xbb1a415c	-0.0023537492
156	0x3b68b39c	0.0035507446
157	0xbb1ddaee	-0.002408679
158	0x39ca8d5d	0.00038633766
159	0xbaad311d	-0.001321349
160	0xba1ba193	-0.0005936857
161	0x3b5ea4b3	0.003397268
162	0xbada51a7	-0.0016656414
163	0xbb2f8e4d	-0.0026787699
164	0xba2e5ee3	-0.00066517125
165	0xb995eb1a	-0.0002859466
166	0xbb009531	-0.0019620175
167	0xb8a98c9a	-8.084737e-05
168	0xbb32f4f1	-0.002730664
169	0x39c34666	0.0003724575
170	0x39d52be1	0.00040659218
171	0x3a3565f4	0.0006919794
172	0x3bde7fde	0.0067901453
173	0xbadc7611	-0.0016819854
174	0x3a1dcfcd	0.00060200394
175	0xbacdc404	-0.0015698676
176	0x3d824a4c	0.06361827
177	0xbf42b832	-0.7606231
178	0x3d3bdc83	0.045864593
179	0xbc3da7a9	-0.011575618
180	0xbd1f630d	-0.03891282
181	0x3e4ddbe3	0.20103411
182	0x3d8fe3af	0.07025849
183	0xbd61ed9c	-0.055158243
184	0xbd15c47a	-0.036564328
185	0x38e3e3e0	0.000108666485
186	0x3d62407f	0.05523729
187	0xbc973b89	-0.018461006
188	0x3d1cb43d	0.038257826
189	0x3d88b71c	0.0667555
190	0xbba9fad6	-0.0051873727
191	0x3da30938	0.07960743
192	0xbd37a9b1	-0.044839565
193	0x3e14e13d	0.14539047
194	0x3c1395f4	0.00900792
195	0x3ba8b178	0.005148109
196	0x3d9e92e5	0.07742862
197	0xbef277b5	-0.47356954
198	0x3db29116	0.08719079
199	0xbea04a0e	-0.313065
200	0x3d1339e6	0.035943888
201	0xbd33fa2e	-0.04393976
202	0x3ca97571	0.020685883
203	0x3e7b9d65	0.2457176
204	0xbe35f77c	-0.17770189
205	0x3db8a520	0.0901587
206	0xbcde7b57	-0.027158422
207	0x3c95b139	0.018272983
208	0xbcccd0b9	-0.02500187
209	0xbe84e8dc	-0.25958908
210	0x3e6dfb4c	0.23240393
211	0x3e4ba0c6	0.19885549
212	0x3d73862d	0.059454132
213	0xbdf97508	-0.12180525
214	0xbe2788de	-0.16360804
215	0x3dbfce18	0.09365481
216	0xbf3862a4	-0.72025514
217	0xbd0345e7	-0.032049086
218	0xbdec4da5	-0.11538247
219	0x3db0caa6	0.08632402
220	0x3d3c26a1	0.045935277
221	0xbd6c39a3	-0.057672154
222	0x3d8b3c57	0.06798618
223	0x3cada91f	0.021198807
224	0x3d2d77a0	0.04235041
225	0x3d3dd375	0.04634424
226	0xbddf37f2	-0.108993426
227	0x3d977069	0.073944874
228	0xbbd32d25	-0.0064445906
229	0x3ee8daee	0.4547953
230	0x3ced15a7	0.028940989
231	0x3d5dd24e	0.05415564
232	0x3b84d38a	0.0040535377
233	0x3f735bb3	0.95061797
234	0x3cc1f9f3	0.023678755
235	0x3e0e9d98	0.13927305
236	0xbbe14d0b	-0.0068756393
237	0x3d03cc24	0.032177106
238	0x3d081843	0.033226263
239	0x3c8bb600	0.017054558
240	0xbd1d2d92	-0.038373537
241	0x3c6f6a31	0.01461272
242	0x3c888eb3	0.016669607
243	0x3cca7157	0.024712248
244	0xbc7c9252	-0.015415745
245	0xbc1e67b9	-0.009668284
246	0xbda4224e	-0.080143556
247	0xbf97579b	-1.182361
248	0xbdb2bbf6	-0.08727257
249	0xbdc43c2e	-0.09581791
250	0xbcab785f	-0.02093142
251	0xbcf81844	-0.030285008
252	0x3d373bba	0.044734694
253	0xbda7d8f7	-0.0819568
254	0x3dfdfe3b	0.12402006
255	0x3c7dd974	0.015493739

449 f4 [32]
0	0x3d1aca12	0.037790366
1	0x40639864	3.5561762
2	0x3cb3fc97	0.02197103
3	0x3fc5ae79	1.544387
4	0x3fa88d87	1.3168191
5	0x40e5e243	7.18387
6	0xbe479a7d	-0.19492526
7	0x3f661a7e	0.89884174
8	0x403c6f31	2.9442866
9	0xbfff5b89	-1.9949809
10	0x3f864b03	1.0491642
11	0x3f57172a	0.8401972
12	0x4039f516	2.9055839
13	0xbcd31b07	-0.025769724
14	0xbefce63b	-0.49394402
15	0xbf99cf5c	-1.2016406
16	0x3e99ee05	0.30064407
17	0x3f4df312	0.8044902
18	0x3f23bf1f	0.639635
19	0x402ba03d	2.6816552
20	0xbe15bfe1	-0.14623977
21	0xbddbcf15	-0.10732857
22	0xbfaa2d47	-1.3295068
23	0x3fd3f908	1.6560373
24	0x3ee14ad6	0.44002408
25	0x40807cf1	4.0152516
26	0xbfc5ef60	-1.5463676
27	0x400d9599	2.2122557
28	0x3e6e3c75	0.2326525
29	0x40203ee4	2.5038385
30	0x3fc17e1e	1.5116613
31	0xbf833fca	-1.0253842

451 f4 [64, 64, 1, 1]
0	0x3d97a5a2	0.07404639
1	0xbe3daccd	-0.1852295
2	0x3d442e2b	0.04789559
3	0xbe59b75c	-0.21261352
4	0xbccb653a	-0.024828542
5	0x3d0e4699	0.034735296
6	0x3dcecc62	0.10097577
7	0xbe952f1f	-0.29137513
8	0xbdc7369f	-0.09727215
9	0x3e93b525	0.2884914
10	0xbedacd65	-0.4273483
11	0x3e0286ae	0.12746689
12	0xbdb14720	-0.08656144
13	0xbefa2da8	-0.48862958
14	0xbef04206	-0.46925372
15	0x3e84c22a	0.25929385
16	0xbd638221	-0.055544022
17	0xbd6c0f82	-0.057631977
18	0xbd4c17e8	-0.049827486
19	0xbe7724e7	-0.24135171
20	0x3e8f4d4a	0.27988654
21	0xbdca7a79	-0.09886641
22	0xbdf96a6e	-0.12178503
23	0x3e088ab7	0.13334166
24	0x3bcd8a82	0.006272615
25	0xbdd3a6a9	-0.10334522
26	0x3e03711a	0.12836114
27	0x3f14e873	0.5816719
28	0x3e31defb	0.17370217
29	0x3cf78545	0.030214915
30	0xbe91f7ab	-0.28509268
31	0x3e34e278	0.17664516
32	0x3ba1c9df	0.004937395
33	0xbe33bc6b	-0.17552345
34	0xbe07d75b	-0.13265745
35	0xbe6105c2	-0.21974853
36	0xbd1d3586	-0.038381122
37	0x3e14cd02	0.1453133
38	0x3e9a65be	0.30155748
39	0xbe431823	-0.19052176
40	0xbe11910e	-0.1421549
41	0x3eaadbc6	0.333708
42	0xbd0548b8	-0.032540053
43	0xbca597cc	-0.020213984
44	0xbd36decd	-0.044646073
45	0xbe69fc7a	-0.22850218
46	0xbde670bc	-0.11251971
47	0x3e714c1e	0.23564193
48	0xbd98c798	-0.074599445
49	0x3d3e3c47	0.046444204
50	0x3da48922	0.080339685
51	0xbd3c5d7f	-0.045987602
52	0x3de856e6	0.113446996
53	0xbdbafed2	-0.09130634
54	0xbe2a485e	-0.16629168
55	0x3d304ad9	0.04304013
56	0x3e1e886e	0.15481731
57	0xbe01816c	-0.12647027
58	0x3dfe4ba9	0.12416775
59	0x3e9a3466	0.30118102
60	0x3d7e5e3c	0.062101588
61	0x3e0abd25	0.13548715
62	0xbd94e850	-0.072708726
63	0x3d932b52	0.07185997
64	0xbc18d10a	-0.009327183
65	0xbd4e476f	-0.050361093
66	0x3d40680d	0.04697423
67	0xbcc07395	-0.023492614
68	0x3c1e0e13	0.00964691
69	0x3d22bc97	0.039730635
70	0x3d26b709	0.0407019
71	0xbccd6869	-0.0250742
72	0xbd735c19	-0.059414003
73	0xbba2ff62	-0.0049742917
74	0xbc35a6fb	-0.0110871745
75	0x3d66b9c9	0.056329522
76	0x3ca792fd	0.020455832
77	0xbdad212f	-0.08453595
78	0xbcb5b885	-0.022182712
79	0xbd3bf162	-0.045884497
80	0x3c0d51f4	0.008625496
81	0xbc8dd5ca	-0.017313857
82	0x3c23a811	0.009988801
83	0x3d7ea19c	0.06216584
84	0x3bab8ab6	0.0052350415
85	0x3c1de941	0.009638132
86	0x3d862857	0.06550663
87	0xbdace32a	-0.084417656
88	0xbc1c9bea	-0.009558657
89	0x3cfa262f	0.030535785
90	0xbd8fa1d7	-0.070132904
91	0xbd42d26c	-0.047563955
92	0xb83baa24	-4.474273e-05
93	0xbd032014	-0.032013014
94	0x3e13669a	0.14394608
95	0xbe0cead3	-0.13761453
96	0x3dc16fff	0.0944519
97	0xbc71e4f2	-0.0147640575
98	0x3d181474	0.03712888
99	0x3c1868c9	0.0093023265
100	0x3d122fbe	0.03569006
101	0x3f0f2887	0.55921215
102	0x3dd45223	0.10367229
103	0x3d337cc4	0.043820158
104	0xbc49c546	-0.0123151
105	0x3b38b0a2	0.0028181453
106	0x3e91e94d	0.28498307
107	0x3e87c6e7	0.26518938
108	0x3cc3b843	0.023891574
109	0xbd3ff21c	-0.046861753
110	0xbd14bce0	-0.036312938
111	0xbd2f1dc6	-0.042753004
112	0xbd3e4ecf	-0.046461876
113	0x3d6edcef	0.058316167
114	0x3eaf4b84	0.342373
115	0x3e12bf4f	0.14330791
116	0xbe6d02e5	-0.23145635
117	0xbdcd154a	-0.10013826
118	0xbe4dec76	-0.20109734
119	0x3f01b7c7	0.50671047
120	0x3ceab0f2	0.028648827
121	0x3b99e03b	0.00469592
122	0xbdb6c521	-0.08924318
123	0xbced4dd5	-0.028967777
124	0xbd2b958e	-0.041890673
125	0x40799c43	3.9001625
126	0x3e78a816	0.2428287
127	0xbf231496	-0.63703287
128	0x3e19de65	0.15026243
129	0xbd5e005b	-0.054199558
130	0xbeac1496	-0.33609456
131	0xbe20d981	-0.15707971
132	0xbccf0085	-0.025268802
133	0xbcbffd55	-0.023436228
134	0x3ca851d4	0.020546831
135	0xbd8555c0	-0.06510496
136	0x3d91d350	0.07120383
137	0x3db7e20a	0.089786604
138	0xbb68aa91	-0.0035502056
139	0x3c70695b	0.014673556
140	0xbe061950	-0.13095593
141	0xbecbbebd	-0.3979396
142	0x3d46d78b	0.0485454
143	0x3e34901d	0.176331
144	0xbceff6ff	-0.029292582
145	0x3dcd5e27	0.10027724
146	0x3d228639	0.039678786
147	0xbd77b39b	-0.06047402
148	0x3de6ff9d	0.11279223
149	0x3d786369	0.06064168
150	0xbd9506f1	-0.072767146
151	0xbe6d4ed3	-0.231746
152	0xbdfd801f	-0.12377953
153	0x3b8466e7	0.004040587
154	0x3e1d6a68	0.15372622
155	0x3e08295f	0.13297032
156	0xbc48439c	-0.012223151
157	0x3c665b09	0.01405979
158	0xbdbcfe26	-0.092281625
159	0x3e6e5c75	0.23277457
160	0x3e0253af	0.12727235
161	0x3cfe5c97	0.03105001
162	0xbe348ea6	-0.17632541
163	0xbe5ad5fa	-0.21370688
164	0xbbed6c1e	-0.0072455546
165	0x3e241b35	0.16026004
166	0x3f00d82f	0.5032987
167	0x3a962a82	0.001145676
168	0x3cb8f626	0.02257831
169	0xbd692644	-0.05692126
170	0xbb5e2f18	-0.0033902582
171	0xbd218f79	-0.039443467
172	0xbecc35fa	-0.3988493
173	0xbe94024f	-0.2890801
174	0xbd9ade21	-0.07561899
175	0xbd2f6292	-0.042818613
176	0xbc873b8b	-0.016507884
177	0x3e0e65f6	0.13906083
178	0x3e3df755	0.18551381
179	0xbe172f8f	-0.14764236
180	0xbdf9d68b	-0.12199124
181	0xbe2987bd	-0.16555686
182	0xbdd617a7	-0.1045373
183	0xbcac798a	-0.021054048
184	0x3e805f87	0.25072882
185	0xbe12401d	-0.1428227
186	0xbe12a63a	-0.14321223
187	0x3e264589	0.16237463
188	0x3e115c22	0.14195302
189	0x3d7c96bf	0.0616672
190	0xbca6463f	-0.020297168
191	0x3e84cf94	0.2593962
192	0xbd441f51	-0.04788143
193	0x3e10d2ce	0.14142916
194	0x3c93161b	0.017954877
195	0xbd29d792	-0.04146535
196	0x3d9a9536	0.07547991
197	0x3bba028a	0.005676572
198	0x3d8614fb	0.065469705
199	0x3dfce00b	0.1234742
200	0x3df26e37	0.11837428
201	0x3ce2dea8	0.027694061
202	0x3dce0cc4	0.100610286
203	0x3dfd9995	0.12382809
204	0xbe370dfb	-0.17876427
205	0xbb28b7df	-0.0025744361
206	0xbc446d11	-0.011988894
207	0xbbf07c15	-0.0073390105
208	0xbd730068	-0.05932656
209	0x3dcb0590	0.0991317
210	0x3dafaee7	0.08578282
211	0xbd36830f	-0.04455858
212	0xbd8bea42	-0.068317905
213	0xbc7f2f08	-0.015575178
214	0xbd4bb291	-0.04973084
215	0x3d2b1e78	0.041777104
216	0x3d979354	0.074011475
217	0xbe015ade	-0.1263232
218	0xbe16deba	-0.14733401
219	0x3e1009b7	0.14066206
220	0x3e3ac734	0.18240052
221	0xbcfa607e	-0.03056359
222	0x3e54f40a	0.20796219
223	0x3e47419c	0.19458622
224	0x3e64cf8b	0.22344796
225	0xbdfae129	-0.12249977
226	0x3dd8cf51	0.105864175
227	0xbd495a3d	-0.049158324
228	0x3e3a73f9	0.18208303
229	0xbe46d10b	-0.19415681
230	0xbe961d0a	-0.2931903
231	0xbdecb9d8	-0.115588844
232	0xbe1bbec7	-0.15209495
233	0x3d3679db	0.044549804
234	0x3d13eb84	0.036113277
235	0xbdfe93da	-0.12430544
236	0xbd6266e7	-0.055273917
237	0xbeaf8a46	-0.34285182
238	0xbc69de1d	-0.014274147
239	0xbe39a1a8	-0.18128073
240	0x3dac059e	0.08399509
241	0xbca15b4e	-0.019696858
242	0xbe3fc442	-0.1872721
243	0x3de8c301	0.11365319
244	0x3dd6624e	0.10467969
245	0xbe66f393	-0.22553854
246	0x3e3ef4c9	0.18648066
247	0x3c9daf59	0.019248651
248	0x3d4c38dd	0.049858917
249	0x3ea21890	0.31659365
250	0xbccb405d	-0.024810964
251	0x3d9139b2	0.07091083
252	0xbdebed81	-0.1151991
253	0xbdb7633c	-0.08954474
254	0xbdc2a677	-0.09504407
255	0xbd5ae508	-0.053441077

452 f4 [64]
0	0xbf8cc6e0	-1.0998192
1	0x3f306d24	0.68916535
2	0xbf1c3d01	-0.61030585
3	0xbffe84dc	-1.9884295
4	0x3f919dd4	1.137629
5	0xbfb67566	-1.4254577
6	0x3c528400	0.012848854
7	0x3d1ca280	0.03824091
8	0x3e1dc5c4	0.15407473
9	0xbfd7d88e	-1.6862962
10	0xbfa4afe0	-1.2866173
11	0xbea141cc	-0.31495512
12	0xbd967d30	-0.07348096
13	0x3f65d95f	0.89784807
14	0xc01ff26d	-2.4991715
15	0x3f391aa8	0.723063
16	0xbf86f06a	-1.0542119
17	0xbf14c604	-0.5811465
18	0x3f9ae329	1.2100574
19	0xbfb444b0	-1.4083462
20	0xbe4ff00e	-0.20306417
21	0xbf1fa96a	-0.6236788
22	0x40210520	2.5159378
23	0x3ca75d40	0.020430207
24	0xbf348078	-0.7050853
25	0xbf5a88ce	-0.85365
26	0x3ef32450	0.47488642
27	0x3c654ec0	0.013995826
28	0xbed7be08	-0.4213717
29	0xbf867656	-1.0504863
30	0x3f052b5e	0.520193
31	0x3fb9e562	1.4523127
32	0x3f24a9be	0.64321506
33	0xbed84894	-0.42242873
34	0xc09c9699	-4.8933835
35	0xbf865561	-1.0494806
36	0xbf9587d0	-1.1682072
37	0x3f6b134e	0.9182633
38	0xc012b4ac	-2.2922773
39	0xbfdb11f6	-1.7114856
40	0xbfa7bd36	-1.3104618
41	0xc0104a0b	-2.2545192
42	0x3f3188f5	0.69349605
43	0xc0094708	-2.1449604
44	0xbfdb73d4	-1.7144723
45	0x3f11cbef	0.569518
46	0x3f1afa3e	0.6053809
47	0xbe13cf7c	-0.14434618
48	0xbe938b0c	-0.28817022
49	0xbd756088	-0.059906512
50	0xbe5a2188	-0.21301854
51	0x3dabb890	0.08384812
52	0xc037e78c	-2.8735075
53	0xbd9decc0	-0.07711172
54	0x3fdd3aa7	1.7283524
55	0xbe647cf0	-0.22313285
56	0xbfe9f0e4	-1.8276639
57	0xc04376b8	-3.054121
58	0x3ce95908	0.028484836
59	0x3e85d5df	0.26139733
60	0xbf8a95a2	-1.0826914
61	0x3e1f53e8	0.15559351
62	0x3fbe4f12	1.486788
63	0xbe0e2078	-0.13879573
