ParticleNetAK4/CHS/V01/particle-net-with-tauh.onnx (onnx, 938847 bytes, 42 tensors)

pf_conv.conv.0.weight f4 [23]
2.2064817 2.1739824 0.012004343 0.17879999 0.035558052 0.7872252 1.0119814 0.74057734
0.9551049 1.6191663 -0.030984294 0.79104644 0.6146224 0.9410979 1.8752677 0.47865474
1.9219209 2.3057666 1.6895088 3.0677388 0.3524808 0.9400133 0.72517055
00000000: ff36 0d40 8722 0b40 ddad 443c 5817 373e
00000010: 52a5 113d 9787 493f 9b88 813f 7a96 3d3f
00000020: c181 743f d740 cf3f c6d2 fdbc 0582 4a3f
00000030: e557 1d3f cbeb 703f c608 f03f 3c12 f53e
00000040: 8101 f63f ae91 1340 d341 d83f d555 4440
00000050: 5d78 b43e b6a4 703f c7a4 393f

pf_conv.conv.0.bias f4 [23]
-6.579253e-05 0.00090635446 -0.00026933532 -0.00052238593 -0.00014510358 -0.00068918243 9.660562e-05 -4.862914e-05
0.00051648245 0.0014275726 -7.4504955e-05 0.00030804097 0.00014936629 0.00041091692 -0.0012287616 6.9554895e-05
2.3010623e-05 -0.0013936108 -0.00070055836 0.00031643006 2.2113438e-05 1.1430366e-05 -0.0006994211
00000000: 18fa 89b8 6b98 6d3a 9335 8db9 baf0 08ba
00000010: f226 18b9 40aa 34ba bf98 ca38 24f7 4bb8
00000020: 8d64 073a 631d bb3a 8b3f 9cb8 8f80 a139
00000030: 359f 1c39 5670 d739 660e a1ba 00de 9138
00000040: f006 c137 d2a9 b6ba ada5 37ba 86e6 a539
00000050: 3f80 b937 0cc5 3f37 5b59 37ba

pf_conv.conv.0.running_mean f4 [23]
-0.06705087 0.014287541 0.00024366962 0.00023684363 0.0050303442 0.009650273 -0.3125702 -0.36174363
-0.49942842 0.34133172 -0.010859156 0.9001777 0.0012257622 0.1845128 0.4190955 0.062346037
0.54903114 0.20460641 0.79460883 0.64381206 0.23480369 0.12263827 0.22724187
00000000: f751 89bd 4a16 6a3c 9181 7f39 3a59 7839
00000010: 96d5 a43b 2e1c 1e3c 3409 a0be 7636 b9be
00000020: 15b5 ffbe 08c3 ae3e 9aea 31bc 0c72 663f
00000030: c1a9 a03a ecf0 3c3e af93 d63e 8f5e 7f3d
00000040: 4e8d 0c3f 5884 513e 7c6b 4b3f ded0 243f
00000050: 6170 703e c629 fb3d 18b2 683e

pf_conv.conv.0.running_var f4 [23]
0.3120605 0.32402992 0.013624356 0.013829266 0.58106023 0.3415667 0.4585309 0.5216112
0.29437676 0.22465757 4.1133738 2.9935637 3.4795656 2.399673 0.30801943 0.029949533
0.24162614 3.6417325 2.673254 2.5074146 5.762914 0.037951376 0.15045829
00000000: 65c6 9f3e 40e7 a53e b138 5f3c 2594 623c
00000010: 5dc0 143f d5e1 ae3e 90c4 ea3e 5088 053f
00000020: 8db8 963e a20c 663e c2a0 8340 8c96 3f40
00000030: 34b1 5e40 3e94 1940 b9b4 9d3e b958 f53c
00000040: d86c 773e 2512 6940 9816 2b40 7b79 2040
00000050: cb69 b840 e772 1b3d bd11 1a3e

sv_conv.conv.0.weight f4 [11]
1.7342659 2.9760036 0.47618958 0.038966157 0.08999942 1.2559454 0.5485813 2.8567436
-0.03697354 0.6486213 2.4062736
00000000: 6dfc dd3f d876 3e40 1fcf f33e fa9a 1f3d
00000010: 9e51 b83d d2c2 a03f d36f 0c3f e3d4 3640
00000020: 9171 17bd 0c0c 263f 6300 1a40

sv_conv.conv.0.bias f4 [11]
-6.604975e-05 -8.622806e-05 -2.2373274e-06 -2.4522362e-06 2.5669075e-05 6.3094965e-05 3.5308528e-06 -0.00010741009
-6.832319e-05 -1.5288459e-05 -9.5248953e-07
00000000: 3184 8ab8 56d5 b4b8 fe24 16b6 1991 24b6
00000010: eb53 d737 da51 8438 97f3 6c36 5a41 e1b8
00000020: bc48 8fb8 b73f 80b7 95ae 7fb5

sv_conv.conv.0.running_mean f4 [11]
-0.092895076 0.048652302 0.00014135714 -0.0013830875 0.006283804 0.049040876 0.04183562 -0.06773223
0.049163572 0.04773995 0.049215563
00000000: c63f bebd a347 473d 4539 1439 b748 b5ba
00000010: 5ee8 cd3b 16df 483d d45b 2b3d 32b7 8abd
00000020: be5f 493d f78a 433d 4296 493d

sv_conv.conv.0.running_var f4 [11]
0.11878247 0.11992328 0.0012045475 0.06822236 0.20998316 0.49723294 0.20201594 0.090658315
0.14347632 0.15155007 0.14380233
00000000: 3944 f33d 569a f53d e8e1 9d3a 2ab8 8b3d
00000010: d305 573e 5195 fe3e 44dd 4e3e 11ab b93d
00000020: 75eb 123e f12f 1b3e eb40 133e

pn.fc.0.0.weight f4 [128, 256]
-2.5277545 -0.24204314 -0.17883764 -1.8049953 0.42504263 0.045087658 0.29518092 0.81911653
0.36936098 -0.23122548 -0.046524163 -0.7397358 -0.9780808 -0.8838254 -0.5192566 0.051966235
-1.2687114 0.37413362 0.31101277 -0.42767793 -0.369045 -0.088716716 0.065520085 -0.40396214
0.21294238 -0.6334946 -0.6217642 0.31992367 0.19923984 1.0182513 0.35696697 1.2872562
-0.7321739 -0.3548201 -0.0010675441 -0.48971176 0.8127282 -1.6651567 0.7568771 -0.24456537
-1.8062742 0.49095982 1.0934874 0.23474473 0.40500456 -0.23370299 -1.7636026 0.008036552
-1.1156719 -0.078984156 0.8056374 1.4244403 -1.475081 -1.2412968 -0.046774928 0.010064695
0.05041005 0.17199363 -1.3960347 -0.82157123 -0.038354695 0.8622316 0.49704427 -0.25905272
0.65161693 -0.045231532 -0.31453437 0.6668262 -2.3635478 0.5406032 -0.50730884 0.513933
0.0704691 -0.6654267 -1.038381 0.28439695 -1.0753131 -0.25869715 0.4539393 -0.79252344
-0.22986466 0.8760899 -1.4313713 -0.51054597 0.496476 0.95248216 -0.7537705 -0.72097
0.13294245 0.0032885533 0.10129816 -1.1106131 0.08396475 0.7005202 0.94288194 -0.22643335
-1.1948107 -0.53375685 -0.28868377 0.4708984 -0.23613861 -0.64374465 1.0889924 0.41769168
0.1220855 -0.8387474 -1.0133976 -0.89892226 -1.0499525 0.05726628 0.58575934 0.5245897
0.028553283 1.0941039 0.03350089 -0.14051133 1.3155375 -1.2402596 0.25500706 -0.43206963
-0.13385464 0.8482209 0.65796196 0.082828864 -2.0161407 0.49681792 -0.2767437 0.055896647
1.3560067 0.4760913 -0.8736096 -0.19882672 -0.38809103 -0.060643278 -1.5235544 -0.19670235
0.09289832 -0.038172573 0.70744956 0.18988451 -0.18929462 -1.68177 0.52821684 -0.79145044
0.35266358 0.506046 -1.1779127 -0.34760666 -1.5201414 -1.090052 0.4348307 -1.446567
-1.6492271 -0.19755004 -0.085450985 -0.20903511 0.4710783 0.42251295 -0.09230842 1.5765517
0.5687995 -0.025001036 -1.5628482 0.41901335 -0.41742775 1.1653775 1.2245536 -0.26858324
0.19328691 0.19023491 0.7114499 0.9163203 -0.6331639 1.2917432 -0.8574734 -0.26470074
0.10021725 -0.9360885 -0.22285903 0.015773924 0.7745046 0.44900846 0.7771755 1.1437751
0.28690064 0.44155133 -0.27063447 -0.23559687 0.49655896 0.2596419 -1.5423608 0.39310837
-0.18125252 -0.079211056 0.084236324 0.42342564 -1.8878549 1.2962867 -0.0024527733 -1.6053771
-0.70506096 0.1992279 -0.12406779 -0.20704411 -0.8841122 -0.33745572 0.06512415 0.021484882
-0.5491217 1.61645 2.5874476 0.9496508 0.3837757 -0.49488047 -0.301731 -0.61089057
0.9204323 0.04532487 -0.43383425 0.38721403 -0.616163 0.31229103 0.11451184 0.009583558
-0.5403404 -1.0182047 -0.0773128 -1.0909158 0.5207994 -2.0797448 -0.5827922 -0.02149836
0.16044219 0.11397918 1.1324991 -1.4556156 -0.91009575 -0.29840314 0.072521664 0.7523738
-1.099941 -1.3446273 0.96606994 0.41100153 0.55121565 0.028484372 -0.19401264 -1.4981465
0.3862828 0.18880627 0.31259003 -0.5595603 0.27298847 0.12193873 -1.384779 0.029699447
00000000: bbc6 21c0 28da 77be 3721 37be 160a e7bf
00000010: 309f d93e d6ad 383d f421 973e 9fb1 513f
00000020: e21c bd3e 5fc6 6cbe 1f90 3ebd 535f 3dbf
00000030: 8163 7abf 6242 62bf 00ee 04bf 8cda 543d
00000040: 2365 a2bf 718e bf3e 113d 9f3e 9af8 dabe
00000050: 77f3 bcbe 1cb1 b5bd 652f 863d 20d4 cebe
00000060: 910d 5a3e b42c 22bf f02b 1fbf 09cd a33e
00000070: 8705 4c3e 0f56 823f 60c4 b63e d0c4 a43f
00000080: c06f 3bbf fbaa b5be d6ec 8bba 80bb fabe
00000090: f50e 503f db23 d5bf b3c2 413f 586f 7abe
000000a0: fe33 e7bf 165f fb3e 65f7 8b3f ec60 703e
000000b0: c25c cf3e d64f 6fbe bbbd e1bf beab 033c
000000c0: 56ce 8ebf 72c2 a1bd 413e 4e3f 0f54 b63f
000000d0: 74cf bcbf d0e2 9ebf 1197 3fbd 64e6 243c
000000e0: c57a 4e3d 191f 303e 44b1 b2bf 7e52 52bf
000000f0: d019 1dbd 36bb 5c3f 967c fe3e 8fa2 84be
00000100: 5ed0 263f b344 39bd a60a a1be 1fb5 2a3f
00000110: 5e44 17c0 f964 0a3f fede 01bf 1d91 033f
00000120: 1a52 903d 6759 2abf abe9 84bf 7a9c 913e
00000130: dca3 89bf f473 84be bb6a e83e d1e2 4abf
00000140: a461 6bbe 6d47 603f 2d37 b7bf 24b3 02bf
00000150: 1a32 fe3e dfd5 733f 1af7 40bf 7d91 38bf
00000160: 1122 083e c584 573b 6975 cf3d 9228 8ebf
00000170: b6f5 ab3d 4b55 333f b660 713f 25de 67be
00000180: 8fef 98bf 4aa4 08bf 5cce 93be 9819 f13e
00000190: 52ce 71be 73cc 24bf 1a64 8b3f afdb d53e
000001a0: f607 fa3d 26b8 56bf 03b7 81bf c51f 66bf
000001b0: d864 86bf 0c90 6a3d 53f4 153f 834b 063f
000001c0: 93e8 e93c 990b 8c3f 3b38 093d 34e2 0fbe
000001d0: 8863 a83f d4c0 9ebf 4990 823e 3b38 ddbe
000001e0: 3111 09be 0125 593f 3270 283f 2ea2 a93d
000001f0: 7308 01c0 eb5e fe3e 5ab1 8dbe e2f3 643d
00000200: a191 ad3f 3dc2 f33e e1a4 5fbf 3b99 4bbe
00000210: deb3 c6be 1665 78bd d503 c3bf 576c 49be
00000220: 7941 be3d d85a 1cbd 6a1b 353f 1671 423e
00000230: 73d6 41be 3d44 d7bf 3839 073f 7f9c 4abf
00000240: 5290 b43e 3b8c 013f d8c5 96bf 80f9 b1be
00000250: fe93 c2bf d386 8bbf 21a2 de3e 1c29 b9bf
00000260: e019 d3bf 8f4a 4abe ed00 afbd 4d0d 56be
00000270: 2d31 f13e 9e53 d83e 320c bdbd 72cc c93f
00000280: d89c 113f f9ce ccbc 690b c8bf eb88 d63e
00000290: 17b9 d5be 172b 953f 2cbe 9c3f be83 89be
000002a0: 01ed 453e f1cc 423e 9521 363f f893 6a3f
000002b0: 0817 22bf d757 a53f 6083 5bbf db86 87be
000002c0: b43e cd3d 7fa3 6fbf 2835 64be 5138 813c
000002d0: ef45 463f 70e4 e53e f9f4 463f 3967 923f
000002e0: a4e4 923e 0413 e23e 9a90 8abe 4e40 71be
000002f0: fa3c fe3e c8ef 843e 146c c5bf 8045 c93e
00000300: 439a 39be 6839 a2bd 1884 ac3d 3fcb d83e
00000310: 3ba5 f1bf b9ec a53f b5be 20bb ff7c cdbf
00000320: e07e 34bf 6602 4c3e 4117 febd 5f03 54be
00000330: 2d55 62bf ffc6 acbe cf5f 853d 1001 b03c
00000340: 3d93 0cbf d5e7 ce3f be98 2540 511c 733f
00000350: 407e c43e f960 fdbe 7c7c 9abe 5363 1cbf
00000360: 74a1 6b3f 92a6 393d 861f debe eb40 c63e
00000370: dcbc 1dbf 9ce4 9f3e 2f85 ea3d 5b04 1d3c
00000380: c053 0abf 8854 82bf 2c56 9ebd 21a3 8bbf
00000390: 1c53 053f 8a1a 05c0 df31 15bf 541d b0bc
000003a0: f54a 243e eb6d e93d bbf5 903f 9d51 babf
000003b0: 09fc 68bf 4cc8 98be 3d86 943d 929b 403f
000003c0: deca 8cbf bf1c acbf 5c50 773f cb6e d23e
000003d0: 781c 0d3f 0f58 e93c 40ab 46be 44c3 bfbf
000003e0: dcc6 c53e 6e56 413e cd0b a03e 583f 0fbf
000003f0: 25c5 8b3e 03bb f93d 7040 b1bf 414c f33c

pn.fc.0.0.bias f4 [128]
0.23444167 -0.03219019 0.14188367 0.3169504 0.24471046 0.17340407 -0.019605748 0.22826646
0.235027 0.33409357 -0.00036774675 0.06341448 0.26203567 0.15492898 -0.051040612 0.06840433
-0.07187942 0.20339438 0.33872172 0.2966282 -0.037350673 0.044077076 0.2667463 0.30885413
-0.16443045 0.10188021 -0.06470825 0.10657825 0.17314114 0.17669472 -0.06954691 -0.07507656
-0.078672916 0.16302732 0.08184259 0.06562992 0.001534219 0.23865895 0.13399954 -0.06328383
0.19684993 0.17904595 -0.07139242 0.1491894 0.27198905 0.06760367 0.27060753 0.08310445
-0.044642165 -0.044022493 -0.037360035 -0.12609613 0.019757133 -0.040526528 0.21958442 0.1928118
-0.0140207205 -0.01511749 0.5139742 0.29353136 0.24551268 -0.052104935 0.037247747 0.15555085
0.088023394 0.11901361 0.019096091 0.15400264 0.30115283 0.24172507 0.17164816 0.260016
-0.036994223 0.03742141 -0.03703148 0.22208364 -0.06681764 0.2053703 0.085303225 0.0075233444
0.0905863 -0.03493026 0.17069206 -0.044323556 0.089392625 -0.075139105 -0.08397593 -0.06605087
0.3839971 0.22258037 0.20232803 0.30340382 -0.06237092 0.10913425 -0.074654445 -0.08691741
0.10397456 0.010737118 0.31655422 -0.03893688 0.24190176 -0.11621592 0.34636497 0.004388564
0.28589872 -0.032337103 -0.01653043 0.25114462 0.2115225 -0.02839715 0.21445294 0.34896258
0.3532129 0.033420887 -0.051641263 -0.107230954 0.24914028 0.17900166 0.06473949 0.16072382
0.3646277 -0.013182693 0.3137818 0.24691507 0.01834497 -0.049971804 0.21744801 0.34195173
00000000: 7a11 703e dcd9 03bd f449 113e 5347 a23e
00000010: 6195 7a3e d690 313e 3c9c a0bc afbe 693e
00000020: ebaa 703e 500e ab3e 22ce c0b9 73df 813d
00000030: 8a29 863e b4a5 1e3e f60f 51bd 9217 8c3d
00000040: 8435 93bd 9e46 503e ef6c ad3e a7df 973e
00000050: 05fd 18bd 2a8a 343d f992 883e 2122 9e3e
00000060: 7560 28be 92a6 d03d c285 84bd b345 da3d
00000070: e94b 313e 76ef 343e 9c6e 8ebd bdc1 99bd
00000080: 441f a1bd a2f0 263e 169d a73d fb68 863d
00000090: d917 c93a 0363 743e 2d37 093e f49a 81bd
000000a0: 0793 493e d257 373e 3036 92bd 1bc5 183e
000000b0: 2642 8b3e cb73 8a3d 128d 8a3e aa32 aa3d
000000c0: b4da 36bd ee50 34bd d606 19bd 581f 01be
000000d0: b6d9 a13c 25ff 25bd bdda 603e 7570 453e
000000e0: 2ab7 65bc 59af 77bc d093 033f be49 963e
000000f0: ad67 7b3e fc6b 55bd 1891 183d b948 1f3e
00000100: 9c45 b43d 68bd f33d 686f 9c3c deb2 1d3e
00000110: b430 9a3e c786 773e 89c4 2f3e d120 853e
00000120: 4187 17bd 3147 193d 52ae 17bd e569 633e
00000130: b0d7 88bd 984c 523e 75b3 ae3d 6386 f63b
00000140: 4f85 b93d 0813 0fbd e6c9 2e3e 9e8c 35bd
00000150: 7b13 b73d 88e2 99bd 93fb abbd ae45 87bd
00000160: 459b c43e 1cec 633e 142f 4f3e bf57 9b3e
00000170: a678 7fbd c781 df3d 6ee4 98bd c101 b2bd
00000180: 9df0 d43d bdea 2f3c 6513 a23e 477c 1fbd
00000190: 18b5 773e 9d02 eebd c056 b13e f1cd 8f3b
000001a0: 5161 923e e973 04bd d36a 87bc 0796 803e
000001b0: 5b99 583e 24a1 e8bc 8d99 5b3e 39ab b23e
000001c0: 52d8 b43e 57e4 083d ca85 53bd e79b dbbd
000001d0: a11e 7f3e 364c 373e 2396 843d c994 243e
000001e0: 7bb0 ba3e 39fc 57bc 02a8 a03e 4ed7 7c3e
000001f0: 3148 963c 3caf 4cbd b1aa 5e3e 4c14 af3e

pn.fc.1.weight f4 [5, 128]
-0.4580677 0.07003211 0.12310542 0.24138676 0.17697626 0.12642513 -0.009288516 0.20466405
0.12286405 0.18770945 -0.2528474 -1.3822991 0.29225728 0.07644556 0.02309746 -0.40496603
-0.041922092 -0.5627636 0.21304643 0.14697462 0.044481453 0.10061821 -0.23096842 0.26299906
0.11895625 -0.2832827 0.07654314 -0.041821253 0.2170892 0.08559127 -0.06047412 0.0068007763
-0.050675906 0.08799014 -0.6765401 0.6558834 -0.3177824 0.15837249 -0.7076554 0.47355825
0.15890253 -0.15204298 0.0342767 -0.9244632 0.21433888 0.4006013 -0.13231438 -0.56570363
0.0799872 0.030995373 -0.029645566 0.07904811 0.08848537 -0.06962169 0.14588147 0.092236415
-0.01679496 -0.2503525 0.11685865 0.43873218 0.40695766 -0.026894333 -0.7732046 0.16893764
-0.728236 0.19252206 -0.74991506 -0.39771035 -0.502882 0.15735646 0.15724616 -0.63189536
-2.5148506 -1.1751951 0.06754917 0.050310142 -0.015309894 0.17216288 -0.36749738 -0.62539613
-0.783703 0.024125185 -0.0722982 0.054380644 -0.11151347 0.040859655 0.0024632933 0.06788224
0.28818548 0.32589003 0.20716245 -0.86445713 0.013115821 0.00432397 0.013997655 -1.7364014
-0.43857402 0.07585729 0.37060225 0.06829281 0.2331547 -5.5924892 -1.013861 -0.47566372
0.110361814 -0.0101181585 0.22399193 -0.30635652 -0.69924396 0.05610741 1.054399 0.3320121
0.36154655 -0.8981311 0.02588774 0.08843239 0.04229089 0.1317499 -0.17232493 0.19306523
-0.67797095 0.0022310624 0.36261448 0.12244138 -0.38209304 0.07685564 0.17853598 0.21683513
-0.3258404 0.09797089 0.12587382 -0.14547127 -0.17764933 0.12845479 -0.038225077 0.16355549
-0.3222368 0.10284162 0.122876406 0.020880485 -0.059075337 0.09031815 0.06025939 -0.51426613
-0.020238044 -0.32436574 -0.6811474 0.14783733 0.033111215 0.09607953 0.3574116 -0.2408585
0.12577982 -0.458695 -0.025378626 0.19388148 -0.4229801 0.09860833 -0.08070885 -0.01949177
0.022287786 0.11468761 -0.40557608 -0.27585205 -0.089892775 0.1391194 0.068894304 0.18440908
-0.63898623 0.13353902 0.0384698 -0.37509057 -0.20288114 0.205787 -0.11534449 -0.06649183
0.022074215 -0.05597796 0.05078854 -0.14290363 0.092566796 -0.07434314 0.26828223 0.10462014
-0.035933256 0.13961577 0.1266854 -0.27296913 -0.23142111 -0.059844956 -0.27960017 -0.6597029
-0.37205383 -0.18287121 0.13087197 -0.25520664 -0.25467098 -0.11050466 0.20787938 -0.24423765
0.07232086 -0.9658701 0.044331327 -0.11594506 0.06476982 0.18172199 0.13254966 0.14673492
0.11358108 -0.06571201 0.16847223 -0.09030689 -0.31480217 0.0681751 0.077006266 0.06519161
-0.11103109 -0.4541821 -0.35247767 0.19743076 0.066503465 -0.24993554 0.07266389 0.12191014
-0.32707855 0.08229647 -0.1186327 -0.058378316 0.23584034 0.09410086 -0.19865693 -0.02555266
-0.2997865 -0.05650171 -0.1242826 0.1420865 -0.18481348 -0.0017926652 -0.5061502 -0.41203576
-0.14565778 0.14120923 -0.056879953 -0.9732898 0.07324649 0.1479912 0.6817391 -0.62979466
0.13386059 0.010721188 -0.21576713 0.13612992 -0.44539985 -0.008276319 -0.51224047 -0.47748998
00000000: d987 eabe ff6c 8f3d b21e fc3d 172e 773e
00000010: 4439 353e 9775 013e dc2e 18bc 7493 513e
00000020: 26a0 fb3d e836 403e 3775 81be 2def b0bf
00000030: bfa2 953e 7d8f 9c3d e236 bd3c b557 cfbe
00000040: 80b6 2bbd 4611 10bf d828 5a3e 8480 163e
00000050: 2f32 363d ec10 ce3d fc82 6cbe d0a7 863e
00000060: 569f f33d 6e0a 91be a6c2 9c3d c34c 2bbd
00000070: a24c 5e3e 7a4a af3d b6b3 77bd 0cd9 de3b
00000080: 8a91 4fbd 2d34 b43d bb31 2dbf f9e7 273f
00000090: 60b4 a2be 662c 223e e728 35bf 3a76 f23e
000000a0: 58b7 223e 28b1 1bbe ba65 0c3d 9fa9 6cbf
000000b0: a77b 5b3e 9d1b cd3e 6c7d 07be f4d1 10bf
000000c0: 54d0 a33d 02ea fd3c 42db f2bc fae3 a13d
000000d0: d137 b53d d195 8ebd f461 153e 72e6 bc3d
000000e0: 9595 89bc 342e 80be 9753 ef3d 81a1 e03e
000000f0: c15c d03e 8151 dcbc bdf0 45bf fdfd 2c3e
00000100: ad6d 3abf 8124 453e 6ffa 3fbf b1a0 cbbe
00000110: e0bc 00bf 0d22 213e 2305 213e e5c3 21bf
00000120: 50f3 20c0 cb6c 96bf 3857 8a3d 0212 4e3d
00000130: 5ad6 7abc 774b 303e 9e28 bcbe f619 20bf
00000140: c3a0 48bf 2ea2 c53c 1411 94bd 3dbe 5e3d
00000150: 2d61 e4bd 745c 273d 346f 213b d805 8b3d
00000160: 0c8d 933e 0fdb a63e 6522 543e 104d 5dbf
00000170: bee3 563c 17b0 8d3b 6c56 653c 6742 debf
00000180: c68c e0be 115b 9b3d 94bf bd3e 1add 8b3d
00000190: 1bc0 6e3e acf5 b2c0 32c6 81bf 328a f3be
000001a0: 6005 e23d a2c6 25bc 245e 653e c3da 9cbe
000001b0: a701 33bf e2d0 653d 8cf6 863f 7dfd a93e
000001c0: a11c b93e ebeb 65bf 8712 d43c 0a1c b53d
000001d0: 3639 2d3d 72e9 063e f275 30be e4b2 453e
000001e0: 818f 2dbf 0437 123b 9ba8 b93e 8cc2 fa3d
000001f0: b3a1 c3be 7d66 9d3d 23d2 363e 070a 5e3e
00000200: 8ed4 a6be f6a4 c83d 11e5 003e 6cf6 14be
00000210: b5e9 35be a789 033e e691 1cbd 177b 273e
00000220: 39fc a4be a19e d23d a0a6 fb3d 8d0d ab3c
00000230: fbf8 71bd b9f8 b83d 8dd2 763d f2a6 03bf
00000240: 41ca a5bc 4413 a6be ad5f 2ebf ab62 173e
00000250: a09f 073d 58c5 c43d a7fe b63e 9ca3 76be
00000260: 6dcc 003e 12da eabe d6e6 cfbc de88 463e
00000270: d990 d8be 2af3 c93d ae4a a5bd 34ad 9fbc
00000280: e094 b63c 56e1 ea3d aba7 cfbe 7b3c 8dbe
00000290: b419 b8bd 5175 0e3e 7518 8d3d bcd5 3c3e
000002a0: 9a94 23bf 74be 083e 8292 1d3d df0b c0be
000002b0: 13c0 4fbe d4b9 523e bb39 ecbd de2c 88bd
000002c0: fcd4 b43c 2549 65bd a507 503d 5455 12be
000002d0: a993 bd3d 3741 98bd 4a5c 893e 1543 d63d
000002e0: c02e 13bd 70f7 0e3e d1b9 013e 9cc2 8bbe
000002f0: a8f9 6cbe fc1f 75bd c127 8fbe 4ae2 28bf
00000300: d77d bebe 9742 3bbe 4d03 063e 72aa 82be
00000310: 3c64 82be 4450 e2bd 55de 543e 6f19 7abe
00000320: f61c 943d 4343 77bf c494 353d 9b74 edbd
00000330: 0aa6 843d 5415 3a3e 19bb 073e ae41 163e
00000340: 339d e83d 0594 86bd fc83 2c3e d2f2 b8bd
00000350: c02d a1be 639f 8b3d 76b5 9d3d 2e83 853d
00000360: 4564 e3bd 8e8a e8be f477 b4be 4a2b 4a3e
00000370: f832 883d 1aef 7fbe ced0 943d 06ac f93d
00000380: d776 a7be 0d8b a83d b3f5 f2bd 1a1e 6fbd
00000390: 2180 713e f4b7 c03d b96c 4bbe d053 d1bc
000003a0: 9e7d 99be 566e 67bd e087 febd 207f 113e
000003b0: bf3f 3dbe ddf7 eaba 0f93 01bf 5af6 d2be
000003c0: 5027 15be 2799 103e f4fa 68bd 8529 79bf
000003d0: 4102 963d 018b 173e 7486 2e3f 393a 21bf
000003e0: c012 093e eca7 2f3c 0ff2 5cbe a465 0b3e
000003f0: 730b e4be 6699 07bc 3122 03bf 9179 f4be

pn.fc.1.bias f4 [5]
-1.1156449 -0.9332899 -0.5382639 0.3376772 0.7739824
00000000: 74cd 8ebf 16ec 6ebf aacb 09bf 07e4 ac3e
00000010: b623 463f

445 f4 [32, 23, 1]
0.8405291 -1.0601078 -0.03416523 -0.016601942 0.09305996 0.005346407 -0.59951997 0.0017085992
0.08413449 -0.23895346 -0.036334977 0.2596639 -0.04345216 -0.007952131 0.8293419 -0.59705794
0.1941878 -0.036202535 -0.29809278 -0.06159638 0.49742243 -0.12087401 0.3506546 0.039673697
-0.044219445 0.02617443 -0.031608395 0.051464114 -0.005381098 0.04562318 0.01276911 -0.04446763
0.029131902 -0.016712856 -0.11845778 -0.005181113 0.03150315 1.3997127 0.26864955 -0.0882338
0.030235775 0.039112315 -0.025678817 -0.085141025 0.05442246 -0.05556467 -0.123834416 0.1407046
0.0032656586 0.16490814 -0.011096074 0.03426591 0.28572112 -0.050776355 -0.37019497 0.13882719
0.010682883 -0.10276531 0.054353867 -0.13232753 -0.04349641 0.16010408 0.05403829 0.031271268
0.24612768 -0.8809686 -0.108935036 -0.09623175 0.24771717 -0.7267094 -0.9209743 0.15290487
-0.012137633 -0.004635314 0.006619686 -0.042347685 0.26278302 0.015433854 -0.010785026 0.12915584
-0.20606387 0.00047424578 -0.20920618 1.227045 -0.0933033 -1.2278147 -0.08537712 0.22026676
-0.1090675 0.09869537 0.09213293 -0.03572255 -0.41132766 -0.005662871 -0.031624444 0.032829765
-0.020710688 0.035407033 -0.20808397 0.78073406 -0.05689471 -0.41510522 -0.03745788 0.13591687
0.0019617868 0.17471004 0.037881404 -0.16292648 -0.09134054 0.042582434 0.42227125 0.09079643
-0.20810425 -0.37965134 0.10357216 0.4138838 0.3557375 -0.09358796 -0.016065866 0.06203659
0.024780365 -0.08071469 0.17475484 0.04088069 -0.049382083 -0.06030499 -0.16076005 0.023940038
-0.026681788 -0.21027547 0.19678514 -0.23585238 -0.05417778 0.039864816 -0.0038448132 -0.06039652
-0.007911658 -0.12976854 -0.15570633 -0.07427615 0.000244684 -0.009362551 0.043887235 -0.04308261
0.0960131 0.05780647 0.08580735 -0.24665532 -0.005346142 -0.10022276 -0.15183464 0.04252979
-0.12500983 -0.40605173 -0.071051 -0.09532149 -0.15247402 -0.06458908 -0.043115787 -0.22198245
-0.15745424 -0.08162076 0.05599811 0.023620278 0.048559416 0.14422646 -0.014837783 -0.8311683
-0.031565584 0.044619996 -0.25588167 0.084504694 -0.13865942 -0.007478117 -0.26986668 -0.06850829
-0.12395614 0.10059815 0.011064897 -0.20087793 0.22487007 -0.035838913 0.033943 -0.17333397
0.007073841 0.16624248 0.06577446 -0.10418597 0.015684778 -0.16403703 -0.44814152 0.017862776
-0.02397781 0.1623337 0.0104064215 -0.17792615 -0.09373052 0.24760984 -0.17827839 -0.18174353
-0.07460493 0.09052765 -0.22521426 -0.27996323 -0.23463786 0.20672949 -0.29979712 0.48351127
0.015330893 0.0073958603 0.03969129 0.029125115 0.09081204 -0.13426909 -0.12984186 0.0892852
0.28770557 -0.052902322 0.01042238 0.006718757 0.11737777 -0.22687326 0.11822973 -0.143934
0.022962624 0.048432015 -0.19989136 -0.11885943 0.034484744 0.28191677 0.06370571 -0.062475834
-0.007881339 -0.014824351 0.061428238 0.01919674 -0.014496934 -0.06507564 -0.08566637 0.0034997724
-0.042350795 -0.004200056 -0.021431528 0.085251145 -0.07749451 0.19975184 -0.033195894 -0.4781876
-0.082777634 -0.14454661 -0.6504911 0.022804206 0.0100722695 0.06301493 -0.021404168 0.095580995
00000000: ea2c 573f 9db1 87bf d7f0 0bbd cc00 88bc
00000010: 3896 be3d ea30 af3b 247a 19bf 13f3 df3a
00000020: b44e ac3d 37b0 74be fcd3 14bd abf2 843e
00000030: e4fa 31bd a849 02bc c04f 543f cad8 18bf
00000040: 2bd9 463e 1c49 14bd 9e9f 98be 7c4c 7cbd
00000050: 27ae fe3e cb8c f7bd 0089 b33e e380 223d
00000060: 731f 35bd c26b d63c ce77 01bd 09cc 523d
00000070: ec53 b0bb 5fdf 3a3d 8735 513c b123 36bd
00000080: 07a6 ee3c 66e9 88bc fe99 f2bd 53c6 a9bb
00000090: 7209 013d c929 b33f 6f8c 893e ecb3 b4bd
000000a0: 04b1 f73c 3c34 203d 625c d2bc 6b5e aebd
000000b0: 16ea 5e3d c897 63bd e69c fdbd de14 103e
000000c0: a904 563b aedd 283e 4fcc 35bc 695a 0c3d
000000d0: 0a4a 923e defa 4fbd 328a bdbe b728 0e3e
000000e0: 4207 2f3c 9e76 d2bd 29a2 5e3d de80 07be
000000f0: 4b29 32bd 53f2 233e 4157 5d3d 4d16 003d
00000100: e508 7c3e 2887 61bf 5519 dfbd 2715 c5bd
00000110: 92a9 7d3e a109 3abf f9c4 6bbf 1893 1c3e
00000120: ecdc 46bc d5e3 97bb f3e9 d83b c474 2dbd
00000130: 7f8b 863e 47de 7c3c adb3 30bc 6e41 043e
00000140: 6802 53be 31a4 f839 253a 56be d00f 9d3f
00000150: cd15 bfbd 0829 9dbf 33da aebd 9c8d 613e
00000160: c85e dfbd cc20 ca3d 31b0 bc3d cf51 12bd
00000170: 8a99 d2be 9b8f b9bb a288 01bd 8178 063d
00000180: 76a9 a9bc f706 113d f713 55be 30de 473f
00000190: 6d0a 69bd ac88 d4be 6f6d 19bd cb2d 0b3e
000001a0: 5291 003b 30e7 323e 8829 1b3d 33d6 26be
000001b0: c010 bbbd eb6a 2e3d f033 d83e 7bf3 b93d
000001c0: 4819 55be a961 c2be a41d d43d 94e8 d33e
000001d0: 3a23 b63e 0bab bfbd 909c 83bc 141a 7e3d
000001e0: 3100 cb3c be4d a5bd eff2 323e 8372 273d
000001f0: de44 4abd 5d02 77bd 489e 24be e61d c43c
00000200: c493 dabc 7452 57be 0b82 493e 4983 71be
00000210: 85e9 5dbd 4a49 233d 43f9 7bbb 5762 77bd
00000220: e69f 01bc 0be2 04be 7b71 1fbe 181e 98bd
00000230: ee48 8039 6365 19bc 1ac3 333d 6477 30bd
00000240: 84a2 c43d 7ac6 6c3d c4bb af3d 3693 7cbe
00000250: b12e afbb 9741 cdbd 8a7a 1bbe b833 2e3d
00000260: 9402 00be 03e6 cfbe 3083 91bd ea37 c3bd
00000270: 2622 1cbe 4847 84bd 2e9a 30bd 5e4f 63be
00000280: af3b 21be c928 a7bd 465e 653d 507f c13c
00000290: 3de6 463d 1ab0 133e 2c1a 73bc 72c7 54bf
000002a0: ea4a 01bd 75c3 363d ec02 83be cc10 ad3d
000002b0: bcfc 0dbe fe0a f5bb f72b 8abe 134e 8cbd
000002c0: b7dc fdbd 6706 ce3d 8b49 353c f2b2 4dbe
000002d0: 5744 663e d3cb 12bd d107 0b3d 767e 31be
000002e0: aecb e73b 783b 2a3e c3b4 863d 745f d5bd
000002f0: 5d7d 803c 53f9 27be ce72 e5be f554 923c
00000300: 1d6d c4bc ce3a 263e b27f 2a3c 4632 36be
00000310: c9f5 bfbd 6f8d 7d3e 9c8e 36be fa1a 3abe
00000320: 78ca 98bd 9066 b93d 919e 66be 5757 8fbe
00000330: e844 70be e5b0 533e 027f 99be ca8e f73e
00000340: 6d2e 7b3c f958 f23b 5693 223d cb97 ee3c
00000350: aafb b93d d67d 09be 44f5 04be 29db b63d
00000360: 254e 933e 1bb0 58bd a1c2 2a3c 0529 dc3b
00000370: c263 f03d 7751 68be 6e22 f23d 6f63 13be
00000380: 1d1c bc3c a660 463d 52b0 4cbe 936c f3bd
00000390: e03f 0d3d 6557 903e 2478 823d a9e6 7fbd
000003a0: bb20 01bc d6e1 72bc 2d9c 7b3d 7b42 9d3c
000003b0: 8c84 6dbc 6146 85bd da71 afbd 705c 653b
000003c0: 0778 2dbd a0a0 89bb 2c91 afbc 2798 ae3d
000003d0: 71b5 9ebd bf8b 4c3e 6bf8 07bd 01d5 f4be
000003e0: 5287 a9bd 0704 14be 9686 26bf e3cf ba3c
000003f0: 2906 253c f90d 813d cb57 afbc f8bf c33d

446 f4 [32]
1.4867775 1.5745525 -0.03307958 -0.06594791 -0.5339782 -0.85953844 0.12486478 0.0740871
1.0513295 1.3877206 -0.42227975 0.025199765 0.8469692 -0.3794993 2.3415418 1.6933163
-0.77428377 0.33828118 1.1609395 -0.25669393 -0.44843403 -1.2610388 -1.054691 1.0019858
1.3502417 0.63984704 0.45407504 -0.5138695 -0.34145355 1.5042027 0.44456586 0.45475534
00000000: ba4e be3f f08a c93f 747e 07bd b30f 87bd
00000010: ccb2 08bf b60a 5cbf 1bb9 ff3d faba 973d
00000020: f791 863f d4a0 b13f 0d35 d8be bd6f ce3c
00000030: f9d2 583f bb4d c2be d2db 1540 97be d83f
00000040: 7637 46bf 3133 ad3e aa99 943f 636d 83be
00000050: 2599 e5be b869 a1bf 1d00 87bf 1241 803f
00000060: b8d4 ac3f 04cd 233f 867c e83e f48c 03bf
00000070: 00d3 aebe b789 c03f 239e e33e b1d5 e83e

448 f4 [32, 11, 1]
0.012749708 0.059652045 0.051316585 0.17688847 0.10510889 -0.0025810965 -0.54149866 0.77597165
-0.27075076 -0.48630476 -0.76536465 0.061512496 -0.007791893 -0.009977785 0.16444588 -0.013630914
-0.02749738 0.063349284 0.04534885 -0.73057085 0.6221082 -1.4030195 -0.10489363 -0.078906134
-0.065045 -0.005954251 0.006329482 0.3959439 -0.09865242 -0.22086918 0.008998731 0.15548943
-0.013950906 0.061221473 0.25688612 0.0242333 -0.037762355 -0.043378778 -1.3986999 -0.049991306
-0.0032974458 0.019621141 0.07888845 0.05154474 0.077566706 -0.13842584 0.024973001 0.008949602
-0.023937704 -0.13639057 -0.60498005 0.06290312 0.008979939 0.35565746 0.03153648 0.16780066
0.22689995 0.05908458 0.036656596 -0.01414268 0.070036165 0.11574246 0.16097751 0.005854711
-0.14482407 0.013880711 0.59635407 -0.04336143 -0.02960873 -0.015306337 -0.035751916 0.07688686
-0.006793328 -0.11403667 0.009215409 0.055278867 0.011318523 -0.09505053 0.093026906 0.036743753
-0.0051802984 0.052152578 0.03218105 0.07718575 -0.08834864 -0.2085604 0.020624688 -1.6951065
-0.063973255 0.01593277 -0.035556737 -0.018983735 -0.040242955 -0.11817843 -0.0782457 0.72743493
-0.16575535 -0.53145105 -0.15119779 -0.24284692 0.077585876 0.050313916 0.029644432 0.0037389095
0.16363518 0.12508143 0.3029996 0.016481046 -0.023018004 0.054143615 -0.20966062 -0.6402476
0.1405351 0.0122351665 0.016256498 0.24011628 0.096828096 0.02445847 0.011324264 0.039639194
0.0065005017 -0.4798754 0.1579417 0.023673965 0.049216833 -0.10728589 -0.010402913 -0.024231073
-0.45752043 -0.044837605 -0.10882169 -0.03281226 0.027037343 0.0041746353 0.79946595 -0.063383535
0.1428993 -0.013080251 0.029726014 0.039626442 -0.025550595 -0.01673542 0.005552975 -0.06809536
0.023315055 -0.0181107 0.028470242 -0.030783325 0.005549348 0.20597872 -0.17972398 0.0074368003
0.05888682 -0.08761893 -0.12932433 0.13259205 -0.028806034 -0.0854774 -0.06563329 -0.037231002
-0.054664746 0.07049634 -0.32741082 -0.2587623 -2.5289133 -0.018370679 0.022512466 -0.02909813
0.054854102 0.07173085 0.023226654 0.09765146 -0.03869206 -0.31621116 0.15185142 -0.95374775
0.082109556 -0.059678476 0.07770271 -0.02451686 -0.01002237 0.04904714 -0.2505379 0.06255465
0.011761882 0.022065371 0.28526273 -0.49318668 0.36975417 -0.02257481 -0.024053402 -0.011565149
-0.120403245 -0.06182237 -0.11963734 0.0137489615 -0.10309898 0.114382155 -0.098329954 -0.1553261
-0.020139705 -0.03156042 -0.015197171 0.020809587 0.07401717 0.005831927 -0.026714977 -0.02161318
-0.01575407 0.062730834 -0.20053871 -0.003468658 0.17547068 0.047286738 -0.2950875 -0.084020846
0.002514397 -0.052088715 0.09327472 -0.3141007 -0.2580617 0.08877388 0.16375187 -0.009599138
0.032372784 -0.03911342 0.18274398 -0.5040323 0.020334773 0.141469 0.06179543 0.27674896
-0.73737335 0.0036772427 -0.060465064 -0.035356313 0.31746852 -0.037695542 0.049206037 0.018760314
0.0034170295 0.041893214 -0.00588422 -0.07994381 0.044279054 -0.029005514 -0.006897537 0.20351857
-0.5409906 0.16425696 -0.10993404 -0.008006108 -0.03576415 0.4620063 -0.21652243 -0.07322855
00000000: 27e4 503c b455 743d 5731 523d 4022 353e
00000010: 5443 d73d 9d27 29bb a89f 0abf 14a6 463f
00000020: d89f 8abe f0fc f8be f0ee 43bf 87f4 7b3d
00000030: 2353 ffbb dd79 23bc 8064 283e 3254 5fbc
00000040: 2f42 e1bc 45bd 813d b7bf 393d b106 3bbf
00000050: 7c42 1f3f 2596 b3bf 79d2 d6bd 8a99 a1bd
00000060: 5036 85bd e11b c3bb 8b67 cf3b 29b9 ca3e
00000070: 480a cabd 882b 62be 6a6f 133c 9f38 1f3e
00000080: 5792 64bc 5ec3 7a3d 9486 833e ea84 c63c
00000090: b3ac 1abd f2ad 31bd 9908 b3bf afc3 4cbd
000000a0: f619 58bb 84bc a03c 4590 a13d 9420 533d
000000b0: 4bdb 9e3d 81bf 0dbe 2e94 cc3c 5aa1 123c
000000c0: 0119 c4bc f8a9 0bbe f9df 1abf 5ad3 803d
000000d0: 9820 133c bc18 b63e 652c 013d f0d3 2b3e
000000e0: 7658 683e ac02 723d 3a25 163d b3b6 67bc
000000f0: 1f6f 8f3d 620a ed3d 4ad7 243e e0d8 bf3b
00000100: c34c 14be ec6b 633c a9aa 183f c19b 31bd
00000110: 028e f2bc 6ec7 7abc 9a70 12bd dc76 9d3d
00000120: 919a debb 0f8c e9bd 3afc 163c 186c 623d
00000130: 5471 393c daa9 c2bd e484 be3d 9e80 163d
00000140: 7ebf a9bb f19d 553d 47d0 033d 9013 9e3d
00000150: 22f0 b4bd dc90 55be 1bf5 a83c 40f9 d8bf
00000160: 6904 83bd 7185 823c f1a3 11bd c783 9bbc
00000170: ccd5 24bd 8807 f2bd 483f a0bd 2d39 3a3f
00000180: c5bb 29be 2d0d 08bf 98d3 1abe ddac 78be
00000190: 58e5 9e3d f715 4e3d e1d8 f23c 7e08 753b
000001a0: fb8f 273e 5915 003e c322 9b3e 4203 873c
000001b0: 4190 bcbc b2c5 5d3d 46b1 56be 44e7 23bf
000001c0: 6fe8 0f3e 0276 483c 592c 853c 0be1 753e
000001d0: cf4d c63d 215d c83c 6889 393c b55c 223d
000001e0: 2902 d53b 3ab2 f5be 78bb 213e e7ef c13c
000001f0: 9797 493d b4b8 dbbd fb70 2abc 3e80 c6bc
00000200: 1e40 eabe a3a7 37bd e8dd debd 2666 06bd
00000210: 6b7d dd3c 61cb 883b cda9 4c3f 3acf 81bd
00000220: 3254 123e 8d4e 56bc f883 f33c 564f 223d
00000230: 7b4f d1bc b818 89bc bbf5 b53b 9575 8bbd
00000240: 37ff be3c e45c 94bc 6d3a e93c 502d fcbc
00000250: 4ed7 b53b 16ec 523e 9009 38be 67b0 f33b
00000260: 4e33 713d 8e71 b3bd 996d 04be 36c6 073e
00000270: a2fa ebbc c60e afbd bf6a 86bd 897f 18bd
00000280: 24e8 5fbd 6360 903d 64a2 a7be 7e7c 84be
00000290: b7d9 21c0 1b7e 96bc 106c b83c 345f eebc
000002a0: b2ae 603d a0e7 923d d345 be3c 7dfd c73d
000002b0: 917b 1ebd 6ee6 a1be f07e 1b3e d028 74bf
000002c0: 0e29 a83d 6b71 74bd 9922 9f3d 95d7 c8bc
000002d0: de34 24bc a7e5 483d 8146 80be a71c 803d
000002e0: e9b4 403c 70c2 b43c f50d 923e f782 fcbe
000002f0: 6b50 bd3e cfee b8bc a40b c5bc c07b 3dbc
00000300: fa95 f6bd 7439 7dbd 6c04 f5bd 5343 613c
00000310: 8f25 d3bd 3141 ea3d 3761 c9bd ce0d 1fbe
00000320: 06fc a4bc 8045 01bd 8efd 78bc de78 aa3c
00000330: 5096 973d c019 bf3b 5ed9 dabc 200e b1bc
00000340: ae0e 81bc 0679 803d 055a 4dbe 6d52 63bb
00000350: 96ae 333e bdaf 413d b515 97be 1f13 acbd
00000360: 95c8 243b fa5a 55bd d106 bf3d cfd1 a0be
00000370: aa20 84be 14cf b53d 92ae 273e b445 1dbc
00000380: 5399 043d 6535 20bd 3d21 3b3e 4308 01bf
00000390: 1c95 a63c 40dd 103e 341d 7d3d 0ab2 8d3e
000003a0: 80c4 3cbf e5fd 703b 37aa 77bd c8d1 10bd
000003b0: 3c8b a23e a466 1abd 458c 493d 3baf 993c
000003c0: 3ef0 5f3b 3898 2b3d 6ad0 c0bb 95b9 a3bd
000003d0: f45d 353d f99c edbc bc04 e2bb 2c67 503e
000003e0: 5c7e 0abf fa32 283e 1925 e1bd 0d2c 03bc
000003f0: 6e7d 12bd 178c ec3e 0eb8 5dbe daf8 95bd

449 f4 [32]
-0.16086905 0.06928734 0.031079289 0.2749406 -0.7919207 0.4699363 2.4333646 1.4157568
1.5722808 0.52483445 0.76757413 -0.93129396 -0.09509434 -0.0819148 -0.34153843 -0.45330918
0.6537286 0.300386 -0.33651215 -0.41022864 0.51485974 1.5218879 0.51066464 -0.48493764
0.75653607 0.8423361 -0.28803083 -0.010267609 0.01778132 0.7636074 1.7725949 1.3000972
00000000: dbba 24be 85e6 8d3d fe99 fe3c 04c5 8c3e
00000010: 51bb 4abf 7e9b f03e 3fbc 1b40 8537 b53f
00000020: 7f40 c93f 8d5b 063f bd7f 443f 4869 6ebf
00000030: d2c0 c2bd f2c2 a7bd 20de aebe 2418 e8be
00000040: c25a 273f 32cc 993e 524b acbe 7d09 d2be
00000050: d9cd 033f 39cd c23f ebba 023f bf49 f8be
00000060: 59ac 413f 57a3 573f c778 93be 7939 28bc
00000070: 21aa 913c c67b 433f 64e4 e23f 9669 a63f

451 f4 [64, 64, 1, 1]
-0.17899823 0.019579608 0.1026417 0.17761897 -0.021013707 -0.38603544 0.0018353657 -0.104601026
-0.1982867 -0.07180445 -0.034441352 -0.16388418 0.12646961 -0.1293848 0.11502151 0.028076194
0.06425422 -0.13559875 0.23752135 -0.0952814 -0.13113262 0.18781006 -0.0045993375 -0.035524514
-0.3453989 -0.13422388 0.028261172 -0.13892539 0.22127184 -0.017075166 0.11040607 0.07599117
0.4496145 -0.28958568 0.011745835 0.3656056 0.16320072 -0.2326161 -0.058875725 0.092508405
0.12438828 0.061375707 -0.090820916 0.078460686 -0.38069165 -0.03839004 -0.18564945 -0.51484627
0.054706484 0.05552471 -0.5071818 -0.04534537 0.031005675 0.23293176 -0.07453547 -0.11613861
-0.03562484 0.3736134 -0.014831559 0.038350727 -0.02336223 0.52047473 -0.049752805 0.009684573
0.1798219 0.17625524 -0.019540293 0.09744673 -0.05359495 0.018808944 0.1262133 0.022179542
-0.21284772 -0.29639894 -0.16710123 -0.2505507 -0.62969375 0.020901555 -0.0014350271 0.13124588
-0.13693103 -0.6285464 -0.06326082 0.13871637 -0.24249429 -0.04627185 0.038462095 0.19396977
-0.08680698 0.23674093 0.33506373 0.40573412 -0.1328199 0.16697557 -0.27553114 -0.18976147
-0.033369273 0.05770827 0.0887232 0.112657346 0.030253276 -0.03380703 0.069913805 0.054128114
0.1189911 0.23229107 0.19931969 0.09218786 -0.11998434 0.08381336 -0.14591771 0.004210834
-0.11438359 -0.057840038 -0.035129946 -0.017305825 0.2812624 -0.13313323 -0.24176665 0.16635588
0.11471341 0.26829115 0.028756859 -0.046181466 -0.08727052 0.06667351 0.080802836 -0.14733122
-0.03732062 -0.1509074 0.2209182 -0.25579017 -0.12928143 0.047769483 -0.42296636 -0.32591704
0.264714 0.18675987 0.08878078 -0.07034747 -0.06499172 0.027963249 -0.19040285 0.16240422
0.031376153 -0.115190454 0.12767501 0.041254077 -0.09975024 0.5417983 0.10623737 -0.22372074
0.037036993 -0.06762676 -0.08507993 -0.0668187 -0.003203555 -0.040707383 -0.4874713 -0.22638236
0.17678519 0.27842245 -0.019924497 -0.013619969 -0.51229995 0.20702802 -0.15326035 -0.21044385
-0.09850697 0.09309003 -0.5000257 -0.094626755 0.028032942 0.07992278 -0.08974862 0.12271671
-0.021169327 -0.15206434 -0.036722835 0.0938199 -0.1631061 0.81609255 0.42507967 -0.17477475
0.052708127 -0.1563091 -0.08672947 -0.1025029 -0.044373237 -0.054373913 -0.24518807 -0.06656622
0.18354096 -0.060248848 -0.09849378 -0.16592339 0.30003855 -0.17345609 -0.08471639 0.41059887
0.25491533 0.24339072 0.082101636 -0.11905832 0.0010885616 0.12225764 0.18448989 0.020664364
-0.15743881 -0.15485471 0.07315379 0.058201604 -0.018554104 0.5861829 0.23109101 0.2672684
0.05684199 0.037817832 -0.20865208 -0.52286714 0.12736787 -0.16249423 -0.11005699 0.17214982
-0.088378415 0.19741787 -0.22460766 -0.107445605 -0.4408462 -0.016575156 0.0007760541 -0.25824568
-0.10719734 0.038545433 0.23264839 0.07695609 -0.21890797 0.06764319 -0.13253547 0.058903147
0.36511728 -0.21391563 0.3126159 0.018441444 0.7687425 0.2791034 0.10775802 0.21584365
-0.011375265 0.058512427 -0.10809803 -0.21505663 0.5185307 -0.09990593 -0.049243294 -0.26701316
00000000: 504b 37be 6a65 a03c d035 d23d bfe1 353e
00000010: f024 acbc 70a6 c5be a790 f03a 1039 d6bd
00000020: ab0b 4bbe 360e 93bd 6012 0dbd 41d1 27be
00000030: 4081 013e 737d 04be 6690 eb3d 0c00 e63c
00000040: b797 833d 66da 0abe cc38 733e e522 c3bd
00000050: a147 06be 4851 403e 0ab6 96bb 2782 11bd
00000060: 20d8 b0be fc71 09be f983 e73c 7542 0ebe
00000070: 1695 623e 38e1 8bbc 941c e23d 42a1 9b3d
00000080: df33 e63e 9344 94be 9a71 403c a830 bb3e
00000090: 171e 273e ea32 6ebe ac27 71bd 0c75 bd3d
000000a0: 48bf fe3d 1865 7b3d 5100 babd ffaf a03d
000000b0: 04ea c2be e03e 1dbd e41a 3ebe f7cc 03bf
000000c0: e813 603d e16d 633d abd6 01bf 11bc 39bd
000000d0: 9dff fd3c aa85 6e3e 0da6 98bd 14da edbd
000000e0: 5aeb 11bd 414a bf3e 1100 73bc a715 1d3d
000000f0: 2662 bfbc d53d 053f 99c9 4bbd 0bac 1e3c
00000100: 3b23 383e 417c 343e f712 a0bc 2792 c73d
00000110: 6186 5bbd 3715 9a3c 0f3e 013e dfb1 b53c
00000120: c1f4 59be 9ac1 97be 961c 2bbe 2e48 80be
00000130: 9c33 21bf bd39 ab3c 8517 bcba 5265 063e
00000140: a637 0cbe 6be8 20bf e48e 81bd aa0b 0e3e
00000150: 6c50 78be 8d87 3dbd 6e8a 1d3d 03a0 463e
00000160: dcc7 b1bd 376c 723e 798d ab3e 62bc cf3e
00000170: f101 08be a5fb 2a3e 6b12 8dbe d550 42be
00000180: 38ae 08bd 825f 6c3d 82b4 b53d e5b8 e63d
00000190: b8d5 f73c 3e79 0abd f82e 8f3d 71b5 5d3d
000001a0: 9bb1 f33d b6dd 6d3e 761a 4c3e fdcc bc3d
000001b0: 5aba f5bd 57a6 ab3d 746b 15be 09fb 893b
000001c0: f241 eabd ade9 6cbd 6be4 0fbd f2c4 8dbc
000001d0: a001 903e 1454 08be ad91 77be 3259 2a3e
000001e0: ddee ea3d 755d 893e 8193 eb3c c728 3dbd
000001f0: e3ba b2bd 1f8c 883d f57b a53d ffdd 16be
00000200: 82dd 18bd 7887 1abe 6138 623e eef6 82be
00000210: 5a62 04be efa9 433d 0c8f d8be 99de a6be
00000220: 9888 873e fb3d 3f3e b3d2 b53d 5612 90bd
00000230: 611a 85bd 2f13 e53c f7f8 42be 4b4d 263e
00000240: 4884 003d f9e8 ebbd 3dbd 023e 09fa 283d
00000250: db49 ccbd 4bb3 0a3f fa92 d93d 0d17 65be
00000260: 1ab4 173d e67f 8abd 633e aebd 3ed8 88bd
00000270: bcf2 51bb c9bc 26bd d795 f9be c7d0 67be
00000280: 2d07 353e 638d 8e3e b338 a3bc 4a26 5fbc
00000290: 1726 03bf 27ff 533e 48f0 1cbe 987e 57be
000002a0: 06be c9bd fca5 be3d af01 00bf accb c1bd
000002b0: 57a5 e53c 8eae a33d 20ce b7bd e652 fb3d
000002c0: 4c6b adbc c1b6 1bbe af6a 16bd a624 c03d
000002d0: 4905 27be 71eb 503f 0ba4 d93e 27f8 32be
000002e0: 7ae4 573d 7e0f 20be 389f b1bd 0aed d1bd
000002f0: b6c0 35bd 2eb7 5ebd 9512 7bbe df53 88bd
00000300: 29f2 3b3e 7fc7 76bd 1bb7 c9bd d2e7 29be
00000310: a79e 993e 799e 31be c97f adbd 043a d23e
00000320: 4384 823e 6b3b 793e e724 a83d d9d4 f3bd
00000330: 11ae 8e3a 3762 fa3d ebea 3c3e 5048 a93c
00000340: a437 21be 3c92 1ebe a7d1 953d ce64 6e3d
00000350: c7fe 97bc 1510 163f 1fa3 6c3e 67d7 883e
00000360: 26d3 683d dfe6 1a3d e4a8 55be 9fda 05bf
00000370: b96c 023e e364 26be 8f65 e1bd 0b48 303e
00000380: beff b4bd e927 4a3e 8dff 65be 710c dcbd
00000390: 98b6 e1be 9fc8 87bc 1c70 4b3a c738 84be
000003a0: 478a dbbd d1e1 1d3d 613b 6e3e 289b 9d3d
000003b0: 6929 60be 8388 8a3d 61b7 07be 6d44 713d
000003c0: a7f0 ba3e b30c 5bbe 310f a03e 8312 973c
000003d0: 4fcc 443f a4e6 8e3e 3db0 dc3d 1e06 5d3e
000003e0: 525f 3abc baaa 6f3d 8062 ddbd ce37 5cbe
000003f0: 6ebe 043f 7b9b ccbd 56b3 49bd f3b5 88be

452 f4 [64]
0.39177144 -0.103220195 -0.14475733 -2.5059013 -0.2626738 -0.044683844 0.280855 0.5696693
-0.4789045 -3.3833246 -0.29450467 -1.284441 -3.4293592 -3.2878218 -1.3307672 -1.4682862
-3.098903 0.93703586 -1.8112693 0.40129215 0.6251723 -0.42951107 -2.5165794 -0.054536104
-0.54447705 1.0968001 -0.46278867 -0.13957751 0.9625991 -1.2777691 0.8878166 -1.7305088
-1.2254782 -0.07914993 -0.84673536 0.8745109 -0.42761046 0.4658752 0.37485093 0.14110559
-1.578586 -0.13981146 -1.035664 0.21733344 0.8846742 -2.6870475 -0.6993565 -0.06930339
-0.10862625 0.34976137 0.44727847 1.8085399 -0.44339907 0.28519732 0.37678224 0.61271596
-0.08008909 -1.0512103 -1.1471726 -1.5075622 0.64946836 1.9088457 -0.17462698 -0.6724868
00000000: 4496 c83e 1c65 d3bd 443b 14be b060 20c0
00000010: 2e7d 86be 6806 37bd 3acc 8f3e d9d5 113f
00000020: f832 f5be 6488 58c0 51c9 96be 9068 a4bf
00000030: 9f7a 5bc0 ac6b 52c0 9456 aabf cdf0 bbbf
00000040: 6d54 46c0 95e1 6f3f acd7 e7bf 2a76 cd3e
00000050: 4b0b 203f e0e8 dbbe a30f 21c0 4061 5fbd
00000060: d962 0bbf f263 8c3f a3f2 ecbe 68ed 0ebe
00000070: e56c 763f f08d a3bf f347 633f 5081 ddbf
00000080: 78dc 9cbf 5c19 a2bd a6c3 58bf f2df 5f3f
00000090: c2ef dabe 3287 ee3e 76ec bf3e fc7d 103e
000000a0: 1b0f cabf bc2a 0fbe a390 84bf a88c 5e3e
000000b0: 027a 623f 96f8 2bc0 0709 33bf f0ee 8dbd
000000c0: 7077 debd ec13 b33e af01 e53e 3c7e e73f
000000d0: 3405 e3be 6205 923e 9ae9 c03e f4da 1c3f
000000e0: c005 a4bd 0f8e 86bf 8dd6 92bf ccf7 c0bf
000000f0: 8f43 263f 0e55 f43f 6ad1 32be 1828 2cbf

454 f4 [64, 64, 1, 1]
-0.05114516 -0.096298575 0.24651945 -0.08944646 -0.58951277 -0.011105515 -0.0596123 -0.14216025
-0.15067796 -0.014660669 0.19945496 -0.019733822 -0.03875739 0.053224303 0.02370316 -0.26239103
-0.37910002 0.038417038 -0.04437055 0.15137647 0.02033447 -0.04932026 -0.0107444255 -0.23616588
-0.66212463 -0.12665202 -0.12970957 0.1813988 0.07078818 -0.16044407 0.16864803 -0.21743281
0.0054324125 -0.09992927 0.037091505 0.09743907 0.04612819 -0.38642973 -0.111886576 0.14466651
0.15531805 -0.10492431 0.21942168 0.15599972 -0.58224034 -0.15686345 -0.13464437 -0.0925116
0.0098318 -0.14677826 -0.07234892 0.07403987 0.04988555 0.13717492 0.1069191 -0.7274121
0.1023493 -0.30577427 0.16020954 0.021465609 -0.0023228761 0.11623675 -0.045039225 -0.2337489
0.114367664 0.3476259 0.056964308 0.04845307 0.09983276 0.16147885 0.19767486 0.27939248
-0.54637295 0.12875597 -0.056478117 -0.14236803 -0.32611293 -0.1906019 0.5589572 -0.06541977
-0.001081512 -0.054406036 -0.30755344 -0.043733075 -0.023961514 -0.23624465 -0.4738045 -0.026057627
0.0075229076 -0.07246659 0.33580253 -0.13422838 -0.053920753 -0.16711396 -0.025661375 0.4801353
-0.10170741 -0.3542199 -0.13896723 0.0027644006 0.019298034 0.06878479 -0.20587751 0.2825598
0.07856413 0.14604135 -0.034987237 -0.036286857 -0.0794961 -0.33602518 -0.4202609 -0.3997691
-0.46301618 0.17745543 0.14342377 -0.3123314 -0.3598782 0.049601037 0.154885 0.004191825
-0.22651489 -0.110214666 0.111208074 0.21194248 0.16221187 -0.019503582 0.15734853 0.21492057
0.089176334 0.12515025 0.09304337 -0.863355 -0.43547997 0.03602118 -0.05938901 0.09333591
-0.11610979 0.0016438006 0.064528264 -0.23263176 -0.15744023 -0.1625267 0.04130597 0.08217669
-0.6290858 -0.11725873 0.008496448 -0.029975312 0.21466334 -0.0407517 0.19798422 0.078434385
0.16919395 0.14684346 0.026930062 -0.030609014 0.045540657 -0.14429845 0.08994277 -0.17533468
-0.19308329 0.0023899549 0.14800622 -0.3198624 -0.061076853 -0.16594854 -0.23595922 -0.35813895
0.10423035 0.0760669 -0.36411062 -0.13517036 0.16360812 0.14448304 -0.26249564 -0.17930616
0.13684553 -0.04950771 -0.45582646 -0.51714015 0.20948505 -0.19156751 0.052754696 0.07596982
0.056993954 0.056462627 0.077226 -0.03653732 0.10622588 0.12989943 -0.07593872 0.24085565
-0.14036159 0.3502034 0.123318434 -0.058318447 0.15437303 0.1375301 0.13405511 0.18409622
-0.052698057 -0.14447466 0.18200509 -0.03376421 0.016550139 -0.030510964 -0.090273015 -0.5648006
0.1126995 -0.056792527 -0.14084436 -0.18516104 0.14414635 -0.05220805 -0.2500899 0.067868076
0.10311236 0.072969034 -0.024876114 0.2942958 0.16966203 -0.11593433 -0.119550295 -0.05703854
0.0338133 -0.168545 -0.1018961 0.19946696 -0.014281587 0.08699965 0.07169307 0.040238544
-0.043970875 0.0053868527 -0.013779416 -0.1533125 0.014449383 -0.19916005 -0.29692805 0.039822448
-0.016325401 0.05931723 -0.13294251 0.10552597 0.08309234 0.12608354 0.0729605 0.010852318
-0.36052507 -0.14015628 0.011290854 -0.08063877 -0.4364733 -0.122825414 0.009330301 0.26052812
00000000: 967d 51bd 3038 c5bd 986f 7c3e b52f b7bd
00000010: 4fea 16bf e8f3 35bc 072c 74bd 7592 11be
00000020: 534b 1abe 4d33 70bc ec3d 4c3e d3a8 a1bc
00000030: 12c0 1ebd ba01 5a3d 212d c23c 1e58 86be
00000040: 6619 c2be 2f5b 1d3d e5bd 35bd 6f02 1b3e
00000050: 7994 a63c 0a04 4abd 6309 30bc 78d5 71be
00000060: 0081 29bf 11b1 01be 96d2 04be 9bc0 393e
00000070: 65f9 903d 734b 24be 12b2 2c3e b5a6 5ebe
00000080: 6102 b23b b8a7 ccbd 43ed 173d 238e c73d
00000090: eaf0 3c3d 1eda c5be ca24 e5bd 7523 143e
000000a0: b20b 1f3e 8fe2 d6bd 14b0 603e 64be 1f3e
000000b0: b40d 15bf d0a0 20be 37e0 09be b976 bdbd
000000c0: 8f15 213c 0a4d 16be ac2b 94bd 37a2 973d
000000d0: ca54 4c3d 9577 0c3e 67f8 da3d ae37 3abf
000000e0: 839c d13d 728e 9cbe f80d 243e a5d8 af3c
000000f0: 653b 18bb 880d ee3d 0d7b 38bd df5b 6fbe
00000100: 9839 ea3d 06fc b13e 6853 693d ba76 463d
00000110: 1e75 cc3d b65a 253e 476b 4a3e 880c 8f3e
00000120: 19df 0bbf 9bd8 033e 9955 67bd edc8 11be
00000130: 46f8 a6be 252d 43be d217 0f3f cdfa 85bd
00000140: 85c1 8dba ddd8 5ebd a577 9dbe 7421 33bd
00000150: f04a c4bc 1eea 71be 8196 f2be ce76 d5bc
00000160: b982 f63b 5d69 94bd 4fee ab3e 2a73 09be
00000170: 02dc 5cbd ec1f 2bbe ce37 d2bc 4bd4 f53e
00000180: f94b d0bd 505c b5be 6d4d 0ebe f22a 353b
00000190: e916 9e3c 0adf 8c3d 8ed1 52be aeab 903e
000001a0: 3be6 a03d dd8b 153e c74e 0fbd 87a1 14bd
000001b0: dace a2bd 7e0b acbe 702c d7be 89ae ccbe
000001c0: 7510 edbe e0b6 353e aedd 123e e7e9 9fbe
000001d0: f541 b8be 752a 4b3d 2c9a 1e3e 945b 893b
000001e0: 85f3 67be 3ab8 e1bd 0fc1 e33d 7307 593e
000001f0: de1a 263e fac5 9fbc f91f 213e 2314 5c3e
00000200: 15a2 b63d 6327 003e 868d be3d d504 5dbf
00000210: 3bf7 debe f28a 133d e441 73bd e626 bf3d
00000220: f8ca edbd cc74 d73a 6527 843d 0537 6ebe
00000230: 0338 21be 666d 26be 7330 293d 414c a83d
00000240: c40b 21bf 5825 f0bd b034 0b3c c98e f5bc
00000250: b5d0 5b3e 41eb 26bd 60bc 4a3e 35a2 a03d
00000260: 2e41 2d3e 225e 163e 6f9c dc3c c1bf fabc
00000270: d788 3a3d f9c2 13be ea33 b83d ef8a 33be
00000280: a0b7 45be caa0 1c3b f18e 173e 01c5 a3be
00000290: b92b 7abd 6aee 29be 4b9f 71be fd5d b7be
000002a0: b976 d53d f6c8 9b3d b56c babe 196a 0abe
000002b0: e388 273e 5df3 133e d465 86be 099c 37be
000002c0: 3c21 0c3e 99c8 4abd 1662 e9be 4c63 04bf
000002d0: 4083 563e 462a 44be 4f15 583d 1196 9b3d
000002e0: 7e72 693d 5b45 673d aa28 9e3d 28a8 15bd
000002f0: f48c d93d 5b04 053e c285 9bbd dda2 763e
00000300: f3ba 0fbe dc4d b33e 608e fc3d 53df 6ebd
00000310: f713 1e3e b1d4 0c3e be45 093e b883 3c3e
00000320: ebd9 57bd 2af1 13be 8b5f 3a3e 574c 0abd
00000330: 2894 873c 21f2 f9bc 0fe1 b8bd c696 10bf
00000340: ffce e63d 489f 68bd 8139 10be db9a 3dbe
00000350: 1a9b 133e 1cd8 55bd c90b 80be 6bfe 8a3d
00000360: 932c d33d ca70 953d fec8 cbbc f0ad 963e
00000370: e2bb 2d3e fa6e edbd c9d6 f4bd 3ea1 69bd
00000380: d17f 0a3d 0f97 2cbe e7ae d0bd 1141 4c3e
00000390: 51fd 69bc df2c b23d d1d3 923d 2cd1 243d
000003a0: ce1a 34bd 3284 b03b 0fc3 61bc f4fd 1cbe
000003b0: 1bbd 6c3c 9df0 4bbe f406 98be dd1c 233d
000003c0: d9bc 85bc a0f6 723d 1522 08be 001e d83d
000003d0: 512c aa3d 0b1c 013e 516c 953d eccd 313c
000003e0: be96 b8be 2185 0fbe 46fd 383c f025 a5bd
000003f0: 6e79 dfbe e48b fbbd 1ede 183c f163 853e

455 f4 [64]
0.35242414 0.27680296 0.2041601 -0.8362189 0.87774706 1.4280704 -0.4403344 1.1857487
1.48017 0.34296882 -3.22006 -0.54879534 -1.2488596 1.4091116 0.018209577 2.1002657
2.285331 -0.82032794 2.0686135 -0.8990172 2.090868 1.5861572 0.14318717 -1.233593
2.2266724 1.6986511 1.3633282 0.46199512 -0.75329113 1.6875451 0.8032185 -1.6883476
0.14513361 3.2296195 2.2365165 1.2027463 -0.5030927 -0.31658733 0.41400403 -6.74924
-2.0184076 -0.93756336 -1.5474459 1.3782978 1.8692257 -1.5797982 0.2610619 -1.7654412
-2.8168156 1.4169946 -1.4022932 1.0482367 1.547508 0.4634279 -0.26431644 -0.7217767
-0.1108551 0.48597264 1.0302854 0.6577349 1.158988 0.04076308 1.6248304 1.4407085
00000000: f070 b43e 1eb9 8d3e 580f 513e 7112 56bf
00000010: 08b4 603f 03cb b63f 8373 e1be 9dc6 973f
00000020: 3676 bd3f 9c99 af3e 7715 4ec0 da7d 0cbf
00000030: a2da 9fbf c55d b43f 402c 953c c16a 0640
00000040: dd42 1240 0301 52bf 2a64 0440 fe25 66bf
00000050: c8d0 0540 3307 cb3f a89f 123e 60e6 9dbf
00000060: cd81 0e40 666d d93f 8a81 ae3f a08a ec3e
00000070: b0d7 40bf 7a01 d83f ba9f 4d3f c61b d8bf
00000080: e89d 143e 16b2 4e40 1623 0f40 97f3 993f
00000090: afca 00bf bc17 a2be 56f8 d33e c6f9 d7c0
000000a0: 972d 01c0 2704 70bf b512 c6bf 106c b03f
000000b0: ca42 ef3f d436 cabf e8a9 853e faf9 e1bf
000000c0: b546 34c0 1460 b53f 587e b3bf 9f2c 863f
000000d0: be14 c63f 6c46 ed3e 7c54 87be 5cc6 38bf
000000e0: 0008 e3bd 68d1 f83e 64e0 833f 5061 283f
000000f0: b859 943f 30f7 263d 71fa cf3f 2369 b83f
