HiggsInteractionNet/V00/IN.pth (torch_old, 75529 bytes, 20 tensors)

fr1.weight f4 [60, 60]
000000 12 39 2b 3e 76 0e dc bd 75 32 38 bd 23 6f 76 3e
       0.1672099 -0.10744946 -0.044969995 0.24065833
000010 1f 9f 49 3f 22 90 39 3d 6a e5 83 3a 8c 52 53 be
       0.78758425 0.04530347 0.0010062878 -0.20636958
000020 15 f3 48 bf 77 7a fc bd cb 62 86 be 76 a2 cb ba
       -0.78495914 -0.12328046 -0.26247248 -0.0015536088
000030 3a d9 40 3e 48 67 c9 bd fc e3 16 40 96 11 df 3e
       0.18832865 -0.098341525 2.357665 0.43568105
000040 f7 eb b5 3f d0 73 ca be 97 4b 43 be bf 10 51 3e
       1.4212636 -0.39541483 -0.19071804 0.20416544
000050 87 f1 7d bd 44 b5 df be 33 61 14 3e 59 86 72 be
       -0.061997917 -0.43692982 0.14490204 -0.23684062
000060 8e 07 63 be 5d 3b 91 3d 0f ec d8 ba 06 a4 84 bd
       -0.2217085 0.07091401 -0.0016549843 -0.064765975
000070 93 88 c2 3b 67 fe 1f 3f 83 33 71 c0 6c 9e 76 c0
       0.005936691 0.6249756 -3.768769 -3.8534193
000080 54 aa b5 3e 06 a1 a6 be 1b c3 3b 3f 59 cd ca be
       0.35481513 -0.32544726 0.7334458 -0.39609793
000090 b3 52 03 bf fb d8 85 3e 01 19 c7 3d 73 d0 7c bc
       -0.51298064 0.26142105 0.09721566 -0.015430558
0000a0 e3 71 87 40 73 a4 dc 3d 04 27 3c bd 1a 87 d7 bd
       4.232652 0.10773554 -0.045935646 -0.105238155
0000b0 58 89 d7 3e e0 bb a1 3e af dc 96 3f 41 67 c6 3f
       0.42096972 0.3158865 1.1786097 1.550026
0000c0 1e 38 dd be 8d ad ff 3e b8 22 b6 bf 8b 89 13 bf
       -0.43206877 0.49937096 -1.4229345 -0.5763175
0000d0 56 bf 7e 3d 88 0a 1e 3e 05 a0 04 be 9f 08 a2 bd
       0.06219419 0.15433705 -0.12951668 -0.079118006
0000e0 51 de 85 3c 52 cc 6e 3d f8 e3 d1 bb 16 4c 3b be
       0.01634136 0.058300324 -0.00640535 -0.18290743
0000f0 a2 92 a9 be c9 5d fc be e7 c7 56 bc 3a f9 2a 3d
       -0.33119684 -0.49290302 -0.013109184 0.041741587
000100 43 98 9a bf bd 3e 18 3e 61 17 af 3f fb 00 fe 3d
       -1.2077717 0.14867683 1.367901 0.12402531
000110 5d da e8 bc e7 9a 98 ba a3 1d 20 3e f4 fe 7c bb
       -0.028424436 -0.0011642844 0.15636306 -0.0038604112
000120 ea e9 55 3d 41 01 45 3c 70 9d 1c 3f 5d 60 89 3e
       0.05222503 0.012024225 0.6117773 0.26831332
000130 d4 b5 0a c0 92 c5 7b 3f b2 0f 74 be 5e 6c ef be
       -2.167348 0.98348343 -0.23834112 -0.46762365
000140 d8 f3 c0 3d 93 0d af be 76 3a b4 3d 45 f6 33 be
       0.094215095 -0.34190044 0.08800213 -0.17574413
000150 ee 7e db bd 29 49 0c be 8d c4 15 3c 16 20 8a bd
       -0.10717569 -0.13699783 0.0091411 -0.06744401
000160 4e 62 06 3c c8 84 0d be bc c2 42 3e 89 46 9e 3e
       0.008202149 -0.13820183 0.19019598 0.3091319
000170 80 f6 22 3d 22 46 1b bc 5a cc 72 3f 51 ae d5 bd
       0.039785862 -0.00947717 0.94843066 -0.10433639
000180 29 4e e2 bf f2 9c 47 3f 7d b4 d2 3e 33 dc 6a bb
       -1.7680103 0.77973855 0.41153327 -0.0035836815
000190 75 58 82 bf 0f 53 a1 3b ef 97 03 bc ee 6d a5 bc
       -1.0183245 0.0049232314 -0.008031829 -0.02019402
0001a0 56 a9 25 bf ee 37 ce 3e 29 72 94 bf 2d f7 c1 3f
       -0.6471151 0.40277046 -1.1597339 1.5153557
0001b0 f8 c1 03 be f9 82 83 be bf b0 50 bf a5 57 da 3d
       -0.12866962 -0.25685862 -0.81519693 0.10661248
0001c0 df b6 b6 3d 90 89 9d 3b 01 db dc bc bd 89 9d 3e
       0.08921599 0.0048076585 -0.026959898 0.30769148
0001d0 54 f8 8d 3b f4 b3 5e 3e 5f 06 9f 3b e8 ac ac be
       0.0043325815 0.21748334 0.0048530544 -0.33725667
0001e0 da 38 e0 3d a4 73 62 3d 19 83 2b 3d 23 a9 91 be
       0.109483436 0.055286065 0.04187307 -0.28449354
0001f0 ac bb 99 3e f2 cc a7 be 04 3a 07 bf e3 09 a4 bd
       0.30025995 -0.32773548 -0.528229 -0.08009698
000200 da 84 45 3e 9e a2 00 be 07 a9 19 3e 61 9e 75 bb
       0.1928896 -0.12562034 0.15005885 -0.0037478434
000210 6d cf 94 bb e8 cb e5 bc af 29 d4 3e 5d a7 8d 3f
       -0.0045413286 -0.028051332 0.41438052 1.10667
000220 86 e2 88 3f fb 03 6c 3e df 3e d1 be f5 e2 5e 3d
       1.069413 0.23048393 -0.4086828 0.05441566
000230 72 40 db bf e5 40 e8 be 58 e1 13 bd b5 50 88 3e
       -1.7129042 -0.4536201 -0.036103576 0.26624075
000240 b9 a0 04 bd 62 45 2d be e8 82 b6 3c 11 c9 20 bd
       -0.03237984 -0.16920999 0.022279218 -0.039254252
000250 c9 66 0a bb 15 65 f6 bd 25 b8 da 3d 3d 8c 7d 3d
       -0.0021118394 -0.120309986 0.10679654 0.06190132
000260 4b 1c b2 3d f3 77 06 3e f0 a9 58 bf 0d d6 84 bd
       0.08696803 0.13131694 -0.84634304 -0.064861394
000270 df 26 ba bd 30 74 e9 bd f0 11 10 3f 65 f4 e2 bb
       -0.09089445 -0.11399114 0.5627737 -0.0069261068
000280 a4 4f 42 c0 b5 e7 f3 3c 3d 3e 9d bd 4f 7d 30 3d
       -3.0361109 0.029773572 -0.07677887 0.043088254
000290 b3 30 94 3e 39 a6 cb be 16 98 13 bf e5 63 87 bf
       0.28943405 -0.39775255 -0.5765394 -1.057736
0002a0 d5 17 3f bf 74 c1 7c 3f c5 bd 96 3f a8 19 b4 3f
       -0.7464574 0.98732686 1.1776663 1.407033
0002b0 23 10 5a bd 35 b7 20 3f 8b fe ef 3d de 58 93 3e
       -0.053238045 0.6277955 0.11718472 0.28778738
0002c0 39 fa ea b9 7b e8 70 3f 28 8a 32 bc fa 18 87 3f
       -0.00044818388 0.9410474 -0.010897197 1.0554497
0002d0 cd 6f 96 be cd 15 f5 be 55 2e 89 3b 3c 53 c4 bd
       -0.29382172 -0.47868195 0.0041864314 -0.09586188
0002e0 d9 74 52 bf 4b b5 f8 bd 19 34 50 3f f7 3c f1 be
       -0.82209545 -0.12143954 0.81329495 -0.47116825
0002f0 8a 31 bf 3c c9 d9 35 b8 85 6e 2a 3e d4 aa 7f bb
       0.023339052 -4.335659e-05 0.16643722 -0.0039011734
000300 c3 93 6d bc 33 e3 93 3d 16 6a 86 3f 85 2e eb 3f
       -0.014500561 0.07221069 1.0501125 1.8373572
000310 38 c1 10 3f a4 f0 40 3f 64 b2 15 3f ae 8a 2e bd
       0.5654483 0.7536719 0.5847533 -0.042612724
000320 c0 3b d3 bf 31 a0 01 c0 a8 55 13 3b 4f 81 6d be
       -1.6502609 -2.0254023 0.0022481475 -0.23193859
000330 ed 0f ed 3d cf fd 92 3d d1 9d 86 ba 84 7d 39 3e
       0.11575303 0.071773164 -0.0010270422 0.18114287
000340 7d 2a e1 ba 3e 14 16 bf 15 57 32 3f 18 e4 2e 3f
       -0.00171788 -0.5862464 0.69664127 0.68316793
000350 2f 88 b5 3d be 75 80 bd 51 7a a6 be 7f f2 2f 3e
       0.088638656 -0.062724575 -0.32515195 0.17182349
000360 d1 d2 04 c0 87 c9 87 3f ef 86 57 bd cc 9b e1 ba
       -2.0753672 1.0608376 -0.052618917 -0.0017212569
000370 a0 d2 02 3f aa e8 a0 ba 57 e3 a3 3c 3f d2 18 3e
       0.5110264 -0.001227637 0.020005865 0.14923953
000380 dc 28 ad 3e b4 32 a2 bf 3a 21 64 be 9c a4 57 bf
       0.33820236 -1.2671723 -0.222783 -0.8423555
000390 81 73 f1 be f9 a7 11 bf b4 92 3d 3f 17 e8 21 3f
       -0.47158435 -0.5689693 0.74051976 0.63244766
0003a0 ff fd b2 bd 91 2c 43 3f dd f9 33 3e 93 6a 91 be
       -0.08739852 0.7623988 0.17575784 -0.28401622
0003b0 18 51 5b 3b 79 53 5a bf 3a 04 be 3b 37 27 2d 3f
       0.0033465084 -0.8528362 0.0057988437 0.6763796
0003c0 c4 24 e9 be 96 cd b9 be 25 2c b4 bf 61 a1 45 be
       -0.45535862 -0.36289662 -1.4075972 -0.19299842
0003d0 51 05 41 bf 21 f6 34 3d de 47 c3 3e c6 11 f5 3d
       -0.7539874 0.04418004 0.38140768 0.11966281
0003e0 ee b6 6f be 10 50 26 3b 1f e8 52 3f c9 e3 ae bc
       -0.23409626 0.002537731 0.8238544 -0.02134885
0003f0 00 c2 a4 3c 2e ca 6b be e5 67 57 c0 74 05 25 3f
       0.020112038 -0.23026344 -3.3657162 0.64461446

fr1.bias f4 [60]
000000 25 72 ae be 9c 43 58 bd 7b 87 73 be 11 7e 2b be
       -0.3407146 -0.052798852 -0.2378215 -0.1674731
000010 1d ff d7 bd a1 88 c7 be 1d 69 d5 be e9 36 93 ba
       -0.10546706 -0.38971427 -0.41681758 -0.0011231574
000020 29 5b 0d bd 95 17 3f be 43 2a ba be 88 df 54 be
       -0.034510765 -0.1866134 -0.36360368 -0.20788395
000030 fd d8 a5 be 40 89 cd bd 85 2a ea bc a7 76 28 be
       -0.3239211 -0.10035944 -0.028584728 -0.16451512
000040 66 75 e8 bd 1d 9f 45 bc 14 5f 8a 3d 81 f4 12 be
       -0.11350517 -0.012061861 0.06756416 -0.14351083
000050 3a 23 cc 3d 66 04 24 bd 55 46 5c bd c0 8e 4c be
       0.099676564 -0.040043257 -0.05377801 -0.1997633
000060 c4 15 93 3d 1f d8 08 3d dc 98 11 bb 5f 27 c6 3c
       0.07181886 0.033409234 -0.0022216355 0.024188695
000070 42 38 4c 3e 1e 30 cb 3d 91 49 a6 bd 05 ea 59 3d
       0.19943336 0.09921287 -0.081195004 0.053201694
000080 68 4b 82 be 14 a3 0e be 92 69 22 be fc bc 3f be
       -0.25448155 -0.13929397 -0.15860584 -0.18724436
000090 7b 11 16 bc 53 0e bd ba 2f c1 53 bd af fb 23 bb
       -0.009159441 -0.0014423825 -0.051697906 -0.0025021841
0000a0 af 0b e1 bc b3 35 0e 3c 6e c9 5a be 34 ec 66 be
       -0.027471391 0.008679795 -0.21365902 -0.22551042
0000b0 77 09 15 3e 5a 91 89 3d 1b 50 9a bd 68 48 4a 3b
       0.14554392 0.06717177 -0.0753481 0.0030865911
0000c0 c8 84 98 3c 47 65 57 3e 64 71 07 bf 4c ba 07 be
       0.018618003 0.21034728 -0.52907395 -0.1325466
0000d0 4e 47 cb bd d6 db 27 3d 4f 3a 36 be 5a e5 90 bd
       -0.0992571 0.040981136 -0.1779568 -0.07074995
0000e0 7e 73 6e be be be 1a 3d 8e 8d d9 be 94 3d 99 be
       -0.23286244 0.037779562 -0.4249081 -0.29929793

fr2.weight f4 [30, 60]
000000 ca 15 bd bd f7 ef 44 3d 9c be 98 3d 9c b1 b1 3e
       -0.092326716 0.04808041 0.07458231 0.34705818
000010 37 74 3b bd 0d 3b 0c bc 1a 2c a7 bc 26 d8 4f 3e
       -0.045765128 -0.008559001 -0.020406771 0.20297298
000020 0f d4 9d bc c1 ed c2 bd b4 65 ca be 27 65 f3 3d
       -0.019266156 -0.09518004 -0.39530718 0.11884528
000030 d9 41 ac 3d 45 8a 80 3b 5b 47 c8 3d 9c 65 e0 39
       0.08410997 0.003922733 0.09779235 0.00042800314
000040 a0 40 b3 be a3 c2 23 3f 31 af a4 be 7b 61 b8 3d
       -0.35010242 0.6396887 -0.3216491 0.09002968
000050 ce 3d 87 bd af 57 21 bf 32 a8 98 3e b5 e6 27 3d
       -0.06603585 -0.6302442 0.29815823 0.040991504
000060 4a 56 81 bd a3 c2 f0 bc ea 36 ca bd ef de cd bd
       -0.063152865 -0.029389685 -0.09873755 -0.10052287
000070 95 e3 db 3d 8d 2e 8f bd 47 56 42 3d c3 ed 08 3c
       0.10736767 -0.06991301 0.04744556 0.008357468
000080 2f ae ad be 02 b6 9a be b3 35 0e 3c 27 64 39 be
       -0.33921954 -0.30216986 0.008679795 -0.18104611
000090 2d 02 27 3d e3 94 31 be 1b 87 54 be 26 22 d3 3b
       0.04077356 -0.17341952 -0.20754664 0.00644328
0000a0 79 cd 17 be 27 02 24 be a6 1a b2 bc d3 b3 62 bc
       -0.14824475 -0.16016446 -0.021741223 -0.013836819
0000b0 b6 4d d7 3d 1a 7e e7 bc 15 b5 2c be db 75 44 bd
       0.10512869 -0.028258372 -0.16865952 -0.04796396
0000c0 fa 5f e1 bd 63 11 90 3e f2 59 a0 bd 75 ef 29 be
       -0.11004634 0.28138265 -0.07829656 -0.16595252
0000d0 29 8b fd bd ab 2d 12 3e 9b e5 3e 3d a0 74 4c be
       -0.12380058 0.14275233 0.046605688 -0.19966364
0000e0 af d4 a9 be d8 20 d5 be d0 cf 6d be fc 09 bd 3c
       -0.33170077 -0.4162662 -0.23223805 0.02307605
0000f0 69 8c 3f be b0 e8 2c 3f 3e 7c 01 3e 4a 8b 8d 3e
       -0.18705906 0.6754255 0.12645051 0.27645332
000100 e9 e4 28 3d 63 bd f6 3c 49 c9 d7 3d c9 53 1a bd
       0.04123393 0.030119603 0.10536439 -0.03767756
000110 93 27 4f 39 e0 d3 89 be bc ff d3 bc 94 83 5b 3d
       0.00019755801 -0.2691946 -0.02587878 0.05359228
000120 38 13 ac 3c e8 84 f2 bc b8 28 9e 3e 88 62 25 be
       0.021005258 -0.02960439 0.3089044 -0.16150868
000130 19 95 a2 3e e3 af a6 be 7f 97 3e 3d e8 8f 1a be
       0.31754377 -0.32556066 0.046531197 -0.15093958
000140 db 89 e5 bc 77 00 f1 be 83 f5 6d bd 3d 7f 9b 3d
       -0.028019836 -0.47070667 -0.058095466 0.07592628
000150 b9 9d a0 bc 27 73 b5 bd be 7f 49 3e 7d 60 55 be
       -0.019606458 -0.08859854 0.19677636 -0.20837589
000160 ea c0 76 be 8a 6a 9f 3d 7c b4 e5 3a d0 91 ee 3d
       -0.24097028 0.077839926 0.0017525102 0.11648905
000170 38 a7 19 3e 1e 70 cb bd 7d fc 8e 3c 24 36 94 3e
       0.15005195 -0.09933494 0.01745438 0.28947556
000180 aa 9e 3e be 01 83 98 3e bd 99 8d 3d 38 0d 31 be
       -0.18615213 0.29787448 0.06914089 -0.17290199
000190 48 23 91 ba 5f de 18 3e ad 6b 5e bc ea 86 af 3d
       -0.0011073137 0.14928578 -0.013575477 0.08570655
0001a0 07 51 b9 be 3f 08 98 3d 91 f0 cd bd 07 25 95 bd
       -0.3619463 0.07423448 -0.1005565 -0.07282453
0001b0 35 05 2f bd fd 2e 40 be 1b ff 09 be ce f4 b0 bd
       -0.042729575 -0.18767925 -0.13476221 -0.08640443
0001c0 dc 33 fd 3d 6d 74 48 be 4c c4 0c 3d 36 ff b5 bd
       0.12363407 -0.19575663 0.03436689 -0.08886568
0001d0 1a dd 3b bf 45 40 e8 bc 3c 06 5b be c5 de fa 3d
       -0.7338425 -0.028350959 -0.21389097 0.12249521
0001e0 87 64 0f 3e 99 60 dd 3c 48 68 f5 3c b6 e3 9a be
       0.14003192 0.0270236 0.029956952 -0.30251855
0001f0 b9 1b 88 be 2a 9b 71 3c bb eb e1 3d 03 c5 ba bd
       -0.2658365 0.014746467 0.1103129 -0.09119608
000200 a8 88 19 be b5 ec 17 3e 0c 08 14 bc 0a da a7 3e
       -0.14993536 0.1483639 -0.009035122 0.32783538
000210 a5 ca b8 3d ad 4d b5 bd 59 18 78 bd 28 b9 21 be
       0.090230264 -0.08852706 -0.060570095 -0.15793288
000220 71 b6 3d 3e 72 ad 29 bd bb ab cf 3d f0 76 66 3e
       0.18526627 -0.041425176 0.10140177 0.22506309
000230 8a e1 b2 3e b8 bd 89 be 40 00 01 bf bd 2e 9a 3d
       0.34937698 -0.26902556 -0.50391006 0.07528446
000240 4a 92 64 be e2 7d 36 be 61 6d b7 3c 80 23 d6 bd
       -0.2232143 -0.17821458 0.022391023 -0.1045599
000250 ca 73 49 bd 46 41 d0 bd d2 56 a7 3d b1 9b 6e 3d
       -0.04918269 -0.101687 0.081708565 0.058253948
000260 9c da 01 3e 06 96 bf be 5d ce 38 3d e6 28 9e be
       0.12681049 -0.37419146 0.04511868 -0.30890578
000270 e9 f2 a8 bd db 37 a6 be 13 a1 09 3e 21 bc 4c 3e
       -0.082494564 -0.3246449 0.13440351 0.1999364
000280 e3 8e 27 bf 19 e1 ea bd 87 2f ac 3d 20 5c dc bc
       -0.654524 -0.11468715 0.084075026 -0.026899397
000290 4c 8c 27 3d 3e a1 af be b4 2d a3 be a4 65 95 bd
       0.040905282 -0.34302706 -0.31870806 -0.07294777
0002a0 8b a7 45 3d eb 6a e1 3c a4 c8 2d 3d ac 70 32 bc
       0.048255485 0.027516803 0.042427674 -0.010891121
0002b0 c2 ca 86 3d 94 c5 44 3e 01 ab ad bd 67 e0 6f 3d
       0.06581642 0.19215995 -0.08479882 0.058563616
0002c0 ed 24 4e bf 87 aa e8 3d c2 e7 d1 bd 88 4f 04 3d
       -0.80525094 0.113606505 -0.102492824 0.03230241
0002d0 68 d3 b2 bc 3c 53 59 be 5c 72 34 3e ba cb f0 3d
       -0.021829322 -0.21223158 0.1762175 0.11757608
0002e0 7c c1 9e 3e 59 82 21 3f 5f be 95 3b b1 a7 21 3e
       0.31006992 0.6308952 0.004569813 0.15786625
0002f0 bc b1 9d bd 0c e1 f5 3d 64 e7 69 3d 3f 38 3f bd
       -0.07699916 0.12005815 0.057105437 -0.0466845
000300 3f ef 61 3d 76 f6 6d 3d a7 95 85 be 80 cf 11 3e
       0.055159803 0.05809637 -0.26090738 0.14239311
000310 54 af d2 bd 80 5e 81 3e 9c 7c 95 3d bb 21 0a 3d
       -0.102873474 0.2526741 0.07299158 0.033723574
000320 a2 b4 65 3d d2 b5 05 3e a4 2e cb ba a6 4c 2b 3e
       0.056080468 0.1305764 -0.0015501571 0.16728458
000330 07 6f 3d be 4c c2 5c bf 93 c4 59 bf 9f 74 2e 3e
       -0.18499385 -0.86233974 -0.85065573 0.17036675
000340 c9 55 ad bc db e7 cd be bc 0d a2 bd 1e db 76 3e
       -0.02115907 -0.40215954 -0.07912776 0.24107024
000350 b2 43 0e be 65 4d 92 3d 53 c3 72 bd f9 68 8c 3c
       -0.13893011 0.07143668 -0.059268307 0.017139899
000360 07 fb 60 3e 4c 65 e6 3e 87 6b a4 bd cb f5 05 bc
       0.2197076 0.44999158 -0.08028322 -0.008176277
000370 ae 41 9f be 80 b2 3a 3e e3 32 7d bf 33 cb 4d 3f
       -0.31104797 0.18232155 -0.9890577 0.8038818
000380 ba 2b 58 bf 6a 72 5e be bc 3e 3e be 45 bf 59 3e
       -0.8444172 -0.21723333 -0.18578619 0.2126437
000390 94 a9 07 bf 01 61 f1 3c 3c 7f 6f be 3b f8 3f be
       -0.5299313 0.0294652 -0.2338838 -0.18747036
0003a0 0b 5c 31 3e c0 b0 cf be 96 6e 3a bd 9e 6d aa be
       0.17320268 -0.40564537 -0.04551562 -0.33286756
0003b0 58 2b 3b bf 9c 52 5a 3e c8 84 1c bf 8d 3e 26 be
       -0.7311301 0.21320575 -0.6114011 -0.16234799
0003c0 86 87 29 bc 32 bb ce 3d 05 75 89 bd f0 be 22 3e
       -0.010347253 0.100942984 -0.06711773 0.1589315
0003d0 8f 38 05 bf 4c 69 92 be 15 55 e0 b9 4e f3 6a bd
       -0.52039427 -0.2859596 -0.00042788 -0.05736094
0003e0 7c 87 28 3d 54 cd 0c 3e f1 5e bc 3d a6 85 c1 3d
       0.041144833 0.13750201 0.09197796 0.094493195
0003f0 54 b4 2e 3d dc e4 b2 3d 77 c8 86 be 65 96 10 bf
       0.042652443 0.08735058 -0.26324818 -0.56479484

fr2.bias f4 [30]
000000 09 ae 51 bd 71 0c b2 3d 71 ff 31 bc 90 1c c0 bc
       -0.051191363 0.08693779 -0.010864125 -0.02345112
000010 f5 47 d7 3d b4 35 5d 3e f3 12 9a 3d f5 2a 1c 3e
       0.105117716 0.21602517 0.075231455 0.15250762
000020 03 c6 4e 3e e1 bf 9a bd 20 c8 11 3e 1b 12 c9 3d
       0.20192723 -0.07556129 0.14236498 0.098179065
000030 39 39 06 bf 61 2b 0b bf c3 d7 00 3e 0b fc 19 3e
       -0.52431065 -0.54363066 0.12582307 0.15037553
000040 76 37 73 3d f6 0b 84 bd 58 57 98 3d 7e 65 0c 3e
       0.059379064 -0.06447594 0.074385345 0.13710591
000050 01 fd b6 bd 6c 74 5d be c6 1f b8 3e 02 86 0a 3d
       -0.089349754 -0.21626443 0.3596174 0.033819206
000060 b9 d8 4e 3d e2 27 7c 3d dc af d3 bc 52 28 bc 3d
       0.05049965 0.061561473 -0.025840692 0.09187378
000070 5a dc 1c be a2 4e 9d 3c
       -0.15318432 0.019202534

fr3.weight f4 [20, 30]
000000 4f e5 c3 3d 3a cf 9d 3d 44 25 f5 bb c9 f9 c2 3d
       0.095652215 0.07705541 -0.007481249 0.09520299
000010 0c 5b 89 be fb 6a f8 be 03 6f 21 bd fb bc 98 be
       -0.26827276 -0.4851912 -0.03941251 -0.2983168
000020 1d 05 bf 3e 06 e3 42 be fe 8a 6f 3c 9d a1 f6 be
       0.3730859 -0.19031915 0.014620541 -0.48170176
000030 2e 0a e8 bd 41 16 5a be 79 c8 ad 3e 98 8d f6 bd
       -0.113300666 -0.21297552 0.3394201 -0.120387256
000040 fe 2b 70 3d ad cb 93 bd e6 05 3b 3d 54 ff 75 3c
       0.058635704 -0.072165824 0.045659922 0.015014488
000050 12 8c 0a be 0e 4c 73 3a db 44 00 3c 88 d4 61 bd
       -0.13529995 0.00092810474 0.007828916 -0.055134326
000060 eb 22 d5 be 91 88 6d bd b5 e2 25 bf 1b c7 70 bd
       -0.41628203 -0.057991568 -0.6479905 -0.05878363
000070 2f 8c 80 bd 70 e9 dd 3d fa 0e 15 3e a2 fb 1d be
       -0.06276738 0.1083554 0.14556494 -0.15428022
000080 6d b1 e5 bd 99 0a 36 be 27 92 b2 bc 4a 97 73 3e
       -0.11215482 -0.1777748 -0.021798206 0.23788181
000090 5c 1d e5 bd 52 27 9a bd 35 74 4f 3d ee 5d 8b be
       -0.111872405 -0.07527031 0.050647933 -0.272201
0000a0 43 e3 90 be b8 cf 7b be 62 e4 cf 3d 25 a2 b1 3d
       -0.28298387 -0.24590957 0.101509824 0.08673505
0000b0 cc c8 02 bf 91 db ed 3d 0f cd 8e 3d 81 17 03 be
       -0.5108764 0.116141446 0.069727056 -0.12801935
0000c0 81 89 aa be 6d 63 94 be 6a 52 d5 3d 0d 2e 69 be
       -0.33308032 -0.28982106 0.1041611 -0.22771473
0000d0 c8 6f 96 3d 30 45 15 3e 9e 42 d1 be b8 7b 57 3e
       0.07345539 0.14577174 -0.40871137 0.21043289
0000e0 e6 9f b5 bd 9d 19 53 3e 33 27 18 be 72 e6 83 3e
       -0.08868389 0.2061524 -0.14858703 0.25761753
0000f0 e8 ea 60 3e 18 93 5a bf df 86 2d 3e c9 e5 c7 bc
       0.2196461 -0.853807 0.1694598 -0.024401562
000100 a5 46 48 3d 2a d4 86 3e 0b 97 1f 3e fa 7b 10 3e
       0.048895497 0.26333743 0.15584962 0.14109793
000110 18 be 56 be 52 1b 03 be 72 8d 44 3d e7 0c bf bd
       -0.20970953 -0.1280339 0.047986455 -0.09328633
000120 95 bb c9 be 3d 71 6a bc ff 8e 82 bd c2 86 5d be
       -0.39400926 -0.014309225 -0.063749306 -0.21633437
000130 c8 a2 35 be 6c 45 03 3e fc 17 6f bf 5f 8b bf 3d
       -0.17737877 0.12819451 -0.9339597 0.09352755
000140 46 47 4f 3b 42 2c 39 3e 0c f5 b2 3d a7 64 20 3e
       0.0031628176 0.1808329 0.08738145 0.15663396
000150 25 80 93 bd 93 1e 89 3d 9c d8 6e be 1c 4d 5f 3d
       -0.07202176 0.06695285 -0.23324817 0.054516897
000160 0f 13 b9 be f5 f2 20 3e 03 44 45 3e 81 a3 1e 3e
       -0.36147353 0.15717681 0.19264226 0.1549206
000170 b2 83 54 be d1 a1 17 3e a8 15 e4 bd 6e 0e 42 3d
       -0.20753363 0.14807822 -0.11136943 0.047377042
000180 7b 65 cf be 65 e6 6c 3e 99 73 e1 3d e7 75 68 be
       -0.4050711 0.23134764 0.11008377 -0.22701226
000190 11 d9 05 be f9 a3 37 bf cc dc 39 be 3d 54 84 3e
       -0.13071086 -0.7173458 -0.18150634 0.2584552
0001a0 c0 b3 88 3e 0f 9e 3c 3e b0 cb 04 3d 08 4b e4 bd
       0.26699638 0.1841967 0.032420814 -0.111471236
0001b0 9a 75 ea bd d8 af 18 3e 12 9f 1f 3d 56 d1 71 3e
       -0.11448212 0.14910829 0.03897006 0.23615012
0001c0 fa 1f 7e 3e 81 6f 3d 3e 52 16 57 bf bd 0a 81 be
       0.24816886 0.18499567 -0.84018433 -0.25203505
0001d0 6b 03 60 bd 14 44 77 3e 55 29 fe bd 3a ac 3a be
       -0.05469076 0.24147063 -0.12410227 -0.18229762
0001e0 1a e2 9b 3d db fb f6 bd 5a 20 35 be 94 61 24 3e
       0.07611485 -0.12059756 -0.17688122 0.16052848
0001f0 51 9b a7 bd d7 8c 25 3e 1f ec f6 bb 3b 13 b3 3c
       -0.08183921 0.16167007 -0.007535472 0.021859756
000200 ee 5a 7d 3d 68 1c 1d 3e 29 39 20 3e 6f 87 08 be
       0.061854295 0.15342867 0.15646805 -0.13332914
000210 f5 7c 3d 3e 0b 4c b7 3e af 25 84 3e a1 e2 e1 3e
       0.18504699 0.35800204 0.2581 0.44118217
000220 1a 37 13 bc 0c 36 2b 3e 23 c0 0c 3b 72 16 22 bf
       -0.008985305 0.16719836 0.0021476827 -0.633155
000230 af 0b c3 be 86 06 06 bf 3d 7a 33 3e 53 8a 88 be
       -0.3809485 -0.52353704 0.17527099 -0.26668033
000240 ae 55 9e 3e f9 20 e0 bd 2d f0 f5 bd b7 65 a5 bf
       0.30924743 -0.10943789 -0.120087005 -1.2921666
000250 fa 36 6b be 4a fb 92 3e a5 a4 56 be 26 d8 d1 bf
       -0.2297019 0.28707343 -0.20961244 -1.6394088
000260 60 f5 7c 3e 5c 17 17 bd 83 fb 06 bf 8b 9f 38 3e
       0.24702978 -0.03688751 -0.52727526 0.18029611
000270 8e b8 d0 be 3b d9 a8 be 99 1f b6 3e ee 0f 50 be
       -0.40765804 -0.32978234 0.35570982 -0.20318577
000280 89 ce dc bc 90 4d 41 be 8e 46 1d 3c 50 37 e3 3d
       -0.026953952 -0.18877244 0.009599341 0.110945344
000290 74 92 69 3e a4 c1 50 3e 84 37 40 bd 08 24 af 3e
       0.22809774 0.20386368 -0.046927944 0.34207177
0002a0 46 0c 87 bf 05 d2 1b be 5b 22 ea bb 51 ba 1b bf
       -1.055062 -0.15216835 -0.007145209 -0.6083117
0002b0 af 10 ac 3e 73 de 89 be a6 b8 9c 3d 42 e3 43 3e
       0.3360648 -0.26927528 0.076524064 0.1912966
0002c0 2f fd 15 bf 40 25 94 be db b7 33 be e6 7d 6a be
       -0.5858945 -0.2893467 -0.17550604 -0.22899589
0002d0 01 b3 4c be 75 3a 8e 3e ff f1 83 3d 3a 5e 3c be
       -0.1999016 0.27778974 0.064426415 -0.1839532
0002e0 3d d9 76 3d 71 eb fb 3d 53 ed 00 3c 2f 68 11 bf
       0.06026577 0.12300766 0.0078690825 -0.56799597
0002f0 ec 50 27 3e c6 8e aa bd 1c 40 dc bd 38 c6 69 bf
       0.16339463 -0.08328013 -0.107544154 -0.9131808
000300 31 85 6c be fd ae ee bd 8e 03 bc 3e 82 09 8e 3e
       -0.23097683 -0.1165447 0.36721462 0.2774163
000310 f1 89 80 bd f4 00 93 bf 70 98 91 bc d4 10 c5 bd
       -0.0627631 -1.1484666 -0.017772883 -0.0962235
000320 b0 97 8c 3d 94 af 6c bf 5c f7 8c 3e a0 36 51 bf
       0.068648696 -0.9245541 0.2753247 -0.81723976
000330 e0 97 69 3e b0 27 20 3c 34 7b c0 3e 1d c6 c0 be
       0.22811842 0.009775087 0.37593997 -0.37651148
000340 05 e7 0b bd 9a f9 fd be a4 f1 ac 3e ed 78 47 bd
       -0.034155864 -0.49604493 0.33778107 -0.04869931
000350 76 fd e2 3d 09 f2 38 3d 7b 32 a8 be 9f 23 a3 be
       0.110835 0.045152698 -0.32851014 -0.31863114
000360 5c 4e 98 3e 83 a1 d9 3c f7 ad af 3e 3c e8 d3 3d
       0.29747283 0.026566273 0.34312412 0.103470296
000370 d7 35 10 be a8 46 c9 be 4e e8 86 be c7 20 2c 3e
       -0.14083038 -0.3931172 -0.2634911 0.16809379
000380 f0 e8 3c 3e a7 41 3a 3e 02 70 3e bf 95 65 4b 3e
       0.18448234 0.18189107 -0.7438966 0.19862969
000390 48 eb 34 be 6b 27 9d bb f5 46 03 3c f7 0c b0 bb
       -0.17667878 -0.0047959588 0.008012523 -0.0053726393
0003a0 b1 68 9a bd 6e 71 13 bf 1f 93 73 be a3 69 76 bd
       -0.075394996 -0.57594955 -0.23786591 -0.060159337
0003b0 10 6d 81 be a4 67 a1 3e e1 ba 84 3d 87 07 19 be
       -0.2527852 0.31524384 0.06480957 -0.14944278
0003c0 09 89 9e be a1 51 61 3d bb 99 19 3e 02 c4 c3 3d
       -0.30963925 0.055009488 0.1500005 0.0955887
0003d0 ae e0 08 be ac 91 d6 be ec fd e9 3d 67 69 39 3d
       -0.13366958 -0.41908014 0.11425385 0.045266535
0003e0 24 00 23 3e 19 43 e3 bd f7 64 7a bd 4e 0b 81 be
       0.15918022 -0.11096782 -0.061131444 -0.25203937
0003f0 18 3c 1a be 8c 4d 69 bd 6c c0 0b 3e 9d 10 a5 3e
       -0.15061986 -0.05695872 0.13647622 0.32239237

fr3.bias f4 [20]
000000 3a 7f fa 3d 5a 6c fb 3d e1 c9 3f 3d 6f ba 8a bd
       0.12231298 0.12276526 0.046823386 -0.06773841
000010 29 6c 6a bf 33 20 9d bd 26 d6 75 be 2f 34 27 be
       -0.9157129 -0.07672157 -0.24007472 -0.163285
000020 8e c6 96 3d 31 23 1b 3d 98 e0 ab 3d 68 0a 0a 3e
       0.0736209 0.037875358 0.08392447 0.13480532
000030 c4 fb 17 3c 46 54 d8 3d 15 be f8 3c fc 49 0c 3e
       0.009276334 0.10562949 0.030364076 0.13700098
000040 53 54 0e be 4e 7f 4f 3e fc b5 3b 3e 47 08 b8 3c
       -0.13899355 0.20263407 0.1833114 0.022464884

fr1_pv.weight f4 [60, 44]
000000 5f d0 0b c0 b2 18 01 c0 9f fd 2a bf bf 14 0b 3e
       -2.184593 -2.0171323 -0.66793245 0.13582133
000010 e2 59 a3 be cf 64 96 3f 89 96 76 be 60 56 aa be
       -0.31904513 1.1749514 -0.24080862 -0.33269024
000020 b6 61 8d bd 91 77 11 3c 03 b5 7e be 0f f5 22 3d
       -0.069034025 0.0088786045 -0.24873738 0.039784487
000030 b4 bb 67 bf b2 e4 6c bf be 35 b7 3c ac e6 56 be
       -0.9052079 -0.9253646 0.022364493 -0.20986432
000040 39 a6 69 3c 9d 48 7b bd a3 88 24 bf 27 b6 12 bf
       0.014260822 -0.061348546 -0.6427099 -0.5730919
000050 87 68 89 3e 8d a3 d1 3e c9 b4 a9 bf c3 c9 89 bd
       0.2683756 0.40945092 -1.3258296 -0.06727936
000060 cf 24 93 bf 13 4c d4 3e c7 e3 0f 3e 52 a5 c7 3d
       -1.1495608 0.4146429 0.14051734 0.09748329
000070 d9 a0 cc 3d cc fd bd 3d 09 f4 b0 3f d5 5d 9e 3f
       0.09991617 0.092769235 1.3824474 1.2372385
000080 7e 46 f4 be 79 dd f9 bd 5d 5c 82 3e 65 dc 82 bd
       -0.4771003 -0.12200446 0.25461093 -0.06389693
000090 4a 70 51 3e 0b 7c b5 3e b5 e2 d2 bd db e4 1c 3e
       0.20452991 0.354462 -0.10297147 0.15321676
0000a0 2e 06 8b bb c4 77 be 3e 49 af 0f be a9 44 dc 3e
       -0.00424268 0.3720075 -0.1403171 0.43021134
0000b0 f9 60 cd bf 59 7d d9 bf 97 f9 6f bf a0 43 e7 3e
       -1.6045219 -1.6991378 -0.9374022 0.4516878
0000c0 f0 6a 8c bf f3 3e 80 3e 4c 32 f5 bf b0 64 a4 bf
       -1.0970135 0.25048026 -1.9155974 -1.2843227
0000d0 00 e9 2f bd b8 b3 43 bd 79 ad a0 be 5f e1 f9 3c
       -0.042946815 -0.047778815 -0.3138235 0.030502973
0000e0 13 94 9a be ba 29 2d 3d 4b 10 98 be fd 85 0a 3f
       -0.30191097 0.04227612 -0.2969993 0.541107
0000f0 ba f5 31 bf cc ba bb bf 91 a7 ff 3e 25 36 25 bf
       -0.69515574 -1.4666381 0.4993253 -0.64535743
000100 8a 3d 91 3f 49 4b 37 bf ed 27 11 bd 59 ea 42 3f
       1.1346905 -0.7159925 -0.035438467 0.76138836
000110 be e2 8e 3d 81 e4 c1 3e b4 97 cb bc 1b 04 4d 3d
       0.069768414 0.37869647 -0.024852611 0.050052743
000120 91 d9 a1 3d c7 6a 7f be 55 17 6b 40 b7 9d 37 40
       0.079028256 -0.24943076 3.673299 2.8690012
000130 43 03 32 bd bc 79 fe 3d 6c 20 db bf 1e c0 4a 3c
       -0.043460142 0.12425563 -1.7119269 0.012374906
000140 9f a7 91 3d ae fe 4c be 14 78 80 3d a1 22 19 3e
       0.07112049 -0.20019028 0.06272903 0.14954616
000150 7b 44 0e 3d f0 ae 16 bf 15 6e 87 bc 3b aa 4a 3e
       0.034733277 -0.58860683 -0.016531983 0.197915
000160 1a f8 5f bf 3b c0 5c bf 90 2f 7e 3e 97 3f 8e 3c
       -0.8748795 -0.8623082 0.24822831 0.017364306
000170 c7 46 d2 3e de 65 14 3e 9d f5 39 3f 72 44 32 3f
       0.41069624 0.14491984 0.726404 0.6963569
000180 0f 79 53 bd 4f d8 a5 bc 20 6d 46 3f 6b 60 8e 3c
       -0.051629122 -0.020244746 0.7751026 0.01737996
000190 02 1d 63 be 1d f3 2b 3e 03 6f 4f c0 4b dc 68 bf
       -0.22179034 0.16791959 -3.2411506 -0.9096114
0001a0 d4 ed 88 c0 6b 6e 0e c0 a9 ea 4f 3e f4 7c ae be
       -4.2790318 -2.2254894 0.2030436 -0.34079707
0001b0 b0 2d 7f 40 2f a7 06 bd 43 4d 82 3d 4b 3d c4 3d
       3.9871635 -0.032874282 0.06362393 0.09582003
0001c0 3e d9 03 bc 27 c4 d8 bc ca 2d b1 bd 01 42 a9 bf
       -0.0080474 -0.02646072 -0.08651312 -1.3223268
0001d0 2c a8 73 be 8d 14 0a 3f 47 09 95 c0 2e 81 71 c0
       -0.23794621 0.5393761 -4.6573825 -3.7735095
0001e0 50 13 1d be 79 26 8c be 97 a8 7f 3e f3 f3 9e 3b
       -0.15339398 -0.27373102 0.24966656 0.0048508584
0001f0 f9 45 e4 bc 1b 3f 1d bd 20 0a 8a 3d e3 00 5c be
       -0.027865397 -0.03839026 0.067402124 -0.21484713
000200 84 30 24 bd 27 65 fc 3c 29 90 84 3b 02 b3 a5 3e
       -0.04008533 0.030809952 0.0040455055 0.32363135
000210 c9 48 89 bd c3 d3 1c 3e 7f 5c 46 3f f8 51 a2 be
       -0.06703336 0.15315156 0.7748489 -0.31703162
000220 74 df f0 3e 8f 2a c6 bd 08 7b 18 3f 56 ea 6f bf
       0.4704548 -0.09676086 0.5956273 -0.93716943
000230 83 54 d1 3b 0d dd 30 bd 1e 1e b9 be f2 e1 42 3e
       0.0063882484 -0.04317956 -0.3615579 0.19031504
000240 7f 89 be 3d f0 4c 28 3d c5 30 58 40 ad 38 23 be
       0.09303569 0.041089 3.3779767 -0.15939589
000250 b3 dc 52 3f b4 dc ac be ba 90 0b bf 0b 2f 15 bf
       0.8236801 -0.33762133 -0.5451771 -0.58274907
000260 6b 81 a8 be 5f 08 4d 3f 87 1b 1a bf 67 bc f0 3e
       -0.32911238 0.800909 -0.60198253 0.4701874
000270 98 ca 00 3d b5 f6 20 be 7f 21 c8 bd 6d 1c 0e bf
       0.03144321 -0.15719111 -0.09772014 -0.55512124
000280 a6 7e 17 3b 8e 6e c0 be 55 48 08 c0 b1 8a 03 c0
       0.002311626 -0.37584347 -2.1294148 -2.05534
000290 ca c1 85 3f 2f ff 44 3f 69 75 2f 3f 16 13 71 bf
       1.0449765 0.7695188 0.6853853 -0.9416975
0002a0 82 7d 76 3e 27 b5 f5 3e 49 75 7d bd 4f 7d d5 bb
       0.24071315 0.4798977 -0.06187943 -0.006515182
0002b0 c3 e1 ea bc 3a cc 67 3d 1b b9 d0 3d 85 c8 99 be
       -0.028672105 0.05659125 0.10191556 -0.30035797
0002c0 24 6f cd 3e df b3 e2 3e 60 e5 cd bd 8b 42 18 3b
       0.40123856 0.44277856 -0.100535154 0.0023233022
0002d0 95 b6 9d be 86 71 59 3e f2 4b 54 3e ef 22 86 3e
       -0.30803362 0.21234712 0.20732096 0.26198527
0002e0 56 2c 12 bd 7d 16 09 3c 3d fd 53 bc 5e 09 85 3c
       -0.035686813 0.008367178 -0.012938795 0.016239818
0002f0 40 8e 99 3c b3 7a d3 3d 23 b7 85 bf 0a 79 6c bf
       0.018744588 0.103261374 -1.0446514 -0.9237219
000300 7d ac 29 c0 ff d5 7b bf 8a 30 e1 3a 17 79 8e bd
       -2.6511528 -0.9837341 0.0017180603 -0.0695669
000310 49 9d e8 3f df 5d f3 3e 00 3d 23 3d d7 73 51 3e
       1.8173 0.47532555 0.039853096 0.20454346
000320 10 ce 9e bd 36 2f 39 be d5 03 59 3c 7f 5a 0d 3e
       -0.07754147 -0.18084416 0.0132455425 0.13804053
000330 df 97 02 bd 9e 62 07 3f 7a 23 cf c0 27 08 bf c0
       -0.031883117 0.5288485 -6.4730806 -5.969745
000340 e8 92 49 bd 4c a5 fb be 06 e2 57 be 24 fc 16 3c
       -0.049212366 -0.4914955 -0.21082315 0.009215388
000350 17 b9 0b 3c 33 9e 15 3d d2 62 09 bc 37 22 42 3d
       0.008528016 0.036527824 -0.008385377 0.04739591
000360 ed cd 79 bc 76 ef 01 bd 51 9a 8e 3c 79 19 3e 3e
       -0.01524685 -0.03172251 0.017407568 0.18564405
000370 e8 98 70 3e 92 ff 8d 3d 58 17 44 bd f0 dc 62 bc
       0.23495829 0.06933512 -0.047873825 -0.013846621
000380 e8 77 e8 be 82 43 48 be 0b 9c 95 bf 1f 3f 37 bf
       -0.4540398 -0.19557002 -1.1688246 -0.7158069
000390 b5 e2 65 be 21 73 50 3c 38 ed d5 3e 0e c6 89 3c
       -0.22449763 0.012722761 0.41782546 0.016818073
0003a0 de 0c 7f bb 4f 6a b1 bc 9c 93 dd 3f d9 3c b4 3e
       -0.0038917582 -0.021657137 1.7310672 0.35202673
0003b0 eb f7 3b 40 23 64 10 3f 69 a9 89 bd 26 d6 06 3d
       2.9370067 0.56402797 -0.067217655 0.03291907
0003c0 f1 b9 f9 bf 47 d2 fa 3d 8a eb 18 3e ef 09 54 3e
       -1.950987 0.122471385 0.14933601 0.20706914
0003d0 72 f3 e3 bc 7e 4a 58 3e c3 71 dd 3c 9f b0 09 be
       -0.027826045 0.21122167 0.027031785 -0.13446282
0003e0 46 0b 8c 3c f7 32 7c 3e 68 f5 af 40 bd 87 8f 40
       0.01709522 0.24628817 5.498707 4.4853196
0003f0 0e 80 19 3e e1 bf bc be 03 78 5c bf aa b2 dc bb
       0.14990255 -0.36865142 -0.86120623 -0.0067351656

fr1_pv.bias f4 [60]
000000 16 84 69 3d f7 2a b8 be 9d d4 99 3c 7e 67 11 bd
       0.057010733 -0.3597028 0.01877814 -0.03549909
000010 4e cd b5 3d 40 a2 3a be 12 c5 1c bf 22 e3 93 bd
       0.088770494 -0.18225956 -0.61238205 -0.072210565
000020 63 b3 e5 3e 6c 16 a3 bc bf 77 bd 3d 4b e7 9b bc
       0.44863424 -0.019908153 0.092513554 -0.019031188
000030 27 d2 67 3e 27 df d7 3e 8b d8 7c 3e 00 03 70 3d
       0.2263876 0.4216244 0.2469198 0.05859661
000040 72 17 01 be e5 4c 24 3d f8 dc 02 3d c6 25 4b bd
       -0.126066 0.040112395 0.031949013 -0.04959657
000050 2e 41 21 3f 9f aa 45 be 14 55 c8 bc 9f e2 7e be
       0.6299008 -0.19303368 -0.02445463 -0.24891137
000060 e3 1c d6 3d 09 e8 d2 be 0c 7c 78 bd 85 c6 83 3e
       0.104547285 -0.41192654 -0.060665175 0.25737396
000070 6e 94 01 be 5b 74 aa 3d b5 bc 2d be f4 80 f0 bd
       -0.12654278 0.08322974 -0.16966517 -0.11743346
000080 22 f7 6a 3d d8 11 81 3e d4 1c 30 3d 79 5c 54 be
       0.05736459 0.25208926 0.042996243 -0.207384
000090 53 cb e8 3d 04 6c 80 bc 74 03 23 3e 90 51 14 be
       0.11366906 -0.015676506 0.15919286 -0.14484239
0000a0 ee 31 9f 3d c1 de c4 bb bf af ef bc 5c 60 86 3e
       0.07773195 -0.0060079996 -0.029258607 0.2624539
0000b0 13 15 84 bf cf 31 1d bf 98 72 c4 3d 58 4f 48 be
       -1.0318931 -0.61404127 0.095921695 -0.19561517
0000c0 b2 7c cb bc 24 92 25 3e 7a b6 bf 3d e3 69 31 3d
       -0.024839733 0.1616903 0.093609765 0.043313872
0000d0 33 91 56 bc 3d 9f 82 bd 03 56 05 3d 78 a8 b3 3d
       -0.013096142 -0.063780285 0.03255273 0.08772367
0000e0 a9 4a 25 bf 9d 2d 83 bd 28 a8 b5 3d 01 dc c1 bf
       -0.6456705 -0.064051844 0.08869964 -1.5145265

fr2_pv.weight f4 [30, 60]
000000 7d fe 2a 3e 7b a3 6c 3d af a0 14 3e b6 0b 77 3e
       0.16698642 0.057773095 0.14514421 0.24125561
000010 c2 61 65 be 2e 57 4a be b0 fc d1 3d a6 47 b3 3e
       -0.22400573 -0.19759819 0.102532744 0.350156
000020 09 6c 7e 3e d0 28 d3 3d 27 70 cb 3e 01 45 a2 bd
       0.248459 0.10310519 0.39734003 -0.07923318
000030 e4 b6 2c bb fe 2e 9e 3e a2 c1 22 be 08 6b 3e be
       -0.0026354128 0.30895227 -0.15894178 -0.18595517
000040 05 8e 8f 3d db 1c ea 3d dd 3c 9b be 7b a7 0f 3e
       0.0700951 0.11431285 -0.30319872 0.14028732
000050 f2 ce c4 bd 02 a3 0b bd 6c 8d 04 be 0c 34 31 3e
       -0.09609784 -0.034091003 -0.12944573 0.1730501
000060 20 0b 4d bc 94 a8 d2 bd 0a ee 79 3c 12 0f 14 3d
       -0.012514859 -0.1028606 0.015254507 0.036147185
000070 9f f3 4a bd 62 77 d8 3e f0 19 5b be 2f 88 71 be
       -0.04954874 0.42278582 -0.21396613 -0.23587106
000080 d9 07 a5 be 0c fd 21 bd 7b bc db 3d 13 29 af 3c
       -0.3223255 -0.039547965 0.10729309 0.02138189
000090 10 00 73 3e 11 34 8f 3e 78 77 31 be b5 e3 d9 3d
       0.23730493 0.2796941 -0.1733073 0.10639135
0000a0 af 6e 20 be 81 17 2f 3d 52 04 88 3c 12 a5 40 be
       -0.15667222 0.042747024 0.016603623 -0.1881297
0000b0 58 79 05 3d d2 a0 20 3e 5e e7 1e be af 5e 8a 3d
       0.032586426 0.15686348 -0.15517947 0.06756341
0000c0 4d 23 e9 3d d8 27 3e 37 e0 81 00 bd 8b d4 1e b9
       0.11383686 1.1334159e-05 -0.03137386 -0.00015147233
0000d0 74 0f 07 bd e1 7c a5 bd 01 c0 30 3e c6 95 d6 3c
       -0.03297372 -0.080804594 0.17260744 0.026194464
0000e0 f8 42 20 bc ab 59 26 be de d5 fb 3e 59 ed b2 3c
       -0.009781592 -0.16245143 0.49186605 0.021841692
0000f0 49 58 a2 bc 34 16 43 be 74 4b 99 3e 8b 13 ce be
       -0.019817488 -0.19051439 0.2994038 -0.40249285
000100 c0 05 a9 be 71 dc bf bd b7 28 d0 bd 8c 5f ad bd
       -0.330122 -0.09368218 -0.10164016 -0.0846549
000110 28 aa e5 3e 7f d3 96 be 87 59 e7 3d fc 9e 72 be
       0.4485638 -0.29458234 0.11296373 -0.2369346
000120 27 e8 87 3d 87 e7 72 be 1c 07 26 3e 23 7f 66 3e
       0.066360764 -0.23721133 0.1621365 0.22509436
000130 f8 ea 31 3d bf 5f d2 bc da 7f 1c 3e 13 63 32 3e
       0.043436974 -0.02568042 0.15283147 0.17420606
000140 77 2a 05 be 47 ce 24 3e 7e 30 94 be 34 11 9b 3d
       -0.1300448 0.16094314 -0.28943247 0.075716406
000150 f7 52 b3 bd 13 97 35 3e 9e f6 c7 bd d2 69 2f bd
       -0.08756059 0.17733411 -0.09763835 -0.042825527
000160 66 0a 33 be 25 c2 b3 be 51 2c 17 3e 36 d1 d6 3d
       -0.17484435 -0.35109058 0.14762999 0.104891226
000170 d8 c2 e7 3d 21 39 95 bc 81 b5 55 39 3f 20 35 bd
       0.1131646 -0.018215718 0.00020380878 -0.044220205
000180 07 ed a7 3e 79 4a 88 3e ef 2d 30 bf 7b 5b d9 3b
       0.32798025 0.26619318 -0.6882009 0.00663322
000190 87 2e cc bd b0 1e 00 3e c9 cd 68 bf c7 5a 75 3e
       -0.09969812 0.12511706 -0.90939003 0.2396041
0001a0 52 75 15 be 2b 19 2a bc ce a5 72 3d 34 a4 89 3d
       -0.14595535 -0.010381977 0.059240155 0.067207724
0001b0 6d b8 ab be 5e ef ce 3d be b0 99 bd 2e ce 4a bf
       -0.33539143 0.101042494 -0.07504414 -0.79220855
0001c0 50 91 d2 bd c3 2b 00 bd f2 ff 36 3e 08 c0 58 3e
       -0.102816224 -0.031291734 0.17871073 0.21167004
0001d0 a8 79 9d 3b c2 93 6a 3e 91 97 ea 3c e1 8a a8 be
       0.0048057623 0.22907928 0.028636726 -0.32918456
0001e0 88 43 65 3c b3 9b 29 3e d3 f3 a7 3e 06 a1 54 be
       0.0139931515 0.16563301 0.3280321 -0.2076455
0001f0 b1 12 dd 3d 31 f9 71 3e aa 88 2d 3d d6 64 03 be
       0.10794581 0.23630215 0.04236666 -0.12831435
000200 af c6 91 bd 18 43 f0 bd 6c a5 44 be 3a 43 05 3e
       -0.07117974 -0.11731547 -0.19203728 0.13013926
000210 0b 62 9d bd c6 d9 a3 bd f7 e1 8c 3e 23 75 40 be
       -0.07684716 -0.08000521 0.27516147 -0.18794684
000220 4e a1 14 3e 00 fc 37 3e 5c dc 9b be 19 82 31 3e
       0.14514658 0.17967224 -0.30441558 0.17334785
000230 e4 f1 85 3e f2 85 c9 bd 53 eb 06 bf f0 56 72 3e
       0.2616111 -0.09840001 -0.52702826 0.23665977
000240 6f 1a 06 3e 5a 8d 6e 3e 49 4f 3b bd c4 f9 7b 3c
       0.13096021 0.23296109 -0.04572991 0.015379373
000250 db 92 55 bd 7f e7 36 be 1f 4e 0b be 28 ed 67 bd
       -0.052142005 -0.17861746 -0.1360402 -0.056622654
000260 f2 00 b9 bc be d6 22 bd e9 99 f2 3d 9e 63 7b 3e
       -0.022583459 -0.039755575 0.11845762 0.2454972
000270 3a bd 1f 3d 3a 6e 0f be 93 c7 2f bf 31 0e b9 bd
       0.03899882 -0.14006892 -0.686639 -0.0903591
000280 e5 92 df 3b b8 50 d6 3e f9 b2 6b bf 64 80 42 3b
       0.006822931 0.4185846 -0.92069966 0.0029678578
000290 5f 10 08 3e 9c 29 91 3e 5a 69 42 3d d3 fa 94 3e
       0.13287495 0.28352058 0.047463752 0.29097614
0002a0 41 4e 72 3d aa bf 35 3e d9 d6 78 bf 31 7f 81 bf
       0.05915666 0.17748895 -0.9720283 -1.0116941
0002b0 18 00 94 be 0b 79 db bd 87 19 c5 3e 51 74 04 be
       -0.28906322 -0.107164465 0.38496038 -0.12934996
0002c0 90 7c 69 3d 10 ab 3b be 16 a2 51 be 2e 00 40 3c
       0.057003558 -0.18326974 -0.20471987 0.011718793
0002d0 b3 00 28 bc c9 7b 76 bd c4 af 86 3d d8 ff d8 3d
       -0.010254073 -0.060176644 0.065764934 0.10595673
0002e0 85 46 12 3f 1c 52 fe bc b6 32 d8 bc 3e ca 97 bd
       0.57138854 -0.031045012 -0.026391368 -0.074116215
0002f0 75 39 22 3e dc b3 46 3d 7e 19 08 3e a6 a8 c5 3d
       0.1584223 0.04851137 0.13290974 0.09651308
000300 f7 95 8c bd 0b b1 83 bd 0f 2c 30 3d 60 d5 48 bc
       -0.06864541 -0.06430253 0.043010768 -0.012257904
000310 17 7a bf 3d 4c b0 e5 3d 35 05 19 bc c9 4a 54 bd
       0.09349459 0.112152666 -0.00933962 -0.051829133
000320 21 2f 79 bd 53 03 77 be 07 69 40 bc e9 0f 26 be
       -0.06083596 -0.24122362 -0.0117437905 -0.16217007
000330 f1 aa e1 bc 3f 3f 68 3e b7 94 5d bc 98 22 02 3e
       -0.027547332 0.22680376 -0.013524226 0.12708509
000340 5a 90 2d 3e d2 83 1b 3d 6f 46 46 bd e6 e2 9d 3d
       0.16949597 0.03796751 -0.048407014 0.07709293
000350 e3 d5 a2 3d 68 24 65 bc 8e 56 04 bd 78 09 b4 3c
       0.07950952 -0.013985731 -0.032309107 0.021977171
000360 e8 5b 80 bd a3 9a d5 bd 0e c1 93 3f b5 7a 09 bd
       -0.0626753 -0.10429885 1.1543291 -0.03356429
000370 1a cc b6 bb 42 bb 1c bf 0e ca 7c bd 1f f7 22 3c
       -0.00557853 -0.6122323 -0.061716132 0.009946614
000380 65 69 5e 3c 7e 8e d8 bd 39 20 47 bc bb 0b 9e 3d
       0.013574933 -0.10574053 -0.012153679 0.07717081
000390 95 2f fe 3d fa ef 74 be 0e ad 3d 3e 8d 23 16 3e
       0.12411419 -0.23919669 0.18523046 0.14661999
0003a0 97 20 49 bc 36 b4 54 bd 86 f5 4f be c4 37 c6 bd
       -0.012275836 -0.051929675 -0.20308504 -0.09678605
0003b0 52 e9 ff 3d 62 e3 a4 bd 2a dd f2 3c 67 bf 5a bd
       0.12495674 -0.08051182 0.029646475 -0.05340519
0003c0 54 37 22 be f5 ca e5 be 6d 98 00 3e b8 cc 5c 3e
       -0.15841419 -0.44881406 0.12558146 0.21562469
0003d0 92 b9 ba bd 05 fc 39 bf 9c 6c 82 3e 8a 19 50 3c
       -0.09117426 -0.72650176 0.25473487 0.0127014015
0003e0 b3 36 dc 3e cc 7b a0 be b3 87 5c 3e 66 29 0d be
       0.43010482 -0.3134445 0.2153614 -0.13785324
0003f0 95 77 5c 3e 85 7b b8 be 6c 2b 57 3e 10 84 1e bc
       0.21529992 -0.36031738 0.21012658 -0.009675041

fr2_pv.bias f4 [30]
000000 d1 d5 09 3e 2b ec 8e 3e bd e5 62 3d 59 6e 73 bd
       0.1346047 0.27914557 0.055394877 -0.059431408
000010 77 44 02 bf 2e 1c b8 be 0a 1a 2a bd 82 5d 45 3e
       -0.5088572 -0.35959 -0.04152874 0.19273952
000020 ee 92 8c 3d ab d6 3f be 78 fb 84 3d 25 9e e3 bd
       0.06863962 -0.18734233 0.06493276 -0.11114148
000030 25 c1 ab 3e 9b 0c 91 3e 3a da 3f 3e d4 7e 09 3d
       0.33545795 0.2832993 0.1873559 0.03356822
000040 2d a8 2f 3e f9 d6 81 3e 72 fa 68 bc 22 cb d2 3d
       0.17153998 0.25359324 -0.014219867 0.10292651
000050 af 3a 41 3e 46 57 0a be 06 c0 34 3d f5 fa 04 3e
       0.18870042 -0.13509855 0.04412844 0.12986358
000060 89 ae d0 3e 96 b3 21 be 7c fc 0a 3d 45 43 c9 be
       0.4075816 -0.15791163 0.033932194 -0.39309135
000070 36 1c 50 be ce 72 db be
       -0.20323262 -0.42861027

fr3_pv.weight f4 [20, 30]
000000 96 4e e4 3d 13 c5 a3 be 7c 61 9c 3d f8 18 57 be
       0.111478016 -0.31986293 0.07635781 -0.21005619
000010 c1 85 c3 3d 19 cd 14 be 83 01 bc 3d f9 4c 55 bd
       0.09546996 -0.14531364 0.09179976 -0.05207536
000020 2b f0 8a be fc 16 b4 3e af ce 0f 3e 76 97 2d bc
       -0.2713636 0.35173786 0.14043687 -0.010595193
000030 b8 f1 82 be 39 14 2a bd 16 b2 b9 3d 05 4c c3 3d
       -0.25575042 -0.041523192 0.0906717 0.09535984
000040 f6 b0 6f bd a1 fc 15 3e ca 47 06 be 77 ca f4 be
       -0.058518372 0.14647152 -0.13113323 -0.47810718
000050 a4 58 8a bd d9 ef 64 3c 57 06 cf bd 1d 09 76 bd
       -0.06755188 0.0139732 -0.10108631 -0.060067285
000060 b4 27 58 bd 3b 29 34 be 46 3e 0e 3e 95 28 e9 3c
       -0.05277224 -0.17593853 0.13890943 0.028461734
000070 72 67 05 3d 44 6f 36 be 71 8f 2f be fd 26 45 3e
       0.032569356 -0.17815882 -0.17144562 0.19253154
000080 e3 ec c0 3d 56 35 ca be 3f 38 88 bc 8f b8 45 3b
       0.094201826 -0.39493817 -0.016628383 0.003016982
000090 4f be ae be 14 70 91 bd fc ed bd bd 98 05 57 bd
       -0.3412957 -0.07101455 -0.092739075 -0.05249557
0000a0 fd a7 48 be ee 52 b0 be 37 3c 62 bd 75 57 ac 3d
       -0.19595332 -0.3443827 -0.055233207 0.084151186
0000b0 19 e4 85 3e 2f 4a a1 3d 8c f8 12 be 67 ed 2b 3e
       0.26150587 0.078754775 -0.14352626 0.1678978
0000c0 82 53 87 3d 9b 0a b5 bd a8 5d 9b bd 11 25 71 3d
       0.06607725 -0.088399135 -0.07586223 0.05887324
0000d0 6b 36 10 3f f9 e1 54 3d dd bb 9e 3c 68 a3 2f be
       0.56333035 0.051973317 0.01937669 -0.17152178
0000e0 d2 6c 90 3e 4e 3b 5d 3d 43 6c 87 3d 8d 11 03 3e
       0.28208023 0.054011635 0.06612446 0.12799664
0000f0 37 93 53 bc 98 d9 41 3e e2 1f 13 3e dc 77 03 bf
       -0.012913517 0.18930662 0.14367631 -0.51354766
000100 65 99 6b be 54 e2 35 bc db b5 e8 bd 47 b9 55 bd
       -0.23007734 -0.011101324 -0.11362811 -0.052178647
000110 c7 3f 28 be 0e 10 28 3e e5 99 a8 bd e1 38 24 be
       -0.16430579 0.16412374 -0.08232478 -0.16037323
000120 c2 95 c3 bd 0e 3b 05 3e af c1 7a 3e 30 87 01 3e
       -0.095500484 0.13010809 0.24487947 0.12649226
000130 37 f1 cd bd e8 54 2a 3e a2 d8 b9 3c d5 b7 1a be
       -0.10055774 0.16633952 0.022686306 -0.15109189
000140 7f 9b a2 bd 35 bd 2c bc dc fc 8e 3e 46 3c 4e be
       -0.07939815 -0.010543157 0.2792729 -0.2014018
000150 4e 29 24 bd aa 10 4e bd dc 54 6b 3e 66 6f 04 3d
       -0.040078454 -0.05030886 0.2298159 0.0323328
000160 82 3b a9 3d 34 7f 76 be 3e 0c 33 bc 92 8f 58 3e
       0.08263303 -0.24071962 -0.010928212 0.21148518
000170 6c d4 80 bd 58 6e 01 3e b8 e7 92 be 7f db 3b 3c
       -0.06290516 0.12639749 -0.28692412 0.011465906
000180 88 6e 20 3e 7a 4b 18 bf 44 12 20 3f e8 e0 f0 bc
       0.15667164 -0.5949017 0.6252787 -0.029404119
000190 a1 61 98 3c 05 27 f5 bc 8f 03 78 bb 4d c4 0a be
       0.01860124 -0.029925833 -0.0037843918 -0.13551445
0001a0 8c 7f 34 3d 2e 47 d3 bc b5 1d 64 be 0b c3 fc 3d
       0.04406695 -0.025790777 -0.22276957 0.12341889
0001b0 14 14 e1 3d 10 42 8b be 06 0f 6a be 31 39 a1 be
       0.10990158 -0.2719884 -0.22857293 -0.31488946
0001c0 a7 0f 06 3e da 9c b1 3b bd b4 d3 be 97 5a f5 3c
       0.13091908 0.0054203095 -0.4134883 0.029950423
0001d0 13 7a dd 3d 80 27 23 3e ef 42 32 3e 25 72 34 3f
       0.108142994 0.15933037 0.17408346 0.7048667
0001e0 5f 5a e7 3c 7b 81 72 3d b2 4c a0 bd 5d 0d 07 bf
       0.028241334 0.059205513 -0.078271285 -0.52754766
0001f0 9c 7f 06 bf 96 47 17 3b 3f 65 c0 3d 9f a5 e7 bd
       -0.52538466 0.002308344 0.09394311 -0.113108866
000200 db 7c b8 3e c5 f0 0c 3f 7c a7 1b bd fb 21 66 bd
       0.36032757 0.55054885 -0.038001522 -0.05618475
000210 f1 5a 68 3e ab d0 be 3d b4 cd c6 be 0d dc 0c 3e
       0.22690941 0.09317144 -0.38828814 0.13755818
000220 57 21 56 3e ee 03 b8 bd 85 f4 cb be 24 ff 49 3e
       0.20911156 -0.089851245 -0.3983499 0.19726235
000230 51 bd 37 bf 4e ce c4 bd 0b 31 45 3e f2 fc b6 3c
       -0.7177325 -0.09609662 0.1925699 0.02233741
000240 54 4c a0 bb de 58 80 bd f2 ab e2 3c 35 4f a0 be
       -0.0048919115 -0.0626695 0.02766988 -0.3131043
000250 a9 c7 3f be a2 34 88 3e c6 83 ec 3c 63 29 f6 3e
       -0.18728508 0.26602656 0.028871428 0.4807845
000260 6f 22 25 be 63 cd d7 bd 92 ed 1c 3d 8b 66 5f be
       -0.16126417 -0.10537221 0.038312502 -0.21816461
000270 67 90 d8 be 27 fe 93 bc 81 aa a5 3d c6 e2 1b bd
       -0.4229767 -0.018065525 0.08089162 -0.038058065
000280 df bc 03 bd c6 4b 08 be 9d 55 bc be 1c 17 b2 3c
       -0.032162543 -0.13310155 -0.36784068 0.021739535
000290 6f 80 5a 3e 6e 62 ff 3d e5 5e 46 3d 90 23 10 be
       0.21338056 0.12469946 0.048430342 -0.14076066
0002a0 58 84 a4 bc de d0 ee 3e 3e f8 dc bd f1 a0 ab bb
       -0.020082638 0.46643728 -0.10789536 -0.0052376916
0002b0 6f 47 c7 3e 46 49 71 3e 19 b1 f9 bc 71 19 72 3d
       0.38921687 0.23563108 -0.030479955 0.059106294
0002c0 88 14 e9 3d 85 89 7b be ed 11 70 be 92 35 1d 3e
       0.11380869 -0.24564178 -0.23444338 0.15352467
0002d0 3c 6d 96 3d a6 d5 d9 3d 06 05 d9 be c6 07 ab 3e
       0.073450536 0.10636453 -0.42386645 0.33404368
0002e0 48 96 68 3e c3 8c f2 3d 70 81 33 3e bf a1 f7 be
       0.22713578 0.118432544 0.17529845 -0.4836559
0002f0 ed 76 53 bc 14 b5 8b bb 98 71 c0 3c bb b8 bf bd
       -0.012906772 -0.0042635296 0.023491666 -0.093614064
000300 f1 cd f6 bd 65 af 95 3e 25 9c fd 3d 16 05 2a bd
       -0.12050999 0.29235378 0.12383298 -0.041508757
000310 ea c9 82 be 94 44 9f 3c 56 94 c9 bc 6b 2f 68 bd
       -0.25544673 0.01944188 -0.024606865 -0.056685846
000320 57 19 31 bd 70 15 82 bf 4d b1 a8 be 05 8f db 3e
       -0.043237057 -1.0162792 -0.3294777 0.42882553
000330 c6 6b 06 bf f7 38 2d be 5d 4d 17 3e d0 28 aa 3d
       -0.525082 -0.16916262 0.14775605 0.083085656
000340 1c 2d ee 3c 8f 66 99 3b 32 50 2d be 65 5d b9 bd
       0.029074244 0.0046814154 -0.16925123 -0.09051017
000350 b7 e3 26 be d1 00 3d bd 33 9a d5 bd 44 5b d2 bd
       -0.16297804 -0.046143357 -0.10429802 -0.10271314
000360 0b b8 7d be 25 4b 2f 3b b7 ae 3e be 13 5d 21 3e
       -0.24777238 0.002674767 -0.18621336 0.15758161
000370 30 6f 0e bd 95 b6 83 bd 7d 6d dc bd 66 f2 bb bd
       -0.034774005 -0.06431309 -0.10763071 -0.09177093
000380 4e 10 e3 bc af fc fa 3d 84 c1 53 be 79 b0 cc 3c
       -0.027717736 0.12255227 -0.20679289 0.024986492
000390 57 4a 69 3b bf 10 f2 bc d6 3b 18 3c 9b d9 f6 bb
       0.0035597289 -0.029549 0.00929161 -0.007533265
0003a0 e7 a3 d5 bd 6d ce 02 3d 90 01 26 3d 38 95 25 be
       -0.104316525 0.031935144 0.040528834 -0.16170204
0003b0 32 d0 06 3c d5 79 0c be 8e 9f 60 3c 3d 32 2c 3d
       0.008228349 -0.1371835 0.013709916 0.0420401
0003c0 b1 ef 23 be fc c3 f8 bb 02 c1 ed bd ed 76 ae 3d
       -0.16009404 -0.0075917225 -0.11609079 0.08518777
0003d0 0c 09 38 3f 1a 44 4b bd 40 e4 38 be 99 a8 86 bd
       0.71888804 -0.049625494 -0.1805582 -0.06575126
0003e0 87 2d 60 3e e5 24 f4 3e 0f 28 df 3d 2a f5 63 3e
       0.21892367 0.47684398 0.108963124 0.22261491
0003f0 69 8b f1 bd 28 18 93 3e 06 61 5a bd 8e cc 05 3e
       -0.117941685 0.28729367 -0.053315185 0.13066313

fr3_pv.bias f4 [20]
000000 63 b2 83 3e 45 f8 5c 3e 0b 68 5d 3e 53 6e b5 be
       0.25722036 0.21579082 0.2162172 -0.35435733
000010 39 20 29 bc 01 b2 75 bd f9 d8 d6 ba cf d2 9d be
       -0.010322624 -0.05998421 -0.0016391567 -0.30824897
000020 1a 68 11 be 37 43 17 bd 1a 96 f7 3d fe cf 7c 3d
       -0.14199868 -0.036929335 0.120891765 0.061721794
000030 56 68 a0 3e 6b e9 c8 3d f7 33 4d 3e ef b1 c3 bd
       0.31329602 0.09810146 0.20039354 -0.095554225
000040 a3 10 39 3e ae fe db bd b6 96 cb 3d af 05 60 3e
       0.18072753 -0.10741936 0.09940855 0.21877168
