Run3Scouting/ParticleNetAK4/V00/particle-net.onnx (onnx, 924771 bytes, 30 tensors)

fc.0.0.weight f4 [128, 256]
000000 90 70 14 bd 90 43 eb bc dc a5 11 bd 4f 66 4f 3c
       -0.03624016 -0.02871874 -0.035558566 0.01265867
000010 66 06 8f 3c 7e e2 49 bd ca 78 65 3d 2e b0 22 bd
       0.017459106 -0.049288265 0.056023397 -0.0397188
000020 7a 5e 0e 3d dc f7 1b 3d 48 42 98 bd 99 7d c2 bc
       0.03475807 0.038078174 -0.07434517 -0.02374153
000030 b0 bf 2c 3d 04 41 12 3d 50 ca 2a 3d a4 a7 93 bd
       0.042174995 0.035706535 0.041696846 -0.07209709
000040 8a 79 ca 3b 62 55 e8 3b cc 44 cd 3c e8 c7 37 bb
       0.0061790394 0.0070902565 0.025057219 -0.0028042737
000050 22 15 87 bc c4 33 7c 3c e8 0e a9 3c 72 b5 b5 bb
       -0.01648957 0.015393201 0.02063699 -0.0055453116
000060 1b 8a eb 3c 00 ab de 3c a6 cd 33 3c 0e 2e 1f 3c
       0.028752377 0.027181149 0.010974323 0.00971557
000070 f0 36 81 bd 64 f7 9a 3c 84 66 6a bd 49 e0 66 bd
       -0.063093066 0.018916793 -0.057226673 -0.05636624
000080 b4 65 10 bc 5c c3 0e bd d8 e7 6d bd 44 7f 38 bd
       -0.00881331 -0.034854278 -0.05808243 -0.045043245
000090 ec 86 1e 3c 0c a0 68 bb 86 57 a7 bc 4e fa 93 3b
       0.009675723 -0.0035495786 -0.020427477 0.0045159226
0000a0 02 8d cb bc b5 3d 1a bd a1 ea 92 bc 0e 51 2a bd
       -0.024847511 -0.037656505 -0.017934145 -0.041581206
0000b0 88 cf 50 3c e4 63 39 3c 54 92 1b 3d c6 79 60 bd
       0.012744792 0.01131532 0.037981346 -0.054803632
0000c0 2e 91 e8 3c 7c a4 2c 3d 5d 0a 88 bd bb 61 6f bd
       0.02838954 0.042149052 -0.06642602 -0.058442812
0000d0 50 dc 3d 3d 7c ce 4c bd 23 1e 4d bd 1e 8a 06 3c
       0.046352684 -0.050001606 -0.05007757 0.008211641
0000e0 30 e9 69 bd 97 4b eb 3a 6b e4 8a bc 78 fc 46 bd
       -0.05710715 0.0017951605 -0.016954621 -0.048580617
0000f0 fe ec 7c 3c 7e 80 1f bd a1 09 b2 3c 34 97 5e 3d
       0.015437363 -0.0389409 0.021733107 0.054343417
000100 94 7f 4d bd 46 a9 11 bd 52 4b fc 3b 15 a7 05 bd
       -0.050170496 -0.035561822 0.0076994086 -0.032630045
000110 a0 5e 19 bd 58 03 26 bd ed b7 a9 3c 58 47 0b 3d
       -0.037443757 -0.040530533 0.020717585 0.034003586
000120 2a ed 28 3d 71 41 88 bd 34 ae 1d ba 74 9a 3a bd
       0.041241802 -0.06653107 -0.0006015033 -0.045557454
000130 2a bc 02 3c ba 3c 16 bd 5c 7f 84 3c 9c af d6 bc
       0.007979432 -0.036679007 0.016174011 -0.026206784
000140 08 58 04 bb c2 91 0d bd 48 f0 26 bc ac 2b a7 ba
       -0.0020194072 -0.034562834 -0.010189123 -0.0012754104
000150 b0 99 53 bd 3a 85 21 bd 76 5b fa bc f6 98 60 bd
       -0.05166024 -0.039433695 -0.03056119 -0.054833375
000160 c8 06 08 3a b9 15 11 bd 8a b7 0a bd 73 a6 43 3d
       0.0005188999 -0.035421107 -0.033866443 0.04776616
000170 00 4b 43 3d d9 81 35 bd ee e5 68 bc 94 d0 df bc
       0.047678947 -0.044313285 -0.014214976 -0.027321137
000180 75 23 72 bd 44 21 62 3d 24 41 8f bd 54 45 79 bd
       -0.059115846 0.055207506 -0.069948465 -0.060857132
000190 ac d7 80 bd 24 7d cc bc 1c a0 74 bd 5e 9b f9 bc
       -0.06291136 -0.024962015 -0.059723005 -0.030469593
0001a0 9a 01 4e bd fc 78 32 ba d2 68 3d 3d ee 1e a0 3c
       -0.050294496 -0.0006808189 0.046242543 0.019545998
0001b0 1e 6d 02 bd d0 ab 7a 3c cc 86 e2 bc 2d b8 5b 3d
       -0.031842344 0.015299752 -0.027652167 0.05364244
0001c0 89 5f 20 3c 22 1e 9d bd f2 57 17 bd c6 42 34 bd
       0.009788402 -0.07671763 -0.036949106 -0.044008993
0001d0 0c a0 31 bd 00 b6 47 bd a0 6c 48 3d c6 b1 1c bd
       -0.043365523 -0.048757553 0.048931718 -0.038255475
0001e0 fb ee 19 3c d3 40 38 bd 97 1a 45 3c c8 2f 80 bc
       0.009395356 -0.044983696 0.012030265 -0.015647784
0001f0 ac 81 25 3d ac ef a8 bc b6 c5 6e 3c 92 71 06 3c
       0.040406868 -0.020622097 0.014573505 0.008205788
000200 66 00 fc 3c 20 f7 c9 3c 30 7c 3a bd b0 6e 43 bd
       0.030761909 0.024653971 -0.04552859 -0.04771298
000210 42 57 d6 3c f0 17 09 bd 52 a6 41 3c e7 fe 6c bd
       0.026164655 -0.033470094 0.011819439 -0.05786028
000220 e9 1e 13 bd 78 c4 c6 3b 1c d9 d1 3c 6b 24 6c bc
       -0.03591815 0.0060659014 0.025616221 -0.01441298
000230 c8 02 04 3c a4 b7 3e bd 46 8a 21 3d f4 75 22 3d
       0.008057304 -0.046561852 0.03943851 0.03966327
000240 56 1e 62 bd d1 94 1e bb 02 86 0d 3d 3e 9c 7d 3c
       -0.05520471 -0.0024197588 0.034551628 0.015479146
000250 ec ed 89 bd dc f9 79 bd ca cd 86 bd ba 2b 00 bd
       -0.06734833 -0.0610293 -0.0658222 -0.0312917
000260 d6 58 d3 ba b4 16 cf bc 2f a3 a7 bc 16 5a e0 3b
       -0.0016124498 -0.02527938 -0.020463554 0.0068466766
000270 a6 dd b0 3c 44 94 0c 3d 3a 28 cd 3c 70 b1 90 bd
       0.021590065 0.034321085 0.025043596 -0.070650935
000280 b8 c4 e2 3c ad c3 83 bd f7 0f 98 bd ba 7b ce 3c
       0.027681693 -0.064338066 -0.0742492 0.025205482
000290 f6 22 37 3d 46 f1 7d bc 07 52 f6 bc a4 68 7a 3b
       0.044711076 -0.015499419 -0.03006841 0.0038209343
0002a0 d7 b5 0f 3c b8 f7 81 3b ac 30 e2 3b a7 0a 49 bd
       0.008771381 0.003966298 0.006902775 -0.049082424
0002b0 ba e9 7d bd 82 1a 7c bc 95 42 45 bd 10 31 8f bd
       -0.061990477 -0.015387179 -0.0481592 -0.0699178
0002c0 81 d7 fc 3b e0 91 4e 3d 5c aa f8 3c e4 ee 54 3d
       0.0077161198 0.050432086 0.030354671 0.051985636
0002d0 e8 b2 f8 bc 76 61 1d 3d a8 30 31 3b fe 85 9e bc
       -0.030358747 0.038423024 0.0027037058 -0.019351002
0002e0 8c a3 7c bd 0e 67 7b bc fc 59 40 3c e8 c7 c4 3c
       -0.061679408 -0.015344394 0.011740204 0.024021104
0002f0 f6 54 04 bc f8 86 b3 3c 82 4b 5b 3d b6 ae cf bc
       -0.008076897 0.021914944 0.053538807 -0.025351863
000300 f2 bf 5f bd 13 fd e0 39 ea 26 5d bd 48 ee e8 3c
       -0.054626413 0.00042913164 -0.05399219 0.028433934
000310 9a d8 a0 3c 22 04 02 bd f4 f9 92 ba 66 94 38 3d
       0.019634534 -0.031742223 -0.0011213408 0.0450634
000320 25 fd 93 bd 04 e8 b7 3b 7e 0f c5 bc d8 ef 74 bd
       -0.07226018 0.005612375 -0.024055239 -0.059799045
000330 86 9c 01 bc ea 7a 0e 3d a6 83 d1 bc 30 87 93 3c
       -0.007910853 0.03478519 -0.02557547 0.018008798
000340 23 9a a2 bc 3e d4 38 3d 29 34 3b bd f2 d2 18 3d
       -0.019848889 0.045124285 -0.04570404 0.037310548
000350 a6 3f 76 bd b8 68 e8 bc 06 d3 36 bd a1 04 8f bd
       -0.060119294 -0.028370246 -0.04463484 -0.06983305
000360 c2 3b 40 3d f4 1b 98 bd ca 10 fd 3b d0 79 39 3d
       0.04693199 -0.07427207 0.0077229487 0.045282185
000370 a8 e9 3c bd 56 fe 41 3d 87 9a f3 3c 2c df d2 bc
       -0.04612127 0.047361694 0.02973677 -0.025741182
000380 8c f7 9b 3c f0 87 29 3c 9a fd 43 3d f1 f8 66 bd
       0.019038938 0.010347351 0.047849275 -0.056389753
000390 f2 e5 81 bd 04 c5 4d bd f2 9e 96 3c b2 d1 60 ba
       -0.06342687 -0.050236717 0.018386338 -0.0008576169
0003a0 38 3e 4f 3c 8a 26 45 bd 8a cd ab bb 99 14 76 bd
       0.012649111 -0.048132457 -0.005243008 -0.060078237
0003b0 38 55 0d 3d ed c8 19 bc 57 31 78 3c 06 03 82 bc
       0.0345051 -0.009386283 0.015148482 -0.015870582
0003c0 a6 62 2c 3d 9c a1 01 3d 7f bc c4 3c 60 b0 5b bd
       0.042086266 0.031648263 0.024015663 -0.053635
0003d0 0c f6 52 bb 2e b6 3c 3d 3a f2 f4 bc e6 94 1d bd
       -0.0032190112 0.046072178 -0.029900659 -0.03847208
0003e0 5d 9a 9c ba d7 2e dc 3b 64 ce 0c 3d e4 32 3e bd
       -0.0011947859 0.006719451 0.034376517 -0.04643525
0003f0 6e f5 32 bd 78 c5 57 3c 96 a0 2d bd 9c 5b 5f 3c
       -0.04369109 0.013169639 -0.042389475 0.013632681

fc.0.0.bias f4 [128]
000000 8e 27 86 bd bf 2a 75 bd ae 74 95 bd 12 cc 69 bd
       -0.06550513 -0.05985522 -0.072976455 -0.057079382
000010 24 d8 97 bd 3c 75 ca 3d 1c 79 3c 3e b2 7c 9e 39
       -0.074142724 0.09885642 0.18405575 0.00030229014
000020 8b ab d4 3d d0 f3 95 bd 01 06 d2 bd e3 e8 a8 3d
       0.10384282 -0.07321894 -0.102550514 0.082475446
000030 4a 21 9a bd 08 55 5e bd a4 a7 90 be d0 c7 ec bc
       -0.07525881 -0.05428031 -0.282529 -0.028903872
000040 4c 1b ba bd ee 4b 8c bd 32 0b 15 bd bd 3c 0e 3e
       -0.09087238 -0.0685042 -0.03638763 0.13890357
000050 e8 11 93 bd 03 da b0 3e 8f 0a 1b 3e b0 b1 c6 bd
       -0.0718115 0.3454133 0.15140747 -0.0970186
000060 02 27 c0 bd 26 ff 9b bd 4c 77 41 3e 37 68 95 3d
       -0.0938244 -0.07617025 0.18893164 0.07295268
000070 37 48 cd bd 0b 57 cc 3d 5c 40 9f bd 4f 8a 07 bf
       -0.100235395 0.0997754 -0.077759475 -0.5294542
000080 d0 3c b8 bd 9e f9 05 3e e6 7e c1 be 7e 86 02 be
       -0.08995974 0.13083503 -0.37792128 -0.12746617
000090 14 ed 01 bd b0 85 e8 bd 74 15 3d bd da ee 9e bd
       -0.031720236 -0.11353624 -0.046163037 -0.07760401
0000a0 6e 65 2d bd d4 19 78 bd c7 d1 6c 3c 9e 72 83 bd
       -0.04233306 -0.060571507 0.014454312 -0.06418346
0000b0 64 59 a5 bd df a4 11 bd ab 32 41 bd a8 3f a9 bd
       -0.080736905 -0.035557624 -0.04716746 -0.082640946
0000c0 f3 5a 11 bf 3c c8 aa bd c8 b6 8e 3d 38 94 91 3c
       -0.567794 -0.08338973 0.069684565 0.017770872
0000d0 0d 35 7c bd 74 5a 08 be c0 33 97 bc a8 f0 d9 3d
       -0.06157403 -0.13315755 -0.018457294 0.10641605
0000e0 67 b2 d6 bd cc b3 60 bd c0 5a 50 3e 77 cd 98 bd
       -0.10483246 -0.054858968 0.20347118 -0.07461064
0000f0 40 bd 80 3e ee c3 b8 3d cb fb 82 be 52 dc f9 bd
       0.25144386 0.090217456 -0.25582728 -0.12200226
000100 2e 59 47 be 26 71 d1 bd 32 1f 04 be 80 e2 17 be
       -0.19467613 -0.102266595 -0.12902525 -0.14832497
000110 c0 61 20 be c3 ac ab 3c 30 22 d1 bd f8 c7 4b 3e
       -0.15662289 0.020956403 -0.10211599 0.19900501
000120 e0 12 c0 3d 4c b1 db bd 54 52 85 bd 6f a4 61 3d
       0.093786 -0.10727176 -0.065098435 0.055088457
000130 01 1d 89 bd 4a a3 96 bd 13 a5 ae 3d d0 ca 3c 3d
       -0.06694985 -0.07355364 0.08527579 0.046091855
000140 21 84 93 bc fe af 6e 3e be 2a a2 bd 4e 26 0f be
       -0.01800734 0.23309323 -0.07918309 -0.13979456
000150 35 75 97 3e 52 30 8a bd a8 6d 52 bd 76 3a 4d bd
       0.2958161 -0.067474976 -0.051374108 -0.05010458
000160 af 19 11 bd 30 7a 85 bd ac 4b f6 bd d8 1f 9f 3e
       -0.035424884 -0.06517446 -0.12026152 0.31078982
000170 e9 98 a3 bd e4 be 54 bd 30 33 9f bd 8a 21 2b bf
       -0.0798815 -0.05193986 -0.07773435 -0.6684805
000180 02 98 b1 bd 65 bf 5f 3d 85 4b 86 bd 7f c0 f8 3d
       -0.08671571 0.054625887 -0.06557373 0.12146091
000190 00 75 c5 bd 6e 29 2d 3e 3d e8 15 bd b5 d9 33 3c
       -0.096414566 0.16910335 -0.036598433 0.010977198
0001a0 8e ff a7 bd 8c 36 5b bd 43 e9 46 3e 4a 06 ac bd
       -0.0820304 -0.053518817 0.1942492 -0.08399637
0001b0 f3 95 89 bd 8e e9 09 3d 5d ea 3e 3e 6a 93 a0 bd
       -0.06718054 0.03367 0.1864409 -0.07840617
0001c0 6e d6 50 3e 1e ad 22 bd 8c df 82 bd 8e 31 25 bd
       0.20394298 -0.03971588 -0.063902944 -0.040330462
0001d0 8d 9c 7f 3c a5 58 da 3d 3a da 69 bd 93 55 92 3c
       0.015601289 0.10661439 -0.057092883 0.01786307
0001e0 08 69 c3 bd 3c da 9b bd 12 d9 c8 bd 47 af 2b bd
       -0.095415175 -0.07609984 -0.09807028 -0.041915204
0001f0 24 6d ba bd 98 01 99 3d 25 51 36 3e f3 26 12 bd
       -0.09102848 0.07471007 0.17804392 -0.035681676

fc.1.weight f4 [7, 128]
000000 f6 26 d6 bc cc 6b 73 3d be ee 90 3d c8 cb 66 3c
       -0.026141625 0.059428975 0.070767865 0.014086671
000010 16 da 32 bd c2 5c 9e 3d c3 81 97 3e c0 a7 20 3d
       -0.043665014 0.07732536 0.29591188 0.03922248
000020 cd 51 87 3e 58 56 35 3d cc 03 4e bd 04 41 6d be
       0.26429597 0.044271797 -0.05029659 -0.23169333
000030 84 2f cc 3c 36 f9 6f 3c 2f 0b 42 bf 60 de 6e bd
       0.024925001 0.014646819 -0.75798315 -0.058317542
000040 8e b6 24 bc 8a 5b e3 bc 90 c2 06 bd 0e 61 ce 3d
       -0.01005329 -0.02775361 -0.032900393 0.100771055
000050 e8 20 d9 3c 98 82 1a be ea d5 f3 bb 7c ac 98 bd
       0.026504949 -0.1508888 -0.007441272 -0.07454774
000060 40 f3 c0 3b ac 1d 81 bd cd 67 c2 be 01 d2 ac bd
       0.0058883727 -0.063044876 -0.3796982 -0.084384926
000070 8d 76 60 bd a0 de 96 be 7a 8d 38 3d 29 f9 76 3f
       -0.05480056 -0.29466724 0.045056798 0.9647394
000080 66 41 10 bd d1 a8 d3 3d 82 5a fe be b4 cd 38 bd
       -0.03521862 0.103349335 -0.49678427 -0.04511805
000090 2a 3b 13 3d f8 39 89 3d 4c 7e 58 bd e4 8c 3d 3d
       0.035945095 0.0670051 -0.05285482 0.046276942
0000a0 52 62 9d bd 98 f4 d5 3b 5c df 66 bf 98 aa 78 bb
       -0.07684769 0.006529402 -0.9018457 -0.0037943479
0000b0 18 18 e9 3a b9 7a d2 be 57 fc 00 3e b6 23 2f 3d
       0.001778367 -0.41109255 0.1259626 0.042758666
0000c0 56 2e 18 bf 0c 64 84 bd d6 ba d0 bd c1 a5 12 be
       -0.59445703 -0.06464395 -0.10191886 -0.14321043
0000d0 f6 28 8a 3d dc 87 39 bd 4d f5 ca be 7f 23 da 3e
       0.06746094 -0.04529558 -0.39640275 0.42605206
0000e0 28 9f a4 bc 01 e3 3d 3c 35 ed 88 3e 47 cd 50 bb
       -0.020095423 0.0115897665 0.26743475 -0.0031860636
0000f0 bd 20 34 3e 65 3f 30 3c cc 59 6a bc c5 1b b0 be
       0.17590614 0.010757302 -0.014303636 -0.34396186
000100 82 e5 f8 3b 09 45 43 bd 20 45 05 be 10 17 87 bc
       0.007595719 -0.04767326 -0.1301465 -0.01649049
000110 e9 d7 e9 bd 66 fa 85 3d fa ad 02 3d b1 67 42 3e
       -0.11418135 0.065419 0.0319042 0.18984868
000120 11 da 81 3e ea ed ab 3d ba 98 14 3d fa 1a ea bd
       0.25361684 0.08394988 0.036278464 -0.114309266
000130 d6 6f 76 3c 70 8e fe 3b df 61 8b be 9a 74 c3 3b
       0.015041312 0.0077684447 -0.27223107 0.0059648277
000140 e9 91 2f be 6c 85 57 3e ba 1b 47 3d da 77 25 3d
       -0.17145504 0.2104699 0.048610426 0.040397502
000150 ef 3e a8 3d 52 70 2c bd cc fa 38 bc ea 3b b5 3c
       0.08215129 -0.042099304 -0.011290263 0.022123296
000160 49 92 16 3f 04 8c 4d 3d fa 6a 19 bd 81 e2 62 3e
       0.58816963 0.050182357 -0.037455536 0.22156717
000170 51 48 8e bc 92 29 c3 39 cd a4 3c bd 9b f3 0a bf
       -0.017368468 0.0003722427 -0.046055604 -0.5427796
000180 8a e5 13 bd a8 35 b9 3d e8 4c 23 ba af 11 4c be
       -0.036107577 0.09043437 -0.00062294165 -0.19928621
000190 46 90 4e bd 48 25 ce 3d a8 ca 92 bd 2b db 5d 3e
       -0.05043056 0.100657046 -0.0716756 0.21665637
0001a0 fc 0c 97 bc ac da 9f 3c 0b 39 1c 3e 94 8f 61 3d
       -0.018438809 0.01951345 0.15256135 0.055068567
0001b0 2a ca 34 3d 8d 89 40 be 56 39 4e 3e f6 71 25 be
       0.04413811 -0.18802471 0.2013906 -0.16156754
0001c0 fb 10 40 3c 2b 0f a0 3d bd 17 76 bd 1a 97 c8 3d
       0.011722798 0.07815393 -0.060081232 0.09794445
0001d0 d2 f3 f0 bd 7a 2d 6e 3e 7a 93 a1 bb e5 93 80 be
       -0.11765255 0.23259535 -0.0049309107 -0.25112835
0001e0 6d 59 b4 bc f6 6b 2f bd 17 cd 22 bc 92 f4 eb bd
       -0.022015298 -0.04282757 -0.009936593 -0.115212575
0001f0 3c a3 8a 3c 38 12 99 bd f3 eb 47 3e 12 26 48 bc
       0.01692354 -0.07474178 0.19523601 -0.012216108
000200 c8 da 07 bd de 85 92 b6 7e 3a 38 3d 0c 3d 94 3d
       -0.03316763 -4.3667233e-06 0.044977657 0.07238206
000210 52 47 2c bd a5 76 2c 3f 3f 0b d0 3e 4a 0d ba 3d
       -0.042060204 0.6736854 0.4063358 0.09084566
000220 72 d9 95 be ee 57 a2 bd 36 5b ce bd 6b de 94 bd
       -0.2926746 -0.079269275 -0.10075991 -0.07268985
000230 7b b8 9f 3d 40 d1 db 3c be 62 52 3e 06 d6 80 3d
       0.07798859 0.026833177 0.2054548 0.06290822
000240 4a e7 6c bd 0d 11 ad 3c 69 92 0d 3c 4b 64 cc 3e
       -0.057837762 0.021126295 0.008640864 0.39920267
000250 70 8e c1 3d d6 af e5 3e f5 fd a1 bd 88 3c ec 3b
       0.09450996 0.44860715 -0.079097666 0.0072093643
000260 70 36 c3 3c 04 02 bf 3c 59 7e e6 3e 92 74 7b be
       0.023829669 0.02331639 0.4501827 -0.24556187
000270 c8 68 04 bf d8 50 c4 3e d2 c8 86 3d f0 12 8c bf
       -0.51722383 0.3834293 0.06581272 -1.0943279
000280 ae c1 99 3c 1b 14 8f bf 72 48 ae 3d da f6 1e 3c
       0.018769111 -1.1178011 0.085099116 0.009702409
000290 39 34 80 bd c8 f0 66 bd bc eb 4b bc da 77 b4 bd
       -0.06259961 -0.05638197 -0.01244634 -0.08811922
0002a0 46 2a 64 bd aa 91 67 bd 4a c2 fb 3e d2 f1 b1 3a
       -0.055704378 -0.0565354 0.49171668 0.0013576096
0002b0 ba 5f 83 3b 85 3f a9 3e 17 35 2f bf ae 67 04 3d
       0.004009214 0.33056274 -0.68440384 0.03232544
0002c0 7d 21 c3 be 66 60 70 39 30 b5 e7 be a7 91 a3 be
       -0.38111487 0.00022924095 -0.45255423 -0.3194706
0002d0 ca 52 59 3d 53 4b 7b bd 5e 83 86 3e 6a b7 97 bf
       0.05305747 -0.06135113 0.262721 -1.1852849
0002e0 ac b8 f8 bd 1e c5 1b bd 22 85 20 3f 30 17 5d bd
       -0.12144598 -0.038029782 0.62703145 -0.05397719
0002f0 d6 fa 19 bf e3 1a 5a bf 05 1e 6a bf 94 1f dd 3e
       -0.6014837 -0.85197276 -0.91452056 0.43188155
000300 5e c1 c5 3d e8 19 2d 3c 8c 58 59 3d 02 b6 ef 3d
       0.096560225 0.010565259 0.05306296 0.11704637
000310 62 58 c1 3e 5c b6 0a 3f 0e 88 5a bd 85 3b db be
       0.37762743 0.5418451 -0.053352408 -0.42818847
000320 29 10 36 bf b2 41 84 3d 1b ab 2e 3d 71 f5 12 be
       -0.7111841 0.06457843 0.042643648 -0.14351441
000330 70 6a af bc 92 79 27 3c 81 53 e4 3e cb 08 9d be
       -0.021413058 0.010221856 0.44594958 -0.3067077
000340 7b c4 06 bf 1e d3 bf be 57 b7 08 3d 6c 90 82 3d
       -0.52643555 -0.37465757 0.03337797 0.063752025
000350 e1 5b c6 3e 33 47 ce 3c c4 d8 06 3d 00 c9 b4 bd
       0.38741973 0.025180435 0.032921568 -0.088274
000360 f4 79 34 bf e4 b2 c1 3b 88 f1 7f bc 4a 78 f6 be
       -0.70498586 0.005911218 -0.01562155 -0.48138648
000370 ac db 6e bd e4 a4 8a 3d 84 07 62 bd 71 f3 86 bf
       -0.058314964 0.06769732 -0.05518295 -1.0543042
000380 26 1d 0b 3e a5 38 d8 be 89 c5 89 3d dd 6e 7f be
       0.13585338 -0.42230716 0.0672713 -0.24944635
000390 10 df 7e bd 1a 53 bd 3e 64 6a 8c bd 91 55 1c 3e
       -0.062224448 0.36977464 -0.0685623 0.15267016
0003a0 1a 7d 20 3d 84 16 81 3d 6c 88 79 bf 30 43 72 bd
       0.039181806 0.06303123 -0.9747379 -0.059146106
0003b0 7e b6 93 3d 07 89 34 be 05 2c f1 be 4d f4 49 be
       0.07212542 -0.17630397 -0.47103897 -0.197221
0003c0 0e b3 d1 be 94 60 fc 3b 4a ca c6 bd 44 6f ab bc
       -0.4095692 0.0077019427 -0.09706552 -0.020927079
0003d0 4a 29 25 bf bc d3 a8 be 3e a1 d6 3d 4c f0 96 bd
       -0.6451613 -0.3297404 0.10479973 -0.07370052
0003e0 00 10 3f 3c 6e b7 a8 3d b6 df 8a 3c 5e 2a 36 3e
       0.01166153 0.082381114 0.016952377 0.177896
0003f0 90 f5 03 bd 65 06 35 be 25 7e bc 3e 96 dc e1 bc
       -0.03221661 -0.1767822 0.3681499 -0.027571004

fc.1.bias f4 [7]
000000 47 bf 02 bf 3b b8 12 c0 be 4a 0e bf c3 d3 f6 bf
       -0.51073116 -2.2924945 -0.555828 -1.9283375
000010 03 de e8 3e c6 9a 96 3f 88 02 2a c1
       0.45481881 1.1765983 -10.625618

405 f4 [64, 42, 1, 1]
000000 27 7a d8 3e 51 45 26 bf 95 bc 3f 3e 47 cc cb 3d
       0.42280695 -0.6494952 0.18724282 0.09951072
000010 43 52 cf bf 42 67 5a be f3 c9 80 3c 64 a3 db 3d
       -1.6196979 -0.21328452 0.015721297 0.10724524
000020 d9 fb e0 3c 94 ca 8d bf 89 13 84 3f ee 7f 80 3f
       0.02746384 -1.1077447 1.0318462 1.0039041
000030 38 6d 6c 3f 10 50 6c bf 26 2a a3 bd 2a f9 a8 bd
       0.92354155 -0.92309666 -0.079670236 -0.08250649
000040 73 e9 ee bd 66 2e ad 3d d7 68 54 bf c1 75 0e 39
       -0.11665621 0.084561154 -0.8297247 0.00013586042
000050 cc 02 3f bd 24 fa 02 bf ee 8d 22 be f2 79 7c be
       -0.046633527 -0.51162934 -0.15874454 -0.24655893
000060 0e 90 5f 3e 3e 13 6a 3e 90 f7 1c 3f f1 eb f1 bb
       0.21832296 0.22858903 0.6131525 -0.0073828627
000070 28 d5 b5 bf fc e3 97 bd 89 f1 2a 3f db 64 52 bf
       -1.4205675 -0.074165314 0.66774803 -0.82185143
000080 1a 9e d9 be d2 15 d9 be fe 89 ab 3e 70 e1 56 be
       -0.42503434 -0.4239946 0.33503717 -0.20984435
000090 1e f5 24 be cf 66 51 bd 83 32 6d 3d 8b ab 00 bf
       -0.1610913 -0.051123437 0.0579095 -0.50261754
0000a0 86 e0 7c 3d 01 7a 17 3c d2 37 6a bd d4 04 e2 bc
       0.06173756 0.009245397 -0.05718214 -0.027590193
0000b0 71 d4 fd bd b9 40 74 bc e2 66 3b 3d a0 cd 6a 3d
       -0.123940356 -0.014908009 0.045752414 0.057325006
0000c0 ba 27 8c bc 1b 3f 8b 3d 5d 13 29 3d 91 40 ca 3c
       -0.017108787 0.06799146 0.041278232 0.02468899
0000d0 7e 1e 79 3d 67 2f 4b bd a8 01 10 bd b4 3c 3d 3d
       0.060820095 -0.049605753 -0.03515783 0.04620047
0000e0 48 c1 05 bb 4a 90 ae bc 46 1f d1 3c 96 89 44 bd
       -0.0020409394 -0.021309037 0.025527608 -0.047982775
0000f0 0b 09 63 bd 1a 17 76 bb cd 5f 34 3c 7a 2b 1c 3f
       -0.055428546 -0.003755039 0.011009169 0.6100384
000100 aa df 15 3f 10 df d3 3d a8 79 3a 3d b3 0c bc 3d
       0.5854441 0.1034528 0.045526177 0.0918211
000110 83 97 22 3d f7 be 87 3c b1 23 05 3e 4f 77 4c 3e
       0.039695274 0.016570551 0.13001896 0.19967388
000120 b3 19 3c be 60 80 39 3e 67 01 16 3e 7f 3e 17 3e
       -0.18369178 0.18115377 0.14648972 0.14769934
000130 61 ad 17 be 55 b3 07 3c 5b 34 6d ba c8 8e 33 3c
       -0.14812233 0.008282502 -0.0009048634 0.010959335
000140 21 a9 b4 3c 7a 06 47 bd c5 d2 74 3c 0d aa 0c 3c
       0.022053303 -0.04859016 0.0149428295 0.008585465
000150 1a 8b 62 be 24 94 85 3e be 36 23 be 7f be 06 3e
       -0.22123376 0.26089585 -0.15938851 0.13158606
000160 c7 54 08 3f 9f da 84 bc f0 df ae 3c a8 0d 12 be
       0.5325436 -0.016217528 0.021347016 -0.14263022
000170 bf b1 21 3e 02 f4 dc 3d 96 f7 b7 bf 1b 73 6c bd
       0.15790461 0.10788728 -1.4372432 -0.05772696
000180 5a d7 df bc 8f af 02 3e e3 7f c7 3b 38 4c c6 3c
       -0.027324367 0.12762283 0.0060882433 0.024206266
000190 54 37 62 3c a7 3e 25 3d 98 1c 4c 3e aa 43 39 3c
       0.013807137 0.040342953 0.19932783 0.011307636
0001a0 90 3b 63 3b 7a 68 83 3f a2 c6 68 3f 7e 78 f1 3c
       0.0034672953 1.0266259 0.9092809 0.0294764
0001b0 39 37 a1 3c 11 b4 ef 3b 68 9b 2d bb 2e e6 97 3c
       0.019679653 0.0073151668 -0.0026490334 0.018542375
0001c0 a5 03 38 be e8 84 95 be 0a ce 22 bd 02 aa 86 3f
       -0.1797014 -0.29202962 -0.039747275 1.0520632
0001d0 98 04 b5 3d fb bb f4 3d 47 78 96 bd cc 06 50 bd
       0.08838767 0.11949917 -0.0734716 -0.050787732
0001e0 d0 5c 7d bc 35 5b 7a 3c 41 f7 b6 3c a6 1e cf 3c
       -0.015464023 0.0152805345 0.022334697 0.025283169
0001f0 26 10 e6 3b 7d e0 db bc d8 30 21 be 34 c5 30 be
       0.007020968 -0.026840443 -0.15741289 -0.17262727
000200 d4 1f 45 3c 19 f4 81 3d 08 c9 3f be b1 3a 3c 3e
       0.012031514 0.06345386 -0.18729031 0.18381764
000210 f1 6c 85 bc 5c 81 39 bd a3 e3 4f 3d 0e 78 b6 bd
       -0.016287299 -0.045289382 0.0507542 -0.08909617
000220 0a 9f 40 3d f2 f9 c7 3d c2 ad e7 3d 98 8f ee bd
       0.04702667 0.0976447 0.113124385 -0.11648482
000230 14 02 24 3d d9 14 cc 3a 8b fd 39 3b 72 2c 00 3f
       0.040041044 0.0015570178 0.0028379883 0.5006782
000240 52 5a 0d be e9 f2 5c bc d5 4f d1 3c 83 83 c6 bb
       -0.13803986 -0.013485649 0.025550762 -0.006058158
000250 41 f8 e1 bc 28 64 96 3c 2a b0 f7 bd 93 30 b7 3b
       -0.027584197 0.018358305 -0.120941475 0.0055905073
000260 c3 0f 1e 3e 18 cf 01 3c c4 21 2c 3d 1a 16 63 3d
       0.154357 0.00792291 0.04202439 0.055441
000270 9f 2e 38 bd cb 95 13 be 76 fd d3 3b 79 c4 38 3b
       -0.044966336 -0.1441261 0.006469424 0.0028193279
000280 0b f0 9a bc ba a4 8e bc 4d bf 17 3b af fc da 3d
       -0.01891329 -0.017412532 0.0023154796 0.10692727
000290 fe ca 57 be dc 97 a6 3d ca 2c 94 bc 8e 46 9c 3b
       -0.21073529 0.081344336 -0.018087763 0.004769153
0002a0 5a 1f 93 3d 1e 1b d1 bd 20 6f 09 bd d8 60 98 be
       0.07183714 -0.1021025 -0.033553243 -0.29761386
0002b0 a6 62 56 be 9b c0 45 bd fe 86 35 bc fa 75 0a 3e
       -0.20936069 -0.048279386 -0.011079548 0.13521567
0002c0 ea 06 b5 3d 80 88 c1 bd 14 d7 89 be 43 9b 93 3d
       0.088392094 -0.094498634 -0.26921904 0.07207348
0002d0 ea 23 fd 3c 8f fe 0e bd 7f 0b be 3b 03 51 63 bc
       0.030900914 -0.034910735 0.0057997103 -0.013874295
0002e0 19 a5 8e 3c 87 65 61 bc 56 d6 50 bd 76 df ad 3c
       0.01741271 -0.013757116 -0.050985657 0.021224719
0002f0 e8 0e 6b bc fc 23 a3 3d 58 aa af 3b 84 3b 92 3c
       -0.014346816 0.07965848 0.0053608827 0.017850645
000300 1a 1c 86 3d 2b d2 62 be 86 f0 1c bd 60 07 d9 3c
       0.06548329 -0.22150485 -0.03831532 0.026492774
000310 5f 76 9c 3d 1f 74 7f be dd 58 9c bd 92 0c 03 3f
       0.07639765 -0.2494664 -0.07634137 0.51191056
000320 30 f6 b0 3d cb c8 45 3d 17 fd 96 bd b9 9a 21 bf
       0.086407065 0.048287194 -0.07372492 -0.63126713
000330 4e 26 8e 3c 60 49 61 be cd 47 20 bc 15 1a 20 be
       0.01735225 -0.22000647 -0.009782744 -0.1563495
000340 6d 4a 11 bc 8c 61 00 3d c8 01 80 bd 5e 2b 16 bd
       -0.008867842 0.031343028 -0.0625034 -0.036662452
000350 df 22 5f 3d a3 83 57 bd 4b f6 0d 3e a1 e4 75 3c
       0.054476615 -0.052615773 0.13863485 0.015008123
000360 bf 51 79 3c 13 f2 22 39 89 1e d0 bd 06 71 c0 bd
       0.015217244 0.00015539704 -0.10162074 -0.093965575
000370 ef b8 9d 3d 52 f5 df 3d fa 14 c3 3d 03 fc fa bd
       0.07701289 0.10935463 0.09525485 -0.12255099
000380 04 5c 40 be 02 38 67 be 1b dd d1 bc f9 32 1a bd
       -0.18785101 -0.22579959 -0.025618127 -0.037646268
000390 fe 97 e6 bd 9e 1c 1a 3b be 5e cb 3b be ac 0c 3d
       -0.11259459 0.0023515592 0.0062063625 0.034344427
0003a0 38 3d 0c bc 0f f9 b0 bd 51 48 8b 3d dd be b4 bc
       -0.008559518 -0.08641254 0.06800903 -0.022063667
0003b0 ac 5e d5 bd 92 42 8a bc 33 3f b5 3d a3 48 58 3d
       -0.10418448 -0.016877446 0.08849945 0.052803647
0003c0 be 3e 4e 3c b2 82 0d be a3 5a 67 bd 0a 82 88 bd
       0.012588201 -0.13819388 -0.056482922 -0.06665428
0003d0 d0 39 9b 3d 8c 9e b5 bd dd be 5d 3d b2 28 af bc
       0.07579386 -0.08868131 0.0541371 -0.02138171
0003e0 e0 1c 98 3d da 7f ae 3d d2 92 0a 3c db fb b1 3b
       0.074273825 0.085204795 0.008457856 0.005431635
0003f0 4c 7a 0e 3e dc ba e3 bc 69 a2 1f bd d8 a2 dd 3d
       0.1391384 -0.027799062 -0.038973246 0.108220756

406 f4 [64]
000000 de 35 3b 3f 17 e9 12 3f cf 6c 7c bf a3 54 7d be
       0.7312907 0.57386917 -0.9860353 -0.24739318
000010 b1 89 d0 be 0c d1 53 bf 82 bc 1f 3f 1e f3 70 3f
       -0.4073005 -0.82740855 0.62397015 0.9412097
000020 b5 28 93 bf cc 9a 0e 3f 61 b2 7c bf 91 f5 c4 be
       -1.1496798 0.5570495 -0.98709685 -0.38468602
000030 5b 30 c4 be 69 56 04 3e 58 30 2c bf 1a 8e 25 3f
       -0.38318142 0.12923588 -0.67261267 0.64669955
000040 f9 20 1d bf 57 7a 77 be e2 33 3c bf 13 fa 81 bf
       -0.6137844 -0.24167763 -0.73516667 -1.0154442
000050 9a a2 67 bf 01 51 5d be f7 af 22 bf 40 d6 6b bd
       -0.90482485 -0.21612932 -0.6354975 -0.05757737
000060 89 ca 05 bf 8b ce 77 bf eb d3 8c 3e 94 51 72 bf
       -0.5226217 -0.96799535 0.2750543 -0.9465573
000070 f1 81 9b bf 1e 60 11 bf dc cb d8 3e 5c f4 0a 3e
       -1.214903 -0.5678729 0.42343032 0.13569778
000080 f0 87 67 3e fb 75 fa be dc 28 06 3f ff 3e c4 3e
       0.2261045 -0.48918137 0.52406096 0.38329312
000090 99 f1 ff be ed 35 97 3e 5f e3 12 bf e3 24 96 bd
       -0.49989012 0.2953333 -0.5737819 -0.07331254
0000a0 48 f2 63 bc 34 72 22 3f 73 dc 46 bf 2e ac 0b bf
       -0.013912745 0.6345551 -0.7768013 -0.545596
0000b0 f2 a0 63 bf c6 50 2a bf 54 3c de 3e 29 fd 39 bf
       -0.8891746 -0.665295 0.43405402 -0.72651917
0000c0 0e 56 b2 be 34 d4 8e bf 5e b5 ad 3e 72 fe 97 3e
       -0.3483128 -1.1158509 0.33927435 0.29686314
0000d0 77 70 8e bf 3b 3e d3 bf d5 ab 3a 3f b9 ff 55 bf
       -1.1128072 -1.6503366 0.72918445 -0.83593327
0000e0 9e 81 6c 3e 17 0f 3e bf 57 62 b9 bf bb b5 b5 3e
       0.2309632 -0.74241775 -1.4483136 0.35490212
0000f0 f3 2f 91 bf 42 9e 42 bf 71 45 7c bf f0 e2 42 3f
       -1.1342758 -0.7602273 -0.9854346 0.7612753

408 f4 [64, 64, 1, 1]
000000 63 0e 15 bf 56 65 66 3e 8f 14 f6 bc 99 af 8e 3e
       -0.5822508 0.22499594 -0.0300391 0.27868345
000010 b5 8b 8d 3e e3 b4 ec be 4d 1e b4 3d c8 c0 cb 3d
       0.2764565 -0.46231756 0.08794842 0.099488795
000020 2c a6 3b be 3f ce 4f 3e e2 6f 7a bf c3 af f3 bc
       -0.18325108 0.2029352 -0.9782697 -0.029746896
000030 7a 87 a0 3b 11 84 03 3f e4 63 9e be aa da 5a 3d
       0.0048989626 0.5137339 -0.30935585 0.05343119
000040 36 45 b4 be 8d 39 d3 be 61 c8 a4 3e 97 f6 7b 3e
       -0.35209054 -0.41254845 0.32184127 0.24605785
000050 f7 43 b4 bd b3 9c 3f be 90 5e 96 be 4f 54 78 3e
       -0.08802026 -0.1871212 -0.2936902 0.24250911
000060 bb d4 23 3e 0e aa 04 bc 5c 47 99 3e 5b 83 d9 3e
       0.15999119 -0.008097185 0.29937255 0.4248303
000070 c1 20 62 bf 62 0e c7 3e 3a 5d 5c 3e ac 44 01 bc
       -0.8833123 0.3887816 0.21519938 -0.007889908
000080 29 18 09 bf 33 e1 59 be 36 d8 11 3e e8 19 61 3d
       -0.5355249 -0.21277313 0.14242634 0.054956347
000090 6c 49 1d 3f 60 c1 aa 3d 65 ea a5 3e 92 4d 9f 3d
       0.6144016 0.083376646 0.3240539 0.07778467
0000a0 fd b5 fb 3d ee 67 29 be 85 f0 8b bd 53 39 79 3b
       0.12290571 -0.16543552 -0.06832985 0.0038028553
0000b0 71 2e 63 3e 4b 5f ce bb d1 9e 24 bd 35 59 b0 be
       0.22185685 -0.006297981 -0.04019052 -0.3444306
0000c0 0f c2 45 3e 32 25 08 3e 4a 51 2e 3d 7b 56 62 3d
       0.19312309 0.13295439 0.042557992 0.055258255
0000d0 70 a5 db 3e 2c 7c 9d bd b5 33 d0 3d 65 bb 52 bf
       0.42899656 -0.076896995 0.10166112 -0.8231719
0000e0 e0 20 ff bd 95 92 15 be b6 42 d6 3c f7 0c a3 3e
       -0.12457442 -0.14606698 0.026154857 0.3184583
0000f0 1d 02 dd 3e 99 03 a4 3d 8a 8b a6 3e 63 71 0f 3b
       0.43165675 0.08008499 0.32528335 0.0021887652
000100 2c 73 7a bd 72 e7 dc 3d c7 e3 bd 3d a9 71 03 3e
       -0.061144993 0.10786332 0.09271961 0.12836327
000110 39 a2 32 3e 09 bc 6d 3e 46 b6 02 3e cc 53 ac bd
       0.17444696 0.23216261 0.12764844 -0.084144205
000120 fb a4 63 3d f9 1b 44 3a ac 48 d6 3c c7 32 93 3c
       0.05557726 0.0007480975 0.0261577 0.017968548
000130 fa b1 90 3d 86 d2 21 3e a2 48 34 be be 12 2e bd
       0.07065196 0.15802965 -0.17605832 -0.042498343
000140 81 d8 1a be 46 ef c9 be 2c 7f 32 3e 85 34 34 3e
       -0.15121652 -0.39440364 0.17431325 0.1759816
000150 eb 95 f3 3d 45 20 af bd 67 74 a4 be 93 0e 7b 3d
       0.11893829 -0.08551077 -0.32120058 0.061293196
000160 e8 e6 a2 3e a4 50 a5 3e 89 47 40 3e 96 4c 04 3e
       0.31816792 0.32288086 0.18777288 0.1291984
000170 6e 95 c8 bd 81 17 73 3e da 67 1b be 15 cc d5 bc
       -0.097941265 0.23739435 -0.15176335 -0.02609829
000180 e3 28 ca be f3 48 b4 be b5 cd 1d 3e a3 a8 33 be
       -0.3948432 -0.35211906 0.15410502 -0.17544799
000190 97 2a a6 3e f8 b0 5c 3d 94 8b 5f 3e 0f 56 87 3e
       0.32454368 0.053879708 0.21830589 0.26432845
0001a0 a9 db ba bd a3 12 ba be 7b b0 8c 3d 6a 6d 19 bc
       -0.09123928 -0.36342344 0.068695985 -0.009364465
0001b0 57 97 45 3e cf 43 be 3b db ba 28 3c 9b f3 68 3e
       0.19296013 0.0058064233 0.010298456 0.22749178
0001c0 68 d1 17 3e 79 ac 10 be 49 2c c3 3d ad e9 d7 3d
       0.14825976 -0.14128293 0.09529931 0.10542617
0001d0 c3 c7 cc 3d 7d 1d 92 3d b9 82 e0 3d f0 32 ba bc
       0.09999039 0.07134531 0.10962433 -0.022729367
0001e0 5d 69 e8 3d 97 b8 b1 bc 1f c8 a8 3e 32 b6 76 3e
       0.113482215 -0.021694465 0.3296518 0.2409294
0001f0 94 0a 69 3e 40 e4 ce 3d f2 94 f0 3d 4e ef 9c be
       0.22757941 0.10102129 0.11747159 -0.30651325
000200 ff 9f 52 bf b0 c4 6c 3d 73 17 64 bc c6 40 8a 3e
       -0.82275385 0.057804763 -0.013921606 0.27002543
000210 2f 0f 92 3d e4 d4 1f bc 45 f7 d9 bd 42 89 1f 3d
       0.07131802 -0.009755347 -0.10642866 0.03894926
000220 af 43 92 bd 39 5f 8f 3d 75 f3 8e be e0 44 ec 3d
       -0.07141816 0.07000584 -0.27920118 0.11536574
000230 37 ee 1f be 13 73 fd 3d 5a 53 a2 3d 74 3e fa 3d
       -0.15618216 0.12375464 0.07926054 0.12218943
000240 18 e0 3d 3c 9b 68 31 bf 86 74 24 3e b4 8f 92 3c
       0.011589073 -0.6930024 0.16060075 0.017890789
000250 36 1b c0 bd 9e fb d6 bd cf e6 bb be 55 c1 4b 3e
       -0.0938019 -0.10497211 -0.3669953 0.19897969
000260 b0 f2 83 bd 58 d7 6e be d0 a7 cb 3c c5 23 ed 3d
       -0.06442773 -0.23324335 0.024860293 0.11579088
000270 4f f6 5d be 08 4b 45 3e 45 ef 5e be 1f f5 5b bd
       -0.2167599 0.19266903 -0.21770962 -0.053700563
000280 88 30 38 bf 98 92 26 bf 3e 84 3a bd cd b0 6c be
       -0.7194905 -0.65067434 -0.045536272 -0.23114319
000290 d4 4c d6 3e 85 a9 da bd be fc bf 3d c4 01 b7 3c
       0.4185549 -0.106768645 0.093743786 0.02233971
0002a0 91 90 b4 3d 2f 2e 3b bf 5f 7d 45 3e 54 75 b7 3d
       0.08816636 -0.73117346 0.19286107 0.089579254
0002b0 6d ec fa 3d 2c af eb 3d c4 87 0a 3e 4b e3 5b 3d
       0.12252126 0.11508021 0.13528353 0.05368356
0002c0 24 32 0e 3e b3 93 32 be 24 25 8a 3d 02 d1 b3 bd
       0.13886315 -0.17439155 0.06745365 -0.087800995
0002d0 9f 02 cc 3d 8a 67 e4 bd e6 a4 a1 3b 27 da e2 bd
       0.099614374 -0.11152561 0.0049329875 -0.110767655
0002e0 cb a4 52 3e 23 c2 39 bd da 38 f7 3d e9 00 94 bc
       0.20570676 -0.04535116 0.120713905 -0.01806684
0002f0 e9 10 8b 3e 89 ef fe bc 67 21 81 3e 1c 05 31 be
       0.2716134 -0.031120079 0.25220796 -0.17287105
000300 91 0c 9d be 6f 69 09 3d 66 a4 bf be d1 90 c5 3d
       -0.3067365 0.033547815 -0.37430114 0.09646762
000310 28 d7 46 3e 82 b6 8e 3e cd 52 96 3e ce 0f ad be
       0.19418013 0.27873617 0.29360047 -0.3380112
000320 d6 51 e6 3d f6 5e 4a 3d 3e 0e 80 3c 4b 12 f0 be
       0.11246078 0.049406968 0.015631791 -0.46888956
000330 fb b1 87 be a1 f9 bc 3d 28 9d 15 bf f7 71 92 bd
       -0.26502976 0.092273004 -0.58442926 -0.07150643
000340 6a 33 3d bf 32 78 87 be d8 aa 3a 3d 8e a9 8b 3e
       -0.73906577 -0.2645889 0.045573086 0.27277797
000350 1f bf 2f 3e 16 75 6d 3e 2c 4a 5d 3b e1 87 81 3d
       0.1716275 0.23189196 0.0033766134 0.06324745
000360 ec 4e e4 be ca c4 8f be 21 6d c6 3e 2a de 34 bf
       -0.44591463 -0.28079826 0.38755134 -0.70651495
000370 32 67 db 3d fb 57 72 3c 31 5a 45 be 07 2f b3 3e
       0.10713042 0.014791484 -0.19272687 0.34996817
000380 30 7c 86 be 48 1a a7 bd 97 08 d3 3e fa 14 79 3d
       -0.26266623 -0.081593096 0.4121749 0.06081102
000390 31 be 89 3d c2 a4 e7 3d 39 44 b3 3e 66 23 82 bd
       0.06725729 0.11310722 0.35012987 -0.06354408
0003a0 b0 e3 bd bd c4 17 2e be e7 55 b5 3e a6 67 75 bf
       -0.092719436 -0.17001253 0.354171 -0.9586128
0003b0 39 35 0a 3e 99 c3 53 be f3 f5 c2 be ee b4 97 bd
       0.13496865 -0.20680083 -0.3807827 -0.074075565
0003c0 8e 1a 03 3e da ee b9 3c bf 0f b0 be ff aa 13 3e
       0.12803099 0.022696901 -0.34387013 0.14420699
0003d0 7c fa 9f 3e 5f 8d 1f 3e 74 ab 0b 3e ed 47 be 3d
       0.31245792 0.15581273 0.13639623 0.092910625
0003e0 6e 2e cb 3d b1 42 b2 bd 4f ee 4c 3d dc 84 e7 3e
       0.09920965 -0.087041266 0.050031956 0.4521855
0003f0 95 dd 81 3e 40 16 f6 bc 0c 36 8e 3e 71 d0 9e bd
       0.25364366 -0.030039907 0.2777561 -0.07754601

409 f4 [64]
000000 84 a6 98 bf 2a 99 1c bf de b9 9c 3f 00 c2 34 3d
       -1.1925817 -0.6117121 1.2244222 0.044130325
000010 38 8b cd 3f d4 10 59 3f a0 15 85 be 09 dd 85 3f
       1.6058111 0.847913 -0.2599306 1.045808
000020 08 15 11 3e 58 1d 57 3f 68 6e b6 3d ec b3 72 3e
       0.14168179 0.8402915 0.08907777 0.23701447
000030 e7 8a 11 40 b8 fc 91 3f b8 91 13 3f a5 1e 2e 3f
       2.274103 1.1405249 0.57644224 0.6801551
000040 c3 4f c9 3e 60 b3 71 bf 96 81 4a be 20 3b 09 3f
       0.39318666 -0.9441433 -0.19775996 0.5360584
000050 52 c8 d0 3f 77 91 cc 3f 68 3e 86 be f7 d1 22 bf
       1.6311133 1.5981892 -0.26219487 -0.6360163
000060 0b 25 82 bf cc 9c 9b bd 90 d5 6d bf a5 a9 01 c0
       -1.0167555 -0.07598266 -0.92903996 -2.0259793
000070 ac 93 96 bf 2e 7e b0 bf fe d0 1d bf 3c 5c cd 3e
       -1.1763816 -1.3788507 -0.6164702 0.40109432
000080 c9 32 76 3f 37 0d 51 c0 e8 53 95 bd a0 4a 93 3f
       0.9617124 -3.2664316 -0.072913945 1.1507149
000090 e9 5f 54 bf 74 91 03 40 c0 fb 12 3e d6 ed 28 bf
       -0.8295885 2.0557528 0.14353848 -0.6598791
0000a0 d6 25 27 40 0d 2d e2 3e 53 16 87 bf 5c 28 af 3f
       2.6116843 0.44174996 -1.0553688 1.3684192
0000b0 2d b8 07 bf 8f 15 0a 40 12 2a c8 bf b4 aa 82 bf
       -0.53015405 2.1575658 -1.5637839 -1.0208344
0000c0 cd 07 e1 be d6 1f 95 3f 07 48 7a bf de 0b 82 3f
       -0.43951264 1.165034 -0.97766155 1.0159872
0000d0 0c 6a 77 3f 36 3e dc be c9 06 99 3f 6f 86 88 3f
       0.9664619 -0.43016213 1.1955196 1.0666026
0000e0 de 62 03 be ff cb 8e 3f 63 19 ab bf 06 13 03 bf
       -0.12830684 1.1156005 -1.3367122 -0.512009
0000f0 09 c9 43 3f cb 0c 43 bf 1a 70 95 3f 19 ee 8f 3f
       0.7647863 -0.76191396 1.1674836 1.1244537

411 f4 [64, 64, 1, 1]
000000 41 84 d1 3c a8 73 32 bd d0 22 7e bd fd ae ee bc
       0.025575759 -0.04356733 -0.06204492 -0.029136175
000010 1b a6 08 bd c1 73 03 bd 7d 3b 26 bc 13 3f 1e bd
       -0.033361536 -0.032092813 -0.010146019 -0.03863437
000020 f1 65 11 bd c9 1f 19 bd 49 4d 79 bc e0 a1 30 3c
       -0.03549761 -0.03738383 -0.01521618 0.0107807815
000030 33 b5 e9 bc 6d 69 1a bc 31 06 19 3d f0 6b f4 bc
       -0.028528785 -0.0094245495 0.03735942 -0.029836625
000040 4a f5 ff 3c 25 b1 22 bd a4 b9 bc bc cd aa 3e bd
       0.031244893 -0.03971972 -0.02303774 -0.046549607
000050 56 1c 24 3d 74 86 30 bd 58 ba 5d bb 19 2b 3d bd
       0.040066086 -0.043096974 -0.0033832993 -0.04618368
000060 0e 23 92 bc d3 18 c7 bc 5e ae 1a bd 74 95 bd bc
       -0.017838981 -0.02430383 -0.037763946 -0.023142554
000070 72 4e c1 bc 2e 67 63 3c d1 22 cf bd 48 90 60 bd
       -0.023596976 0.01387958 -0.101140626 -0.054825097
000080 64 00 cb 3c 2a 29 68 bd 6b 32 0d bd 9c 0a 4f bc
       0.02478046 -0.056679882 -0.03447191 -0.012636807
000090 2f a1 47 bd d9 5c 26 3d cf 2e 4e bc 54 39 ab 3a
       -0.0487377 0.04061589 -0.012584402 0.001306335
0000a0 35 0b f9 3c b8 a4 8e 3c 47 7b 00 3d fe 08 6e 3c
       0.030400852 0.017412528 0.031367566 0.014528511
0000b0 9f 72 03 bd 6a d9 08 bd 7a 4d df bc a7 6d 16 bd
       -0.032091733 -0.033410467 -0.027258623 -0.036725666
0000c0 fe 52 54 bc 1f b9 24 3d 9e 83 a6 bd 07 73 af bd
       -0.01295924 0.040215608 -0.08130573 -0.085668616
0000d0 0d 62 0b bb f2 24 fd 39 dc eb a5 3c f2 c8 43 bc
       -0.002126816 0.00048283447 0.020254068 -0.011949765
0000e0 9e 6f cb bb 1b 14 f2 3c a7 9c d2 bc 43 cc 6b 3c
       -0.006208374 0.029550603 -0.025709463 0.0143919615
0000f0 9f 09 3f 3d d7 51 1f bd f9 b0 77 3d 7d ee 98 b9
       0.046640035 -0.038896408 0.06047151 -0.00029169387
000100 c3 7b 0b bc 6a 7c cc bd 6c 22 82 37 6e 9e 1f bc
       -0.008513394 -0.099846676 1.5513237e-05 -0.009742362
000110 61 a0 9f bc 6e f1 4e bd 2c fb 8d bd 8b a8 4f bd
       -0.019485654 -0.050523214 -0.06932673 -0.050697844
000120 23 eb 44 bd 09 c0 b1 3c 17 d4 7e bd 17 b4 38 bd
       -0.048075806 0.021698015 -0.062213983 -0.045093622
000130 b3 b8 e5 bd 67 ba 40 3d 31 59 4f bd c8 78 5a bc
       -0.11216869 0.047052767 -0.05062217 -0.013334461
000140 be e5 9e 3d c9 da f8 bb f1 c3 91 bd 26 85 c3 bd
       0.077586636 -0.0075944406 -0.07117451 -0.095468804
000150 61 74 6e 3a 3c 7c 07 3d 85 cf 7f bc 59 04 7b bd
       0.00090963213 0.033077464 -0.015613441 -0.061283443
000160 5b df 86 bd 95 1e 89 bb 21 dc 7c bd 4c b6 81 bd
       -0.065855704 -0.004184554 -0.06173337 -0.063335985
000170 41 5b 4f bd 82 ca 9d bd 6f 1a f9 bc eb 18 64 bc
       -0.050624136 -0.07704641 -0.030408112 -0.0139219565
000180 3a 38 cf 3c 4d 68 0d bd c3 2f a9 bd 4e 31 a0 bd
       0.025295366 -0.034523297 -0.08261063 -0.07821904
000190 fd c3 2f be 3a f8 08 bd ff 88 75 bd 53 74 3d bd
       -0.17164607 -0.033439852 -0.059945103 -0.046253514
0001a0 42 3a 35 bd 43 2a 8a 3d 8a 10 4a bc 3f a3 1e 3d
       -0.044245012 0.06746342 -0.012333045 0.038729902
0001b0 80 94 f5 bd 84 e9 89 bc 69 e3 22 bc 57 09 b6 bd
       -0.11991215 -0.016834982 -0.009941914 -0.088885
0001c0 87 1f 11 3d bd a1 8f 3d 78 50 47 bd cd 0b ef bd
       0.035430457 0.07013271 -0.048660725 -0.11672173
0001d0 45 0f 01 3e 3c 23 c2 bd 0f cf b0 bd fe 54 07 bd
       0.12603481 -0.09479377 -0.08633243 -0.03304004
0001e0 a4 ed ed bb 3a 7c 78 3d 37 8c de bd 9e 3b 99 bd
       -0.007260995 0.060665347 -0.108665876 -0.07482074
0001f0 84 0a b3 3d 49 0e 35 bd 10 f7 ee bd cc cb 8e bc
       0.0874224 -0.044203077 -0.11668217 -0.017431162
000200 ef ab 41 bc 1d 47 88 bd 6e d3 6f 3d 3f a3 3a be
       -0.011820777 -0.06654189 0.058551244 -0.18226336
000210 c8 0f 02 3c a0 43 ba 3d e2 df 0f 3f 77 46 49 bc
       0.007938333 0.0909493 0.56200993 -0.0122848665
000220 a9 06 16 3e 22 54 b1 3d db 36 a7 3c 25 86 9e 3e
       0.14650978 0.08658625 0.0204119 0.3096172
000230 e4 da 80 3c 2f f5 a4 3d 2c e7 98 3e 62 3f b4 bc
       0.015729375 0.080545776 0.2986387 -0.02200288
000240 8e b9 91 3e f7 25 c6 bd 1a 70 2e 3d d9 71 af bd
       0.2846188 -0.0967521 0.042587377 -0.085666366
000250 57 e4 16 bd d6 f6 4b bc 77 ef 95 3e 4d 13 b2 bd
       -0.036838856 -0.012448987 0.2928426 -0.086950876
000260 fd 61 c4 bd 22 92 ab 3b 0d 45 e5 3e c5 f9 e7 3e
       -0.09589002 0.0052359262 0.44779244 0.45307747
000270 ee b4 55 be b9 15 2d 3c b6 83 04 3e 23 43 cd 3c
       -0.208698 0.010564261 0.12940869 0.025056427
000280 78 cf 2d 3e 3f 3f 68 be fe c5 23 3e cc c8 00 bd
       0.16973674 -0.22680376 0.15993497 -0.031441495
000290 1c 80 a5 bd 12 e8 8a 3e ca 85 26 3e 02 95 8a 3e
       -0.080810755 0.2713018 0.16261974 0.2706681
0002a0 5b 26 a6 3d 72 c9 29 be 87 3e 80 3d 82 d9 4b 3f
       0.081127845 -0.16580752 0.06261926 0.79628766
0002b0 d5 b1 d9 bd e1 d9 bf bd f8 83 1a 3e 86 d8 c1 bc
       -0.10629622 -0.09367729 0.15089405 -0.023662817
0002c0 9e 17 2c 3e df dd 0a 3e 19 34 2a 3e d4 fc 2b 3d
       0.16805884 0.135612 0.16621436 0.041989163
0002d0 53 4e 0b 3d 8f 97 df bc 22 e4 26 3e eb e5 b6 3d
       0.034010243 -0.027293948 0.16297963 0.08930572
0002e0 c6 b6 c5 3c f2 07 26 3e 14 9d 3f 3e 8f 31 14 3e
       0.024135005 0.16213968 0.18712264 0.1447203
0002f0 e0 8e 71 bc 8a bc d9 3d c6 05 87 3e f1 a1 60 3d
       -0.014743537 0.10631664 0.26371592 0.05484194
000300 c8 ea 70 3d db a3 e7 3d 77 97 63 3e ee dd 18 3c
       0.058817655 0.1131055 0.22225748 0.009330256
000310 05 2d 4e 3e f6 46 0f be 70 32 36 3e 26 d2 89 3e
       0.20134361 -0.13991913 0.17792678 0.26918143
000320 b7 8d 9e 3d a6 a0 83 be 4d d9 ad bc 40 85 d7 3d
       0.07741874 -0.25708503 -0.021221781 0.10523462
000330 c3 22 d8 3c 43 84 41 3e 03 9e 87 bd 3a 93 4c bd
       0.026383763 0.1889811 -0.06621935 -0.049945094
000340 ec 33 73 be 31 73 63 bd 79 d3 1a be 09 82 c2 3d
       -0.23750275 -0.055529777 -0.15119733 0.094974585
000350 83 6c 7b 3e ff d7 49 3d 9c e2 f0 3d 30 80 d4 bd
       0.24553113 0.049278256 0.11761972 -0.10376012
000360 91 ae b4 bc 58 2b d1 3c 67 d1 f3 bd 4d 0e 87 3d
       -0.022055896 0.025533363 -0.11905175 0.065945245
000370 c4 7d 0e 3d dd ed 05 bc 36 60 f7 bd ff 55 da bd
       0.03478791 -0.008174387 -0.12078898 -0.10660934
000380 d4 73 3a 3e 3d 36 82 be 54 58 ff 3d 44 fc 9b 3e
       0.18208247 -0.25432006 0.12468019 0.304659
000390 f8 82 fa bd 46 28 c7 3d e9 67 5c 3e 87 0c a9 bd
       -0.122320116 0.097244784 0.21524014 -0.082543425
0003a0 db bd c3 3d ab c0 f1 3d 57 1b 49 3e 66 ca 37 3e
       0.095576964 0.118043266 0.19639336 0.17948303
0003b0 68 11 5f bd 3f 86 94 bd 4c 89 0e be 82 e1 3d be
       -0.05445996 -0.07252168 -0.13919562 -0.18543056
0003c0 51 16 0e 3e 03 2e 3f 3e 38 72 96 bd 10 5d 70 bd
       0.138757 0.18669896 -0.07346004 -0.0586825
0003d0 c8 84 d0 bd 71 06 2f be 94 76 c2 3c 4e b2 b8 3d
       -0.10181576 -0.17092301 0.023738183 0.09018384
0003e0 a3 5c bc bb 85 71 80 3d b3 b4 81 be e4 60 8b bd
       -0.005748348 0.06271652 -0.25333175 -0.0680559
0003f0 a3 52 00 3d 3c 8b ae 3d 71 e0 b4 3d 47 59 c3 3e
       0.03132881 0.085226506 0.08831871 0.3815405

412 f4 [64]
000000 34 be fa be 55 7b 56 3e 6c 24 49 c0 9f 40 9b bf
       -0.48973238 0.20945485 -3.142848 -1.2129096
000010 ee c5 15 c0 10 48 e1 be 00 d7 24 be 74 32 dd bd
       -2.3402057 -0.44000292 -0.16097641 -0.10800639
000020 d8 6b 67 bd 72 69 96 3f 56 c7 d2 3f ff c1 16 bf
       -0.056499332 1.1750929 1.6467083 -0.58889765
000030 c8 f2 42 c0 12 ba 91 3e 0f 73 c4 3f 40 e6 1b 3f
       -3.0460682 0.28462273 1.5347613 0.6089821
000040 fe 9c 85 3f 82 d4 93 3f 68 22 6b 3f 24 67 00 bf
       1.0438535 1.1549227 0.91849375 -0.5015738
000050 60 0a 24 bf 84 04 49 bf c0 f5 92 be f4 2a 05 bf
       -0.6407833 -0.78522515 -0.28703117 -0.52018666
000060 bf 83 bc bf d8 68 46 3f 00 87 81 3c fe f6 47 bf
       -1.4727706 0.7750373 0.015811443 -0.78111255
000070 09 96 4a be 57 56 af bf 3a da a7 bf 91 03 5a be
       -0.19783796 -1.3698224 -1.3113472 -0.21290423
000080 6c 86 8c be ba 55 a0 be 44 8e c0 be 5e 60 d9 3f
       -0.27446306 -0.31315404 -0.3760854 1.6982534
000090 e7 cf 66 be da 04 07 3f cc ad b9 bf cc 30 cf be
       -0.22540246 0.5274178 -1.4506164 -0.40466917
0000a0 b4 90 60 3d 82 d5 c5 3f 19 44 04 c0 1c 6e be bc
       0.0548255 1.5455782 -2.0666564 -0.023245864
0000b0 c8 09 5c 3e 98 c3 77 3f 7c 01 63 3e 44 58 25 c0
       0.21488106 0.9678283 0.22168535 -2.5835123
0000c0 61 10 c5 be 04 b2 61 bf 70 5c 91 3f a7 fb de 3f
       -0.3848906 -0.88162255 1.1356335 1.7420548
0000d0 14 06 81 bf 44 3a 96 3f f8 d1 97 be fe f5 b3 bf
       -1.007998 1.1736531 -0.2965238 -1.4059446
0000e0 0f 95 86 be fa 65 1a c0 c2 e2 42 bf dc e0 5e 3f
       -0.26285598 -2.4124742 -0.76127255 0.8706186
0000f0 b0 da 99 3f 92 51 71 be b2 2a ce 3e a1 c4 95 bf
       1.2019863 -0.23566273 0.4026695 -1.1700631
