HLT/ParticleNetAK4/V01/particle-net.onnx (onnx, 703255 bytes, 42 tensors)

pf_conv.conv.0.weight f4 [23]
000000 a5 d4 d2 3f ab 4d bd 3f 16 74 14 40 62 d8 0d 40
       1.6471144 1.4789327 2.3195853 2.216332
000010 47 4c d8 3e 8b 41 c6 3e 8e 04 2d 3f 66 38 46 3f
       0.42245695 0.3872188 0.67585075 0.7742981
000020 e2 cb b6 3f 87 b8 b3 3f f4 08 2f 3f 4a 7a cb 3e
       1.428097 1.4040688 0.68373036 0.39741737
000030 96 b0 52 3f 05 bc 08 3f e9 53 85 3f 89 25 f2 3e
       0.823007 0.53411895 1.0416232 0.47294262
000040 eb b3 a7 3f 8c c0 57 3f dd ef 45 3f db f3 7f 3f
       1.3101782 0.8427818 0.7731913 0.9998147
000050 ed 2e d9 3d 12 df 7f 3f 25 a2 22 3f
       0.106046535 0.99949753 0.6352866

pf_conv.conv.0.bias f4 [23]
000000 49 c6 ca 3a fe 2c 52 ba f0 ab 30 39 74 a6 22 ba
       0.001547047 -0.00080175686 0.0001684872 -0.0006204613
000010 1d 8b 7f 37 07 67 3c 3a 2d 21 99 38 ef 4e e6 39
       1.5231574e-05 0.0007186983 7.301788e-05 0.0004392783
000020 47 9e e2 39 cd 23 40 3a cc a4 cf b8 fc 64 05 ba
       0.00043224005 0.00073295535 -9.901225e-05 -0.0005088595
000030 cf 37 08 3a b8 2f 8e 3a ad 14 68 b9 f7 c3 db b9
       0.00051963044 0.0010847962 -0.00022132946 -0.0004191694
000040 55 cc 15 ba 21 27 e5 ba a8 41 4c 39 90 3c 2e 3b
       -0.0005714347 -0.0017482975 0.00019479415 0.002658639
000050 bd ba 96 39 7f 25 00 3a e7 ae f1 39
       0.0002874936 0.00048884 0.00046097414

pf_conv.conv.0.running_mean f4 [23]
000000 a4 ea 41 bd 42 96 ae 3c 35 28 26 39 2d 9c d6 38
       -0.04734291 0.021311883 0.00015845972 0.00010233405
000010 f6 6b a4 3b 99 63 24 b9 bd cc a0 bd 43 76 e2 be
       0.0050177528 -0.00015677362 -0.07851551 -0.44230852
000020 91 11 df be 82 b3 3b 3e 54 cf f0 39 60 3a c8 3e
       -0.4356809 0.18330196 0.0004593084 0.39107037
000030 c6 2d 2f 3b 73 67 57 be d3 e7 b1 3e 00 13 1d 3d
       0.0026730164 -0.21035556 0.3474718 0.038348198
000040 b8 42 e7 3e 19 09 0b 3d d7 ef 8d 3e 56 98 ee 3d
       0.4516809 0.033944223 0.27722046 0.116501495
000050 b6 b6 79 3d 16 3c 9b 3d 29 3f 06 3e
       0.060965262 0.0757982 0.13110031

pf_conv.conv.0.running_var f4 [23]
000000 a1 52 46 3e c7 b3 64 3e 43 0b 2e 3c 87 a5 3d 3c
       0.19367458 0.22334205 0.010622802 0.011575109
000010 94 51 f8 3e f5 b4 3b 3e 2c a2 fa 3d 78 df 7c 3e
       0.4849974 0.18330748 0.12237963 0.24694622
000020 57 f5 6c 3e fb 48 19 3e 74 b7 b2 3f 41 f4 aa 3f
       0.23140465 0.14969246 1.3962235 1.335579
000030 f7 2a 5c 3f 93 2a 2e 3f 7f 6c 85 3e bb 5e 16 3c
       0.8600306 0.68033713 0.26059338 0.009177859
000040 dc db 78 3e b9 64 59 3f b6 97 50 3f b7 e4 b5 3e
       0.2430262 0.84919316 0.8148149 0.35526058
000050 02 56 26 40 5a ca dc 3c 98 13 c7 3d
       2.5989995 0.026951957 0.09720534

sv_conv.conv.0.weight f4 [11]
000000 09 2e c5 3f 27 72 01 40 31 c7 11 3f 10 ca 6f 3d
       1.5404674 2.0225923 0.56944567 0.05854231
000010 36 31 29 3e ef 90 84 3f 19 be df 3e 1b 78 cf 3f
       0.16522679 1.035673 0.4369972 1.6208528
000020 8b eb 23 3d e2 b5 f9 3e ff de a8 3f
       0.040019553 0.48771578 1.3193053

sv_conv.conv.0.bias f4 [11]
000000 a8 fb 04 ba d0 24 23 3b 4c 08 d6 b9 1b f3 0e ba
       -0.00050729 0.0024893768 -0.00040823442 -0.00054530957
000010 75 5b 14 39 18 f8 1d 3a 3d 06 a9 ba 04 ed 9b ba
       0.0001414845 0.00060260436 -0.0012895536 -0.0011896198
000020 43 09 b8 b9 4e 5d 3e ba e9 6d 36 bb
       -0.00035102115 -0.0007261828 -0.0027836508

sv_conv.conv.0.running_mean f4 [11]
000000 2d ff 93 bd df 12 92 3c e0 90 4c b5 cb f5 a2 38
       -0.07226405 0.017831264 -7.6206743e-07 7.7705445e-05
000010 ec e3 00 b9 5d 2f 63 3c 7e 55 d3 3c b1 d0 bb bc
       -0.00012291939 0.013866273 0.025797602 -0.02292666
000020 da bb ec 3b 5d fc 9b 3b 68 e8 ed 3b
       0.007224542 0.0047603087 0.007260371

sv_conv.conv.0.running_var f4 [11]
000000 6f 93 a1 3d a5 76 12 3d f3 e2 62 3a dd 51 0d 3d
       0.07889449 0.03575768 0.0008655034 0.0345019
000010 20 86 0d 3e 66 9a 5f 3e 05 d3 e4 3d c7 84 24 3c
       0.13820696 0.21836242 0.11173061 0.010041422
000020 c5 23 52 3c 45 2f 8c 3c 72 4e 53 3c
       0.012825911 0.017112384 0.012897121

pn.fc.0.0.weight f4 [128, 128]
000000 95 7b e6 be 48 d5 44 bd b2 80 7f bd ff 6c df 3e
       -0.4501616 -0.048054963 -0.062378593 0.43637845
000010 8f e6 54 3e 70 a1 58 3f 4f 64 59 be 1d d7 d8 bd
       0.20791076 0.84621334 -0.21229671 -0.105879046
000020 8c 43 a9 bd f3 22 c6 3d d2 66 92 bc 14 cd c0 be
       -0.08264837 0.09674635 -0.017871294 -0.37656462
000030 39 cc 1d 3e bc d4 bc 3e 44 cb 83 3e 30 5f 36 3f
       0.15409936 0.36881053 0.25741017 0.71238995
000040 e9 ce 64 be 9c 13 12 3f fd 1f cb 3e c6 66 60 3d
       -0.22344555 0.5706117 0.39672843 0.054785512
000050 31 8a 83 be 5e e0 29 3e 50 4a 73 bf 1d 67 16 3c
       -0.2569137 0.16589496 -0.95035267 0.009179858
000060 70 8b cf 3d 20 74 b6 3d ba ed e2 be 33 83 a8 be
       0.101340175 0.08908868 -0.44321996 -0.32912597
000070 8b b0 8f bd 02 47 a4 be 7b 82 17 be ab 51 ab 3e
       -0.07016095 -0.32085425 -0.14795868 0.33460745
000080 fa 9a 1b be ec 61 5f be 1d c6 b0 3b 3b 44 a5 3e
       -0.15195838 -0.21814698 0.0053947107 0.32278618
000090 53 58 a7 3e 1c de e6 3c 16 1e ba be cf 5b 86 bc
       0.32684574 0.028182082 -0.3635108 -0.0164012
0000a0 11 ec 2a bb fe bd dd 3d 50 4e 4d bf 97 dc 4c be
       -0.0026080648 0.10827254 -0.8019762 -0.20006023
0000b0 67 c0 11 3e 88 a4 74 be b1 35 14 3f c2 a5 24 3f
       0.14233552 -0.23890889 0.57894427 0.64315426
0000c0 50 40 f3 bd 6c 9c 00 3e 27 c4 51 bd f1 0a 9a 3a
       -0.11877501 0.1255967 -0.051212456 0.0011752528
0000d0 f4 4a 05 3e 64 69 8b 3e 69 6c 06 3f 56 6e eb bd
       0.13016874 0.27228844 0.5250917 -0.11495654
0000e0 35 93 d9 bf 4a ad 02 be c8 e0 8e 3e df a7 18 3f
       -1.6998049 -0.12761417 0.2790587 0.5963115
0000f0 e3 d9 73 3e 5d f2 a2 be 97 1b 81 be c1 b9 49 3a
       0.23813586 -0.31825534 -0.25216362 0.0007695221
000100 15 13 30 3e a3 4e c5 bf 8f ed e4 3e 15 e0 de bd
       0.17194779 -1.5414623 0.44712493 -0.10882584
000110 dc 90 30 be 5c 60 5a 3f c9 d0 ea 3e e2 8c 92 3e
       -0.1724276 0.8530328 0.45862415 0.2862311
000120 28 e3 15 3f 4f 4c 39 3d 24 38 97 bf a0 c4 32 be
       0.5854974 0.04523879 -1.1814008 -0.17457819
000130 97 9f 9a bd 80 5e b8 be d1 c9 f6 bd 66 94 d0 3e
       -0.075499706 -0.36009598 -0.12050212 0.4073822
000140 5e 3f df bf 31 f8 43 3e 9f f8 c1 3d de 25 3b bf
       -1.7441213 0.19137646 0.09471249 -0.73104656
000150 58 32 21 3c 82 80 8c be ed 9e 66 3f fe 46 04 3e
       0.009838663 -0.27441794 0.9008625 0.12917706
000160 51 0d 1f be 4e 59 ab 3c b9 5c 8c bd 7c 2e e7 bc
       -0.15532424 0.020916607 -0.06853623 -0.028220408
000170 a0 8e 15 bf a7 21 07 3c 06 9b 39 3e 8c d7 2d 3d
       -0.58420753 0.008247769 0.18125543 0.04244189
000180 bd 36 20 3c 08 34 a6 bd 38 ae c5 bd 50 1a 85 3d
       0.009778676 -0.08115393 -0.0965237 0.06499159
000190 a2 00 88 bc 94 9e 6c bc 3e 01 52 bd 91 c5 ad be
       -0.016601864 -0.014442105 -0.051270716 -0.33939794
0001a0 4e a9 1d be 45 e1 14 3d 4c 94 ea 3d d8 ff 87 bd
       -0.15396616 0.036347646 0.11454067 -0.06640595
0001b0 ca b8 ad 3e 79 4a 58 bf 4b 21 1b 3e f3 b9 72 be
       0.33930045 -0.84488636 0.15149419 -0.23703746
0001c0 25 75 1f be 3e a1 14 bf e9 9c b8 be 7f 1a 08 bc
       -0.15572031 -0.58058536 -0.36057213 -0.008307098
0001d0 1c 7e 54 3d 09 3e 29 bf f3 a7 53 3f e6 3e 54 3d
       0.05187808 -0.66110283 0.82678145 0.051817797
0001e0 aa ec 4b be ea 51 44 3e 15 58 ea 3e f6 40 ee bb
       -0.19914499 0.19171873 0.45770326 -0.0072709275
0001f0 7b 1a 0e 3e d7 6c d6 bd f0 36 0e 3e 61 af 05 bd
       0.13877289 -0.10469978 0.13888144 -0.032637957
000200 66 08 d0 bc 8a e9 d3 bb d4 90 45 be b3 43 6a bc
       -0.02539463 -0.006467049 -0.19293529 -0.014298367
000210 88 4a 56 bb 68 05 14 bd a8 a7 df bd fa 2e b3 bc
       -0.0032698233 -0.03613797 -0.1092065 -0.021872986
000220 74 7f ec bd cf cd bc bc 65 fc 64 bd ea 74 24 bd
       -0.11547747 -0.023047356 -0.055904765 -0.04015056
000230 02 6f 91 3d 9a ef 7b bc 2c fb 37 bd 5a 9c b8 bd
       0.07101251 -0.01537695 -0.04491727 -0.09014197
000240 5e 4f 5a 3b 08 d2 ca bd b6 5e e6 3c 36 ac 9f 3d
       0.0033311467 -0.099033415 0.028121334 0.077965185
000250 6a 20 4d 3d 9c 0d a7 3d cc b7 9a 3d bc 66 4b 3d
       0.05007974 0.08156893 0.07554588 0.049658522
000260 5a 10 5e 3d 1a 44 7d 3d 46 06 62 3d ee 45 ef bd
       0.054214813 0.061832525 0.055181764 -0.1168326
000270 e0 87 6f 3d 6e 64 6e 3d ac 5c ad bc 82 2c 6d bd
       0.05847919 0.058201246 -0.021162353 -0.057903774
000280 62 db ca bc 3d 66 24 bd 3a b2 85 bc b6 16 47 3c
       -0.024762813 -0.040136565 -0.016320337 0.012151411
000290 d4 a2 76 3d 74 22 d6 bd 0e ca 21 3c 00 f1 c4 3b
       0.06021388 -0.1045579 0.009874834 0.0060101748
0002a0 ec 81 b3 bd be d7 52 ba fa 87 37 3d 30 47 e2 bc
       -0.08765015 -0.00080430123 0.04480741 -0.027621835
0002b0 12 de db bd 3a 34 f7 bd d6 2f b9 3a d4 7b d8 3d
       -0.10735716 -0.12070508 0.0014128636 0.10570493
0002c0 14 d8 7b bc 48 33 54 3d 79 a2 5c bd da 75 0a be
       -0.015371341 0.051806718 -0.053865883 -0.1352152
0002d0 34 88 f3 bd 15 20 8d bd 8f c4 c4 3c 50 85 31 bd
       -0.11891213 -0.06890885 0.024019508 -0.043340027
0002e0 24 64 9d bd d0 0b d1 bd 11 91 be bb 88 1f b8 bd
       -0.07685116 -0.10207331 -0.005815633 -0.08990389
0002f0 0a 2c 00 3d f4 dd f8 3c b6 7e 1f 3c e8 5d 60 bd
       0.031292 0.030379273 0.0097348 -0.054777056
000300 50 05 73 bc e0 06 0f 3c cc 44 9d bc 98 33 da bd
       -0.01483281 0.0087296665 -0.019197844 -0.10654372
000310 dc a3 3e bd 42 35 17 bd ff 67 ce bc 27 c6 81 bd
       -0.046542987 -0.036916025 -0.025196074 -0.06336623
000320 40 30 41 bd 56 c5 96 bd 1e af 9a 3d 9a 9b 9e bd
       -0.047165155 -0.073618576 0.07552932 -0.077445224
000330 08 02 c5 3c f7 0b 3a bd 8f e7 30 bd b9 1b 9f 3d
       0.02404882 -0.045421567 -0.04318958 0.077689596
000340 03 8b e8 bc 86 4e 02 3c 2c 3f 03 be 66 82 61 bd
       -0.028386598 0.007953292 -0.12817067 -0.055056
000350 66 3b 04 3d cc 38 0a be b8 fa bb bb f7 24 3e bc
       0.03228321 -0.13498229 -0.005736675 -0.011605493
000360 42 6f 32 3c 77 50 f5 bd de 5a 98 bd 4c 74 ea bc
       0.010890784 -0.11978238 -0.074392065 -0.028619908
000370 70 25 86 bd 64 a8 07 be aa 0b c8 bd 94 77 7f bd
       -0.065501094 -0.1324783 -0.0976785 -0.062369898
000380 d4 7c 13 bc a4 51 87 bd 79 f4 74 bd b6 66 d9 bd
       -0.009001929 -0.066073686 -0.05980346 -0.10615294
000390 00 ad 31 bd 82 c4 5b 3c 7e 97 ba bd 01 00 c9 bd
       -0.043377876 0.01341355 -0.09110926 -0.09814454
0003a0 de ae 59 bd 3a 95 bc bc 98 7c 62 3d 83 15 ba bd
       -0.053145282 -0.023020376 0.055294603 -0.09086134
0003b0 d2 a6 3c be 62 3f 80 bd 5c 13 8a bc 77 84 20 be
       -0.18423012 -0.06262089 -0.016854934 -0.15675531
0003c0 72 47 b1 bb 3c f6 86 bd 20 03 9c bd 16 bd 1f bc
       -0.0054101283 -0.06589934 -0.076177835 -0.009749671
0003d0 74 c6 c3 bd 10 a1 e6 bd d2 f8 44 3c f4 51 89 bd
       -0.09559336 -0.11261189 0.012022214 -0.067050844
0003e0 22 50 5c 3c 84 b4 07 3d e2 ed b8 bc f8 a5 f3 bc
       0.0134468395 0.033131137 -0.022574369 -0.029742226
0003f0 1c 9c d2 bd 3a be c9 bd 94 96 11 3d 8d 55 c8 3b
       -0.10283682 -0.09850736 0.035543993 0.006113714

pn.fc.0.0.bias f4 [128]
000000 30 8f 92 3d ea 1e fa bc b7 7e 28 3e 69 59 66 b8
       0.07156217 -0.03053232 0.16454588 -5.4919543e-05
000010 ec 2b 8f 3c 3a 52 2c bd 2b 66 14 3d 62 50 e0 bc
       0.017476998 -0.042070605 0.036230247 -0.02738208
000020 b0 c2 57 bb 9e ef 90 3d 88 74 60 3d 0e 68 06 bd
       -0.003292244 0.07076953 0.054798633 -0.032814078
000030 aa 64 d0 bd aa ad cb bc 26 71 d6 3c e4 b9 fc 3d
       -0.1017545 -0.024863083 0.026177 0.12340143
000040 a1 ea 5e 3d 2e c7 dd 3d 27 62 e2 bd fd f8 95 3d
       0.05442298 0.10829006 -0.11053877 0.07322881
000050 9c 71 49 3b 30 14 28 3d 73 d2 26 3d 2f 27 75 bd
       0.0030737882 0.041034877 0.040728044 -0.05985182
000060 d3 8d d0 3d 6b 00 a3 3d 47 47 a9 bd 9c f9 a8 3c
       0.10183301 0.07959064 -0.08265548 0.020626836
000070 d4 38 1a 3d a8 1c fd 3c 65 ba 6a be 4d 86 d2 3d
       0.03765185 0.030897453 -0.22922666 0.10279522
000080 f2 4f 8f 3d f8 0b 4a 3d 27 fe f6 3d d0 64 77 3d
       0.0699767 0.04932782 0.120601945 0.060398877
000090 df 62 4b 3d a6 74 0f 3e 1c 37 2f 3c 2c de da bd
       0.049654838 0.14009342 0.010694291 -0.10686907
0000a0 6a 67 97 bd 1d 67 78 3e 2f 64 30 3e cb f6 e1 3d
       -0.073927715 0.24258085 0.17225717 0.110334
0000b0 de 3d a0 3d bb f7 1f bc 18 71 10 bd b5 92 f3 bc
       0.078243 -0.009763653 -0.035264105 -0.029733041
0000c0 62 01 66 3d cc 56 be bd f8 55 ea bd ef 2b 0e 3e
       0.056153663 -0.09293899 -0.114421785 0.13883947
0000d0 04 ff 95 3d 94 17 e3 3c 8f c2 5b bd 1b a8 51 bd
       0.07324031 0.027721204 -0.053652342 -0.05118571
0000e0 a3 7e c9 bc 6e b2 a8 3d e4 0e 3f 3d e1 c0 f1 3d
       -0.024596518 0.08237158 0.04664506 0.11804367
0000f0 02 ca 8c bb aa c1 1b bd 94 59 f8 bc 50 04 5c 3d
       -0.004296542 -0.03802649 -0.030316152 0.05371505
000100 37 9c a6 3d 7e 8a 20 3d 24 ea ed bc 17 51 aa be
       0.08135264 0.039194576 -0.029042311 -0.33264992
000110 f5 e3 36 3d 10 14 fa bc 93 dc df bb b7 53 ba ba
       0.04465099 -0.030527145 -0.0068317144 -0.0014215623
000120 58 8b 31 bb 0b e5 09 be f5 54 95 bc 0e 69 00 3e
       -0.0027091112 -0.13466279 -0.018228987 0.12540075
000130 fe 21 cf 3c 42 68 eb 3c a3 7a fc 3c d3 5e 02 bc
       0.025284763 0.028736237 0.030820196 -0.007957178
000140 ee 1c 89 3c 70 2f 96 ba 8a b2 e6 bc f9 a7 67 3d
       0.016737428 -0.0011458229 -0.028161306 0.056556676
000150 56 c8 aa bd ad e6 24 bd e2 2b c5 bc b7 26 22 3d
       -0.08338992 -0.040259052 -0.024068777 0.039587703
000160 5f 2f 23 3e 82 89 94 3c ed b3 9f 3d f7 47 b9 3d
       0.1593604 0.018131975 0.0779799 0.09046929
000170 61 35 0f bc c2 7c 18 bd a3 49 3c bd 3e ff 1c bd
       -0.008740754 -0.037228353 -0.045968663 -0.038329355
000180 04 a5 b0 bd 8f bd c0 3b 3a b0 bc bc 26 25 73 3d
       -0.08625224 0.005881972 -0.02303325 0.0593616
000190 90 bb f7 bc 52 0c 0f 3d 1b 24 a2 bc f3 95 29 3d
       -0.030240804 0.03492386 -0.019792607 0.04140277
0001a0 de 71 05 be 5c 21 d9 bc 55 59 2d 3d 28 56 ba 3d
       -0.13031718 -0.026505165 0.04232152 0.09098464
0001b0 9f 89 80 3d cc 2c 97 bc 0c c8 fa bd 45 e2 5e 3d
       0.06276249 -0.018453978 -0.12245187 0.054415006
0001c0 67 ac e6 3c 37 bb c2 3b 2a 00 f5 bd 44 d0 7d bd
       0.02815838 0.005942728 -0.11962922 -0.061966196
0001d0 3b 0a 3b bd f9 9d 82 bd a5 b8 48 bd 48 f7 bd bd
       -0.045664053 -0.06377787 -0.049004216 -0.09275681
0001e0 65 2e 5b 3d 7a 63 92 bd 8d 49 1c bd 4b 38 8b 3d
       0.053511042 -0.0714788 -0.03815608 0.067978464
0001f0 9e 3b 4c bd 9a 71 17 3e 3c 2e e7 3d 72 c7 d0 bd
       -0.049861543 0.1478943 0.112881154 -0.10194291

pn.fc.1.0.weight f4 [96, 128]
000000 03 26 34 3d d8 ef 3d bd 39 bb 5b 3e 50 a5 0c 3e
       0.043981563 -0.04637131 0.21458139 0.13734937
000010 f5 ac 7a be 75 71 35 bd 0d 5a 55 be ec 65 a1 bc
       -0.2448004 -0.044297654 -0.20835133 -0.01970192
000020 ff 23 28 bd 7c 89 4e bd c0 12 83 be 7e 9e b2 bd
       -0.041049954 -0.050424084 -0.25600243 -0.08721636
000030 7b 9d bd 3c 74 35 31 c0 90 66 69 3e b5 44 1e 3d
       0.023146382 -2.7688875 0.2279303 0.038639743
000040 a0 e7 47 3d ff fa 6f 3b 5c 71 68 bd f8 58 44 3c
       0.04880488 0.0036618111 -0.056748733 0.011984102
000050 7e 86 65 bc e6 fd de 3d 56 95 53 3d 18 86 eb bd
       -0.014009116 0.10888271 0.05165609 -0.11500186
000060 06 b7 08 be 86 56 20 bd 96 62 36 3b 3b 8c 05 3e
       -0.13351068 -0.039145015 0.0027829758 0.13041775
000070 0c c7 7b 3d a6 35 1e 3c 9a a8 ce 3c 24 fc 56 3e
       0.061469123 0.0096563455 0.02522688 0.20994622
000080 a7 8d 34 bd 03 d6 40 bd 99 a7 ea 3e 07 d3 f3 bd
       -0.044080403 -0.047079097 0.45830992 -0.11905485
000090 be 34 1d 3d 86 e4 77 3d bd 38 5d bc f4 dc 51 3d
       0.038380377 0.06052067 -0.013502297 0.051236108
0000a0 92 5e 28 3d 00 88 cd bf 18 15 87 3c 56 42 45 bd
       0.041105814 -1.6057129 0.01648955 -0.048158966
0000b0 3b 3a dd bd 7e 98 db bc 20 4b 26 3e 3d a8 5f bd
       -0.10802122 -0.026806112 0.16239595 -0.054603804
0000c0 bc 47 22 3d d1 3e aa 3d 22 5f a5 bd 08 d4 f7 3d
       0.039619192 0.083127625 -0.08074786 0.121009886
0000d0 82 52 de 3b 81 31 72 3d 8b 63 af bc b7 77 89 bd
       0.006784738 0.05912924 -0.02140977 -0.06712287
0000e0 08 5f ef bd 5f 3e f8 3d 08 40 a6 bd fa fc c6 ba
       -0.11688048 0.12121271 -0.08117682 -0.0015181594
0000f0 d7 3a 89 bd f8 cd 03 bd f6 ce 97 3c a0 0f 7a 3d
       -0.06700676 -0.03217885 0.018531304 0.061050057
000100 e7 a4 b6 bf 1c e7 24 3c 90 4e a0 bf f0 23 b5 3e
       -1.4269074 0.010064866 -1.2523975 0.3537898
000110 e1 28 24 bf 2b d9 5f 3e 8d d0 8f 3c 92 a8 7c 3c
       -0.64124876 0.21860187 0.0175555 0.01542105
000120 b4 58 12 3c 5e d6 e4 bd 6a 28 13 be 50 50 ea 3f
       0.008932281 -0.111737 -0.14370885 1.830576
000130 67 27 24 bd 81 ee cc 3c 9e 41 f4 bd 83 19 4e bd
       -0.04007664 0.025016071 -0.11926578 -0.0503173
000140 95 0a 12 3e 6e 30 78 bd b6 c8 1b bd fe 22 44 3d
       0.14261849 -0.06059306 -0.03803321 0.047884934
000150 0a a6 9d bd b4 6a a2 bc e1 f5 39 be 08 2d 81 3d
       -0.07697685 -0.01982627 -0.18160202 0.06307417
000160 6f 19 fa 3b b6 6a ad be 13 75 8b 3e a8 5e 00 3d
       0.0076324265 -0.33870476 0.27237758 0.03134027
000170 e4 9c 64 bc 6d b3 aa bd a3 c0 0f bd 95 2d e0 bf
       -0.013953421 -0.08335004 -0.035095822 -1.751391
000180 19 2d 1b bd df ec 74 bf 3e ee d0 3d d5 50 43 bd
       -0.037884805 -0.95673937 0.10201691 -0.04768451
000190 f9 d7 6e be 40 7a d9 be 00 b7 02 be 01 3b ce 3c
       -0.23324575 -0.42476082 -0.12765121 0.02517462
0001a0 bc 8c 0f bd c1 9f 95 3d 4e 27 20 c0 87 4a 83 3d
       -0.035046324 0.07305861 -2.502399 0.06410699
0001b0 44 51 4a 3d 4a 13 29 be 13 28 48 3d 22 e7 51 3f
       0.049393907 -0.16511264 0.048866343 0.81993306
0001c0 66 60 5c be ba 6f 00 3d a0 51 68 3c 5a a8 09 bd
       -0.21521148 0.03135655 0.014179617 -0.03360782
0001d0 d7 ce 4d 3e b2 a3 28 3c ff e7 bc 3c 2d 83 3d 3d
       0.20098434 0.010292934 0.023059843 0.046267677
0001e0 e0 6d bd bd 0b 59 8f 3d de d4 2a 3d 23 73 c6 3d
       -0.092494726 0.069994055 0.041706912 0.09689929
0001f0 4c 37 29 bd d8 11 39 be 62 1d d3 bd 82 fb 8e bd
       -0.0413125 -0.18073213 -0.10308339 -0.06981565
000200 5a 9b fb bd 32 de df bd 17 1c 06 3e 32 e7 9d bf
       -0.1228549 -0.10931052 0.13096653 -1.233618
000210 5b 5c 23 bf b2 b4 6f 3d ff 74 2a be e4 97 dd 3d
       -0.638128 0.058521934 -0.16646193 0.108199865
000220 6c d7 5e be b1 b4 37 be dc f3 a2 be 68 75 91 3d
       -0.21761864 -0.17940022 -0.31826675 0.071024716
000230 56 88 88 3d dd ce 51 bc 2e 76 55 bf d6 8d 0c bf
       0.06666629 -0.012805668 -0.8338345 -0.54903924
000240 0d 48 4d be 2a 46 1f 3e a4 8b e8 bc 1c 82 9d be
       -0.20047016 0.15554109 -0.028386898 -0.30763328
000250 11 8f a7 bc 18 fb 05 3e d4 f3 d8 3d 95 ea 23 bf
       -0.020453962 0.13084066 0.105933815 -0.6402982
000260 63 67 81 be 6e d0 d5 be 5a d0 58 3d a8 a5 a2 be
       -0.2527419 -0.41760582 0.052933075 -0.3176701
000270 ae 11 b1 be f3 bf b6 be 34 d6 06 3d 5e a7 7c 3e
       -0.345838 -0.3569332 0.032919124 0.2467322
000280 b3 aa 12 be ad 3d c8 3c 35 db 90 3d 79 33 6f be
       -0.14322929 0.024443472 0.070730604 -0.23359479
000290 04 c2 8c 3e 5e 3c 21 3e 7d 53 0d be 8a b4 15 3c
       0.27491772 0.15745685 -0.1380138 0.009137282
0002a0 fb 6c b3 3c e6 a7 8f bd 8e d9 23 3e c3 ed 96 be
       0.021902552 -0.07014446 0.1600096 -0.29478273
0002b0 42 af c4 bd 8b b6 64 3d fc e0 5c 3d 52 83 be 3d
       -0.0960374 0.05583815 0.0539255 0.09302391
0002c0 50 ea 75 bd 2c 86 71 3c 3c b7 87 3d 83 fa 1d be
       -0.06003791 0.014741462 0.06626746 -0.15427594
0002d0 23 7f 7b 3d e6 99 17 3e 5e 67 b3 bf b0 0b 40 bc
       0.061400544 0.14804801 -1.401592 -0.0117215365
0002e0 95 4f d5 bd ec a7 b6 3d 59 bc ab bd 65 31 0f 3d
       -0.1041557 0.08918747 -0.08385534 0.034959216
0002f0 3a 8f 16 be 0e 52 2c 3c d8 0d 43 bb 9f 73 92 3d
       -0.14703074 0.01051761 -0.002976289 0.07150959
000300 54 7c ac 3d 94 79 4d 3d 22 d5 93 3c a0 18 9b bf
       0.08422151 0.050164774 0.018045966 -1.211689
000310 ad 84 18 c0 84 6c 20 3e 05 5d 0d 3d 26 70 38 3d
       -2.383098 0.15666395 0.03451254 0.045028828
000320 00 85 eb be 54 91 8f 3d 14 37 59 be 19 25 03 c0
       -0.45999908 0.07010141 -0.21212417 -2.0491393
000330 5c f6 e9 3d e6 30 e1 3d 0d 39 48 be b4 6d 1a 3d
       0.114239424 0.10995655 -0.19553013 0.037702277
000340 bf 9e 11 bf 15 61 7e bf 44 92 8d 3d 7a b8 a5 bf
       -0.5688285 -0.99366885 0.069126636 -1.2946923
000350 aa 95 e0 bc fc 1b 5f 3c 0b 12 07 be a6 c5 85 3d
       -0.027415115 0.013617512 -0.13190477 0.06531839
000360 e1 e5 da bd a6 2d ac bf 28 8d 3e be ad 58 ab 3d
       -0.10688377 -1.3451431 -0.18608534 0.08366523
000370 ee 3a d7 bd f4 37 27 3d a8 e8 3f 3d b9 bc d0 be
       -0.10509287 0.040824845 0.046852738 -0.40768984
000380 44 c0 c6 3e 0f a3 f0 bd 0f 72 52 3d 02 83 30 3d
       0.38818562 -0.11749851 0.051378306 0.04309369
000390 2f 8b 06 bf b2 6f 57 3d 5a 1e 0c bf d3 5b d4 3d
       -0.5255613 0.052596755 -0.5473381 0.103690766
0003a0 22 f9 a8 bd 72 8a 0d 3e 9e 58 fa 3b 65 9e 31 bf
       -0.08250643 0.13822344 0.0076399585 -0.69382316
0003b0 be e3 a8 bf 11 65 36 be b8 2d d1 bb ef bd e4 be
       -1.3194501 -0.17811991 -0.006383624 -0.44676158
0003c0 4e a6 d4 bd bc 02 4d bb 60 aa 6e bd b9 2f 38 c0
       -0.103832826 -0.0031282147 -0.05826795 -2.8779128
0003d0 70 e4 b0 3c d2 b3 da bc 49 7e 81 3d 22 6d 7c bd
       0.021593302 -0.026697073 0.06322915 -0.061627515
0003e0 bb 60 cc be 38 c8 e6 bb aa 0e db 3d 1e 60 e1 3d
       -0.3991755 -0.007042911 0.10696156 0.11004661
0003f0 37 f0 f2 ba 60 a5 4c bf 5c 61 d9 be 32 49 2e bd
       -0.0018534724 -0.7993984 -0.42457092 -0.042550273

pn.fc.1.0.bias f4 [96]
000000 21 5a 65 be 85 6f 38 3e 8c 1c 98 3d 53 b7 f4 3e
       -0.22397663 0.18011291 0.0742732 0.47796115
000010 74 3c 96 3d 52 30 c2 3d fb 73 74 3e bb a3 69 3e
       0.07335749 0.094818726 0.23872368 0.22816364
000020 ec 43 ac 3d 01 2c 39 bd 88 73 bf 3e 66 ec 00 3e
       0.084113926 -0.04520798 0.3739283 0.12590179
000030 91 2b 09 3e 87 10 ac 3d 84 7f 6f bd 6c b2 1e 3e
       0.13395526 0.0840159 -0.058471218 0.1549775
000040 c1 01 54 be ec c2 60 3e 0a 76 2e bd c6 e7 3a 3d
       -0.20703794 0.21949357 -0.04259304 0.045631193
000050 be 15 97 3e d5 d0 3d 3d 65 1f b1 3d 36 f1 eb bd
       0.29508775 0.046341736 0.08648566 -0.11520617
000060 71 09 30 3e 9a 5b 2a bc 9e 0e 8d 3e 14 bd aa 3c
       0.17191102 -0.010397816 0.27550215 0.020842113
000070 4d 8d 5d 3d 16 3e 5b 3e 29 b4 3b be 23 1b 20 3e
       0.054089833 0.21410403 -0.18330444 0.15635352
000080 84 e8 50 3d 4f 11 4a 3d 14 f8 25 bd 0f 71 95 bd
       0.051002994 0.049332913 -0.04051979 -0.07296955
000090 f8 55 94 3e ff d5 c9 3c b1 90 06 3e 39 29 b5 3d
       0.2897184 0.024638174 0.13141133 0.08845753
0000a0 37 2d 75 3d 77 03 96 3e 6d 46 88 3e 7d 60 d6 3d
       0.059857573 0.29299518 0.2661623 0.104676224
0000b0 37 be 98 bd a6 ae be 3c e2 c3 56 3e c9 3d be 3e
       -0.074581556 0.023276638 0.20973161 0.37156513
0000c0 1f b3 80 3c d0 da a3 bc df c5 c4 3d 3f 3e a1 3d
       0.015710412 -0.020001799 0.096080534 0.078732006
0000d0 58 1f 13 3e cb fb 58 3d 6b e2 8f 3d ec 91 fa 3d
       0.14367425 0.052974503 0.07025608 0.12234864
0000e0 a1 ab 1d 3e 49 00 21 3e 5e e2 cb 3c 0a d9 55 3e
       0.15397502 0.15722765 0.024888214 0.20883575
0000f0 f9 b5 72 bc ac 99 1c 3d d1 1e 1f 3d b0 0b f1 3d
       -0.0148138935 0.03823249 0.03884775 0.11769807
000100 45 9f 5e 3d 18 12 c8 3d 25 0b 85 3d 6a b8 43 3e
       0.05435111 0.09769076 0.06496266 0.19113317
000110 0b 7e 0e 3e 19 66 6c bd 78 3c 48 3e da 52 b5 3c
       0.13915269 -0.057714555 0.19554317 0.022134233
000120 cc 5b 6d 3e f8 37 87 3d 76 a4 08 3e 48 a9 29 3d
       0.23179549 0.06602472 0.13343987 0.041421205
000130 1c 86 28 3e 80 5a 85 3d 22 2e 8e 3e 2b 4b 81 3c
       0.16457409 0.06511402 0.27769572 0.015782913
000140 50 0e 06 3c 6a 9b dc 3d fa e1 f4 3d 36 48 07 3e
       0.008182123 0.107718304 0.11957164 0.1321114
000150 4a bb 0d 3e 75 f6 9b 3e c7 b2 01 be e4 af 19 be
       0.13840976 0.3046147 -0.12665854 -0.15008503
000160 81 87 31 bc 80 12 ec bd b4 c7 1e 3e ef e7 37 3e
       -0.010835529 -0.11526966 0.15505868 0.1795957
000170 97 4e aa 3d 5b 39 b9 3d 29 45 4e 3d 90 6f 2e 3c
       0.08315771 0.09044143 0.050358925 0.010646716

pn.fc.2.0.weight f4 [64, 96]
000000 92 33 05 3d c2 5a e2 3c e8 9a f8 bc 3e 46 91 bd
       0.032519884 0.027631167 -0.030347303 -0.07093476
000010 4c ad b3 bd 24 e1 ac bd 5e ba 15 bd c7 0d 20 3d
       -0.08773288 -0.0844138 -0.036554687 0.03907564
000020 ae e4 f9 3b ee cc 99 3d 98 ce 25 bd 4e c3 94 bd
       0.0076261377 0.0750979 -0.040480226 -0.07263814
000030 ca 36 13 bd b8 57 1a 3d 8e df bb bc 68 5d 03 3d
       -0.035940923 0.03768131 -0.022933748 0.0320715
000040 00 c1 70 3b 54 45 9a bd 72 de 97 bd 26 6f d9 bb
       0.003673613 -0.075327545 -0.07415475 -0.0066355644
000050 b8 3d e9 b9 70 3e e7 bd f4 a3 e7 bd da 8a 00 be
       -0.00044487207 -0.11291206 -0.113105685 -0.12552968
000060 52 cc 9b bc 02 54 b4 bd c0 0e 16 bc da 42 e2 bd
       -0.019018326 -0.08805086 -0.00915879 -0.11047907
000070 24 b5 c2 bd 02 9a 6b bd 1e bf 9c 3d 67 96 8c bd
       -0.09507206 -0.05751992 0.0765364 -0.068646245
000080 8c ca be bd cc 56 13 bd d2 ff 02 bd 3e cf 96 3c
       -0.093159765 -0.035971448 -0.03198225 0.018409368
000090 65 3f 81 bd c0 a8 b5 bc 74 0d 92 3d fd c3 a2 bd
       -0.0631092 -0.022175193 0.07131472 -0.07947538
0000a0 36 50 90 3c 3e c7 98 bd 7a 41 f2 bd d8 cc 75 bc
       0.017616373 -0.074598774 -0.11828895 -0.015002452
0000b0 00 b3 ad bc c2 80 0d 3d 70 66 3e 3c fc 6b b7 bd
       -0.021203518 0.03454662 0.011621103 -0.08956143
0000c0 ba 42 a4 bb f6 db b9 bc 4c bb de 3b 93 23 b4 bc
       -0.0050128372 -0.022687893 0.00679723 -0.02198962
0000d0 30 14 62 bd b4 73 14 bd c0 6e cf bd 08 fa 53 3d
       -0.055195034 -0.036243156 -0.10128546 0.05175212
0000e0 c8 ce e4 bd ac 9e 39 3d 9c eb 0d 3d ae e5 c7 bd
       -0.11172253 0.045317337 0.034648523 -0.09760605
0000f0 8a 44 03 3c 3e eb a4 bd f7 ac 11 3d e2 2a d5 bd
       0.008011946 -0.080526814 0.035565343 -0.1040857
000100 6d 54 dc bd 5a 31 ba 3c a2 06 b7 bd 5b a4 80 bd
       -0.107582904 0.02272861 -0.08936812 -0.06281348
000110 b2 ab 5f bd e2 b6 9a bd 6d 41 95 bb 97 cb 09 bd
       -0.0546071 -0.075544134 -0.0045549185 -0.033641424
000120 88 74 fb 3c 6e f8 4f 3d dc 43 e7 bd bc f0 f9 bd
       0.030695215 0.05077403 -0.1129224 -0.122041196
000130 c1 b1 5d 3d 72 34 76 3b 20 36 d2 bc 1e 95 aa bd
       0.054124597 0.003756788 -0.025660574 -0.08329223
000140 a8 78 db bd 72 08 af bd d7 34 ba 3c 00 ef ad bb
       -0.10716373 -0.08546533 0.022730274 -0.005308032
000150 66 b9 b6 bd c8 dd 15 bd 3a c4 2c bd 52 46 81 bd
       -0.08922081 -0.03658846 -0.042179324 -0.06312241
000160 f7 b9 d7 bc af e9 c7 bd 8e a8 1c bd b7 25 e8 bd
       -0.026333792 -0.097613685 -0.038246684 -0.113353185
000170 78 1a 80 3c 02 28 81 bd b2 82 a7 3c 46 9b c1 bd
       0.015637621 -0.06306459 0.020448063 -0.09453444
000180 98 da 90 bc de 58 6e bd c8 eb 3d be b0 dc 7d 3d
       -0.017682359 -0.05819022 -0.18546975 0.061978042
000190 ce 58 93 3c 9e a3 64 bd 80 6f d2 bd fa f7 8e bc
       0.017986681 -0.0558201 -0.10275173 -0.017452229
0001a0 73 c1 9a bd ba 6e 15 be 43 9f 59 3c e6 c1 86 3d
       -0.07556429 -0.1459302 0.0132826 0.06579952
0001b0 e6 ed a6 bd ea c7 b4 bd 80 c9 b9 bd cd b8 93 bd
       -0.08150844 -0.08827193 -0.09071636 -0.07212982
0001c0 20 c3 ed 3a 84 b3 42 3d 80 b9 12 3d 4c 9c c4 3c
       0.0018139817 0.04753448 0.035821438 0.02400031
0001d0 94 c1 97 3d 88 a7 36 3a 02 0d 66 bd 78 f0 07 bd
       0.07409969 0.0006967713 -0.05616475 -0.033188313
0001e0 1e 1d 27 3d 06 c9 3b 3c 5e 0c 44 be 90 22 90 bd
       0.040799253 0.011461502 -0.19145343 -0.07037842
0001f0 ec 2e d2 bc b0 68 f6 bd 58 e5 80 bd 00 60 9f bd
       -0.02565714 -0.12031686 -0.06293744 -0.077819824
000200 35 b8 e7 bd c6 c1 cb 3a d8 bd 6a 3d ee 1d 86 bd
       -0.113144316 0.001554542 0.057309955 -0.065486774
000210 b8 0f 0e be d6 5b ac 3c a0 9f db 3b 5c 22 d2 bb
       -0.13873184 0.021039885 0.0067023784 -0.0064127874
000220 7f 3b 39 bd d4 cc 2a bd 00 cf 2e be 5a fd ed bd
       -0.045222756 -0.041699246 -0.17071152 -0.116205886
000230 70 49 c9 bd 62 ea df bc ed 23 28 3d a4 0f 49 bc
       -0.0982846 -0.027333442 0.041049886 -0.012271795
000240 b4 96 e9 bd b8 74 ba bd 14 0c 9a bd 52 c0 95 bd
       -0.114056975 -0.091042936 -0.07521835 -0.07312073
000250 2e 1f c1 bd 5c e0 3c bd 56 83 df bd 9c 77 06 3d
       -0.09429775 -0.046112403 -0.10913722 0.032828912
000260 78 e8 a6 bc ba 2f 22 3d 98 c4 0c bd 5e 82 89 bd
       -0.020374522 0.039596297 -0.034367174 -0.06714319
000270 39 da 95 bd 50 fa 9b bd 2a 75 ef bc a2 bb 21 bd
       -0.07317013 -0.07616103 -0.029230673 -0.03948558
000280 38 a3 1e 3b 80 82 ad bd 68 73 c9 3c ce e4 0e be
       0.0024206173 -0.084721565 0.024591163 -0.1395447
000290 cc 15 aa bc 00 d0 78 bc c8 73 8f bd 36 6c 98 bd
       -0.020762347 -0.01518631 -0.070045054 -0.074425146
0002a0 be fb 35 3a a4 0d 19 bd f0 c6 51 bd d2 60 e8 bd
       0.00069421146 -0.037366524 -0.051215112 -0.11346592
0002b0 4c 75 4a 3d 02 94 ca bd bc 67 52 3c 78 99 fb 3c
       0.04942827 -0.098915115 0.012842115 0.030712828
0002c0 ae ec 5f bd 3a ea aa 3a 96 50 d5 bb 54 53 c7 bd
       -0.054669075 0.0013039776 -0.0065098507 -0.097326905
0002d0 0d 4c 87 bd 98 5e 03 3d ba a2 13 bd 88 ae 3f 3d
       -0.066063024 0.032072634 -0.03604386 0.046797305
0002e0 16 ac 59 bd 83 af a6 bc fe 87 11 be 8e ca 9f bd
       -0.05314263 -0.020347362 -0.14212033 -0.07802306
0002f0 4c 31 68 3d ce eb 9d bd 0a 26 7a bd 62 3a 66 bc
       0.05668764 -0.07710992 -0.061071433 -0.0140520055
000300 99 94 61 bc 41 d7 91 be 5f a5 25 3e 08 43 7c be
       -0.013768339 -0.28484538 0.16176365 -0.24634945
000310 b6 53 c0 be 21 0c 40 bd 82 7c 66 bd db 3f a8 3d
       -0.37563866 -0.046886567 -0.056271084 0.082153045
000320 4c 66 06 bd 8c c9 7c bc de 5f d0 bd 77 a5 e2 bc
       -0.0328124 -0.015428912 -0.10174535 -0.02766679
000330 1d 3b 65 3c d5 5a 15 3d 30 3f cc 3d 07 d7 09 c0
       0.0139911445 0.036463577 0.099729896 -2.1537492
000340 1b f9 b1 be 86 34 12 be 05 2b 22 bd 3d 07 86 3c
       -0.34760365 -0.14277849 -0.039591808 0.016360873
000350 5c 98 8a bc 00 dd 06 3d 7b 27 ae 3c 41 73 88 3d
       -0.016918354 0.032925606 0.02125906 0.06662608
000360 ae 2c d0 bd f9 42 3c bd ab 82 36 bb 6a 25 9d bd
       -0.10164772 -0.045962308 -0.002784888 -0.07673152
000370 92 de 54 ba f7 4d a2 be 18 e0 3c 3c 83 08 cf bc
       -0.0008120324 -0.31700107 0.0115280375 -0.025272613
000380 ec 7b d4 3d 11 4b 73 bd 3d 08 a0 3c 86 85 88 3c
       0.10375199 -0.05939776 0.019535178 0.016665231
000390 74 1c 0f be b2 a5 d5 3d 4c 19 d0 bd cb 1f ff 3c
       -0.13975698 0.104319945 -0.10161075 0.03114309
0003a0 19 4e 9b bb d6 e2 af bd 29 6c 7f be df 93 24 bd
       -0.0047395346 -0.085881874 -0.24943604 -0.040180083
0003b0 3a fa b1 3d 3e 0b 70 3c 0d 79 03 3e 4d c2 16 be
       0.08690305 0.014651118 0.12839146 -0.14722557
0003c0 79 23 af bd 25 51 db bc a1 3d f8 ba 6c 20 a3 bd
       -0.08551688 -0.026772091 -0.0018939265 -0.07965168
0003d0 e5 2d 8c 3d b7 ce 35 c0 68 52 17 bc a2 02 98 3e
       0.06844691 -2.8407419 -0.009235956 0.2968951
0003e0 22 fc 15 bf 49 aa 90 3d f1 38 92 3e a9 a1 99 be
       -0.5858785 0.07063729 0.28559068 -0.3000615
0003f0 a6 21 b4 bd 67 01 5c ba 23 ad 3a bf f8 4c 0d bd
       -0.087954804 -0.0008392543 -0.72920436 -0.03449723

pn.fc.2.0.bias f4 [64]
000000 3d c3 e3 bd 5e 16 a9 bd 96 c8 ab 3e a3 b3 a8 3e
       -0.11121223 -0.08256219 0.33551472 0.32949552
000010 a5 a7 89 be d3 76 c2 3e f6 9c be 3e d5 9e fe 3e
       -0.26885715 0.3798128 0.37229127 0.49730554
000020 52 48 f8 3e 1d e7 a1 3e 2e 3b a8 3e a8 af 0a 3f
       0.48492676 0.31621638 0.3285765 0.5417428
000030 d5 f8 e0 3e 29 6a 1f 3f 43 25 8d 3e ba 7d e6 3e
       0.43939844 0.6227136 0.2756749 0.45017797
000040 24 22 70 3e 83 09 15 3f fb b8 12 3f 08 d9 e4 3e
       0.23450524 0.5821764 0.5731351 0.44696832
000050 5e 2a ce 3e 43 18 96 3e f7 2b 94 3e 3c ff d6 3e
       0.402667 0.29315385 0.28939793 0.41991603
000060 f2 9c 94 3e d8 7d 98 3e 2b db 1b 3e a4 32 ca 3e
       0.2902599 0.2978351 0.15220325 0.3949176
000070 4d 91 70 3e 38 c0 0a 3f 66 74 99 3e dc 5e 94 3f
       0.23492928 0.5419955 0.29971617 1.1591449
000080 af 80 b1 3e 50 9b b5 3e 09 36 c8 3e 37 ab d0 3e
       0.3466849 0.35470057 0.39103726 0.40755627
000090 7e ff 0c 3f 30 6c ed 3e 29 4f 45 3e a6 79 89 3e
       0.5507735 0.46371603 0.19268478 0.26850623
0000a0 a8 2f a6 3e 54 a1 ec 3e c9 40 1e 3f b5 7d b9 3e
       0.32458234 0.46216834 0.61817604 0.3622872
0000b0 a6 04 8c 3e 60 0b f3 3e 65 0d 81 3e f2 5a a8 3e
       0.27347296 0.47469616 0.25205532 0.32881886
0000c0 3c f7 50 3e 0e 75 9e 3e 8a a9 0d 3f e6 e3 54 3e
       0.20406812 0.3094868 0.5533682 0.20790061
0000d0 10 0d bb 3e fc 1b 0a 3e 9d 40 8e 3e 29 a7 06 3f
       0.36533403 0.13487238 0.2778367 0.52598816
0000e0 cf 9d 96 3e 98 30 0d 3f c5 d7 de 3e de 92 29 3f
       0.29417273 0.55152273 0.43523994 0.66239727
0000f0 55 3e 85 3e 3a 79 03 3f 2b 8c 26 3f 7a 08 ad 3e
       0.26024118 0.5135685 0.6505763 0.3379553

pn.fc.3.weight f4 [7, 64]
000000 f6 fd 02 3e f0 38 97 bd 37 bc 85 3d 5e 25 26 bf
       0.12792191 -0.07383907 0.0653004 -0.6490077
000010 ed 6f 32 3e 2c 72 12 3e c4 93 3c 3e e7 e5 24 3e
       0.17425509 0.14301366 0.18415743 0.16103326
000020 68 e9 2e 3e 48 bf de 3d 2b cd 15 3e af 20 07 be
       0.17081225 0.10876328 0.14629047 -0.13196062
000030 c2 11 5e 3d 11 c7 1b 3e 8c b8 c6 be 1b 9e ab be
       0.054216154 0.15212657 -0.38812673 -0.33519062
000040 96 f6 ec 3c d2 f9 96 be 9a f4 50 3e 75 ac 04 3e
       0.028926175 -0.29487473 0.20405808 0.12956412
000050 21 b2 8d bf 51 01 89 be 44 02 30 3e 97 33 05 3e
       -1.1069986 -0.26758817 0.17188364 0.13007961
000060 c2 a6 9e be a4 9e 89 be 76 c7 55 be 44 e8 8a bd
       -0.309866 -0.26878846 -0.2087687 -0.067825824
000070 88 b8 7a 3e 02 6b 21 bf 33 8d ec 3d b5 c1 12 3e
       0.24484456 -0.63053906 0.11550369 0.14331706
000080 ec 95 fc 3d 00 b7 ac bf 20 73 a8 bf 13 60 b2 bf
       0.12333283 -1.3493347 -1.3160133 -1.393557
000090 04 f6 45 bd d1 bf 7d 3e 92 bd 3a bf 41 33 42 3d
       -0.048330322 0.24780203 -0.7294551 0.04741216
0000a0 a3 90 78 bd 91 4e 9e be ec 1b a4 bd 7f b6 93 3d
       -0.06068481 -0.30919316 -0.08013138 0.07212543
0000b0 8e b0 92 be ef de 2c 3e a8 51 02 be fc c7 1a 3e
       -0.28650326 0.16881917 -0.12726462 0.1511535
0000c0 52 57 a7 bf 7b 76 cc bd ad d7 82 3d f7 96 a7 bf
       -1.3073523 -0.09983536 0.06388793 -1.3092946
0000d0 fc b1 b7 be f9 ee b7 be 20 90 e1 3d ee 52 58 3e
       -0.3587798 -0.3592451 0.11013818 0.21125385
0000e0 ad 44 bd bf 23 d9 5e bc ec 45 c7 be 94 06 0e 3e
       -1.4786583 -0.013601574 -0.38920534 0.13869697
0000f0 49 88 21 3d f1 f7 fa 3d f7 ad 93 3d 67 d1 00 3d
       0.039436612 0.12254322 0.072109155 0.0314497
000100 cc b0 31 bd bc 01 8a 3d 86 bc c1 3d 91 36 57 3e
       -0.043381497 0.06738612 0.09459786 0.21016909
000110 7c d8 89 3d eb 24 0b 3e ff f0 40 bf 81 fe 26 3e
       0.06730744 0.13588302 -0.7536773 0.16308023
000120 bb 65 32 3e 81 92 f4 be 42 14 fc 3d ba 00 a4 be
       0.1742162 -0.47768024 0.12308551 -0.32031804
000130 82 8d da bf 48 0b 1e 3e f0 0e f2 be 22 ba a9 be
       -1.7074435 0.15433991 -0.4727702 -0.3314982
000140 13 e8 53 3c ce 4c b4 be 07 59 4f 3e 41 c3 0c 3e
       0.012933749 -0.35214847 0.20248805 0.13746358
000150 45 52 67 bf 73 de ef bf 6a 00 3f bf 25 71 05 3e
       -0.9035991 -1.8739761 -0.74610007 0.13031442
000160 76 0a 69 be 68 f7 0a 3e 41 b4 a4 be 1a bb 38 bd
       -0.22757897 0.1357094 -0.32168773 -0.04510031
000170 4f c7 82 bd ac c8 13 3e 4b e9 f0 be 62 b4 0b 3e
       -0.06385671 0.14432019 -0.47052988 0.1364303
000180 03 74 fb 3d 91 6e 04 bf 4b 0b 9d bf b9 e4 43 3e
       0.12277987 -0.5173121 -1.2269071 0.1913022
000190 5b 20 e5 be 38 79 15 bf 1a 41 44 bf 42 a4 f3 3c
       -0.44751248 -0.5838809 -0.7666184 0.02974141
0001a0 11 fc ed 3d e5 4c 48 3e 22 ab dc bd 76 b2 a1 3d
       0.116203435 0.19560583 -0.107748285 0.07895367
0001b0 88 4e ad be 28 d3 26 3e 8c 4d 67 3e 78 8f 83 be
       -0.33848977 0.16291487 0.22588176 -0.25695395
0001c0 53 d4 c3 bf 11 eb 51 3e 7c 85 b2 3c e4 86 96 bf
       -1.5299171 0.20499827 0.021792166 -1.1759915
0001d0 7e 37 22 3e c8 04 1f 3d fc 08 e1 3d bb b5 57 3e
       0.15841481 0.03882292 0.10988042 0.21065418
0001e0 93 de c5 3d 5c ce 1b 3d b6 35 26 bd 7c b0 14 3e
       0.09661593 0.038038597 -0.040578566 0.14520448
0001f0 ed 80 89 3c 9f 36 f7 3d 2e eb 88 3d 73 a3 a9 bc
       0.01678511 0.12070965 0.06685482 -0.020707821
000200 44 cf a0 3d 44 20 95 bd 17 e6 84 3d 0b f3 b5 3c
       0.07852033 -0.07281545 0.06489199 0.022210618
000210 50 ba 90 bd 11 49 dd be ff 6c b5 3c 77 38 3f 3e
       -0.07066786 -0.43219808 0.0221467 0.18673883
000220 76 09 e4 be 3e fc 04 3e 5c 4d 3a 3e 30 bc f3 3d
       -0.44538468 0.12986848 0.18193573 0.11901128
000230 5e c4 3b be 71 2c 24 3e 3a ee 5b 3e da fb a6 be
       -0.18336627 0.16032578 0.21477595 -0.32614022
000240 72 8a 84 3b cf 56 0c 3e a8 44 6e 3e b0 af bb be
       0.0040448243 0.1370499 0.23268378 -0.36657476
000250 93 7b 80 3e 08 7d 38 be 9a 36 e5 3d a6 b6 06 3e
       0.2509428 -0.18016446 0.11192055 0.13155612
000260 1d 8f e4 3d fd 93 0f 3e dd 67 d6 be 91 3b 4a 3c
       0.11160109 0.14021297 -0.41876116 0.012343303
000270 dc 6f 84 3e 57 8f 82 be 4f c6 2e be 7e 1f 87 bd
       0.25866592 -0.25499985 -0.17067836 -0.065978035
000280 eb 17 04 3e 02 6e 61 be a1 42 5d be f3 1b 6b be
       0.12899749 -0.22014621 -0.21607448 -0.2295988
000290 60 cc 4f 3e f8 4f bf be d3 14 36 3e ff 4d 59 bc
       0.20292807 -0.373657 0.17781381 -0.013263225
0002a0 b4 dc e1 bd 97 31 71 3e 94 c6 f7 3d d6 96 2d bd
       -0.11028424 0.23554073 0.12098423 -0.042380176
0002b0 26 ac 5f 3e b7 e9 96 be 23 51 83 3e 85 71 1c 3e
       0.21843013 -0.29475185 0.2564784 0.1527768
0002c0 2c 25 5d 3e 56 f9 71 3e 98 d0 b5 3d 65 92 1f bd
       0.21596211 0.2363027 0.08877677 -0.038957972
0002d0 ee aa 2a be 10 9e 9f 3d 4d be 01 3e d7 d7 55 be
       -0.16666767 0.0779382 0.1267025 -0.20883118
0002e0 d6 ab ff 3d ff d5 c4 bd 75 d7 56 3e d2 b8 35 bf
       0.12483947 -0.09611129 0.20980628 -0.7098514
0002f0 14 48 54 3a e2 8f f0 3d fe d5 38 be 54 70 d6 bc
       0.00080978987 0.117461935 -0.18050382 -0.02617661
000300 6e ab ca bd c1 07 41 3d 57 f5 6b bd c4 46 3b 3e
       -0.09895979 0.047126535 -0.05760702 0.18288714
000310 2b 96 10 3d 27 e6 66 bc e3 1e bd 3d 27 c5 29 3e
       0.03529946 -0.0140929585 0.09234407 0.16579114
000320 ac a4 cd be 3e 5c be 3d d1 07 2a 3e 68 f6 e8 3d
       -0.40164697 0.092949376 0.16604544 0.11375123
000330 5f e5 86 3d 81 f7 f5 3d ab 1a 59 3e 64 58 12 3e
       0.06586718 0.12010098 0.2120158 0.14291531
000340 43 62 08 be 83 45 da bd f5 af 85 be 9a c3 05 3c
       -0.13318734 -0.106577896 -0.26110807 0.008164311
000350 f6 8f 28 3e 35 7b 98 3b 01 bd 31 3e c8 d1 a0 be
       0.16461167 0.0046533593 0.17357256 -0.3141005
000360 71 e1 1c 3e bd e4 21 be 1b 30 ce bd fd 04 7f 3c
       0.15320374 -0.15809913 -0.10067769 0.015565154
000370 6e 61 20 bd 97 67 af bd 2f c8 a3 3d 80 d0 d6 bd
       -0.039155416 -0.0856468 0.07997166 -0.10488987
000380 10 5c e5 3d 01 3b 32 bd 5a ee 12 3b 71 25 0c 3e
       0.111992 -0.0435133 0.00224199 0.13686158
000390 9e 1e c0 3d fc 74 ca 3d b2 b3 2e 3e 52 5b 92 3c
       0.0938084 0.09885594 0.17060736 0.01786581
0003a0 6a 68 04 3e 50 51 5b 3d d7 25 e9 3d 8a 8a 9b bd
       0.12930456 0.053544343 0.113841705 -0.075947836
0003b0 47 9f 32 3e a3 83 e5 3d 06 19 49 bd f2 67 fd bd
       0.17443572 0.11206748 -0.04909613 -0.123733416
0003c0 2f d3 43 3e be 7e 66 3e f0 a3 1b 3c 66 02 12 3e
       0.19123529 0.22509286 0.009499535 0.14258727
0003d0 3d 84 1d 3e af 19 08 3c 25 54 ef 3d 7c 5c 1f be
       0.15382476 0.008306905 0.11685971 -0.15562624
0003e0 97 dc 46 3e 9f dd c1 bd 11 13 41 3e 5a cf 50 be
       0.19420086 -0.09466099 0.1885493 -0.20391598
0003f0 0a 38 30 bd cb 68 b5 3d f3 41 f1 bd 7f 7b 75 3d
       -0.043022193 0.08857878 -0.11780157 0.05993223

pn.fc.3.bias f4 [7]
000000 94 24 0c bf aa 3d 13 bf bf fd 74 bf 20 5b 2e bf
       -0.54743314 -0.57515967 -0.95699686 -0.68107796
000010 18 a4 a6 3e 43 a3 3b 3f 70 f7 79 3f
       0.3254707 0.7329599 0.97643185

onnx::Conv_404 f4 [48, 23, 1]
000000 5a 0f 24 3e c0 6d 4d be e6 06 ee bb 4f e4 a1 ba
       0.16021481 -0.20061398 -0.007264006 -0.0012351366
000010 c7 e0 89 3c 7a c1 c4 3b e5 da 24 bd 95 ab 7c bb
       0.016830815 0.0060045095 -0.040247817 -0.003855442
000020 2c d6 e9 bd 35 2a 09 3c b7 1d b2 bf ae 35 58 bd
       -0.11417803 0.008371879 -1.3915318 -0.052785568
000030 0c 3b ff 3b 6b 3b d7 bd 7f b3 46 3c a5 d7 fd 3d
       0.0077890214 -0.1050938 0.012127756 0.123946466
000040 87 21 4f 3d b7 d9 89 bc 37 fe 35 bd 9f 7d 14 bd
       0.050569084 -0.016827447 -0.04443189 -0.036252614
000050 93 93 e6 3c c8 14 2e 3d 8e 7f 6a bd 32 04 3d 3e
       0.02814654 0.042500287 -0.057250552 0.18458632
000060 97 e3 d9 3d 91 46 77 3b 89 53 21 3b 5c 03 c5 bb
       0.106391124 0.003773127 0.0024616441 -0.0060123634
000070 e9 6c 29 3e 52 f2 19 3d 34 40 de 3d d9 f0 a1 bd
       0.16545452 0.03758461 0.108520895 -0.07907266
000080 de 41 15 3e 4d 95 08 bb dd 84 37 3e 8b 1b 41 3c
       0.14575908 -0.0020840943 0.17921777 0.011786352
000090 10 6b 24 3e f9 d2 4e be c3 12 1f 3d 89 32 0f be
       0.16056466 -0.20197667 0.038836252 -0.13984121
0000a0 da 6f 04 3c 7b 3c 60 3e e2 b4 04 bc 96 95 1f 39
       0.008083308 0.21898071 -0.008099766 0.00015219147
0000b0 3d e6 97 3e 58 c3 d9 3d e0 fd 84 bd 9b 91 b3 3d
       0.29667845 0.10632962 -0.06493735 0.087680064
0000c0 72 6d 85 bf f8 c5 f1 3c 57 71 03 3d 41 de 7a 3b
       -1.0424025 0.029513344 0.03209051 0.0038279446
0000d0 93 39 18 3c 5b 17 8e ba 2a 4f 8d bc 11 05 86 bc
       0.0092910705 -0.0010840701 -0.017249662 -0.016359838
0000e0 e2 b0 07 3d 71 16 9e 3c 4b 28 78 3b d9 e1 df b9
       0.033127673 0.01929781 0.0037865813 -0.00042702144
0000f0 ce cd 66 be 16 d9 0b be 1d 3f d9 3d 48 cb 58 3b
       -0.22539446 -0.1365703 0.10607741 0.003308015
000100 2f 92 12 3c 8c 5c 0c 3c b7 af 89 3c 3a c6 3b 3c
       0.008945986 0.008566987 0.01680742 0.011460835
000110 ce 56 da 3b 02 ee 89 be a7 f7 91 3d b8 6e 74 3c
       0.00666318 -0.26939398 0.07127314 0.0149189755
000120 27 2a a8 3c 6d 17 3d bd 5f 32 cb 3d 6b a3 e1 be
       0.020527912 -0.04616492 0.09921717 -0.4406999
000130 38 5f ad bd 76 c1 3a be dc 3f 3b 3e 52 0c 90 3c
       -0.08465427 -0.18237862 0.18286079 0.017584
000140 f5 f3 82 3c 99 08 59 3c d0 a6 14 3e 88 2e 25 be
       0.015985468 0.013246679 0.14516759 -0.16131032
000150 4e ff ed 3b a7 14 53 3c 66 37 bd bc 94 83 8c be
       0.0072631007 0.012883342 -0.023097705 -0.27444136
000160 b7 58 17 3c 92 60 b2 3d ec 51 2a 3f 31 e2 52 3d
       0.00923746 0.087098256 0.6653125 0.051485244
000170 b6 a6 ad 3e 66 a8 84 be c6 30 67 bc 6f 56 4f 3c
       0.33916253 -0.25909728 -0.01411075 0.012654885
000180 07 46 4f bc cd 3a 98 3e 80 2f 92 3c 84 e7 78 be
       -0.012650973 0.2973236 0.017844915 -0.24307066
000190 d1 ae d2 bd 91 df 2b 3e d6 10 94 3c b3 b4 3c 3d
       -0.1028725 0.16784503 0.018074434 0.046070766
0001a0 c5 a3 c0 3c 77 0b a3 be 57 0c 04 3f 56 66 9a 3d
       0.023515591 -0.31844684 0.5158133 0.0753905
0001b0 66 e0 7b be ec 8c 3a 3c ea e1 36 3e 88 31 66 3d
       -0.2459732 0.011386137 0.17859617 0.05619958
0001c0 17 19 41 bc e7 92 a8 3e b0 74 12 3e 50 30 92 bd
       -0.011785767 0.32924578 0.14302325 -0.07138121
0001d0 06 be af 3d 5b 18 56 3f f6 70 50 be 4d 5c 0f be
       0.08581166 0.83630913 -0.20355591 -0.14000054
0001e0 1a a3 14 bd b7 22 a7 3c 30 ca aa bb 25 20 11 bc
       -0.03628836 0.020402296 -0.005212091 -0.0088577615
0001f0 c8 a5 e2 bc d1 9e e7 bc 5a 3c 2b 3b 98 9d fb bb
       -0.027666941 -0.028273972 0.0026128502 -0.0076786987
000200 9c b9 80 3b a3 bf 40 be 9a 9d 16 3d 3a 95 02 3e
       0.0039283764 -0.18823104 0.036771394 0.12752238
000210 d1 65 2a 3c 35 9e 9a 3c 30 b6 ef bb c5 42 03 3d
       0.0104002515 0.018874267 -0.0073154196 0.0320461
000220 b2 a8 d2 3c 9d 3a 01 bc 5a 39 10 bd 04 05 de 3e
       0.025715206 -0.00788751 -0.035210945 0.43363202
000230 a3 08 f4 3a ee f3 04 3c 10 22 31 3c 34 b8 c9 3b
       0.0018618297 0.008114798 0.010811344 0.006155992
000240 44 7a f8 3d 69 ed 06 be 18 9e 65 be 01 71 ee 3e
       0.12132695 -0.13176502 -0.22423589 0.4657059
000250 39 5f a3 3b 81 63 13 3d 01 85 ca bb 59 d5 00 bf
       0.0049857167 0.035983566 -0.006180406 -0.5032554
000260 d2 f6 25 bf bc e5 87 be 95 83 83 3e fa 50 0e 3d
       -0.6482974 -0.2654246 0.25686327 0.034745194
000270 70 02 bb 3e cd 01 5a bc bb 0d 96 bd 84 59 77 be
       0.36525297 -0.013306093 -0.07326838 -0.24155241
000280 72 dc 23 3d bd 5e a6 bb db b2 04 3d 17 cf 93 3e
       0.040005155 -0.0050772117 0.032397132 0.28868935
000290 9d ab 5a 3f 00 08 df bc 6d 66 71 3b b5 57 0d 3d
       0.8541811 -0.027225494 0.0036834732 0.034507472
0002a0 69 67 92 bc e6 9d 18 bd c2 cd f7 3c 3b 2c 89 bc
       -0.017871575 -0.03725996 0.03024948 -0.016744724
0002b0 8b c3 79 3d cc 09 c1 bc 10 29 5f bc 76 98 e9 bd
       0.0609775 -0.023564242 -0.01362063 -0.11406033
0002c0 fb f9 18 be 41 ff 69 3d b2 e6 9d bb 59 bb cd 3c
       -0.1493911 0.057128195 -0.004818761 0.025113748
0002d0 8e 79 95 bc bb 5d 91 3d cb ed 55 bc 83 df 98 bb
       -0.018246438 0.07097956 -0.013057183 -0.0046653165
0002e0 2b 4c 0d bf 17 19 19 3f 7f f6 13 bc e7 d6 10 bb
       -0.5519435 0.5980391 -0.009030937 -0.0022100748
0002f0 f5 9d fc bc 99 c6 26 bd eb b5 77 bd 9e ce 06 bf
       -0.030837039 -0.04071674 -0.060476225 -0.5265902
000300 0c 4e c0 3e 22 71 3f 3f 6f da 17 3c 12 fe fa be
       0.37559545 0.74782 0.009268387 -0.49021965
000310 66 da d5 bb 71 f1 4b 3e 11 78 00 3e 67 b4 c2 be
       -0.0065262793 0.19916321 0.12545802 -0.3802826
000320 a3 41 3a bd 33 e5 55 bc 4a 06 c5 3d 28 a5 dc bc
       -0.045472752 -0.013055134 0.0962034 -0.026934221
000330 93 1d 06 3c 40 ad 4a bf ee e4 8d 3e ea b5 66 bb
       0.008185762 -0.7917061 0.27713722 -0.0035203644
000340 d1 21 81 3d f6 ab c7 bb 87 30 f5 3c 79 6c f1 3e
       0.06305278 -0.0060934974 0.029930366 0.4715307
000350 df 4b 2a bb df eb 0f 3c 05 62 9a 3d 3f f1 74 bc
       -0.0025985164 0.008784263 0.07538227 -0.014950096
000360 27 3f e3 3b c3 51 aa bc cd 8e a1 3d 64 27 54 3f
       0.0069350186 -0.02079094 0.07888565 0.82872605
000370 44 ef 59 be cf d7 05 3b 93 04 1e 3b 2a ee 91 3c
       -0.21282679 0.0020422821 0.0024111613 0.01781376
000380 30 ea 26 bc 6b 4d 3e bd e5 13 67 bc 33 26 a7 3d
       -0.010187671 -0.04646055 -0.014103864 0.08161583
000390 67 e9 52 3c 04 3b 1c bd 99 e6 a7 3c 9a 2c ba bd
       0.01287303 -0.03814222 0.0204957 -0.09090538
0003a0 0e 54 1d 3d 6b d0 e6 3c fb c0 ca bd 83 81 cd 3d
       0.03841024 0.028175553 -0.09900089 0.10034468
0003b0 1c 3c 02 3e 6d 38 44 3e 75 1f a8 3d 74 37 6c 3e
       0.12718242 0.1916215 0.08209125 0.23068029
0003c0 37 78 ee 3b 7b d7 9a 3e ee 97 e1 3a d8 46 0d bd
       0.0072775143 0.30242524 0.0017211416 -0.03449139
0003d0 4d 61 70 3d 09 78 2d 3e 88 2a 45 3e 3f fe c8 3d
       0.058686543 0.16940321 0.19254506 0.098141186
0003e0 bf ff 40 bd cf 7e 2d 3f 99 89 4e be f0 73 14 be
       -0.0471189 0.6777162 -0.20169677 -0.14497352
0003f0 0c 30 39 be 36 31 69 be 4c 42 a4 3c 09 4b c2 bb
       -0.18084735 -0.22772679 0.020051144 -0.005929355

onnx::Conv_405 f4 [48]
000000 b1 4c 3c 3e fa 12 f3 be 02 3d 6a 3f c1 b2 1d 3e
       0.1838863 -0.47475415 0.9149934 0.1540022
000010 b9 83 d3 be 2f 1d 48 3f 3f 57 fa 3d 2b d0 d2 3e
       -0.41311434 0.7816953 0.12223672 0.41174445
000020 07 38 58 3e 86 84 2c be a2 84 ec 3e 2f a5 0c 3f
       0.21115123 -0.16847429 0.4619494 0.5493955
000030 4b dc f2 3e 0f 5e 18 3f 23 e2 cf 3d f2 16 95 3e
       0.47433695 0.5951852 0.10150554 0.29119068
000040 e9 28 4e 3e 5e 04 9a 3c 7b 81 7b 3f 13 a2 25 bf
       0.20132793 0.01880091 0.98244447 -0.6470043
000050 bb 7f be 3e 51 b5 22 3f cc 00 41 3f e5 85 ab bd
       0.37206826 0.63557917 0.7539184 -0.08375148
000060 91 d9 2e 3f ac a4 cb bd a8 02 f3 3e d6 71 fa 3e
       0.6830073 -0.09943518 0.47462964 0.48914975
000070 50 79 21 3f 71 ee 15 3d 1f 8e 37 3e 70 2a f7 3e
       0.63075733 0.03660435 0.17925309 0.48274565
000080 e4 2b 84 3e d2 35 87 3d a9 36 23 bd 9c 5e 59 3e
       0.25814736 0.06602062 -0.03984705 0.21227497
000090 b3 47 a1 bd d7 de c1 bd e8 76 85 3e 3a 30 ae 3e
       -0.07875004 -0.094663315 0.2606728 0.3402117
0000a0 19 6e 24 be 49 68 57 3e 1b dc 26 bd 40 79 6a 3e
       -0.16057624 0.21035875 -0.040737253 0.22897816
0000b0 ec b7 b2 bd 7e e1 39 bf bf 19 af 3e 21 59 fc 3d
       -0.087264866 -0.726097 0.3419933 0.123216875
