DeepDoubleX/102X/V021/BvL.onnx (onnx, 237799 bytes, 35 tensors)

ID_pred/kernel:0 f4 [100, 2]
-0.074189425 0.07485427 -0.051517215 -0.12902407 -0.15803373 -0.07034281 -0.025836268 0.04793555
0.034114473 -0.06396355 0.17990524 0.09564467 -0.04021977 -0.15506834 -0.18871665 0.07647621
-0.09164009 -0.004694299 -0.06558343 -0.1887527 0.036514945 -0.12255338 0.06528328 0.13084924
0.010077575 0.11436428 0.09798872 0.16974361 -0.05805087 0.0059121167 0.021935025 0.09309876
0.027903596 -0.07316151 -0.019071005 -0.12043759 -0.038996678 0.055322066 -0.07953021 -0.009573511
0.13374083 -0.20630293 0.06284722 -0.037386004 0.02005728 -0.09294133 -0.02103961 -0.11793608
0.070483625 -0.012597266 0.07715714 -0.07037145 -0.0056140865 -0.20297064 -0.011323245 0.0820204
0.008434837 -0.09783097 -0.052350268 0.21340004 -0.05155558 0.024749162 0.14241391 0.059871487
0.040078826 -0.066767484 -0.03012545 0.13664803 0.103088416 0.0011419407 -0.10082517 -0.028599462
0.007318567 0.07214342 -0.079937756 -0.012235559 -0.088445626 -0.17414966 -0.14958012 -0.046647627
-0.1270555 0.13854595 0.09710763 0.193525 0.074310236 -0.119995095 -0.043624405 0.060223624
-0.0574946 -0.12968642 0.11972844 0.020976057 -0.05349463 0.18173707 0.26603773 -0.064969994
0.052173693 0.123932034 0.017470451 -0.0742961 0.12536828 0.0495322 -0.11271081 -0.033036873
0.0850948 -0.031173922 0.21951473 -0.16703703 -0.025821844 0.040303368 -0.051557187 0.0577887
0.124185935 0.03463926 -0.046401836 0.02274653 -0.08555254 -0.012768064 -0.11871119 0.047494516
0.11501025 0.01729421 0.02688787 -0.047936197 -0.012548524 -0.11596666 -0.1277692 -0.06232686
0.1335037 0.057355143 -0.11832307 -0.046560783 -0.053775553 -0.12953612 -0.18485136 -0.09812756
0.057824094 -0.059649542 -0.11468501 -0.046470247 0.19681472 -0.18056038 -0.030723047 -0.10850061
0.23015884 -0.5031216 -0.0021007084 -0.09075277 0.045800436 -0.027307294 0.13810289 -0.0751462
-0.04304332 0.16913114 0.15396102 0.074475996 0.09930256 -0.0730536 0.083187 0.0066180313
0.032733675 -0.051777314 0.009772517 0.11210377 0.15155388 0.04673149 0.006908984 -0.07831494
0.046973515 -0.10257885 -0.050551414 0.07416801 -0.011714123 0.10993619 -0.11774131 0.03440725
0.025636476 0.12390844 -0.08371825 -0.15685931 -0.096977524 0.008509279 0.028436849 0.1705597
0.028610012 -0.046084866 -0.03453067 0.052769527 -0.04599902 0.022676103 -0.16131066 -0.053313967
-0.08326937 -0.17090449 0.07108091 -0.062929556 -0.07070626 -0.0014556376 -0.017778855 -0.13132606
00000000: a0f0 97bd 324d 993d b703 53bd e31e 04be
00000010: 98d3 21be e40f 90bd 95a6 d3bc 1158 443d
00000020: 9ebb 0b3d 52ff 82bd 1439 383e 5ae1 c33d
00000030: 7cbd 24bd 3cca 1ebe f03e 41be 8f9f 9c3d
00000040: cdad bbbd a2d2 99bb 9b50 86bd 6348 41be
00000050: b290 153d 44fd fabd 3eb3 853d 58fd 053e
00000060: 6a1c 253c d237 ea3d 4fae c83d 45d1 2d3e
00000070: c0c6 6dbd 6eba c13b 15b1 b33c 90aa be3d
00000080: 1596 e43c b4d5 95bd cc3a 9cbc fca7 f6bd
00000090: fbba 1fbd 6499 623d bce0 a2bd 37da 1cbc
000000a0: 5bf3 083e 1341 53be 0bb6 803d 1122 19bd
000000b0: 2a4f a43c 0658 bebd 435b acbc 7988 f1bd
000000c0: b859 903d c364 4ebc 9004 9e3d e81e 90bd
000000d0: 5ff6 b7bb 89d7 4fbe 2285 39bc 50fa a73d
000000e0: 4532 0a3c 9b5b c8bd 3c6d 56bd 8a85 5a3e
000000f0: f22b 53bd c1be ca3c f4d4 113e ce3b 753d
00000100: b229 243d 64bd 88bd a6c9 f6bc 76ed 0b3e
00000110: 0520 d33d 2cad 953a 6d7d cebd 6b49 eabc
00000120: 97d0 ef3b eebf 933d 68b6 a3bd a777 48bc
00000130: fb22 b5bd 4a54 32be 882b 19be 9511 3fbd
00000140: d61a 02be fdde 0d3e 5de0 c63d 6b2b 463e
00000150: f72f 983d fdbf f5bd 81af 32bd 0cad 763d
00000160: 757f 6bbd 84cc 04be 2f34 f53d fbd5 ab3c
00000170: 2f1d 5bbd 4819 3a3e 1936 883e fd0e 85bd
00000180: 15b4 553d 14d0 fd3d 311e 8f3c 8e28 98bd
00000190: 8b60 003e 47e2 4a3d edd4 e6bd ac51 07bd
000001a0: 2f46 ae3d 7460 ffbc 78c8 603e c10b 2bbe
000001b0: 5588 d3bc 2515 253d a12d 53bd d8b3 6c3d
000001c0: 3255 fe3d e6e1 0d3d da0f 3ebd ee56 ba3c
000001d0: 2c36 afbd 2431 51bc da1e f3bd 9c89 423d
000001e0: 7e8a eb3d 96ac 8d3c f343 dc3c bf58 44bd
000001f0: 5398 4dbc ee7f edbd eed5 02be 734a 7fbd
00000200: 32b5 083e 3aed 6a3d 5e53 f2bd 85b6 3ebd
00000210: c143 5cbd 1ea5 04be ad49 3dbe 1af7 c8bd
00000220: f5d8 6c3d 1453 74bd f9df eabd 9657 3ebd
00000230: cc89 493e d2e4 38be e6ae fbbc 9135 debd
00000240: c2ae 6b3e 94cc 00bf 0aac 09bb 97dc b9bd
00000250: 3d99 3b3d 8cb3 dfbc d86a 0d3e 40e6 99bd
00000260: 314e 30bd b730 2d3e f5a7 1d3e df86 983d
00000270: 245f cb3d 209d 95bd f25d aa3d 12dc d83b
00000280: bf13 063d 7314 54bd e81c 203c a996 e53d
00000290: f130 1b3e 8569 3f3d c264 e23b 9563 a0bd
000002a0: 4d67 403d dc14 d2bd 000f 4fbd 66e5 973d
000002b0: 98ec 3fbc 3a26 e13d 5b22 f1bd 9eee 0c3d
000002c0: 9603 d23c b5c3 fd3d 7974 abbd ba9f 20be
000002d0: 279c c6bd 816a 0b3c 65f4 e83c 34a7 2e3e
000002e0: 8b5f ea3c 7cc3 3cbd 0870 0dbd dc24 583d
000002f0: 7869 3cbd 3cc3 b93c 9f2e 25be bf5f 5abd
00000300: 2289 aabd 9601 2fbe de92 913d 36e1 80bd
00000310: 72ce 90bd 18cb beba f6a4 91bc 577a 06be

ID_pred/bias:0 f4 [2]
-0.30533803 0.30534825
00000000: 4455 9cbe 9b56 9c3e

fc1_relu/kernel:0 f4 [155, 100]
0.032703377 -0.20922081 -0.06566734 -0.03424249 0.81658214 0.50352126 0.40972298 -0.14883462
-0.25681326 -0.5336624 -0.28893358 -0.01074698 -0.6394182 0.023911893 -0.060113613 -0.14667897
-0.08289508 0.16956775 0.14061233 -0.43316177 -0.36299488 -0.13268243 -0.13245878 -0.72156125
-0.3142114 1.0167637 -0.14011875 0.22445224 0.88121504 -0.2406365 -0.14244188 -0.38854063
-0.53327674 -0.08787016 -0.55453295 -0.04526868 -0.07285109 0.04365644 -0.089795806 0.21736223
-0.40265155 0.19269718 0.08039141 0.38023657 0.1450823 0.0606952 -1.7001278 -0.6942899
-0.12956677 -0.5663104 -0.21097705 -0.15281835 -1.1752648 2.0987897 -0.29793215 0.33422014
-0.07607943 0.061837506 -0.031749807 0.06897843 -0.6695876 -0.37595457 -0.13282594 -0.24316686
0.00027553318 0.105845205 -0.10082129 0.08352298 -0.90580934 -0.101734444 -0.5558563 0.25769147
-0.4537586 0.46033636 0.54136306 0.29386818 0.07669337 -0.29627421 -0.62314475 0.16590707
0.22045673 -0.3039627 0.56330764 0.2584115 -0.07093752 -1.0583072 -0.21276887 -0.41567412
-0.02228263 0.21670742 -0.23655185 -0.4109397 -0.19083521 0.2734555 -0.033943594 -0.80837715
0.03281195 0.11780323 0.06825331 0.20381802 0.5214061 -0.51669997 -0.23153976 0.22242141
0.34929964 -0.018074656 -0.3951318 -0.5135627 0.14077681 0.565035 -0.028557593 0.11887317
0.25732177 -0.5292422 -0.31261984 0.06730756 -0.12911819 0.6531323 0.5232961 -0.35098162
0.34663656 -0.42512542 0.19043809 0.40352258 -0.15744308 -0.53576875 0.96113104 -0.13384943
0.12634952 0.07919323 0.044241425 -0.3925607 -0.47649586 -0.05918202 -0.4777358 0.5358228
0.31434804 0.035116572 0.15842374 -0.08315844 0.90652716 0.7616864 0.30235162 0.5784905
0.060756657 0.5542673 0.45559803 0.1360748 -0.00258859 -0.037339572 -0.24132593 0.20324604
-0.09195038 0.22063804 -0.41706014 -0.48431194 0.55151653 -0.29627657 0.1139371 1.6820639
-0.6627391 -0.079180345 0.05427123 0.16152187 -0.15661217 -0.0018481807 -0.20472698 0.46295646
-0.65241915 -0.0020291442 1.8568133 -0.25096452 0.21221656 -0.5926275 -0.40635753 -0.1404964
0.31588018 -0.54909015 0.12619163 -0.37411585 -0.22508687 0.71042216 0.5484716 -0.034985755
0.32242563 0.30756927 0.7542684 0.009190062 0.8201513 0.31910163 -0.1069193 0.06439863
-0.21105666 -0.2255098 1.0715618 0.17903103 0.15130799 0.30871361 0.4596489 0.15120919
-0.3013525 0.42171723 0.07808049 0.32725957 0.27609834 -0.68900084 0.6880715 0.7215026
-0.29287085 -0.4407209 -0.12479207 0.023402207 0.086864494 0.08945578 0.34419787 0.17699651
-0.18543977 0.75575167 -0.04429989 0.106467076 0.098948784 0.6492768 0.045519423 -0.2364126
0.7148501 0.49912563 -1.0812877 0.33152518 -0.6373627 -0.64023584 0.09277597 0.40924993
0.18226871 0.05445125 0.46072498 0.22911596 0.13086633 0.08564935 -0.14006872 -0.29164246
-1.1234018 -0.3469839 -0.36310184 -0.19188319 -0.36091927 0.41787666 -0.2584999 0.010789488
-0.14943743 0.09848156 0.14355373 0.1361224 0.26201758 -0.43202242 -0.115910344 -0.01730504
00000000: faf3 053d fb3d 56be 997c 86bd da41 0cbd
00000010: 870b 513f c5e6 003f 36c7 d13e 1a68 18be
00000020: 077d 83be 199e 08bf 1aef 93be 1a14 30bc
00000030: e9b0 23bf e0e2 c33c b139 76bd 0333 16be
00000040: e5c4 a9bd 2ba3 2d3e aefc 0f3e 61c7 ddbe
00000050: 77da b9be e7dd 07be 46a3 07be 3db8 38bf
00000060: 51e0 a0be 5025 823f 4a7b 0fbe cfd6 653e
00000070: 4f97 613f 6a69 76be 49dc 11be ccee c6be
00000080: d384 08bf 45f5 b3bd dff5 0dbf a76b 39bd
00000090: f432 95bd 18d1 323d dde6 b7bd 3494 5e3e
000000a0: 5828 cebe 6952 453e 40a4 a43d 5eae c23e
000000b0: 7490 143e 889b 783d ca9d d9bf fcbc 31bf
000000c0: 27ad 04be b8f9 10bf 5e0a 58be 6a7c 1cbe
000000d0: 146f 96bf 9252 0640 908a 98be e71e ab3e
000000e0: 88cf 9bbd 5349 7d3d 160c 02bd 9044 8d3d
000000f0: 186a 2bbf 1e7d c0be 8603 08be bc00 79be
00000100: 7075 9039 5fc5 d83d 647b cebd 190e ab3d
00000110: 1fe3 67bf 265a d0bd 994c 0ebf 23f0 833e
00000120: 0c53 e8be 35b1 eb3e c596 0a3f e475 963e
00000130: 6a11 9d3d 41b1 97be 6a86 1fbf 8be3 293e
00000140: 69bf 613e 00a1 9bbe ee34 103f 834e 843e
00000150: b147 91bd 9c76 87bf 15e0 59be 3dd3 d4be
00000160: 108a b6bc 8de8 5d3e a63a 72be b066 d2be
00000170: 4e6a 43be 5c02 8c3e 7008 0bbd cef1 4ebf
00000180: d365 063d d242 f13d 64c8 8b3d acb5 503e
00000190: df7a 053f 7346 04bf c218 6dbe 70c2 633e
000001a0: 67d7 b23e 4d11 94bc b74e cabe d878 03bf
000001b0: cc27 103e 22a6 103f 9df1 e9bc c773 f33d
000001c0: aebf 833e 6b7c 07bf b50f a0be 8cd8 893d
000001d0: 8f37 04be ae33 273f bcf6 053f ddb3 b3be
000001e0: 597a b13e 0aaa d9be 3402 433e 839a ce3e
000001f0: c238 21be 2428 09bf af0c 763f d30f 09be
00000200: c561 013e 0f30 a23d 7f36 353d b7fd c8be
00000210: 44f7 f3be d968 72bd c999 f4be af2b 093f
00000220: 3af2 a03e 65d6 0f3d d539 223e f94e aabd
00000230: 2a12 683f e1fd 423f d5cd 9a3e f417 143f
00000240: f9db 783d 76e4 0d3f 2544 e93e 3157 0b3e
00000250: 55a5 29bb 61f1 18bd 251e 77be bb1f 503e
00000260: 7b50 bcbd f0ee 613e e888 d5be bcf7 f7be
00000270: 3030 0d3f 90b1 97be db57 e93d df4d d73f
00000280: 45a9 29bf 4e29 a2bd 824b 5e3d fd65 253e
00000290: f15e 20be a73e f2ba f3a3 51be a108 ed3e
000002a0: f104 27bf 64fb 04bb 0fac ed3f 6c7e 80be
000002b0: 4c4f 593e 70b6 17bf 180e d0be 4ade 0fbe
000002c0: 0cbb a13e 2c91 0cbf 6138 013e 1d8c bfbe
000002d0: 2c7d 66be 3ade 353f a368 0c3f 394d 0fbd
000002e0: f914 a53e b879 9d3e bc17 413f ea91 163c
000002f0: 70f5 513f 4a61 a33e 82f8 dabd 6ee3 833d
00000300: 3d1f 58be 0aec 66be f028 893f e953 373e
00000310: 7bf0 1a3e b60f 9e3e 1a57 eb3e 95d6 1a3e
00000320: e04a 9abe 52eb d73e aae8 9f3d 918e a73e
00000330: c35c 8d3e 5c62 30bf 7425 303f 65b4 383f
00000340: 2bf3 95be 2ba6 e1be fc92 ffbd fcb5 bf3c
00000350: 03e6 b13d 9834 b73d b43a b03e 933e 353e
00000360: ece3 3dbe f178 413f cd73 35bd 690b da3d
00000370: a9a5 ca3d 0137 263f 9372 3a3d 2516 72be
00000380: 6b00 373f 658d ff3e a367 8abf abbd a93e
00000390: 342a 23bf 7fe6 23bf 5401 be3d 3589 d13e
000003a0: a6a4 3a3e 4608 5f3d 25e4 eb3e 609d 6a3e
000003b0: d301 063e ed68 af3d 2d6e 0fbe 2952 95be
000003c0: a1cb 8fbf e0a7 b1be 7ce8 b9be 077d 44be
000003d0: 69ca b8be eef3 d53e 195a 84be 65c6 303c
000003e0: 2006 19be b3b0 c93d c0ff 123e ac63 0b3e
000003f0: 2b27 863e 0b32 ddbe 6762 edbd 4dc3 8dbc

fc1_relu/bias:0 f4 [100]
-1.1096025 0.5650198 -0.5403635 0.11255006 0.0021196133 -0.33903244 -0.3026157 -1.7720786
-0.37082222 -0.262528 -0.47161096 -0.014530489 -0.46587604 -0.05376856 -0.08759709 -0.12887366
-0.033860013 -0.06282174 -0.49042442 -0.27089962 -2.888334 -0.046894718 -0.033796933 -0.16075154
0.56503785 -0.6969057 -2.0117705 -0.8380856 0.092637815 -1.8552097 -0.21091436 0.10745038
-0.17607813 -1.2786932 -0.9048741 0.120871805 0.1566507 -0.14935108 0.292923 -0.81283253
-1.6097172 -0.08630533 -2.706255 -0.8521989 0.1619641 -0.13493665 -1.7793862 -2.2409682
0.11122588 0.16148107 0.48597956 -0.58202004 -0.43879405 -2.3033671 -0.46780333 -0.87184983
0.22054599 -0.20935816 0.14819121 -0.5240383 0.05798628 0.43673286 0.07138776 -0.009386271
0.35285106 0.08666387 0.33422902 -0.2850838 -0.3791964 -0.060127236 -1.1453573 0.21342902
-2.1764023 0.20387985 0.5447573 -1.9138205 -2.4214895 0.5799724 -1.8179116 0.4429319
-0.10757446 -0.9660174 -1.5424619 0.062357947 -1.0242409 -0.4308403 -0.07655153 -1.0287089
-0.65677077 -0.008212639 -0.6642426 -1.2556958 0.008280926 -1.1480978 0.23686299 -0.85454106
-0.112495735 -0.63595325 0.028507829 -0.7697926
00000000: 7407 8ebf 23a5 103f 4355 0abf a580 e63d
00000010: 36e9 0a3b a995 adbe 72f0 9abe 79d3 e2bf
00000020: 69dc bdbe 126a 86be fe76 f1be 4a11 6ebc
00000030: 4e87 eebe 6c3c 5cbd 1a66 b3bd 75f7 03be
00000040: ccb0 0abd afa8 80bd e918 fbbe 5bb3 8abe
00000050: 77da 38c0 ad14 40bd a76e 0abd 0d9c 24be
00000060: 52a6 103f 6968 32bf d9c0 00c0 c78c 56bf
00000070: e5b8 bd3d 8377 edbf eff9 57be f20e dc3d
00000080: d34d 34be 38ac a3bf d4a5 67bf a38b f73d
00000090: 0b69 203e 7def 18be 01fa 953e cb15 50bf
000000a0: 370b cebf d9c0 b0bd 4833 2dc0 b529 5abf
000000b0: ebd9 253e d52c 0abe edc2 e3bf 066c 0fc0
000000c0: 65ca e33d 4b5b 253e 50d2 f83e 44ff 14bf
000000d0: 9da9 e0be 5e6a 13c0 eb83 efbe 8d31 5fbf
000000e0: cfd6 613e fc61 56be 70bf 173e 6027 06bf
000000f0: 0683 6d3d 739b df3e bf33 923d e0c8 19bc
00000100: e5a8 b43e d47c b13d 1120 ab3e 81f6 91be
00000110: 0826 c2be fa47 76bd 119b 92bf 238d 5a3e
00000120: 2d4a 0bc0 e1c5 503e 3775 0b3f 12f8 f4bf
00000130: aff9 1ac0 1279 143f 54b1 e8bf f8c7 e23e
00000140: 0050 dcbd eb4c 77bf 646f c5bf 0c6b 7f3d
00000150: 531a 83bf 1a97 dcbe 0cc7 9cbd bcac 83bf
00000160: 2122 28bf 4e8e 06bc ce0b 2abf a4ba a0bf
00000170: b9ac 073c def4 92bf 368c 723e 34c3 5abf
00000180: 2a64 e6bd d5cd 22bf 4089 e93c 2111 45bf

scale f4 [5]
0.1251388 0.33928937 0.23253936 1.4812169 0.38156044
00000000: 6324 003e 56b7 ad3e cc1e 6e3e 8498 bd3f
00000010: e45b c33e

bias f4 [5]
-1.5043669 -1.0321367 -0.33160055 0.35859978 -0.019518305
00000000: 188f c0bf 0e1d 84bf 8cc7 a9be 649a b73e
00000010: dae4 9fbc

mean f4 [5]
0.0 0.0 0.0 -0.0 0.0
00000000: 0000 0000 0000 0000 0000 0000 0000 0080
00000010: 0000 0000

var f4 [5]
1.0 1.0 1.0 1.0 1.0
00000000: 0000 803f 0000 803f 0000 803f 0000 803f
00000010: 0000 803f

tensor_w f4 [1, 150, 32]
-0.3607017 0.66610575 0.47755483 -0.040654663 -0.12475924 -0.06557969 0.57495224 1.0859292
0.36498642 1.0338328 -0.32176855 0.33598378 0.1548173 0.95757544 -0.108845 -0.16774227
0.7265261 1.1115524 0.43059552 -0.05388838 0.865486 -0.11421417 0.3047857 0.0149293225
0.6823574 -0.5346146 0.25365058 0.2794804 -0.22904073 0.11097722 0.54689974 -0.6094273
0.4869623 0.5040444 0.27854112 0.3409165 0.46692532 0.0470159 -0.17210402 0.011332362
-0.54514414 -0.36742055 0.43605655 0.19323409 0.35593608 0.53285843 -0.08925076 0.064933255
0.22737174 -0.21629858 -0.25387925 -0.12792452 -0.46025014 0.046874553 0.044738077 0.123322
-0.65160733 -0.014779364 0.23321298 -0.217693 -0.13466935 -0.04272628 -0.044864804 0.40733102
0.27927822 -0.60570073 -0.15175906 -0.05595526 -0.018134648 0.24607423 -0.37899792 0.15207593
0.4326449 0.081787236 0.39244866 0.50329065 0.5450191 0.3617459 0.5693446 0.48399347
-0.7087819 0.30011696 0.15296939 0.9774188 0.14944054 0.36162385 0.34150118 0.40980473
0.686172 0.27598554 -0.05124285 -0.6479199 0.14902261 0.041879315 -0.23436639 -0.20740026
-0.30185935 -0.037700713 -0.18127447 -0.02267273 -0.17190902 -0.49966297 0.44270217 -0.07380271
-0.25562847 0.22542174 -0.24217373 -0.24758354 0.20135991 0.098253325 -0.027440194 0.08027792
0.04604266 0.8018633 0.4612523 0.07516568 -0.100765154 0.054086372 -0.018894646 0.081075214
0.31225628 -0.16762882 -0.0118030235 -0.041584764 -0.2084146 -0.30100605 0.60308015 0.18742028
0.19422132 0.7975456 0.028744427 0.5578218 -0.30243447 0.32855904 0.5340994 0.62463284
0.5967497 1.4624172 -0.14342369 0.23077986 -0.048797667 1.1444858 0.017250896 0.8956396
0.17670217 0.52197176 0.65115315 0.2979115 0.77002156 0.6933499 0.9064688 0.39760277
0.84599096 0.1915086 0.9282491 0.46760157 0.6365893 0.59898186 0.91740865 -0.5841732
-0.008831479 -0.7944504 -0.3679343 0.14385876 -0.074139945 0.13176668 0.21225363 0.10386818
0.19876729 -0.17012979 0.059441205 0.09025379 0.12362167 0.41690212 0.0856934 1.4044222
0.3202552 -0.41022772 0.21467906 0.2596855 0.04083344 0.2768909 0.1858818 0.18995893
-1.2481159 0.6466124 0.8380507 -0.20793505 0.59092563 0.6085691 0.05400426 -0.44326577
0.83905625 0.38503915 0.8491619 0.31295556 0.20320657 0.023848552 -0.5024218 -0.57595086
0.08802493 -0.31950212 0.47504482 0.102640346 -0.01073407 0.123312265 0.14028537 0.4658609
0.011344157 0.2028683 -0.1110348 0.46320876 0.09925576 0.66043305 0.19325912 0.54568315
-0.009443252 0.3368282 0.6560558 0.31146377 0.7245682 0.035438888 -0.23855309 -0.19688818
0.05939608 -0.0037351185 -0.17694339 0.2769991 0.90275437 0.22957537 -0.87114376 0.38214347
0.006703971 -0.44267073 0.09176701 0.48231524 1.0844165 -0.22041127 1.0636277 0.5314871
0.5018917 0.3771934 0.09052981 1.3043065 0.1799684 0.41953757 0.15296888 1.4434614
-0.5094555 0.56164914 0.22705545 0.59084105 0.6638671 -0.42263314 -0.29900646 -0.16594829
00000000: e5ad b8be e885 2a3f 1182 f43e 8185 26bd
00000010: c681 ffbd a54e 86bd 1230 133f baff 8a3f
00000020: 80df ba3e a254 843f d9be a4be 1106 ac3e
00000030: 6d88 1e3e aa23 753f 21ea debd a1c4 2bbe
00000040: 9dfd 393f 5947 8e3f 0477 dc3e 10ba 5cbd
00000050: 7e90 5d3f 1ee9 e9bd df0c 9c3e 1e9a 743c
00000060: f9ae 2e3f 81dc 08bf 7dde 813e 0e18 8f3e
00000070: a789 6abe 0648 e33d 9f01 0c3f 6d03 1cbf
00000080: 1f53 f93e 0e09 013f f19c 8e3e 9c8c ae3e
00000090: d610 ef3e bf93 403d 093c 30be 5fab 393c
000000a0: 918e 0bbf 8c1e bcbe ce42 df3e 28df 453e
000000b0: 413d b63e 6969 083f 1ac9 b6bd bafb 843d
000000c0: 23d4 683e 607d 5dbe 76fc 81be a5fe 02be
000000d0: e8a5 ebbe 88ff 3f3d 463f 373d 3f90 fc3d
000000e0: bdcf 26bf 2525 72bc 62cf 6e3e eaea 5ebe
000000f0: c3e6 09be c001 2fbd 28c4 37bd b18d d03e
00000100: 8efd 8e3e 340f 1bbf ba66 1bbe 5831 65bd
00000110: 1d8f 94bc e2fa 7b3e 040c c2be cbb9 1b3e
00000120: a283 dd3e 1180 a73d 08ef c83e a8d7 003f
00000130: 5f86 0b3f c236 b93e 91c0 113f fecd f73e
00000140: bb72 35bf eea8 993e 02a4 1c3e 1e38 7a3f
00000150: f106 193e c326 b93e 3ed9 ae3e edd1 d13e
00000160: f8a8 2f3f fa4d 8d3e 06e4 51bd 14de 25bf
00000170: 6299 183e a589 2b3d befd 6fbe bc60 54be
00000180: 4f8d 9abe 106c 1abd 04a0 39be 29bc b9bc
00000190: eb08 30be d3d3 ffbe dca9 e23e e025 97bd
000001a0: bce1 82be f5d4 663e 64fc 77be 8a86 7dbe
000001b0: 4b31 4e3e 0a39 c93d 42ca e0bc c068 a43d
000001c0: 3a97 3c3d ea46 4d3f 4329 ec3e 77f0 993d
000001d0: f65d cebd ac89 5d3d f2c8 9abc c30a a63d
000001e0: 0ee0 9f3e e4a6 2bbe 7861 41bc c954 2abd
000001f0: a36a 55be 771d 9abe 7663 1a3f 1aeb 3f3e
00000200: f4e1 463e f32b 4c3f 6f79 eb3c 69cd 0e3f
00000210: b1d8 9abe e438 a83e bdba 083f f0e7 1f3f
00000220: 97c4 183f 7d30 bb3f a9dd 12be 8e51 6c3e
00000230: 10e0 47bd 837e 923f c051 8d3c a348 653f
00000240: 6af1 343e f19f 053f f9b1 263f db87 983e
00000250: 2220 453f 617f 313f 570e 683f 9792 cb3e
00000260: dd92 583f d51a 443e bca1 6d3f 7969 ef3e
00000270: 84f7 223f e056 193f 4bdb 6a3f 608c 15bf
00000280: e8b1 10bc 1a61 4bbf e261 bcbe b64f 133e
00000290: afd6 97bd d8ed 063e 0459 593e d7b8 d43d
000002a0: a789 4b3e 8136 2ebe 9f78 733d fbd6 b83d
000002b0: 5c2d fd3d 3274 d53e 0580 af3d 1bc4 b33f
000002c0: 7df8 a33e 5e09 d2be d4d4 5b3e 7ff5 843e
000002d0: f740 273d a5c4 8d3e cc57 3e3e 9884 423e
000002e0: 43c2 9fbf 6488 253f 7e8a 563f edec 54be
000002f0: e746 173f 2fcb 1b3f 9233 5d3d bbf3 e2be
00000300: 64cc 563f da23 c53e ad62 593f b63b a03e
00000310: 6215 503e 0a5e c33c b79e 00bf 8471 13bf
00000320: 6a46 b43d c895 a3be 1339 f33e 1a35 d23d
00000330: f4dd 2fbc 248b fc3d f8a6 0f3e 5285 ee3e
00000340: d8dc 393c b5bc 4f3e 3766 e3bd b329 ed3e
00000350: 9b46 cb3d 2412 293f b8e5 453e e4b1 0b3f
00000360: dfb7 1abc bf74 ac3e 46f3 273f 2e78 9f3e
00000370: 4d7d 393f 5e28 113d 4347 74be 0e9d 49be
00000380: 4e49 733d e4c8 74bb a630 35be d3d2 8d3e
00000390: e91a 673f ce15 6b3e 4703 5fbf 4fa8 c33e
000003a0: fcac db3b bda5 e2be 58f0 bb3d 06f2 f63e
000003b0: 29ce 8a3f 7eb3 61be f424 883f 8a0f 083f
000003c0: f97b 003f 7e1f c13e b167 b93d 84f3 a63f
000003d0: a349 383e a1cd d63e e0a3 1c3e 58c3 b83f
000003e0: ad6b 02bf 3dc8 0f3f 3981 683e 5c41 173f
000003f0: 32f3 293f 5f63 d8be 6017 99be 59ee 29be

tensor_r f4 [1, 150, 50]
0.35694104 0.5974761 0.11872983 -0.2842689 0.4241964 -0.23366642 -0.060603958 -0.02258138
-0.30958828 0.06319703 -0.60779184 -0.025031788 -0.5616945 0.6071557 0.48068014 0.07497618
0.2715636 -0.52301794 0.75845563 -0.051271144 0.23098572 -0.45544374 -0.2217915 -0.16883875
-0.060570817 -0.32846156 0.05390462 0.22949849 0.32938427 -0.1624688 -0.004647945 -0.6512124
0.024332995 -0.72824347 -0.06511369 0.28440452 0.417967 -0.06399979 0.39116594 0.108172044
-0.18605049 -0.46900475 0.12272263 0.2246392 0.37580657 -0.09836524 -0.18644348 -0.09162548
-0.47334716 -0.27275333 -0.307237 0.44958982 0.15045539 0.0032695055 -0.24623662 0.09524973
0.05907543 -0.23673147 -0.3155389 -0.038533527 -0.50719804 0.112013735 -0.24564207 0.094577424
0.18330425 0.13867673 -0.23854673 0.31281686 0.20838721 -0.5000653 -0.20154254 -0.0748698
-0.32043418 -0.64078426 -0.031523395 0.24850784 -0.21691303 -0.053758133 -0.17857362 -0.6493273
0.017566232 0.3699067 -0.56411725 0.4501797 0.17322846 -0.06854341 -0.029714122 0.26511806
-0.14029726 -0.13328703 0.23688053 0.4143071 -0.024364568 0.11838978 0.29124993 -0.18999676
0.040692374 0.09381566 0.38363746 0.46384698 0.42879158 -0.11682902 0.437149 0.3091849
0.3572067 -0.2568837 -0.3768185 1.0066353 0.09567925 0.42115957 -0.08946474 0.8581938
-0.23634581 0.09536553 0.73814595 0.1801949 -0.20715235 0.8586299 -0.110068046 0.23473015
-0.03486481 -0.44532233 0.0020862448 0.043131474 -0.35666338 -0.10976507 -0.3415654 -0.03750936
0.1163896 -0.15039977 -0.040566713 -0.022106059 0.4993538 -0.17091532 -0.1172624 0.27426437
-0.6444862 0.35567585 -0.0023263604 -0.13431104 0.7236093 -0.0043685785 0.014995095 0.20241974
-0.03230613 0.051770914 0.33983117 0.33247823 -0.46645308 -0.062157538 0.37869653 0.04495839
-0.18298662 1.030154 -0.14555135 -0.09835593 0.054791104 0.10115006 -0.216891 -0.0020031454
-0.13232508 -0.31626865 -0.22094086 -0.3568859 0.06341643 0.20550615 0.38833636 -0.052723028
-0.047356475 0.018837728 -0.2525154 -0.40134057 0.042522572 -0.0058334796 0.18700133 0.3886803
0.1342624 -0.15504317 0.22680971 -0.03158577 0.73124015 -0.30444044 -0.26984942 -0.15596916
0.009279811 -0.023990417 0.31946862 0.1177447 -0.48046666 0.123035766 -0.20530716 -0.14242387
-0.5438639 0.26550823 0.272134 0.009818945 0.0012778905 0.12728636 -0.44162115 -0.4335594
0.08253279 0.16147126 0.09460491 0.12117854 0.51517713 -0.2115602 0.029356448 -0.45609635
-0.11017072 -0.0018631535 0.05448337 -0.14863168 0.02106728 0.17680995 -0.009125008 0.04314882
-0.3880032 -0.29956752 0.20580001 0.16320685 0.00089742156 -0.28710815 -0.0016458532 -0.09984847
-0.10373527 -0.5387126 0.1516102 0.21171524 0.35200965 0.2769032 -0.49768966 -0.13375774
0.026078504 -0.040127944 0.15904422 0.21508008 -0.0012496867 0.15612495 0.029956816 0.090245716
0.262471 -0.22202006 0.047818523 0.037989803 0.32358307 0.43155578 -0.07538078 0.1539553
0.08390331 0.10650199 -0.16138113 -0.049020648 -0.30830157 0.18402132 0.56833565 0.24643609
00000000: fac0 b63e 32f4 183f a028 f33d b18b 91be
00000010: 4530 d93e 4046 6fbe db3b 78bd 96fc b8bc
00000020: 5b82 9ebe 726d 813d 3f98 1bbf 770f cdbc
00000030: 36cb 0fbf 8e6e 1b3f b51b f63e 1d8d 993d
00000040: 620a 8b3e 81e4 05bf 262a 423f b101 52bd
00000050: 8587 6c3e ec2f e9be 501d 63be 11e4 2cbe
00000060: 1b19 78bd 1d2c a8be 17cb 5c3d a701 6b3e
00000070: 0ea5 a83e 395e 26be ca4d 98bb dbb5 26bf
00000080: fd55 c73c 2a6e 3abf 545a 85bd 789d 913e
00000090: c5ff d53e 5212 83bd e746 c83e 4e89 dd3d
000000a0: 0584 3ebe 6421 f0be 0156 fb3d d207 663e
000000b0: b869 c03e b773 c9bd 0aeb 3ebe 24a6 bbbd
000000c0: 8f5a f2be 53a6 8bbe 2b4e 9dbe a330 e63e
000000d0: fa10 1a3e 3345 563b 7425 7cbe 4a12 c33d
000000e0: 14f9 713d bc69 72be 518e a1be 55d5 1dbd
000000f0: bbd7 01bf 7567 e53d 9889 7bbe cfb1 c13d
00000100: 1cb4 3b3e 4601 0e3e 9845 74be 8829 a03e
00000110: 7563 553e 4804 00bf 2b61 4ebe 5655 99bd
00000120: f30f a4be 700a 24bf ad1e 01bd d778 7e3e
00000130: 731e 5ebe 7d31 5cbd 01dc 36be 503a 26bf
00000140: 0fe7 8f3c 6964 bd3e fd69 10bf f47d e63e
00000150: cd62 313e 7d60 8cbd 086b f3bc 8ebd 873e
00000160: 16aa 0fbe 657c 08be cf90 723e 0f20 d43e
00000170: 3498 c7bc 5776 f23d b61e 953e 838e 42be
00000180: 0cad 263d 6d22 c03d 216c c43e 5a7d ed3e
00000190: 928a db3e 0e44 efbd fed1 df3e 7c4d 9e3e
000001a0: cce3 b63e 4386 83be 5bee c0be 6dd9 803f
000001b0: 7cf3 c33d 3aa2 d73e 4a39 b7bd 97b2 5b3f
000001c0: a304 72be 014f c33d 22f7 3c3f 0385 383e
000001d0: bf1f 54be 2bcf 5b3f 5b6b e1bd 1a5d 703e
000001e0: 67ce 0ebd 4a01 e4be 61b9 083b a1aa 303d
000001f0: 959c b6be 82cc e0bd a9e1 aebe 6aa3 19bd
00000200: ac5d ee3d 6602 1abe 4829 26bd c417 b5bc
00000210: 4dab ff3e 6d04 2fbe 4527 f0bd 616c 8c3e
00000220: 0cfd 24bf 251b b63e da75 18bb d588 09be
00000230: 763e 393f 4b26 8fbb fdad 753c 1f47 4f3e
00000240: 6f53 04bd bd0d 543d 5afe ad3e 963a aa3e
00000250: f0d2 eebe e798 7ebd 83e4 c13e 4a26 383d
00000260: d860 3bbe 16dc 833f 6a0b 15be d56e c9bd
00000270: a36c 603d c327 cf3d ad18 5ebe 3447 03bb
00000280: 3a80 07be f7ed a1be 523e 62be c0b9 b6be
00000290: 79e0 813d 3470 523e 06d4 c63e 1af4 57bd
000002a0: ddf8 41bd 9451 9a3c b349 81be 837c cdbe
000002b0: 262c 2e3d c626 bfbb 477d 3f3e 1b01 c73e
000002c0: 157c 093e a3c3 1ebe ce40 683e 1560 01bd
000002d0: 8e32 3b3f 9edf 9bbe b429 8abe 61b6 1fbe
000002e0: 590a 183c 8d87 c4bc 6491 a33e 2224 f13d
000002f0: baff f5be 2dfa fb3d 0a3c 52be 90d7 11be
00000300: aa3a 0bbf b2f0 873e 2655 8b3e a4df 203c
00000310: e47e a73a 5b57 023e 2b1c e2be 7ffb ddbe
00000320: f406 a93d b958 253e 38c0 c13d 742c f83d
00000330: a6e2 033f 3da3 58be ef7c f03c 7685 e9be
00000340: 30a1 e1bd 0f35 f4ba f429 5f3d e732 18be
00000350: 4a95 ac3c ab0d 353e 0f81 15bc d1bc 303d
00000360: 5ba8 c6be ea60 99be 3dbd 523e b21f 273e
00000370: f140 6b3a d7ff 92be abb9 d7ba 5b7d ccbd
00000380: 2873 d4bd 12e9 09bf b43f 1b3e e1cb 583e
00000390: 9c3a b43e 42c6 8d3e 2ed1 febe caf7 08be
000003a0: 96a2 d53c 335d 24bd 7ddc 223e f43d 5c3e
000003b0: 87cc a3ba 38df 1f3e ff67 f53c bfd2 b83d
000003c0: 9962 863e 3a59 63be 5bdd 433d 329b 1b3d
000003d0: aeac a53e e1f4 dc3e 3d61 9abd 75a6 1d3e
000003e0: 80d5 ab3d b71d da3d 1841 25be e0c9 48bd
000003f0: b4d9 9dbe 1670 3c3e 727e 113f be59 7c3e

tensor_b f4 [1, 300]
0.17998336 0.801844 0.40617102 1.0515263 0.46746665 0.72738117 1.0061572 0.9674886
0.89574295 0.4562493 0.6020764 0.76578987 0.06813509 0.42431584 0.81164926 0.9948671
0.38125664 1.2197672 0.54806495 0.12284461 0.5656537 0.784762 0.48196775 0.2498691
0.8310641 0.26913565 0.66824293 0.56047136 0.671005 0.40081584 0.6925612 0.26638946
0.8017845 0.6445871 0.5647349 0.16016023 0.2222638 0.5134134 1.0720898 0.6268573
0.76603585 0.54968125 0.20499335 0.9183191 0.055085663 0.837399 0.33269477 0.74655265
1.2841716 0.71630365 -0.13337842 -0.09538548 -0.64783436 -0.46336278 -0.16430163 -0.8176087
-0.72142684 -0.14289436 -0.74139696 -0.7474122 -0.6754332 -0.61756676 -0.6071327 -0.19647065
-0.9079705 -0.51615065 -0.6593686 -0.13517733 -0.86708015 -0.6369966 -0.5611493 -0.30637074
-0.6667436 -1.0432253 -0.22325 -0.30959946 -0.98407567 -0.18959892 -0.43418142 -0.5971508
-0.10865093 -0.30722004 -0.29261312 -0.7653129 -0.31908 -0.5399441 -1.072715 -0.25084734
-0.4529898 -0.9649211 -0.19068862 -0.64882386 -0.28965768 -0.35248077 -0.1418996 -0.3428006
-0.54484886 -0.2151754 -0.9186036 -0.55195206 0.16130945 0.13449426 0.037698578 -0.43978208
0.20814419 -0.085527375 -0.019991992 -0.4243426 -0.12217249 0.067370094 0.075503446 -0.026428515
0.055968735 0.38777912 -0.24984035 0.0800637 -0.48512453 0.005178707 0.70651364 0.34533367
-0.23386858 -0.13340752 -0.039852887 -0.30552697 0.106480494 -0.0166786 -0.19611296 0.08478642
-0.33754465 0.07733429 -0.08494792 -0.22100464 -0.06662153 0.04130333 0.23531112 0.044134248
-0.06607847 -0.06065895 0.060951956 0.13779639 0.22421898 -0.17091013 0.018184975 -0.320314
0.066639274 0.4007395 0.20532411 -0.11642982 0.40556288 0.31665778 0.0 0.0
0.0 0.0 0.0 0.0 0.0 0.0 0.0 0.0
0.0 0.0 0.0 0.0 0.0 0.0 0.0 0.0
0.0 0.0 0.0 0.0 0.0 0.0 0.0 0.0
0.0 0.0 0.0 0.0 0.0 0.0 0.0 0.0
0.0 0.0 0.0 0.0 0.0 0.0 0.0 0.0
0.0 0.0 0.0 0.0 0.0 0.0 0.0 0.0
0.0 0.0 0.0 0.0 0.0 0.0 0.0 0.0
0.0 0.0 0.0 0.0 0.0 0.0 0.0 0.0
0.0 0.0 0.0 0.0 0.0 0.0 0.0 0.0
0.0 0.0 0.0 0.0 0.0 0.0 0.0 0.0
0.0 0.0 0.0 0.0 0.0 0.0 0.0 0.0
0.0 0.0 0.0 0.0 0.0 0.0 0.0 0.0
0.0 0.0 0.0 0.0 0.0 0.0 0.0 0.0
00000000: 8f4d 383e a645 4d3f a6f5 cf3e 6a98 863f
00000010: ca57 ef3e a735 3a3f c2c9 803f 55ad 773f
00000020: 694f 653f 8299 e93e ae21 1a3f ce0a 443f
00000030: 698a 8b3d ed3f d93e 3fc8 4f3f 9caf 7e3f
00000040: 1234 c33e 5521 9c3f fc4d 0c3f f495 fb3d
00000050: aece 103f 2ae6 483f 7ac4 f63e afdd 7f3e
00000060: 9ec0 543f 26cc 893e f811 2b3f 0d7b 0f3f
00000070: fcc6 2b3f bc37 cd3e b14b 313f 3364 883e
00000080: c041 4d3f a903 253f 7792 103f 0b01 243e
00000090: 1f99 633e 106f 033f 3d3a 893f b879 203f
000000a0: ed1a 443f e9b7 0c3f c7e9 513e f616 6b3f
000000b0: 81a1 613d c85f 563f f856 aa3e 131e 3f3f
000000c0: bc5f a43f ad5f 373f 5a94 08be 7659 c3bd
000000d0: 79d8 25bf e33d edbe b03e 28be ce4e 51bf
000000e0: 6eaf 38bf e652 12be 31cc 3dbf 6856 3fbf
000000f0: 31e9 2cbf db18 1ebf 0c6d 1bbf 9a2f 49be
00000100: c170 68bf 7322 04bf 61cc 28bf ed6b 0abe
00000110: f7f8 5dbf 3612 23bf 7ba7 0fbf a0dc 9cbe
00000120: b5af 2abf 6888 85bf a69b 64be d283 9ebe
00000130: 62ec 7bbf 3826 42be 074d debe e0de 18bf
00000140: 6184 debd f24b 9dbe 63d1 95be 8ceb 43bf
00000150: 745e a3be c739 0abf ba4e 89bf 106f 80be
00000160: 47ee e7be 1205 77bf e143 43be 5219 26bf
00000170: 034e 94be 5c78 b4be 214e 11be 8f83 afbe
00000180: 377b 0bbf f156 5cbe 9b29 6bbf bb4c 0dbf
00000190: 4e2e 253e ddb8 093e d369 1a3d 1e2b e1be
000001a0: c023 553e fa28 afbd 3fc6 a3bc 6f43 d9be
000001b0: 9235 fabd 55f9 893d 8da1 9a3d 9d80 d8bc
000001c0: 793f 653d fc8a c63e 26d6 7fbe 70f8 a33d
000001d0: 3e62 f8be 25b2 a93b 14de 343f 93cf b03e
000001e0: 3f7b 6fbe fb9b 08be c83c 23bd 086e 9cbe
000001f0: 7212 da3d 8fa1 88bc d6d1 48be 81a4 ad3d
00000200: a7d2 acbe 7161 9e3d 2df9 adbd 0a4f 62be
00000210: de70 88bd ae2d 293d 66f5 703e 1dc6 343d
00000220: 2654 87bd 8575 78bd c2a8 793d 7f1a 0d3e
00000230: a999 653e 1103 2fbe a8f8 943c 3200 a4be
00000240: 2c7a 883d ba2d cd3e 7c40 523e c272 eebd
00000250: f0a5 cf3e f820 a23e 0000 0000 0000 0000
00000260: 0000 0000 0000 0000 0000 0000 0000 0000
00000270: 0000 0000 0000 0000 0000 0000 0000 0000
00000280: 0000 0000 0000 0000 0000 0000 0000 0000
00000290: 0000 0000 0000 0000 0000 0000 0000 0000
000002a0: 0000 0000 0000 0000 0000 0000 0000 0000
000002b0: 0000 0000 0000 0000 0000 0000 0000 0000
000002c0: 0000 0000 0000 0000 0000 0000 0000 0000
000002d0: 0000 0000 0000 0000 0000 0000 0000 0000
000002e0: 0000 0000 0000 0000 0000 0000 0000 0000
000002f0: 0000 0000 0000 0000 0000 0000 0000 0000
00000300: 0000 0000 0000 0000 0000 0000 0000 0000
00000310: 0000 0000 0000 0000 0000 0000 0000 0000
00000320: 0000 0000 0000 0000 0000 0000 0000 0000
00000330: 0000 0000 0000 0000 0000 0000 0000 0000
00000340: 0000 0000 0000 0000 0000 0000 0000 0000
00000350: 0000 0000 0000 0000 0000 0000 0000 0000
00000360: 0000 0000 0000 0000 0000 0000 0000 0000
00000370: 0000 0000 0000 0000 0000 0000 0000 0000
00000380: 0000 0000 0000 0000 0000 0000 0000 0000
00000390: 0000 0000 0000 0000 0000 0000 0000 0000
000003a0: 0000 0000 0000 0000 0000 0000 0000 0000
000003b0: 0000 0000 0000 0000 0000 0000 0000 0000
000003c0: 0000 0000 0000 0000 0000 0000 0000 0000
000003d0: 0000 0000 0000 0000 0000 0000 0000 0000
000003e0: 0000 0000 0000 0000 0000 0000 0000 0000
000003f0: 0000 0000 0000 0000 0000 0000 0000 0000

tensor_w1 f4 [1, 150, 32]
0.6951258 0.28700793 0.21529134 0.26477036 0.6509556 9.446544 0.16898337 0.4348102
0.68260074 0.07732172 0.7847447 0.30812597 -0.20231734 0.057387352 -0.03092546 0.4918668
0.16417608 0.29673925 -0.03304655 0.14923264 0.49097762 0.12157774 0.34387144 -0.075735345
0.38217795 -0.40656573 0.34869638 0.3640913 -0.5043239 0.050066285 1.3421098 1.0535904
0.3496681 -0.048762932 -0.029908169 0.082825035 0.8815139 -0.023376008 0.9556743 -0.010158175
0.012092013 0.35614035 0.008474113 -0.23933981 0.28533256 0.18391609 0.99445343 0.38829973
0.11048132 0.34673923 0.33967096 -0.27810785 -0.6219776 0.9245775 1.282153 0.5782592
-0.37999213 0.03553915 0.33592618 0.38019642 0.919986 0.952559 -0.0024169262 -0.0036019548
0.2512018 0.55471146 -0.018630238 -0.006851042 0.11062608 0.1802022 0.19374011 0.024789758
0.075620666 -0.2145596 0.018673783 0.4223717 0.11588221 0.44979462 0.04993664 0.08839934
-0.10663004 0.52001315 0.580868 -0.054868918 0.18399096 -0.20334476 -0.08879807 -0.06344197
-0.1411592 0.34704012 0.46594036 0.08828115 -0.14743486 -0.04525016 0.046193805 0.030479541
0.02983663 0.3545046 -0.3965587 0.055387497 -0.11271909 0.18294808 0.57261056 0.06253014
-0.035121202 0.24033423 -0.023169452 -0.074145496 0.501535 0.096359156 -0.12510397 0.13550936
-0.18372545 0.9140826 0.38093215 -0.5219674 -0.023308907 0.1453101 -0.066892944 -0.6367357
0.112072304 -0.28510255 0.13047037 1.4362127 -0.12706722 0.15854192 -0.006981065 0.022692531
-0.05011918 0.013529525 -0.0033939756 0.16758148 0.4363366 -0.01402969 0.563918 -0.037781574
-0.0122348135 0.92042667 0.005971185 0.050110355 0.7817696 0.12107876 0.4491354 0.067875214
0.09881013 0.3628508 0.46831658 -0.12063517 0.17958651 0.689967 0.3775551 0.48871082
0.48634696 -0.2743361 0.3783892 0.34927392 0.48403245 0.97924614 0.011132328 -0.014473162
-0.1366862 0.21007575 0.24399388 0.34916547 0.8490386 0.014060458 0.20044217 -0.041656263
0.0021068642 0.301751 0.012973457 1.1157568 0.17018887 0.63732684 -0.10531543 -0.290217
-0.18759935 0.16734195 0.21463457 0.25814366 0.36853406 0.17237832 0.3914601 0.4150632
0.06170453 0.18447477 0.97564745 0.48759696 0.0096053 0.5046142 0.003352813 -0.017337754
0.011012454 0.87505937 0.2987374 -0.051107097 2.3147619 -0.61128074 -0.0913162 -0.01959714
0.14522634 1.0774903 0.046248678 0.538408 0.14308557 0.24438329 0.19318455 -0.37609708
-0.2093221 0.023411652 0.9348572 -0.2111427 0.7157796 1.1772681 1.3928084 -0.028183391
1.3166821 0.8817946 0.5449666 -0.120539576 0.04582364 1.5072566 0.14579669 0.15654023
0.67504066 -0.02252732 0.73668635 -0.027944535 1.0173764 -0.0525341 0.009702432 0.11467027
0.047550377 0.05935199 0.06391777 0.82332265 -0.038748607 0.19544417 0.11553796 0.25585145
0.31114507 -0.022803223 -0.00453734 1.4687396 1.01879 0.28629726 0.14073135 0.28580335
0.18954726 0.08149407 0.096062325 0.0016141463 0.27906927 0.30528522 0.06409133 0.030133842
00000000: c4f3 313f b4f2 923e 5575 5c3e fb8f 873e
00000010: 07a5 263f 0b25 1741 fa09 2d3e 719f de3e
00000020: ecbe 2e3f da5a 9e3d 07e5 483f b0c2 9d3e
00000030: 472c 4fbe 000f 6b3d 6457 fdbc f7d5 fb3e
00000040: c61d 283e 35ee 973e d25b 07bd 71d0 183e
00000050: 6b61 fb3e c0fd f83d eb0f b03e 221b 9bbd
00000060: d4ac c33e 6229 d0be 5588 b23e 2d6a ba3e
00000070: 5f1b 01bf 4e12 4d3d 41ca ab3f 0ddc 863f
00000080: b207 b33e a4bb 47bd fa01 f5bc 2ca0 a93d
00000090: e5aa 613f 0b7f bfbc 12a7 743f 796e 26bc
000000a0: 941d 463c 0758 b63e 02d7 0a3c 7f15 75be
000000b0: 1c17 923e 8054 3c3e 8094 7e3f 39cf c63e
000000c0: 0844 e23d ce87 b13e 5ae9 ad3e 2764 8ebe
000000d0: ed39 1fbf 1cb1 6c3f 971d a43f cc08 143f
000000e0: 548e c2be 8091 113d 84fe ab3e 1ba9 c23e
000000f0: 3484 6b3f e8da 733f 4b65 1ebb c60e 6cbb
00000100: 869d 803e 9201 0e3f 719e 98bc b57e e0bb
00000110: ed8f e23d ed86 383e cf63 463e e413 cb3c
00000120: 02df 9a3d 83b5 5bbe c3f9 983c 1a41 d83e
00000130: a753 ed3d 7b4b e63e 5d8a 4c3d b70a b53d
00000140: da60 dabd 951f 053f c4b3 143f 3bbe 60bd
00000150: 2068 3c3e 9c39 50be c3db b5bd dded 81bd
00000160: 0a8c 10be 3eaf b13e bc8f ee3e bfcc b43d
00000170: 2af9 16be 3b58 39bd b735 3d3d 3bb0 f93c
00000180: f36b f43c a081 b53e be09 cbbe 00de 623d
00000190: 44d9 e6bd be56 3b3e 9b96 123f cd0f 803d
000001a0: 40db 0fbd 2d1a 763e ddcd bdbc 98d9 97bd
000001b0: 9964 003f f357 c53d 411b 00be f7c2 0a3e
000001c0: 8622 3cbe 5101 6a3f 8a09 c33e a89f 05bf
000001d0: 52f2 bebc 2ccc 143e 2bff 88bd 1c01 23bf
000001e0: 2a86 e53d f6f8 91be 069a 053e d1d5 b73f
000001f0: e91d 02be d058 223e 6bc1 e4bb b0e5 b93c
00000200: c549 4dbd f1aa 5d3c 766d 5ebb 7b9a 2b3e
00000210: 8367 df3e c9dc 65bc ee5c 103f dac0 1abd
00000220: 8774 48bc 15a1 6b3f eea9 c33b 8440 4d3d
00000230: 0d22 483f 24f8 f73d 13f5 e53e 2902 8b3d
00000240: f75c ca3d 94c7 b93e 31c7 ef3e 920f f7bd
00000250: 87e5 373e ada1 303f e74e c13e 4e38 fa3e
00000260: 7802 f93e c875 8cbe 3bbc c13e 08d4 b23e
00000270: 1ad3 f73e e0af 7a3f 5e64 363c d720 6dbc
00000280: 78f7 0bbe 191e 573e 88d9 793e d1c5 b23e
00000290: 985a 593f d65d 663c b640 4d3e c29f 2abd
000002a0: 5113 0a3b 1b7f 9a3e 9f8e 543c 1ed1 8e3f
000002b0: fe45 2e3e da27 233f 9eaf d7bd 5397 94be
000002c0: 0b1a 40be b05b 2b3e 2ac9 5b3e 682b 843e
000002d0: 7fb0 bc3e f183 303e 756d c83e 2a83 d43e
000002e0: e4bd 7c3d f4e6 3c3e 08c4 793f 4fa6 f93e
000002f0: 8c5f 1d3c 652e 013f deba 5b3b e807 8ebc
00000300: 946d 343c e403 603f 1cf4 983e ad55 51bd
00000310: 0f25 1440 e57c 1cbf fd03 bbbd 2e8a a0bc
00000320: 37b6 143e 34eb 893f 416f 3d3d 1bd5 093f
00000330: 0685 123e 9d3f 7a3e 2cd2 453e cc8f c0be
00000340: 8858 56be cbc9 bf3c cd52 6f3f cb35 58be
00000350: 553d 373f b9b0 963f 8c47 b23f dbe0 e6bc
00000360: 0a89 a83f 4abd 613f ee82 0b3f 74dd f6bd
00000370: 92b1 3b3d c9ed c03f ba4b 153e 154c 203e
00000380: 77cf 2c3f 378b b8bc 7a97 3c3f f0eb e4bc
00000390: 6439 823f ff2d 57bd f3f6 1e3c 3fd8 ea3d
000003a0: 2fc4 423d 131b 733d 52e7 823d 46c5 523f
000003b0: dcb6 1ebd 8422 483e 2a9f ec3d f6fe 823e
000003c0: 684e 9f3e d3cd babc f7ad 94bb a9ff bb3f
000003d0: b667 823f 8e95 923e e11b 103e d154 923e
000003e0: ad18 423e 5de6 a63d 53bc c43d c391 d33a
000003f0: 2be2 8e3e 584e 9c3e 5142 833d 3fdb f63c

tensor_r1 f4 [1, 150, 50]
-0.74612886 -0.01979951 0.0055088196 0.15442769 -0.051987853 0.17470287 0.02921641 -0.09348506
-0.004450059 0.13291399 -0.031479917 -0.05717717 0.23961888 0.025231555 0.06651687 -0.22829016
-0.16266559 -0.11783012 -0.37367126 -0.11974206 0.07035818 0.0052852537 -0.11132014 -0.08967483
0.27035108 0.43396226 -0.20417112 -0.029454308 0.06503632 0.014781726 -0.17840226 -0.13038789
-0.022525707 0.021855418 0.09731412 0.12746675 0.15916045 -0.13830736 0.09030186 -0.14977948
-0.13402806 -0.31537867 0.2906408 -0.3163708 -0.17593777 0.41118804 -0.024246313 0.13525291
0.21980542 0.10946255 -0.6269717 -1.5217358 -0.1979534 0.27634266 0.2780921 0.34070998
0.15499786 0.37908143 -0.11230074 0.06292504 -0.30690023 0.27275053 -0.4161158 -0.40105203
0.68989605 0.010126893 0.009177657 -0.40649796 0.1714438 0.22152792 0.11492134 -0.05125797
-0.43635413 0.046092402 -0.36549112 0.29028016 -0.3035181 0.036480643 0.049190357 -0.3130191
-0.62315965 0.29427132 -0.62390417 0.42566344 -0.10271913 -0.44855255 0.39465037 -0.13060267
-0.17869492 -0.034606133 0.19289836 0.5108905 -0.12486074 0.14362785 0.90513813 -0.15533328
0.25903538 -0.13463342 -1.0338495 0.24119411 -0.15052749 -0.0011834865 -0.48607397 -0.11078655
0.09794565 0.18821524 0.14321597 -0.017162343 0.12278601 -0.32459652 -0.121447265 0.031241693
0.050691288 -0.33888888 0.12255276 0.033174638 0.077356026 0.05636389 -0.48486096 0.08249997
-0.17862615 0.15487128 -0.15721543 -0.31345367 -0.060532674 0.42372635 0.25605595 0.11115093
-0.065551065 -0.2668852 0.0970187 -0.20353708 0.37643737 -0.40537757 -0.0995655 0.19942102
0.11166949 -0.17112719 -0.39125183 -0.467277 -0.12332899 0.1299832 0.3136534 0.35241127
0.1971277 -0.06508366 0.13479795 -0.4818836 -0.20408477 0.16771935 -0.0048746294 -0.2900243
-0.37005493 -0.16211966 -0.1812232 0.02759847 -0.21749152 0.12683445 0.036533296 -0.24633238
-0.530307 0.053586733 -0.046891026 0.07274103 -0.21330015 0.017790457 -0.22897094 -0.21480249
-0.09879104 -0.17437491 0.65716517 0.17412284 0.07858195 0.13156132 -0.040279277 -0.32016858
0.22187921 0.34968725 -0.77748716 0.26100072 1.0681446 -0.43405122 -0.2214493 0.28592137
0.2132249 0.68667525 0.09549428 0.31389737 0.35688016 0.38565305 -0.29370037 0.011602873
-0.18641055 0.5039405 0.16578604 -0.2222963 0.12769078 0.2999259 -0.018102633 0.023397032
0.30362576 -0.067065746 -0.29648757 0.13435985 -0.13136207 0.3089647 0.15363225 -0.15314235
-0.0042311037 -0.27511513 -0.11493201 0.23930544 -0.3630664 0.028856557 0.03912116 -0.678571
0.16814813 0.14123228 -0.4251719 0.4967307 0.021889256 0.094275646 0.115459464 0.4977298
0.31028792 0.68791217 0.10369354 -0.68467945 0.06816411 0.3382867 0.04990045 0.023500971
-0.12668814 0.3886051 0.07092879 0.0113363145 0.23706087 0.18927589 0.20308076 0.19952855
0.14047118 -0.05066159 -0.23979823 0.22527367 0.41222298 0.04398978 0.69829714 0.13713261
0.123609 -0.09898669 -0.32047045 -0.0035742281 0.022329181 0.16678713 -0.08069755 0.54809624
00000000: 4d02 3fbf 9532 a2bc 5483 b43b 4b22 1e3e
00000010: 37f1 54bd 4fe5 323e 4157 ef3c 1875 bfbd
00000020: cdd1 91bb 9b1a 083e 16f1 00bd 9c32 6abd
00000030: a75e 753e 68b2 ce3c ff39 883d e5c4 69be
00000040: cf91 26be eb50 f1bd d751 bfbe 533b f5bd
00000050: f317 903d ec2f ad3b d0fb e3bd 70a7 b7bd
00000060: 756b 8a3e 4d30 de3e 3c12 51be 294a f1bc
00000070: c331 853d 0d2f 723c 15af 36be 6784 05be
00000080: d587 b8bc 220a b33c a04c c73d a586 023e
00000090: f5fa 223e 72a0 0dbe 2ef0 b83d cb5f 19be
000000a0: a73e 09be 5079 a1be dfce 943e 5afb a1be
000000b0: 0829 34be 3d87 d23e 34a0 c6bc bd7f 0a3e
000000c0: ac14 613e e72d e03d 3881 20bf 3dc8 c2bf
000000d0: 4cb4 4abe c97c 8d3e 1662 8e3e 8a71 ae3e
000000e0: c2b7 1e3e f616 c23e eefd e5bd d8de 803d
000000f0: 0722 9dbe f5a5 8b3e 210d d5be b156 cdbe
00000100: 079d 303f 45eb 253c e25d 163c 8020 d0be
00000110: f78e 2f3e 37d8 623e e15b eb3d e1f3 51bd
00000120: cf69 dfbe 63cb 3c3d a721 bbbe 9a9f 943e
00000130: b966 9bbe ba6c 153d d47b 493d 0a44 a0be
00000140: 6487 1fbf bbaa 963e 2fb8 1fbf 8ff0 d93e
00000150: 685e d2bd aea8 e5be 9d0f ca3e b5bc 05be
00000160: cdfb 36be 29bf 0dbd 2687 453e b8c9 023f
00000170: fdb6 ffbd 2e13 133e 22b7 673f b00f 1fbe
00000180: 49a0 843e 58dd 09be 2e55 84bf 97fb 763e
00000190: e123 1abe 381f 9bba b0de f8be 0fe4 e2bd
000001a0: bb97 c83d 7fbb 403e 35a7 123e 0b98 8cbc
000001b0: 3b77 fb3d 8431 a6be 58b9 f8bd 94ee ff3c
000001c0: aba1 4f3d d882 adbe f1fc fa3d 21e2 073d
000001d0: d66c 9e3d d3dd 663d b23f f8be bff5 a83d
000001e0: c6e9 36be 9496 1e3e 15fd 20be 007d a0be
000001f0: 1cf1 77bd a9f2 d83e c419 833e 19a3 e33d
00000200: a33f 86bd 2da5 88be bdb1 c63d 066c 50be
00000210: 66bc c03e a68d cfbe ffe8 cbbd 0635 4c3e
00000220: f9b2 e43d f73b 2fbe 2952 c8be ee3e efbe
00000230: e993 fcbd 511a 053e 2e97 a03e 406f b43e
00000240: d8db 493e 954a 85bd 7908 0a3e 72b9 f6be
00000250: 99fb 50be 9fbe 2b3e 5bbb 9fbb 117e 94be
00000260: d777 bdbe b202 26be 9392 39be 3016 e23c
00000270: 19b6 5ebe e4e0 013e f0a3 153d 8e3e 7cbe
00000280: 33c2 07bf c37d 5b3d ce10 40bd 40f9 943d
00000290: 5b6b 5abe 4bbd 913c 5c77 6abe 2ff5 5bbe
000002a0: f552 cabd 568f 32be fa3b 283f 424d 323e
000002b0: 93ef a03d 03b8 063e e2fb 24bd 23ed a3be
000002c0: 4e34 633e 350a b33e 6609 47bf e3a1 853e
000002d0: f6b8 883f f63b debe 9bc3 62be 4964 923e
000002e0: a157 5a3e f3c9 2f3f 8192 c33d 28b7 a03e
000002f0: ffb8 b63e 5174 c53e e55f 96be fa19 3e3c
00000300: 68e2 3ebe 3f02 013f d1c3 293e a4a1 63be
00000310: 5fc1 023e e38f 993e f94b 94bc 22ab bf3c
00000320: d674 9b3e c459 89bd 38cd 97be a195 093e
00000330: c783 06be 9f30 9e3e c651 1d3e 59d1 1cbe
00000340: 12a5 8abb e4db 8cbe 7961 ebbd 7c0c 753e
00000350: d7e3 b9be 9664 ec3c 823d 203d d4b6 2dbf
00000360: 062f 2c3e 329f 103e 22b0 d9be 7c53 fe3e
00000370: 1951 b33c 9713 c13d 0376 ec3d 71d6 fe3e
00000380: 0fde 9e3e 031b 303f 475d d43d 2747 2fbf
00000390: a099 8b3d ea33 ad3e 6a64 4c3d 1c85 c03c
000003a0: 89ba 01be 3ff7 c63e 1d43 913d f3bb 393c
000003b0: 16c0 723e 8ad1 413e 67f4 4f3e 3651 4c3e
000003c0: add7 0f3e 8782 4fbd ab8d 75be 24ae 663e
000003d0: e40e d33e a12e 343d 9ac3 323f 7e6c 0c3e
000003e0: b726 fd3d 89b9 cabd b414 a4be 993d 6abb
000003f0: b0eb b63c 3fca 2a3e c244 a5bd 0950 0c3f

tensor_b1 f4 [1, 300]
0.8043128 -0.22601461 0.7547146 0.95476836 -0.2314308 0.4717193 0.47323614 0.64587724
0.3336903 0.5770995 0.4610318 -0.6321187 -0.4933959 0.9664235 -0.01919783 0.3335697
1.6691092 0.077557795 0.8625445 0.6062547 0.6855535 0.29453954 -0.29177842 0.11683115
0.6243373 0.53717095 0.27110782 0.997088 0.8572883 -0.25468433 0.39783803 1.0839628
0.40946588 0.3426529 0.932063 0.8223458 0.8201715 0.44948006 0.37129772 1.1271524
-0.2331195 0.26745272 0.52144426 0.9350469 0.6569061 1.3458792 -0.011152848 0.7824926
1.0399425 0.49572933 -0.96548545 -0.84036374 -0.27519327 0.101919994 -0.34757036 0.23454492
-0.4813993 -0.22119047 -0.8066892 -0.7500457 -0.8488126 -0.24427414 0.25585175 -0.3111269
-0.42305568 -0.30026013 -0.50922585 -0.14593652 -0.67195725 -0.7022112 -0.27955526 -0.70767564
-1.397597 -0.57218355 -0.9024378 -1.0717195 -1.0815035 -0.07809319 -1.5662047 -0.27679512
-1.1503115 -0.85573 -1.4591109 -0.6750305 -0.76223755 -0.93689543 -0.95325935 -0.17355858
-0.3714882 -0.69996035 -0.9908335 -1.015993 -0.3144845 -0.35283777 -0.5909194 -0.6326032
-0.4177585 -0.45575935 0.23561846 -0.5988607 -0.050803732 0.3939196 -0.29679096 0.20394264
-0.27032402 0.43916935 -0.019418396 0.010235959 -0.011359527 -0.3212271 -0.57539827 0.7890767
0.13642408 -0.5812904 -0.2684094 -0.5420635 0.36401853 0.12259062 -0.00075026543 0.2250775
0.21080722 0.032119665 -0.14445786 -0.08583021 -0.031786148 0.27023715 -0.13387126 0.20217276
-0.115475774 -0.047329485 -0.037637424 -0.23193038 0.04417504 -0.050882712 0.5618289 -0.18617676
-0.10141731 0.44239357 -0.039367516 -0.1464175 0.29166844 -0.16645107 -0.15664434 0.61759585
-0.54215384 0.1426639 0.16081148 0.3413538 0.78556395 0.20024252 0.0 0.0
0.0 0.0 0.0 0.0 0.0 0.0 0.0 0.0
0.0 0.0 0.0 0.0 0.0 0.0 0.0 0.0
0.0 0.0 0.0 0.0 0.0 0.0 0.0 0.0
0.0 0.0 0.0 0.0 0.0 0.0 0.0 0.0
0.0 0.0 0.0 0.0 0.0 0.0 0.0 0.0
0.0 0.0 0.0 0.0 0.0 0.0 0.0 0.0
0.0 0.0 0.0 0.0 0.0 0.0 0.0 0.0
0.0 0.0 0.0 0.0 0.0 0.0 0.0 0.0
0.0 0.0 0.0 0.0 0.0 0.0 0.0 0.0
0.0 0.0 0.0 0.0 0.0 0.0 0.0 0.0
0.0 0.0 0.0 0.0 0.0 0.0 0.0 0.0
0.0 0.0 0.0 0.0 0.0 0.0 0.0 0.0
0.0 0.0 0.0 0.0 0.0 0.0 0.0 0.0
00000000: 72e7 4d3f 6070 67be fa34 413f b36b 743f
00000010: 32fc 6cbe 3185 f13e 024c f23e 3658 253f
00000020: 74d9 aa3e cbbc 133f 5c0c ec3e 88d2 21bf
00000030: 639e fcbe 8867 773f c544 9dbc a6c9 aa3e
00000040: 5fa5 d53f 9fd6 9e3d b7cf 5c3f 8233 1b3f
00000050: 6f80 2f3f e3cd 963e fb63 95be 2c45 ef3d
00000060: 92d4 1f3f 0984 093f a5ce 8a3e 2941 7f3f
00000070: 3f77 5b3f fc65 82be 6db1 cb3e 4bbf 8a3f
00000080: 83a5 d13e 3370 af3e ae9b 6e3f 4185 523f
00000090: c2f6 513f 4022 e63e bc1a be3e 8846 903f
000000a0: e1b6 6ebe 90ef 883e 5f7d 053f 3c5f 6f3f
000000b0: 002b 283f c545 ac3f 6fba 36bc 6f51 483f
000000c0: d61c 853f 3cd0 fd3e 0e2a 77bf 1422 57bf
000000d0: 22e6 8cbe 6ebb d03d bef4 b1be 8b2c 703e
000000e0: f879 f6be c17f 62be 2f83 4ebf ff02 40bf
000000f0: c84b 59bf 0023 7abe 00ff 823e 064c 9fbe
00000100: c19a d8be b2bb 99be a05c 02bf 6270 15be
00000110: 6405 2cbf 1dc4 33bf de21 8fbe 3b2a 35bf
00000120: 75e4 b2bf 9f7a 12bf 2a06 67bf 1b2e 89bf
00000130: b56e 8abf 53ef 9fbd 6579 c8bf 17b8 8dbe
00000140: 683d 93bf 1f11 5bbf 25c4 babf cdce 2cbf
00000150: 0022 43bf 61d8 6fbf ce08 74bf 57b9 31be
00000160: b433 bebe 9a30 33bf 44a7 7dbf 0f0c 82bf
00000170: 1d04 a1be 27a7 b4be 7e46 17bf 49f2 21bf
00000180: 71e4 d5be 4a59 e9be f745 713e ef4e 19bf
00000190: 9317 50bd d4af c93e fcf4 97be 57d6 503e
000001a0: e967 8abe ceda e03e 5413 9fbc b9b4 273c
000001b0: 4f1d 3abc e177 a4be 4d4d 13bf ee00 4a3f
000001c0: c1b2 0b3e 73cf 14bf f56c 89be acc4 0abf
000001d0: a360 ba3e ca10 fb3d 76ad 44ba b77a 663e
000001e0: d9dd 573e e98f 033d c3ec 13be c0c7 afbd
000001f0: 3132 02bd 865c 8a3e 8c15 09be 6006 4f3e
00000200: 907e ecbd 90dc 41bd b329 1abd 287f 6dbe
00000210: e3f0 343d 646a 50bd 05d4 0f3f 1fa5 3ebe
00000220: e1b3 cfbd 6981 e23e d53f 21bd 78ee 15be
00000230: 9155 953e 2672 2abe 6067 20be c31a 1e3f
00000240: 98ca 0abf 7c16 123e c4ab 243e edc5 ae3e
00000250: b81a 493f 600c 4d3e 0000 0000 0000 0000
00000260: 0000 0000 0000 0000 0000 0000 0000 0000
00000270: 0000 0000 0000 0000 0000 0000 0000 0000
00000280: 0000 0000 0000 0000 0000 0000 0000 0000
00000290: 0000 0000 0000 0000 0000 0000 0000 0000
000002a0: 0000 0000 0000 0000 0000 0000 0000 0000
000002b0: 0000 0000 0000 0000 0000 0000 0000 0000
000002c0: 0000 0000 0000 0000 0000 0000 0000 0000
000002d0: 0000 0000 0000 0000 0000 0000 0000 0000
000002e0: 0000 0000 0000 0000 0000 0000 0000 0000
000002f0: 0000 0000 0000 0000 0000 0000 0000 0000
00000300: 0000 0000 0000 0000 0000 0000 0000 0000
00000310: 0000 0000 0000 0000 0000 0000 0000 0000
00000320: 0000 0000 0000 0000 0000 0000 0000 0000
00000330: 0000 0000 0000 0000 0000 0000 0000 0000
00000340: 0000 0000 0000 0000 0000 0000 0000 0000
00000350: 0000 0000 0000 0000 0000 0000 0000 0000
00000360: 0000 0000 0000 0000 0000 0000 0000 0000
00000370: 0000 0000 0000 0000 0000 0000 0000 0000
00000380: 0000 0000 0000 0000 0000 0000 0000 0000
00000390: 0000 0000 0000 0000 0000 0000 0000 0000
000003a0: 0000 0000 0000 0000 0000 0000 0000 0000
000003b0: 0000 0000 0000 0000 0000 0000 0000 0000
000003c0: 0000 0000 0000 0000 0000 0000 0000 0000
000003d0: 0000 0000 0000 0000 0000 0000 0000 0000
000003e0: 0000 0000 0000 0000 0000 0000 0000 0000
000003f0: 0000 0000 0000 0000 0000 0000 0000 0000
