DeepDoubleX/102X/V021/CvB.onnx (onnx, 237799 bytes, 35 tensors)

ID_pred/kernel:0 f4 [100, 2]
000000 09 ce fb 3d b0 65 40 3e ca 4f 69 3d b1 dc b5 bc
       0.122951575 0.1878879 0.05696086 -0.02219996
000010 bf db 1c be f3 fd b5 bc 54 bb 01 be 60 45 6b 3e
       -0.15318201 -0.022215819 -0.12669116 0.22975683
000020 8d ec fd 3c 61 f0 b0 bd c5 e6 0b 3e 71 23 50 3d
       0.030996585 -0.08639599 0.1366225 0.05081505
000030 0a bc f5 bd 26 b2 76 bd 6d 6c d8 bd 0f 0f 53 3d
       -0.11998756 -0.06022849 -0.105675556 0.051528033
000040 17 6a 3b bd 32 33 09 3e fd 30 a4 3d 00 26 11 3e
       -0.045755472 0.13398436 0.08017156 0.14174652
000050 c2 a7 24 3c 6d 78 a9 bd e1 c5 0f bb d8 8e d8 3d
       0.010049762 -0.082749225 -0.0021938013 0.1057412
000060 41 12 10 bd 88 d7 22 be 1f 70 87 bd 08 7c 8b 3c
       -0.03517366 -0.15902531 -0.06613182 0.017026916
000070 ee cf a7 3d bd f4 18 bc 53 e0 4c bd fe 2b 21 3e
       0.08193956 -0.009335694 -0.05001862 0.15739438
000080 c3 45 1c be e8 36 a2 bd 7e a5 1b 3d 3d 7b 63 bd
       -0.15260987 -0.07920629 0.037999623 -0.05553745
000090 d7 81 02 be c0 20 8d bd 59 79 09 3e a7 42 1d be
       -0.12744842 -0.06891012 0.13425197 -0.15357457
0000a0 3e de f8 3c 65 ac 96 bd b6 5d ee 3c bc 12 75 bd
       0.03037941 -0.073571004 0.02909742 -0.05983232
0000b0 15 28 dd bd 98 59 3a 3d 3a 64 37 be 9b 77 c5 bd
       -0.10798661 0.0454956 -0.17909327 -0.096419536
0000c0 68 3f f4 bd 40 dc 24 3e f7 10 79 3d e7 43 81 bd
       -0.11926156 0.16099644 0.060807195 -0.063117795
0000d0 f4 ae 82 bd 81 a6 8f 3e b8 82 80 3d da 54 e4 bd
       -0.06381026 0.2805672 0.062749326 -0.11148997
0000e0 3f d7 32 be a2 e5 09 3d 4c 31 aa 3a 19 9d c4 3d
       -0.17464922 0.03366626 0.0012984662 0.096002765
0000f0 c6 05 45 3e 43 b8 b7 bc 10 cb 6c bd 25 ec 3f 3d
       0.19240484 -0.02242673 -0.057810843 0.046856064
000100 39 93 53 3d b6 42 33 bd 50 fa e4 bd 9f 6a 24 bd
       0.051654074 -0.043764792 -0.11180556 -0.040140744
000110 62 82 97 bc 14 73 37 be 87 fe aa bd f8 9e 4e bc
       -0.018494789 -0.17914993 -0.083493285 -0.012611143
000120 92 84 a4 bc 36 d3 18 3e 8a cb 53 3d e6 cc e4 bd
       -0.020082746 0.1492432 0.05170778 -0.11171894
000130 60 4f 3f bd f4 30 7a 3e 7e 2d 5d 3c 25 e2 0d 3e
       -0.046706557 0.24432737 0.013499616 0.13855799
000140 67 4f 87 bd ca fe cb 3d 73 a1 e9 bd 48 a8 aa 3c
       -0.06606942 0.099607065 -0.11407747 0.020832196
000150 a0 eb 21 bd 04 f2 f5 bd 73 61 8e bd ba 78 c5 3c
       -0.03953135 -0.120090514 -0.06952181 0.024105418
000160 6a 82 ff 3c bd 45 be 3d 65 48 b2 3d 00 d0 8d bd
       0.031190116 0.09290645 0.087052144 -0.069244385
000170 13 4d 81 3d 55 1c 4c bd 5f f8 c6 bd 49 c7 74 3e
       0.06313529 -0.049831707 -0.09715342 0.23904146
000180 b8 54 30 3e 0d c0 74 be 8b 8d 31 3e 3f d0 c2 bd
       0.17219818 -0.23901387 0.1733915 -0.09512376
000190 30 6d 84 3c ca 47 21 3e bf 4c eb 3d 02 99 8c bd
       0.016165346 0.15750042 0.114892475 -0.068651214
0001a0 62 d0 e2 3d 31 92 04 bd a0 7c 34 be e8 e0 7d 3e
       0.11074902 -0.03236598 -0.17625666 0.24792826
0001b0 c2 bc 1c be 65 c6 b1 bd 5d f1 4f be 01 56 a3 bd
       -0.1530638 -0.08680419 -0.20306917 -0.07975388
0001c0 67 c3 4c 3d bd ef f2 3d 55 2b dd bc fd d1 87 3d
       0.049991038 0.11862133 -0.026998201 0.06631849
0001d0 ac 41 16 bd 98 09 1b 3e c1 71 4a 3e be 65 f6 3d
       -0.036683723 0.15140378 0.19769956 0.120311245
0001e0 58 0b 00 bd c2 00 39 3d 19 81 d3 3d 00 df 49 bd
       -0.03126082 0.04516674 0.10327358 -0.049284935
0001f0 60 d6 f0 3b 5c fa 10 be a6 21 8b 3c e5 9b 9b 3d
       0.0073497742 -0.14158005 0.016983818 0.07598094
000200 ff e1 e4 bd 2a 97 e5 3d 23 4e c6 3d 42 53 26 bd
       -0.11175918 0.11210473 0.09682872 -0.040606745
000210 0d 6d 7f 3d b3 92 f2 bd 22 93 14 3e 1a 5f 7b bd
       0.06235986 -0.11844387 0.14509252 -0.061369993
000220 a2 ef 6b 3d 08 cf 1e bd 0f 98 34 3e 46 31 be 3d
       0.05760158 -0.03877166 0.17636131 0.09286742
000230 e3 7a ca bd b3 39 2c 3e 60 d5 69 bd 31 f0 ae 3b
       -0.0988672 0.16818886 -0.057088256 0.0053386916
000240 c9 17 ad bd ef 2c bb bc 06 b8 80 bd 3f 26 f8 bb
       -0.08451802 -0.022848574 -0.062851 -0.0075729187
000250 9e 07 08 be 88 34 14 3d 03 aa 8f bd 65 b1 bb 3d
       -0.13284156 0.03618291 -0.07014849 0.09164695
000260 30 73 9d 3d 43 f2 b8 bd 0b 34 2b be 31 f4 ba bd
       0.07687986 -0.09030583 -0.16719072 -0.09128607
000270 ad 9c 0c bd b5 2a 0e 3d f9 24 aa 3d 56 de 10 3e
       -0.034329105 0.034708697 0.08307833 0.14147314
000280 59 30 b2 bd 5d 4c 8c 3c 3a c9 7a 3d 4a 09 f7 3d
       -0.08700628 0.017126257 0.06122706 0.120623186
000290 c5 59 24 3d 85 80 ab bd b4 29 74 3d c7 61 c7 bd
       0.040124673 -0.083741225 0.059610084 -0.097354464
0002a0 00 a3 4f 3d 84 4a 01 3e a4 a3 49 be 42 a5 24 3e
       0.05069256 0.12626082 -0.1969133 0.16078666
0002b0 ad 61 15 be a6 0d 53 bd ed cc 13 3e 61 a2 b9 bd
       -0.14588042 -0.051526688 0.14433642 -0.090641744
0002c0 62 35 93 bd d6 4f 3a bc 08 73 9b 3b dc d6 93 3d
       -0.07187916 -0.011371573 0.0047439374 0.072187155
0002d0 66 30 af bc e5 e8 99 3d b1 37 9e 3d 8b bf 02 be
       -0.021385383 0.07515124 0.07725466 -0.1276838
0002e0 20 f5 4f be e8 11 2f 3e 3e 7a e7 bd fc db 2b bd
       -0.20308352 0.17096674 -0.11302613 -0.04195784
0002f0 3b 8f 1b 3e 6f ca 69 bb 11 38 a5 3d 97 3b e3 bd
       0.15191357 -0.0035673638 0.080673344 -0.1109535
000300 8f 15 f0 bd f2 d5 37 bd 28 01 e0 3c 0e c0 94 be
       -0.11722862 -0.04488177 0.027344301 -0.29052776
000310 a1 b6 2b be 09 89 90 3d 24 fb 21 bd 8a 86 3f 3e
       -0.16768886 0.070573874 -0.039546147 0.18703666

ID_pred/bias:0 f4 [2]
000000 c3 6f 2f 3d c9 61 2f bd
       0.042831194 -0.042817865

fc1_relu/kernel:0 f4 [155, 100]
000000 da e8 4a be ca ac 54 3e de ce 02 3d b5 55 41 3d
       -0.19815388 0.20769039 0.031935565 0.047200877
000010 53 cd f7 3d 50 c9 f0 3d e3 d4 0f be 8c e6 77 bf
       0.12099709 0.11757147 -0.14046054 -0.9683616
000020 72 f9 5a 3e 70 24 e7 bd 14 0d a0 be 97 ae a4 be
       0.21384218 -0.11286247 -0.31259978 -0.3216445
000030 58 b8 c1 3d 7c 99 26 3e ba d6 d8 bd 36 d2 a2 3c
       0.09458989 0.16269487 -0.10587831 0.019875627
000040 11 d1 16 3d 78 06 8a be fa 6c 93 3e 7c 3f 6e 3e
       0.036820475 -0.2695806 0.2879408 0.23266405
000050 d1 9d 9d 3d 0d 7f 12 be 6d ea 3d bd fc 92 7b 3e
       0.07696117 -0.14306279 -0.046366144 0.24567789
000060 6d 7f 8b 3f 23 87 23 3e 51 2c c8 3d e5 d7 a5 3d
       1.0898262 0.1596952 0.09774078 0.08097819
000070 52 f7 bf 3c df e0 c1 bd 95 82 ac bc 8e c3 ce 3d
       0.023433361 -0.09466719 -0.02105836 0.10095893
000080 be 15 75 3e e4 5a c5 bd 6d 77 6a be db 04 1a bf
       0.23934075 -0.09636477 -0.2289712 -0.6016366
000090 40 a9 b4 bd 14 ed 01 3e 86 79 b7 bc 06 3a 43 be
       -0.088213444 0.12688094 -0.022396814 -0.19065103
0000a0 51 3a b4 be a8 e2 df be ec 34 20 bd fd 6e 06 be
       -0.35200742 -0.43727612 -0.03911297 -0.13128276
0000b0 db 78 4d 3e 3c bc 0e bd 3d be 4d be fe 0e e1 bd
       0.20065634 -0.034847483 -0.20092101 -0.10989188
0000c0 b3 0b a1 bf 23 df 93 3d 35 88 09 be 19 88 aa bd
       -1.2581695 0.07220294 -0.13430865 -0.0832674
0000d0 39 e7 c3 ba 35 a0 e7 bd d3 cd 77 be 2a 29 80 bd
       -0.0014946229 -0.11309854 -0.2419961 -0.062578514
0000e0 13 04 82 bd 37 37 79 be da 29 ae 3e 18 98 83 be
       -0.06348433 -0.24337469 0.34016305 -0.25701976
0000f0 9f d5 06 be f5 fb f3 bb 6e 09 27 3e f1 f9 b5 3d
       -0.13167427 -0.007445807 0.16312191 0.08885563
000100 97 f0 9c 3f ca 54 a6 3e 7b f7 fa bd 98 44 42 bc
       1.2260922 0.32486564 -0.122542344 -0.011857174
000110 16 db 8c be eb 73 20 3e 27 52 ab bd 02 59 b1 3d
       -0.275109 0.15669219 -0.08365279 0.08659555
000120 f9 01 b1 bd af 65 4b 3e 62 cf 31 3e 5a 06 fa be
       -0.086429544 0.19863008 0.17364267 -0.4883297
000130 79 3c 72 be 4c 8c f5 bd f0 f9 46 3e a1 74 16 bd
       -0.23655881 -0.1198965 0.19431281 -0.03673232
000140 ac f2 21 3e 3c 6d 8f 3e 9b c6 9d be 25 e5 57 bc
       0.15815228 0.28013027 -0.30815586 -0.013177191
000150 35 bc 01 be 91 10 e2 bd ac 2b e1 be c4 a3 5f bd
       -0.12669452 -0.11038316 -0.43978631 -0.05459954
000160 6c 62 f0 bd 46 72 1b be bb 70 0c bf 02 62 8a 3d
       -0.117375225 -0.1518031 -0.54859513 0.06756975
000170 49 68 37 bd 91 23 b8 3d df bb 3e 3e 48 06 c4 3d
       -0.04477719 0.08991159 0.18626355 0.095715106
000180 1b 1b 3f bd e4 80 fc bc 2e 42 06 be 1a 3a bb bd
       -0.04665671 -0.030823179 -0.13111183 -0.09141941
000190 fb 19 42 3d 48 1b 22 3d 85 ed 59 3e ce 9a 22 3e
       0.04738806 0.0395768 0.21282013 0.15879366
0001a0 6b df 5a be 51 e0 68 3e 4c 06 55 be 1f 21 65 3d
       -0.2137429 0.2274182 -0.20803183 0.05593979
0001b0 e3 68 08 bf ed 71 33 be b4 17 53 be 39 aa 2b be
       -0.53285044 -0.17523928 -0.20614511 -0.16764154
0001c0 67 f6 d1 3d 65 00 46 bd 05 a0 76 3d 92 a8 40 be
       0.10252076 -0.04834022 0.0602112 -0.18814304
0001d0 7d 19 94 3e 8c 19 0e 3e b9 50 a1 bd 5f 90 44 3f
       0.28925696 0.13876933 -0.07876725 0.7678279
0001e0 f0 3b 91 3e 79 b9 a9 bd 9c aa 99 bd e5 64 4e 3d
       0.2836604 -0.08287329 -0.07503244 0.05038919
0001f0 a8 26 29 3e 6c 8a ad be 66 95 bb 3d 1c 08 4b be
       0.16518652 -0.3389467 0.09159355 -0.19827312
000200 71 2b 4a 3f 51 83 a2 3d 1d 53 e2 3d e1 88 2c 3e
       0.78972536 0.07935203 0.11051009 0.1684909
000210 01 19 1e 3e 12 be a2 be da 90 79 be c6 cb 10 be
       0.15439226 -0.31785637 -0.24371663 -0.14140233
000220 84 77 5c bd cd dc 08 3d 3d 6f ef 3d 13 0a 14 bd
       -0.053824916 0.033413697 0.11691139 -0.03614242
000230 18 3f 27 3e 09 75 91 be 86 a0 46 3d f0 39 26 3e
       0.16332662 -0.28409603 0.04849293 0.16233039
000240 d8 c4 a9 bc 6b 03 86 3e a8 30 b2 be fe 56 a6 3f
       -0.020723745 0.26174483 -0.34802747 1.2995298
000250 69 c3 2f bc 16 f3 8c 3d 7c aa 57 be e8 b8 aa 3e
       -0.010727742 0.068823025 -0.21061128 0.33344197
000260 c2 79 8e 3e 5b 6b 23 3e 2f 3b fc 3b 0e 93 c8 3d
       0.2782727 0.15958922 0.007697485 0.097936735
000270 c0 ee 59 3e a6 92 d5 3d 54 56 85 3e c1 55 c9 bd
       0.21282482 0.104283616 0.26042426 -0.098308094
000280 81 c9 04 be 1b 80 02 3e 42 41 eb bd 35 4e 3a bc
       -0.12967493 0.12744181 -0.11487056 -0.011371185
000290 b7 e0 6f 3d fc a4 5d 3e 3a 33 bb 3d f9 d2 1f 3e
       0.058563914 0.21644968 0.0914063 0.15607823
0002a0 ff 12 9d bc 21 ef 36 3d 08 2b 9d 3d 9f 3c 45 be
       -0.019174097 0.044661645 0.07674223 -0.19261406
0002b0 12 82 33 bd fb 5b 86 bc 1a 49 07 3e 59 f0 08 be
       -0.043825217 -0.016401282 0.1321148 -0.13372935
0002c0 f1 d0 1f 3d 2b d5 3f be b4 b3 a1 bd 95 fc 5b bc
       0.03901762 -0.18733661 -0.07895604 -0.0134269195
0002d0 ea 45 5a bd 58 64 85 3b bd 7e 46 3f d7 52 e4 3e
       -0.05328933 0.0040708 0.7753714 0.44594452
0002e0 da f7 05 bd fc 51 6d 3f 34 25 a4 be bd 98 1a be
       -0.032707073 0.92703223 -0.32059634 -0.15097328
0002f0 bd b7 5a be 45 9c 51 bd fb 47 29 be f4 e3 ae 3e
       -0.21359153 -0.05117442 -0.16531365 0.3415829
000300 90 57 47 3e ec 7e 10 3e 13 4e 1a bd 3e db 1b 3d
       0.19466996 0.14110917 -0.037672114 0.038050883
000310 76 bb 9f 3d f1 2b af 3f 8e 8e dc bd cb e8 f2 3c
       0.07799427 1.3685285 -0.10769378 0.02965202
000320 7b 93 21 be a8 de 62 bd 6d e1 bb be 06 fd 46 be
       -0.15778916 -0.055388123 -0.36695424 -0.19432458
000330 7b 5a 2f 3e 53 f7 80 bd d5 e0 b7 3e 77 13 b6 bd
       0.1712436 -0.06297173 0.3591372 -0.088904314
000340 66 05 3a 3e 52 b2 d2 3e 84 9d a8 3d 52 6e 4b 3e
       0.18166122 0.41151673 0.08233169 0.19866303
000350 20 f6 2a be 7d c9 02 3e b5 6a c4 bd ed 34 6c 3e
       -0.16695452 0.12772174 -0.09590665 0.23067065
000360 12 c4 00 bf 7f 6f 2a be c8 6c 8a 3e 5e 49 9b bf
       -0.5029918 -0.16644095 0.27036119 -1.2131765
000370 c0 09 c1 3c 8e 96 04 3e a7 f5 0a 3e d2 23 ac 3d
       0.02356422 0.12948057 0.13570271 0.0840527
000380 0b 94 c4 be a5 1e 43 3e 52 53 3e be 7d d8 92 3e
       -0.38394198 0.19054659 -0.18586472 0.28680792
000390 44 7c 05 3f 89 98 ab be d2 ca 4c be 25 9e 52 be
       0.5214274 -0.33514813 -0.19999245 -0.2056814
0003a0 41 92 06 be ef 13 41 3e 8c f8 83 3e b2 d1 b3 3d
       -0.13141729 0.1885526 0.25775564 0.087802306
0003b0 9a 27 b9 3e a4 65 aa 3b ad f2 87 bd 13 bb c9 bb
       0.36163026 0.005200105 -0.066380836 -0.006156334
0003c0 a9 ab 38 be bb 11 be 3e 46 ba fe 3b 84 63 4e be
       -0.18034233 0.37122902 0.0077736704 -0.2015515
0003d0 6f 79 95 b9 7a c7 44 be 55 48 92 3e d2 23 5f 3e
       -0.0002850997 -0.1921672 0.2857081 0.21791008
0003e0 24 b1 7e 3e 91 5b e0 bd f6 60 ce 3e 61 19 9a be
       0.24872261 -0.10954965 0.4030835 -0.30097488
0003f0 e2 36 37 be 43 6a ed bd 08 10 f3 bd 62 a8 d8 bd
       -0.1789203 -0.115925334 -0.11868292 -0.105789915

fc1_relu/bias:0 f4 [100]
000000 23 7d 66 bc e9 42 29 3e db 91 af be 5a fe 9b bf
       -0.014067921 0.1652943 -0.34290966 -1.2186997
000010 16 3b c9 bd a5 fd c0 3d 87 47 ac bd f5 cc 54 bf
       -0.09825723 0.09423379 -0.0841208 -0.8312524
000020 77 64 80 bf 8d 80 a7 bd 9a 54 19 be a3 3b 94 be
       -1.003066 -0.08178816 -0.14973679 -0.2895175
000030 0a 18 84 be 12 a3 a2 be 7f 4e f4 3d b4 aa 5d bf
       -0.2579959 -0.31765038 0.119290344 -0.865886
000040 b3 8c e7 3d f3 77 e3 3d 23 2b 37 3d db e2 62 bf
       0.11306133 0.11106863 0.044718873 -0.88627404
000050 80 1a 1e 3e 4a ab 88 bd c4 e4 03 bf b7 18 e7 bd
       0.15439796 -0.06673296 -0.51520944 -0.11284011
000060 21 00 ba bf b4 16 d9 be 5c 2a a6 bf d8 45 15 be
       -1.4531289 -0.42400134 -1.2981677 -0.14577425
000070 68 40 80 bf 25 b8 a0 be 5f 8e 1c bf dd eb 12 be
       -1.0019655 -0.3139049 -0.6115474 -0.14347787
000080 04 0f 29 3e 33 b6 97 be 1e 8d 8e bf a4 42 86 3c
       0.16509634 -0.29631194 -1.1136816 0.016389199
000090 19 51 4a bf 7c ee b5 be 18 9d d9 bf 34 4e 02 bf
       -0.79029995 -0.35533512 -1.7001066 -0.5090058
0000a0 da 5c 7b bf 84 59 f6 be 97 2c 3e 3d 8c 81 c0 be
       -0.98188555 -0.4811517 0.046429243 -0.37598836
0000b0 dc 0c 1b 3e d4 aa eb bd 13 7c 97 be 13 55 55 bf
       0.15141624 -0.11507192 -0.2958685 -0.8333294
0000c0 28 9c d4 bf bd fc 77 bf 26 fe 56 bf 34 d1 05 bf
       -1.6610155 -0.96870023 -0.8398155 -0.52272344
0000d0 59 94 e4 be 13 e3 dd bf 7c 59 15 3e da 86 0a bf
       -0.4464443 -1.7334923 0.14584917 -0.5411202
0000e0 11 97 6d 3e d3 35 ed be 7f 1e b6 bf c0 5d 14 3e
       0.23202159 -0.46330127 -1.4228057 0.14488888
0000f0 07 a6 e8 3c ed 5d 94 be 36 fe ca be da 1c 04 3e
       0.02839948 -0.2897791 -0.39647073 0.12901631
000100 aa e9 ac bf 9e 66 8f bb af 1b 54 bf 93 bb 77 bf
       -1.3508809 -0.0043762466 -0.8285474 -0.9677059
000110 88 1e d5 3b f3 11 6f 3e b6 d0 b3 bf 9c 40 a1 3d
       0.0065038837 0.23346691 -1.4048069 0.078736514
000120 9b 19 f9 3b 8f 88 80 3d db 7a 1f bf 86 73 59 bf
       0.0076019294 0.062760465 -0.6229684 -0.849419
000130 19 f3 c2 be 20 ef 55 3d 96 83 74 3c b9 9c 09 3e
       -0.38076094 0.05223 0.014923951 0.13438691
000140 1e 8b 7a 3d b7 ce ef 3d a5 94 8a 3e 79 ea ea be
       0.06116783 0.117093496 0.27066532 -0.45882013
000150 7c 1b c9 3d 38 bd 49 bf 83 df 8e be 7a ba af bf
       0.09819695 -0.7880435 -0.279049 -1.3728783
000160 fa 71 bc 3d d4 8b c4 3c 50 f2 71 be a1 a0 52 bf
       0.09201427 0.023992456 -0.23627591 -0.8227635
000170 d2 b6 94 bf 1c 01 7c 3d ff eb 8a be f6 15 48 bf
       -1.1618292 0.061524495 -0.27133176 -0.7815851
000180 58 7a 26 3e e1 8c f1 be fa 7b a5 bf 75 37 7c bf
       0.16257608 -0.47177795 -1.292846 -0.9852212

scale f4 [5]
000000 37 73 e5 3d 37 9d 1c 3f b4 77 9c 3e 84 e8 fa 3f
       0.11203616 0.6117739 0.30560076 1.9602208
000010 f1 e3 92 3e
       0.2868953

bias f4 [5]
000000 2c a3 97 bf b4 09 f7 bf 69 45 42 bf 5c f5 b0 3e
       -1.1846671 -1.9299836 -0.7588716 0.34562194
000010 1c 6b 01 3e
       0.12638515

mean f4 [5]
000000 00 00 00 00 00 00 00 00 00 00 00 00 00 00 00 80
       0.0 0.0 0.0 -0.0
000010 00 00 00 00
       0.0

var f4 [5]
000000 00 00 80 3f 00 00 80 3f 00 00 80 3f 00 00 80 3f
       1.0 1.0 1.0 1.0
000010 00 00 80 3f
       1.0

tensor_w f4 [1, 150, 32]
000000 4e 87 d8 3e 70 48 1f 3f 73 e8 87 3e 9a 38 ba 3e
       0.4229073 0.62219906 0.26544532 0.3637131
000010 b5 b5 9c 3e 08 a7 f8 bc 19 63 68 3e 1f a6 8c 3d
       0.3060738 -0.030353084 0.22694053 0.068676226
000020 52 73 c6 3e 3d f9 f7 3e 16 c2 c6 3e a9 75 0f 3f
       0.38759857 0.4843234 0.3881995 0.5603891
000030 32 10 f3 be 97 bc 42 3e a2 6a 7e 3e f4 cb b5 3d
       -0.47473294 0.19017254 0.24845365 0.088767916
000040 c0 a3 a2 be 5a 39 2b 3e 9f 05 9b be 30 c6 d8 3e
       -0.31765556 0.16721097 -0.30277726 0.42338705
000050 5d 84 a3 be b5 7d c2 bd df 56 c9 3e be 49 fc 3e
       -0.31936923 -0.09496633 0.3932409 0.4927501
000060 fe 3a fc 3d b6 63 ad bd c5 1c 2d 3e e3 c8 0f 3e
       0.12315939 -0.08466284 0.16905506 0.14041476
000070 32 30 52 be 8c 53 ba 3b f6 90 ac bd 6f 14 2d 3e
       -0.20526198 0.005686229 -0.084260866 0.16902326
000080 bf f0 2a 3d e0 24 06 bd 4a f1 e5 3c 72 6e b6 bd
       0.0417335 -0.03275001 0.028069157 -0.089077845
000090 fa 05 d1 3e 40 4a 36 be 7a 40 7b bd c9 b7 db bd
       0.40824872 -0.17801762 -0.061340787 -0.107284136
0000a0 9f 33 5b bd 68 67 1b 3e e0 04 4a 3e 76 a4 86 bc
       -0.053516027 0.15176165 0.19728422 -0.016435843
0000b0 3d a1 bb be cb d7 64 3e 11 ce cf 3e 6c 38 bb 3e
       -0.36646453 0.22347943 0.40586904 0.36566484
0000c0 37 06 91 be b6 55 ca 3d 4f b5 6b be 18 79 94 bd
       -0.28325054 0.09879629 -0.23018382 -0.07249659
0000d0 bf bb be bd 89 4c 37 bb 4a c9 e5 3e e2 8f 36 3d
       -0.093131535 -0.0027969202 0.44880134 0.04457081
0000e0 a9 98 8b be cb e4 62 be da 62 0b 3f f6 c1 3e 3e
       -0.27264908 -0.2215759 0.5444771 0.18628678
0000f0 51 57 92 3e b1 ad 57 3d b6 fe db be 88 55 c8 3e
       0.28582242 0.05265588 -0.42967767 0.39127755
000100 ac ea e7 3d f2 1a b9 3e 5e 5b ad 3d 57 02 e5 bd
       0.11324057 0.3615337 0.084646925 -0.11182087
000110 d1 c1 0f be 9a cd 0b 3d 99 5d 08 3e ae ac 59 3e
       -0.14038779 0.034131624 0.13316955 0.21257278
000120 7c aa 29 3f f6 d3 a4 3f ad ee dc be df 73 5a be
       0.66275764 1.2877185 -0.43150845 -0.21333264
000130 e1 ad 44 3e 73 94 31 3d 1b 2d a5 3d eb c3 b7 3e
       0.19206955 0.043354463 0.08065244 0.3589166
000140 75 17 1f 3d ed e5 84 bd 01 93 61 3d e8 75 aa 3d
       0.03884073 -0.06489167 0.055071834 0.0832327
000150 b1 e5 bb 3d 4e 87 9b 3e 08 1d bc be 04 77 17 3f
       0.091746695 0.30376667 -0.367409 0.5916598
000160 0f e4 79 3d fd ab cd 3d 07 ab 6a 3d 2c 42 65 3e
       0.06100851 0.1004257 0.05729201 0.22388524
000170 65 72 8e bd db 95 a7 be 0c 2c 4a bd dd 76 8d 3d
       -0.06955413 -0.32731518 -0.049358413 0.06907437
000180 b1 7b 1b 3f b8 99 59 3f 40 29 de bd 77 ee 9f 3c
       0.60735613 0.8500018 -0.108477116 0.019522889
000190 fd f8 7f 3d 2d 08 73 3d e1 54 2b 3d 6e ad f2 bd
       0.062493313 0.05933397 0.041828994 -0.11849485
0001a0 2c 79 de 3d cf 14 30 3f b5 b4 3a 3f 0b 62 52 bf
       0.108629555 0.6878175 0.7293199 -0.8218085
0001b0 9c 31 06 be a8 e1 b2 3c 76 99 30 3f 80 58 6c 3e
       -0.13104862 0.021836117 0.6898416 0.23080635
0001c0 a2 85 d1 3d 97 5e dd 3e 66 46 b9 3e e2 11 e2 3e
       0.102305666 0.4323623 0.36186522 0.44154269
0001d0 f0 2d 27 be 8f 84 54 3e 82 a9 8f 3f ab 27 c8 3e
       -0.16326118 0.20753692 1.1223605 0.39092764
0001e0 8b 3c 89 bd 83 78 a5 bd c4 9d 9b 3f c1 d2 46 bd
       -0.06701001 -0.080796264 1.2157521 -0.048540834
0001f0 e6 47 39 bf 5e d4 4d bf 24 c9 2e be 8c 0e 4a be
       -0.72375333 -0.8040217 -0.17068917 -0.19732112
000200 c6 a1 29 bb 24 db 26 3d cc 02 3e 3f 92 f1 15 3f
       -0.0025883778 0.040736333 0.7422302 0.5857173
000210 9a f6 10 3f 31 f5 ce 3d d4 61 38 3f a9 93 52 3e
       0.56626284 0.1010536 0.72024274 0.2056414
000220 26 6e 2c 3e 79 bd 26 3d 55 36 9d bd 63 fe 00 bf
       0.16838893 0.04070804 -0.07676379 -0.50388163
000230 30 89 8a be 5b ef 17 3f a4 63 fd bd 07 a5 11 3e
       -0.2705779 0.593496 -0.123725206 0.14223109
000240 bb ac 1c be 94 ba 00 bf df 8c 88 be c6 64 aa 3e
       -0.15300266 -0.50284696 -0.26669976 0.3328001
000250 5d ae 19 3c ce fe 25 bd d1 68 d5 3d 1b 7d f4 3c
       0.00937995 -0.040526204 0.10420383 0.029844811
000260 7f 8e 8b 3e a7 a0 41 3e bb 59 ae bc cf f9 9e 3e
       0.27257153 0.1890894 -0.021283021 0.31049964
000270 f1 2e bf be 12 cd 9a bd 08 9e 49 bb 70 bd 86 3e
       -0.373405 -0.07558645 -0.003076436 0.26316404
000280 ff a2 52 3f 0d 18 f5 3b 81 57 2a 3f d7 db 0b bf
       0.8227996 0.0074796737 0.6653977 -0.54632324
000290 52 55 45 3f c4 80 70 be 37 3d 6d 3f 40 de 7d be
       0.77083313 -0.2348662 0.9267153 -0.24791813
0002a0 7e 22 35 3f e8 aa 5a be 4a 90 fb 3e 9b b4 96 3e
       0.70755756 -0.21354258 0.4913352 0.29434666
0002b0 38 2e b0 be 5d 4f 36 3f ef 34 05 3e 3f 9a 3e 3f
       -0.34410262 0.7121485 0.13008474 0.7445411
0002c0 1d ca 77 be 23 9f 0f bd 64 a8 94 3e f8 cf 00 3e
       -0.24198194 -0.035063874 0.29034722 0.12579334
0002d0 6e c0 f6 be 29 f6 ad 3e 58 14 80 3f 32 3f f0 3c
       -0.48193687 0.33976868 1.0006208 0.029327009
0002e0 0b 3b a2 be 7c 10 c0 be 84 81 ad 3d 12 56 66 3f
       -0.3168567 -0.37512577 0.08471969 0.8997508
0002f0 fb f6 95 3e f5 99 81 3e c2 61 f6 bd bd 92 d7 bd
       0.29289994 0.25312772 -0.120303646 -0.10526035
000300 03 a7 d9 3d b8 15 22 bd 33 c8 a0 3d 12 e3 8c bd
       0.10627558 -0.039571494 0.07850685 -0.06879248
000310 68 b1 d4 3c ba 73 fa 3d 40 ca 26 be da e5 af bd
       0.0259635 0.12229104 -0.1628809 -0.085887626
000320 8d 58 88 3e a0 8e e4 3e fa 3b 10 be cd 32 bc be
       0.2663006 0.44640064 -0.14085379 -0.36757508
000330 1b 6f a2 3e b2 a0 cb bb 5a 68 46 bf 2f 16 75 3e
       0.31725392 -0.0062142247 -0.7750298 0.23934244
000340 8a 79 c4 3d ef 22 ca 3e a1 b5 62 3e 44 85 10 be
       0.09593494 0.39479777 0.22139598 -0.14113337
000350 c5 12 c4 3c 76 2c 0c 3f 8e 7e 78 3e a2 b0 c3 3e
       0.023934731 0.5475534 0.24267027 0.38220698
000360 22 03 69 be 09 99 7d bd c9 5a d1 be 64 3e 8d 3c
       -0.22755101 -0.061913524 -0.40889576 0.017241664
000370 72 e8 38 3f 50 50 19 bf 73 01 de bd 46 d4 0c be
       0.72229683 -0.5988817 -0.1084012 -0.13752851
000380 c9 d8 4b 3d bb ae 76 3e 46 c6 e3 3d 43 00 93 3d
       0.04976729 0.24090092 0.11121802 0.07177784
000390 5a 4b d2 bb 86 d4 26 3e 15 fd 11 bc 3b 73 74 3e
       -0.006417674 0.16292009 -0.008910437 0.23872082
0003a0 fe ee e1 3e fd 89 fa 3e ef d6 fc bd 5e 01 02 3e
       0.4412765 0.48933402 -0.12345683 0.12695834
0003b0 16 8f 1a 3e ce ea 85 3d d7 a3 f3 bd f4 fd 92 3d
       0.15093645 0.06538926 -0.11896484 0.07177344
0003c0 44 22 4c bd e3 eb 26 3f 1b 86 df 3e b5 5f a5 3d
       -0.049837366 0.65203685 0.43657002 0.08074895
0003d0 a4 99 82 bd 88 9d 78 3e e5 15 03 3f 5f c1 af 3e
       -0.06376961 0.24278843 0.51205283 0.34327218
0003e0 e8 5a 08 be 71 f9 22 3f f5 3c a7 3d d4 bd f3 3c
       -0.13315928 0.6366187 0.081659235 0.029753603
0003f0 03 6b 8e 3e 2f 74 82 3f 40 f3 4a bd 6e 9a 95 bd
       0.27816018 1.0191706 -0.049548388 -0.07304846

tensor_r f4 [1, 150, 50]
000000 a4 9b 8b 3f c2 2d 06 bf 47 d7 93 3e 2a f2 d6 bc
       1.0906873 -0.5241357 0.2887518 -0.02623852
000010 7b 3b 55 be 66 36 cd 3e 84 d3 84 3e 51 fc 77 3c
       -0.20823471 0.40080565 0.25942624 0.0151358405
000020 fb cf 09 3d ee 23 77 3e f8 b8 47 3e fe 63 1c 3e
       0.03364561 0.241348 0.19504154 0.15272519
000030 bb e6 db 3c c5 29 c6 bc 2c 13 8e bd fb 4c eb be
       0.02684342 -0.02418984 -0.069372505 -0.4595717
000040 3d f9 00 be f9 0f 96 3d 3c aa e7 3d 74 b5 2f 3e
       -0.12595077 0.07327265 0.113117665 0.17159063
000050 54 f3 c1 3e ba a8 e9 be 71 8d a6 bd e7 18 1f 3e
       0.37880957 -0.4563654 -0.081324466 0.15536843
000060 e2 60 bb bc f7 e0 66 bd 42 4b ad bd aa 2f 9a be
       -0.022873346 -0.056366887 -0.0846162 -0.3011449
000070 5d 19 6e be da 46 8b be 6e c0 20 be 4c b1 e4 3d
       -0.23251863 -0.27202493 -0.15698406 0.11166629
000080 7f a5 b6 3d 04 d8 bd 3d e5 d8 d0 be d0 e7 31 3e
       0.089182846 0.09269717 -0.40790477 0.17373586
000090 44 0d 52 3e f0 ef 84 3e 23 60 33 3e 3d c8 e0 3d
       0.20512873 0.25964308 0.17517142 0.109756924
0000a0 d7 3b 77 3e 72 84 12 3e d9 4b bd be 05 f7 10 3b
       0.24143921 0.14308336 -0.3697193 0.0022119891
0000b0 5d bc 79 3c 24 03 ef 3d e6 77 0c bd 0f c2 df bd
       0.015242663 0.11670521 -0.03429403 -0.109256856
0000c0 90 ef a4 3d 56 d7 72 be dc 28 ee 3e 92 21 99 3c
       0.080535054 -0.23714957 0.46515548 0.018692765
0000d0 49 59 2c bd 42 b9 e9 3d 50 3a 38 3d 34 9a cc 3d
       -0.042077336 0.11412288 0.044977486 0.099903494
0000e0 00 5d 8f be a8 1c 0a be 3a 64 a6 39 0f c6 42 bd
       -0.2800064 -0.13487494 0.00031736662 -0.047552165
0000f0 ff a4 85 bc c3 8e c4 3d 72 d3 93 be 20 e0 db 3d
       -0.016314028 0.09597542 -0.28872257 0.10736108
000100 5a 0f d6 3e b4 8e 81 3d b1 c3 c7 be a4 d3 ac 3d
       0.41808587 0.063260466 -0.39016488 0.08438805
000110 dd 53 79 3e 62 68 6d 3e 12 ab a6 3e aa 12 1e 3d
       0.24348398 0.2318435 0.3255239 0.03859202
000120 a9 d8 27 3e 5f 00 89 3d 51 87 a7 3e a2 8c f3 bd
       0.16391243 0.06689524 0.32720426 -0.11892058
000130 f9 8e 77 be 71 04 5c 3e 6a cd fc 3c d7 95 76 be
       -0.24175633 0.2148607 0.030859668 -0.24080597
000140 42 f7 0c bf 88 af eb bc 31 ac 47 be 96 35 92 3d
       -0.55064785 -0.028770223 -0.1949928 0.07139127
000150 8a 89 56 bd ee f3 7f bd a8 97 b1 ba 1f 94 34 3e
       -0.05237726 -0.06248849 -0.0013549225 0.17634629
000160 9d ef 65 3e d0 d1 f5 bd bb ce 34 bd 30 88 65 3e
       0.22454686 -0.12002909 -0.044142466 0.22415233
000170 38 1c 1d bf 56 34 03 be fc 00 62 be 78 d7 85 3d
       -0.61371183 -0.12812933 -0.22070688 0.06535238
000180 c9 78 d9 3e da f3 0e be dc c4 da 3e 7c 97 7d 3d
       0.42474964 -0.1396021 0.42728317 0.061912045
000190 41 57 17 bd 2a 99 74 3e 0f 4b 09 3f 82 c7 15 3e
       -0.036948446 0.23886552 0.53630155 0.14626887
0001a0 16 a2 81 3e 22 6d 1f 3e 03 a4 72 be 32 5c d2 bd
       0.25318974 0.15568975 -0.23695378 -0.10271491
0001b0 fa ce 95 be 63 ff b5 3d e4 61 80 3e 84 4b 62 3e
       -0.29259473 0.08886602 0.25074685 0.2209912
0001c0 e6 10 34 3d 42 0b e0 3d 0b 10 af 3e 72 1b 95 3e
       0.043961428 0.10939647 0.34191927 0.29122502
0001d0 e7 f0 42 be 95 e0 c2 be c1 0f 04 be 2a a1 2c be
       -0.1903721 -0.38061967 -0.12896635 -0.16858354
0001e0 64 d1 61 be b4 40 4b 3e 9b c1 c5 3e 67 85 f1 3e
       -0.22052532 0.19848901 0.38624272 0.4717209
0001f0 ec 7d 57 3f dc 81 d6 3e b0 72 a2 bd fc 42 5d 3d
       0.84176517 0.4189595 -0.07932031 0.05401896
000200 f7 78 09 3d 70 9d a7 3e 98 97 b8 bd a5 ae f0 3d
       0.033562627 0.32737303 -0.09013289 0.11752061
000210 1e 7b 24 3e 78 63 c3 be a9 94 80 3d c3 5b db be
       0.1606259 -0.38161826 0.06278355 -0.42843446
000220 cb c4 5f be 97 40 72 3d 75 c7 24 3e d1 6a 3c 3d
       -0.21852414 0.05914363 0.16091712 0.046000306
000230 08 9c c0 be a5 5d b4 bc 0b fe 20 be 17 3b 83 be
       -0.37619042 -0.02201731 -0.1572191 -0.2563102
000240 99 fe b8 3e 46 29 26 3f fc 16 96 be 1d 75 13 3c
       0.36131743 0.6490673 -0.2931441 0.00900009
000250 50 9f 15 bf 18 94 79 be 27 ad 0f 3d 33 c6 ce 3e
       -0.58446217 -0.243729 0.03507724 0.4038559
000260 ed ec 53 be 37 bb 84 3d ca 9b b9 be c1 de c2 be
       -0.20695849 0.06481021 -0.3625167 -0.38060573
000270 4a a9 c7 bb 6b 8e e1 3e 53 41 64 be e6 21 86 3e
       -0.006093179 0.4405397 -0.22290544 0.26197737
000280 94 61 0a 3e bd 7f e4 3d bb db 87 be 7a b3 9b bd
       0.13513786 0.11157177 -0.2653483 -0.07602592
000290 96 14 a8 3e e6 dc 4f 3e 48 af 92 3e da 31 da be
       0.32828206 0.2029911 0.28649354 -0.4261616
0002a0 6e 41 df be f7 84 bb 3e f3 b2 00 bf d9 46 da bd
       -0.43604606 0.36624882 -0.50273055 -0.10658044
0002b0 99 a8 07 3b d1 5f 59 3e 33 ae 8d 3f fa 6a 10 3e
       0.0020699857 0.21227957 1.1068786 0.14103308
0002c0 4a b2 e7 bd b6 f3 84 3e 79 3c d7 be da 87 bf be
       -0.11313303 0.25967187 -0.42038324 -0.37408334
0002d0 29 82 e6 3d 50 ed 25 3e 95 4f c5 be 25 b5 a4 be
       0.11255295 0.16203809 -0.3853728 -0.32169452
0002e0 b8 96 e9 3e 3f 23 be bc 11 90 2c be 9e 1b cd bd
       0.45622802 -0.023210166 -0.16851832 -0.10015033
0002f0 c7 1d 80 be 08 64 8a 3d 76 43 81 be 64 fa f0 bd
       -0.25022718 0.06757361 -0.2524678 -0.11766508
000300 bf d4 2c be 6b 58 1a be b0 f5 20 3c 1b 9d 05 bd
       -0.16878031 -0.15072791 0.009824201 -0.03262053
000310 e7 c1 8a be c3 9c eb 3d 31 c7 36 3e e4 2e 4e bd
       -0.2710106 0.11504509 0.17849423 -0.050337687
000320 23 9d c1 3e d0 e5 a0 be 5e f7 a0 be 5c c6 37 3e
       0.37815198 -0.31425333 -0.31438726 0.17946762
000330 f4 64 a8 bf bc be 0d be 71 10 d8 be 55 0a c8 3e
       -1.3155808 -0.1384229 -0.42200044 0.39070383
000340 b4 94 00 bf 5f 8e 9d 3d 8a fd b8 3e 90 13 98 3e
       -0.502269 0.07693171 0.36130935 0.29702425
000350 e6 6d bd bd a0 51 83 3d aa 14 84 bd f9 d2 93 be
       -0.09249477 0.06412053 -0.06449254 -0.28871897
000360 d3 19 96 bd b9 c3 bc bd 5b 35 60 be 20 de c7 bd
       -0.07329144 -0.09217019 -0.21895353 -0.09759164
000370 5f db c3 be 8c 7a fb 3d 82 9b 59 3e 50 71 fa 3b
       -0.38253304 0.12279233 0.21250728 0.0076429024
000380 f0 fb 25 3e 65 63 3f 3e 65 f0 85 3e 19 f9 97 bd
       0.16209388 0.1869026 0.2615997 -0.074205585
000390 94 aa c6 be 43 be 77 be bb cc b9 bd 25 c4 87 3e
       -0.38802016 -0.24193673 -0.09072252 0.26516834
0003a0 96 2c df 3d bc 98 70 3d 88 b8 40 3e 68 b2 16 bf
       0.10897176 0.05873941 0.18820393 -0.58865976
0003b0 8d 39 57 3d 1c 21 bf be 3f 90 ea 3e b1 cc e0 3c
       0.05254512 -0.37329948 0.45813176 0.027441354
0003c0 d9 e4 a3 be f8 a8 bb be 0c 0d ec bd 16 34 ea 3b
       -0.32010534 -0.3665235 -0.11525926 0.0071473224
0003d0 46 94 19 3e 93 4f 2a bc 54 b7 5f be a9 7e 0e be
       0.14997968 -0.010394949 -0.21847278 -0.13915505
0003e0 82 9f ca 3e f4 80 e5 bd 76 d9 f2 3e d3 69 bb bd
       0.3957482 -0.112062365 0.47431535 -0.09151044
0003f0 7d 90 0d bf 3e ff 2e be 00 55 a9 bd 4b f9 4b be
       -0.55298597 -0.17089555 -0.082681656 -0.19919316

tensor_b f4 [1, 300]
000000 75 f6 8c 3e f1 03 5e 3f 29 fb 99 bd 47 5f 01 3f
       0.27531782 0.86724764 -0.07518608 0.50536007
000010 af 9c 00 3f f8 44 9a 3e 0d c4 54 3f c3 13 36 3f
       0.5023908 0.30130744 0.8311165 0.71123904
000020 9d dc 95 bb 1b c2 b4 3e 52 fc 2e 3f ec 25 4e 3e
       -0.0045734183 0.3530434 0.6835376 0.20131654
000030 9f ff b7 3e 10 a7 21 3f 4f 6b 27 3f a7 4a cf 3e
       0.3593721 0.6314554 0.65398115 0.40486643
000040 a4 0b 42 3f f6 2c 57 3e 64 86 81 3c cc 05 d7 3e
       0.7579901 0.21013245 0.015811153 0.4199661
000050 10 c9 5e 3f e1 e2 32 3e a3 5a 46 bf 2d 63 ee 3e
       0.8702555 0.1746936 -0.7748205 0.4656004
000060 b7 d0 93 be 1d f9 cc 3e fa 6d 78 3e ac bf cc 3e
       -0.28870174 0.40033808 0.24260703 0.39989984
000070 c2 6b 82 3e 79 24 e3 3e df 9b 47 3f 5f b6 54 3e
       0.25472838 0.44363764 0.77972215 0.20772694
000080 27 96 25 3f d6 56 a8 3a d1 ec 05 3d d0 1d 43 3f
       0.6468224 0.0012843262 0.03269655 0.76217365
000090 bf 11 03 3e f0 1d c3 bc 49 de 69 3f e3 b1 d0 3c
       0.12799738 -0.023817986 0.91354805 0.025475448
0000a0 92 cb b5 3e ab 87 ed 3b d4 78 eb bd e6 00 3a bd
       0.35506874 0.007248839 -0.114976555 -0.045411013
0000b0 8d 95 51 3f 1c 4b 17 3e 96 7e 15 3f f0 72 fd 3e
       0.8186882 0.14774746 0.5839628 0.49501753
0000c0 84 d5 f2 3e 8b b8 db 3d 9a d0 af be ae 96 af be
       0.47428524 0.10728558 -0.34338838 -0.34294647
0000d0 bc a5 2a be 50 32 b8 be cd 33 10 be 85 1d 42 be
       -0.16664785 -0.35975885 -0.1408226 -0.18956573
0000e0 5b a8 61 be b5 cb e3 be ea c7 07 be 1f c2 b7 be
       -0.22036879 -0.44491354 -0.13259855 -0.3589029
0000f0 47 d7 4e bf 5b 0c 3b be 65 82 82 3e d9 b6 1f bf
       -0.8079724 -0.18266432 0.25490108 -0.6238838
000100 19 60 e8 bc 03 d8 d1 be 46 e7 c6 bd 05 c5 6d be
       -0.028366135 -0.40985116 -0.09712081 -0.23219688
000110 6d e4 89 3e ab 73 40 be 8b 9b 10 be e3 7b f9 be
       0.26932088 -0.18794124 -0.14121835 -0.4872733
000120 c4 a6 88 be 2b cc e4 3d 38 df 10 3f 5d 5d f3 3e
       -0.26689732 0.111717544 0.56590605 0.47532168
000130 e9 dd 18 bb 9d 8d 06 bf 6b c9 53 bf 32 c4 a0 3e
       -0.0023325628 -0.52559835 -0.82729214 0.31399685
000140 bb 51 84 be b9 3e e2 bd 48 ea d4 3e 7e 0e 80 3c
       -0.25843605 -0.1104712 0.41584992 0.01563191
000150 c4 43 bb be ae 1a 70 bf f1 c5 aa 3e 27 29 ee bb
       -0.3657514 -0.9379071 0.33354142 -0.0072680893
000160 b9 ba 4e 3d bc 45 5b bf db 58 86 3e fa 4a ce 3d
       0.05047104 -0.8565328 0.26239666 0.100728944
000170 c0 de d0 be 83 a2 bf 3d 82 1f 06 bf 7c ad aa be
       -0.40794945 0.093571685 -0.5239183 -0.33335483
000180 cc bd b6 3d 4e b2 27 3d 4b 3c dd 3e f5 2d 26 be
       0.0892292 0.04094153 0.43210062 -0.16228469
000190 aa ab 14 3f 0a e7 42 3d 3c 07 c4 3d 75 ff 04 3e
       0.5807444 0.047583617 0.09571692 0.12988074
0001a0 ab 01 3c be 69 f0 c6 bd 32 5b ab be e8 e2 6b 3d
       -0.18360011 -0.09713823 -0.33468014 0.05758944
0001b0 f8 0a ad 3d f5 9c b3 bc e5 c8 23 3e 49 b5 06 3f
       0.08449358 -0.021925429 0.15994604 0.5262037
0001c0 d8 29 22 3e fa f6 5a be 9c 1e 46 be e3 5a 1f be
       0.15836275 -0.21383277 -0.19347614 -0.15562014
0001d0 45 6e d9 3d e1 40 7d 3d a4 aa ec 3d 55 dd 71 3e
       0.10616735 0.06182945 0.115559846 0.23619588
0001e0 4c 9f 3b 3e c4 bd 6d be cb 69 46 3d d4 25 00 3d
       0.18322486 -0.23216921 0.048440736 0.031286076
0001f0 6e 24 30 be 3d 8a 92 3e fb 40 81 bd 7a 37 18 be
       -0.17201397 0.28621092 -0.06311222 -0.14864913
000200 bf 8c ac 3c 80 7b a7 3d 83 d5 a9 3e f2 97 2e be
       0.021063207 0.08177853 0.3317071 -0.1705015
000210 d1 eb 34 3e 53 93 f9 3d 4d b0 8c bd d5 6d ad bc
       0.17668082 0.12186303 -0.06869564 -0.021170536
000220 1b e3 f9 bd 29 30 72 bd b6 b6 1f be 9e e8 9d be
       -0.1220152 -0.05912796 -0.15597042 -0.30841535
000230 a8 60 52 be 62 e1 24 be 79 6c 36 bf ff aa c6 3d
       -0.20544684 -0.16101602 -0.71259266 0.09700584
000240 f2 71 2c 3f 21 b5 8f 3c a0 ad 06 3d ce 40 7a bd
       0.67361367 0.017542424 0.032880425 -0.06109696
000250 07 0a b0 3e a8 06 66 3d 00 00 00 00 00 00 00 00
       0.3438265 0.05615869 0.0 0.0
000260 00 00 00 00 00 00 00 00 00 00 00 00 00 00 00 00
       0.0 0.0 0.0 0.0
000270 00 00 00 00 00 00 00 00 00 00 00 00 00 00 00 00
       0.0 0.0 0.0 0.0
000280 00 00 00 00 00 00 00 00 00 00 00 00 00 00 00 00
       0.0 0.0 0.0 0.0
000290 00 00 00 00 00 00 00 00 00 00 00 00 00 00 00 00
       0.0 0.0 0.0 0.0
0002a0 00 00 00 00 00 00 00 00 00 00 00 00 00 00 00 00
       0.0 0.0 0.0 0.0
0002b0 00 00 00 00 00 00 00 00 00 00 00 00 00 00 00 00
       0.0 0.0 0.0 0.0
0002c0 00 00 00 00 00 00 00 00 00 00 00 00 00 00 00 00
       0.0 0.0 0.0 0.0
0002d0 00 00 00 00 00 00 00 00 00 00 00 00 00 00 00 00
       0.0 0.0 0.0 0.0
0002e0 00 00 00 00 00 00 00 00 00 00 00 00 00 00 00 00
       0.0 0.0 0.0 0.0
0002f0 00 00 00 00 00 00 00 00 00 00 00 00 00 00 00 00
       0.0 0.0 0.0 0.0
000300 00 00 00 00 00 00 00 00 00 00 00 00 00 00 00 00
       0.0 0.0 0.0 0.0
000310 00 00 00 00 00 00 00 00 00 00 00 00 00 00 00 00
       0.0 0.0 0.0 0.0
000320 00 00 00 00 00 00 00 00 00 00 00 00 00 00 00 00
       0.0 0.0 0.0 0.0
000330 00 00 00 00 00 00 00 00 00 00 00 00 00 00 00 00
       0.0 0.0 0.0 0.0
000340 00 00 00 00 00 00 00 00 00 00 00 00 00 00 00 00
       0.0 0.0 0.0 0.0
000350 00 00 00 00 00 00 00 00 00 00 00 00 00 00 00 00
       0.0 0.0 0.0 0.0
000360 00 00 00 00 00 00 00 00 00 00 00 00 00 00 00 00
       0.0 0.0 0.0 0.0
000370 00 00 00 00 00 00 00 00 00 00 00 00 00 00 00 00
       0.0 0.0 0.0 0.0
000380 00 00 00 00 00 00 00 00 00 00 00 00 00 00 00 00
       0.0 0.0 0.0 0.0
000390 00 00 00 00 00 00 00 00 00 00 00 00 00 00 00 00
       0.0 0.0 0.0 0.0
0003a0 00 00 00 00 00 00 00 00 00 00 00 00 00 00 00 00
       0.0 0.0 0.0 0.0
0003b0 00 00 00 00 00 00 00 00 00 00 00 00 00 00 00 00
       0.0 0.0 0.0 0.0
0003c0 00 00 00 00 00 00 00 00 00 00 00 00 00 00 00 00
       0.0 0.0 0.0 0.0
0003d0 00 00 00 00 00 00 00 00 00 00 00 00 00 00 00 00
       0.0 0.0 0.0 0.0
0003e0 00 00 00 00 00 00 00 00 00 00 00 00 00 00 00 00
       0.0 0.0 0.0 0.0
0003f0 00 00 00 00 00 00 00 00 00 00 00 00 00 00 00 00
       0.0 0.0 0.0 0.0

tensor_w1 f4 [1, 150, 32]
000000 de d3 e3 3e 24 ea 27 bf 74 40 b0 3e 94 d2 70 bb
       0.4449758 -0.65591645 0.34424174 -0.0036746608
000010 19 b9 99 3d 95 0f a0 3d 1d 7a 41 3f c7 f9 92 bb
       0.07506008 0.07815472 0.75576955 -0.004485342
000020 65 8a d6 3e eb 84 5f bf d5 28 e6 bb 37 02 ba 3c
       0.41902462 -0.8731219 -0.0070239105 0.022706134
000030 ef f2 ef bd 1b b4 97 3c 90 ba f2 3c 61 6b 39 3d
       -0.11716258 0.018518498 0.029629976 0.04526842
000040 34 b1 25 3f 47 06 90 3f 02 0f 71 3d 0e 3f 8f 3f
       0.64723516 1.1251916 0.058852203 1.1191118
000050 bc 4c 7a 3f 15 57 27 3e b4 8c c7 3d c9 7b d5 3d
       0.9777334 0.16341813 0.09743634 0.10424001
000060 ee 78 2a 3d 01 4b f9 bb 2e 3d a6 bb 05 11 02 3f
       0.041619234 -0.007607818 -0.005073211 0.5080722
000070 ff 3c 86 be eb 59 72 3e ca f7 a2 3f 26 50 28 be
       -0.2621841 0.23667113 1.2731869 -0.16436824
000080 84 08 0a bf 26 24 a3 bd 1a 54 b4 be 75 31 0d 3c
       -0.53919244 -0.07965879 -0.35220414 0.0086177485
000090 92 62 52 bc 8a 8f 89 3c 7a 64 57 3e 6c f4 1a 3d
       -0.012840884 0.016792078 0.21034423 0.037830755
0000a0 2b 89 8a 3b ff 51 fe bd 8c b3 f5 bb a4 f0 fd bb
       0.0042277775 -0.12417983 -0.0074982103 -0.007749634
0000b0 8f 6e 92 be 78 21 11 3e 48 f6 36 be 3a 52 43 3b
       -0.28599975 0.14172924 -0.17867386 0.002980365
0000c0 74 aa 8d 3e 8a 7f 13 be f1 2f 9d 3c 49 c3 93 3e
       0.27669108 -0.14404121 0.0191879 0.28859928
0000d0 14 5d c2 3e ba 42 90 3c f1 40 16 bb 84 c5 86 3e
       0.37961638 0.017609943 -0.0022926892 0.26322567
0000e0 a4 e0 b0 3d 56 fe bd 3c 0e 4c ab 3d ba 80 dc bd
       0.08636597 0.023192566 0.08364116 -0.1076674
0000f0 27 f2 b3 3d 72 bc 88 bc 27 8d 8b bd 98 39 70 be
       0.08786421 -0.01669142 -0.06814032 -0.2345947
000100 d6 c2 20 3e 46 14 80 be 20 74 99 be af 14 76 bc
       0.15699324 -0.25015467 -0.2997141 -0.01501958
000110 68 c0 6c bd 72 6e 2f 3d e7 a1 7c 3e 02 2d b4 3d
       -0.05780068 0.04282994 0.24671136 0.08797647
000120 6a 3f 52 3d b3 e9 d3 3e e0 80 70 bd 9f 4f 50 bd
       0.051330008 0.41389236 -0.058716655 -0.050857183
000130 aa 4d 81 3d 5f e6 57 bd ec 04 55 3d e2 21 8a 3e
       0.06313641 -0.052709933 0.052006647 0.26978976
000140 6d 2b 1a 3f 76 74 db 3e 68 ff d8 bd de 75 1a be
       0.6022251 0.4286229 -0.1059559 -0.15084025
000150 42 4c 24 3f 88 d8 4b 3e 7a 99 81 3d 78 d9 de 3e
       0.6417886 0.19906819 0.063281015 0.4352529
000160 cd 28 70 3d ec 98 5d 3d 4c 89 2a 3c ca ac 11 be
       0.05863266 0.054100916 0.010408711 -0.1422607
000170 97 ac 55 3d 2f ea ce 3e c6 e8 25 3e f4 0d 06 bf
       0.052166548 0.40413043 0.16202077 -0.5236504
000180 b5 e4 a5 3d 06 f5 13 3d 3c 23 d7 3d ac b7 e7 3c
       0.08100263 0.036122344 0.10504767 0.028285824
000190 ad fb 97 bc 2d 50 41 3d 8c 60 c7 3d 46 55 0a 3e
       -0.018552626 0.047195602 0.09735212 0.13509092
0001a0 c4 9b 66 3e 1b c3 94 3e 3a 72 05 bd 87 ca 01 bd
       0.22520357 0.29055104 -0.032579638 -0.031687286
0001b0 c8 eb 06 bd 9d 5e 05 3d f0 b1 cb 3d 4b 67 2d bc
       -0.032939702 0.032560933 0.09946048 -0.010583709
0001c0 f7 6c 12 3e 5d 5b ad bd fd 3a 94 bc 4f 0f 50 bd
       0.1429938 -0.08464692 -0.018094534 -0.05079585
0001d0 91 d7 32 3f e6 33 5a 3d 6c d1 89 3d 1b 3c c4 3c
       0.6986018 0.05327215 0.06729397 0.023954442
0001e0 ad 02 50 3d f3 b3 8c 3c 73 63 a1 3d be a4 3b bd
       0.0507838 0.01717565 0.078802966 -0.045811407
0001f0 b3 1b c7 3c 4d 00 01 3f e3 1c 09 3f 64 85 4e bc
       0.0243052 0.50391084 0.535597 -0.012605045
000200 29 7f 7d bd b1 78 12 3b 1d 44 37 3d 19 f6 6c bb
       -0.061888848 0.002234977 0.044742692 -0.0036157428
000210 a2 b3 75 3c 05 dd d0 bc 53 e2 15 3f c6 24 33 3c
       0.014996441 -0.025496015 0.5854847 0.01093406
000220 43 70 86 bc cd 01 05 3e 51 7f 01 3c 00 e8 95 3c
       -0.016410952 0.12988968 0.00790389 0.018299103
000230 f4 0d d0 bd c3 a6 0a be 8c 35 3d 3e ae 2f bc 3a
       -0.10158911 -0.13540177 0.18477458 0.0014357471
000240 03 23 37 bd 9c ba 5d 3e 19 47 2e 3c 5c 2f bf 3d
       -0.044711124 0.21653217 0.010637068 0.09335205
000250 e0 cf a7 3e 82 dd 99 3d 62 1f a3 3d f7 f7 55 3e
       0.32775784 0.075129524 0.0796497 0.20895372
000260 ff 2a 00 3e 8b 8c 91 3c 77 04 3a bd a4 cb 10 3e
       0.12516402 0.017767211 -0.045414414 0.14140183
000270 4e 26 09 3e 68 ab 18 3e 95 56 57 3c 96 17 88 be
       0.13393518 0.14909136 0.013143201 -0.26580495
000280 6a 96 3b 3b 3e 20 1b 3e a9 5b f3 bd f1 45 56 3c
       0.002862359 0.15149018 -0.11882717 0.013078199
000290 bc a7 b6 3c 5f 56 1a bc 34 90 97 3d 38 f4 3c 3e
       0.022296779 -0.009420007 0.074005514 0.18452537
0002a0 a3 9c 2e be 33 71 b3 3d 09 b2 b5 bb cd 52 bb b9
       -0.1705194 0.087618254 -0.005544905 -0.0003572911
0002b0 02 e8 85 bd 5d e7 49 3c 41 0a 95 3e df 67 18 3d
       -0.065383926 0.012323228 0.29109386 0.037208434
0002c0 08 da 3c 3f 6c c1 8f 3c 1e 82 6d 3c 61 ba 11 bd
       0.7377019 0.017548285 0.014496354 -0.035578135
0002d0 83 db a7 3e 71 d5 ff 3d 5a 6b f1 3d 06 37 c3 3d
       0.32784662 0.124918826 0.11788054 0.09531979
0002e0 c3 0a 9e 3d 07 5b d6 3c 9d 03 dd bc 96 3d 90 bc
       0.077168964 0.026166452 -0.026979262 -0.017607491
0002f0 c1 dc 21 3e 69 7a 2f 3e 92 30 8c 3d 3a 2a 9f bd
       0.15806867 0.1713654 0.068452016 -0.07771726
000300 5d a4 50 3d 93 d9 14 3f 9d 16 b6 be 96 78 99 bb
       0.050938 0.5814449 -0.35564128 -0.0046835644
000310 f0 1d 09 bb d0 70 dd 3c c9 26 53 3e 3c a7 9b 3c
       -0.0020922385 0.027031332 0.20620264 0.019000642
000320 ce 22 0e 3c b4 2a 7c bc 4e 3a cd bb 51 b8 57 bb
       0.00867529 -0.015391041 -0.006263054 -0.0032916258
000330 c7 04 3a 3d 35 39 c7 3d b2 31 8a 3e 98 6c 0f bc
       0.045414712 0.09727708 0.2699104 -0.008753918
000340 e8 7c 92 3e 78 de 88 3b 45 65 fd bb 16 c0 73 3d
       0.2861092 0.004176911 -0.0077330195 0.05950936
000350 6c 2b 31 3d 8a b6 8e 3c e3 0a 38 3c b4 1f f2 3d
       0.0432543 0.017421026 0.011233064 0.11822453
000360 ac 17 f9 bb a1 0c c2 3a fb 60 57 3d 30 d0 2b 3d
       -0.007601699 0.0014804789 0.052582722 0.04194659
000370 ef 6e e4 3e bc 7b 2f 3f f3 d6 21 3d 6b 4a f3 bd
       0.44615886 0.6854818 0.039511632 -0.118794285
000380 36 5c fa 3d 51 37 43 3f 87 d4 ed 3c 9a ac 9a 3b
       0.12224619 0.7625628 0.029032005 0.0047202827
000390 5b 48 0b 3e 2c f5 ec 3d 73 c5 17 be e8 4a 0c 3d
       0.1360182 0.115702 -0.14821415 0.034251124
0003a0 39 cb 95 3d 2f 40 de 3e d4 21 f1 3c 7b 65 68 3d
       0.07314152 0.43408343 0.029435076 0.056737404
0003b0 ee e4 6b bc b8 ca fb 3f f9 fb 5e be 31 50 95 3c
       -0.014397843 1.967124 -0.21775807 0.018226715
0003c0 f1 88 72 3e aa 54 b5 bc d2 24 34 bd a5 3d d0 3f
       0.23685052 -0.022135098 -0.043980427 1.6268812
0003d0 19 b3 3b bd f2 35 0b 3f ce 03 cc 3e 24 c6 7c 3d
       -0.045825098 0.5437919 0.39846653 0.0617124
0003e0 7d 84 86 3d 72 bb 04 bd b7 67 9d 3e ea 91 bc 3f
       0.06568239 -0.032405324 0.3074319 1.473203
0003f0 72 56 17 3e 59 fc a2 3f 35 3b 42 3e 63 ae 89 3c
       0.1477907 1.273326 0.18967898 0.016806787

tensor_r1 f4 [1, 150, 50]
000000 b2 0a 9e 3f a3 71 b7 3d 8d b5 ae 3e 61 bd 20 be
       1.2347014 0.08957221 0.34122887 -0.15697242
000010 07 72 20 bf 1b e8 49 bd 92 fd 8f 3e ed 11 49 3e
       -0.6267399 -0.04929362 0.28123146 0.19635744
000020 10 dd 9a 3e 00 45 30 3d f0 0d 3f 3e b6 fb 9c 3e
       0.30246782 0.043034554 0.1865766 0.3066079
000030 8e e7 16 be 06 cf 04 be 16 b8 70 bd 6d 94 dd 3e
       -0.14736769 -0.12969598 -0.058769308 0.43277302
000040 17 e5 3c 3f 2e 6a d6 3c c6 aa 18 be 9a b6 62 3e
       0.73787063 0.026173677 -0.14908895 0.2213997
000050 4b ce 9e be 7a d2 38 3e 15 58 31 3e 35 17 d5 be
       -0.31016764 0.1804904 0.17318757 -0.41619268
000060 50 84 4e 3e 58 b8 84 be 69 a0 78 bd d7 9b 82 bd
       0.2016766 -0.25921893 -0.060699854 -0.0637738
000070 b9 fa be be 35 2c b9 bb 9e 36 8e 3b 57 34 09 3f
       -0.3730066 -0.005651022 0.004340007 0.5359549
000080 55 05 2a bb a8 59 42 3e cf c7 71 3e 7e 60 d4 bb
       -0.002594312 0.18979514 0.23611377 -0.0064812293
000090 ac 8f b7 be 3c f0 a7 bf 44 8f 82 3e 09 df 57 bf
       -0.358518 -1.3120189 0.25499928 -0.843247
0000a0 53 e2 10 bf 5d cd a7 3c a4 e7 94 3d df 6c 4e 3e
       -0.56595343 0.020483667 0.072707444 0.20158719
0000b0 92 00 21 bf 2e bb 71 3e 5a 68 63 bd 45 c6 07 3e
       -0.62891495 0.2360656 -0.05551944 0.13259228
0000c0 ce 9e f5 3e 7b 5a 00 be 3d e6 a2 3c 1e 0a 53 3f
       0.4797272 -0.12534516 0.019885177 0.8243731
0000d0 22 51 06 be b9 be a2 be c9 65 c3 bd 1e 6d 9a bd
       -0.13116887 -0.31786135 -0.09540898 -0.07540344
0000e0 b9 17 2f 3f e3 c3 20 bf e3 97 0a 3e 08 8a 23 3f
       0.6839557 -0.627989 0.13534503 0.63882494
0000f0 b9 82 89 be 02 58 c9 be 6a ac b9 3e 64 dd 0d 3f
       -0.26857546 -0.39324957 0.36264354 0.5541594
000100 35 5c f3 bd 96 ec 29 3f 78 7b b7 3e 85 fa 53 3f
       -0.118828215 0.66376626 0.35836387 0.8280414
000110 bc 7e c7 3d db 77 b4 3e 10 90 c0 be aa 96 0d 3f
       0.097409695 0.35247692 -0.3760991 0.5530802
000120 46 fb ab 3d 1c 1c fa 3b 47 b7 8c 3f cf 48 27 be
       0.08397536 0.0076327454 1.0993432 -0.16336368
000130 ef 7c fd bd e0 24 8c bd 75 e3 49 be d8 2d c9 be
       -0.12377345 -0.06842971 -0.19715674 -0.39292789
000140 32 2b 86 3f 3c b3 ef be 6a 42 70 3f c1 37 9d be
       1.0481932 -0.46816432 0.9385134 -0.307066
000150 32 0e 18 bf 2c 29 a3 3d f1 ba 9a 3e 43 dc 70 3e
       -0.5939666 0.07966837 0.3022075 0.23521523
000160 bd 19 1b bf ac 14 80 be c4 ef d0 ba 2b 18 2d be
       -0.6058615 -0.2501577 -0.0015940596 -0.1690375
000170 20 a3 83 bf 41 66 45 3e 80 b9 c4 be cc 9d c0 be
       -1.0284157 0.19277288 -0.38422775 -0.3762039
000180 a8 8c e6 be e1 bb b4 be 0c 9f ef 3d 73 9e 7d be
       -0.45029187 -0.3529959 0.11700258 -0.24767475
000190 8a 19 1b be 37 f7 07 be ce ac 22 bd 3d 3f c7 be
       -0.15146461 -0.13277899 -0.03971558 -0.38915434
0001a0 0e a1 0f bf 8c 26 76 3a 59 6b fc bd 59 9d c5 3d
       -0.56105125 0.0009389899 -0.123251624 0.09649152
0001b0 4c 8b 01 be e8 8c 43 be f2 d5 d8 3e f0 74 80 3c
       -0.12650794 -0.1909672 0.42350727 0.01568076
0001c0 78 53 f7 bd d2 80 40 be 50 2f be bd f5 b8 03 3f
       -0.12076467 -0.18799141 -0.09286368 0.514541
0001d0 5c b4 2c 3d 1d 3c 51 bf 06 2c 96 be dd 2d a8 bd
       0.04216419 -0.8173235 -0.29330462 -0.08211873
0001e0 f1 8d b8 3d 85 f3 96 3e ba a0 ea be fb 69 a0 3e
       0.09011448 0.29482666 -0.4582575 0.31330857
0001f0 7a db 36 bc 0e 7e 7e be 4f b4 3a be e5 fc 36 be
       -0.011160726 -0.24852774 -0.18232845 -0.17869909
000200 9a d8 6e 3d 43 66 7f 3e d8 83 e9 bd 26 f3 a6 be
       0.058312036 0.24941353 -0.114021 -0.32607383
000210 10 30 d8 3d 7d 41 27 bb 2a 70 58 3d 67 b7 05 bf
       0.10556042 -0.0025521212 0.052841343 -0.52232975
000220 76 d5 4c 3e f9 34 34 be ae 7f 93 3d a4 04 c3 be
       0.20003304 -0.17598332 0.07202087 -0.38089478
000230 38 91 9d bd 2a b1 f7 bc 8c e9 15 be 4b 0d 3b be
       -0.07693714 -0.030235846 -0.14639872 -0.1826679
000240 7e 19 9c be 55 b6 7e be 77 6c 42 be 28 29 ed 3d
       -0.304882 -0.24874242 -0.18986689 0.115801156
000250 0d 66 04 3d c2 09 fd bd 24 d8 59 3b 9b 46 c6 bd
       0.032323886 -0.12355377 0.0033240402 -0.09681436
000260 5e ff e7 bc 57 a6 0c bf da 0e 1f 3f 1b 9f a9 bb
       -0.02832001 -0.54941314 0.62132037 -0.0051764376
000270 2a 53 c7 be 74 c3 0b 3e 56 3e 0a bd aa e4 7d bd
       -0.38930637 0.13648778 -0.033750854 -0.06198565
000280 03 c1 90 3e 23 3a fb 3d 04 9d ca bd ae 30 2f be
       0.28272256 0.12266948 -0.098932296 -0.17108414
000290 94 69 30 be d5 59 be be e2 5f 05 bf 77 29 6b bd
       -0.17227775 -0.3717791 -0.5209943 -0.05741259
0002a0 4f 1c 16 bf 56 b4 9f be 95 a3 05 be 75 69 d1 3e
       -0.58636945 -0.31192273 -0.13050683 0.4090077
0002b0 f6 26 10 3b 90 38 06 3e 80 d5 84 3e ff 52 a5 be
       0.0021995879 0.13107514 0.25944138 -0.32289883
0002c0 a8 43 79 be 5e cf 5d 3d 8a ff 91 be 53 49 17 3e
       -0.24342215 0.05415284 -0.28515273 0.14774065
0002d0 64 2b 03 be 24 fb 3c bf c5 07 23 bd cb bd 14 be
       -0.12809521 -0.7382071 -0.03980233 -0.14525525
0002e0 0c 54 ad bd af 7d a1 be 47 36 ea bd ca d7 04 3e
       -0.08463296 -0.315412 -0.11436134 0.12972942
0002f0 68 a5 8e 3c e5 cf 6c be 41 c7 01 bf e4 53 d9 bc
       0.017412856 -0.2312618 -0.5069466 -0.02652926
000300 83 e2 52 be 45 5d 0c be f0 77 df be 00 a1 b6 3e
       -0.2059422 -0.13707455 -0.43646193 0.35669708
000310 aa f0 13 be 81 5e 06 3e 32 8d bc 3e 29 69 e4 3d
       -0.14447275 0.13121988 0.36826473 0.1115287
000320 22 4a ae 3d 6a 09 9a 3e ac 01 06 3d 29 d2 7f be
       0.085102335 0.30085307 0.03271644 -0.24982513
000330 74 c4 e7 bd 44 41 16 3e fb c8 0d bf 7a e2 82 ba
       -0.11316767 0.14673334 -0.55384797 -0.0009985708
000340 35 9c 8b be b7 ab 06 be a5 8a 6f 3e 71 55 57 be
       -0.27267614 -0.13151442 0.23392732 -0.21028687
000350 5c cb 06 be a4 53 72 3d 04 64 b6 be ee 14 28 be
       -0.13163513 0.059161797 -0.3562318 -0.16414234
000360 53 f4 35 3f a8 ae f4 3e 59 83 57 be 17 cf 16 3e
       0.71075934 0.47789502 -0.21046199 0.14727436
000370 b8 ce 5d 3d bb 22 dc 3e 56 c7 07 3d 86 31 6c be
       0.05415222 0.42995247 0.033149086 -0.23065767
000380 34 a9 87 be 0f f5 6e bb 91 37 ac 3d 0b 4c ec 3e
       -0.2649628 -0.0036461984 0.08409036 0.46151766
000390 68 49 4d be ba 2b 16 3e 98 64 de 3c 31 d2 0a 3f
       -0.20047534 0.14665118 0.027147576 0.54226977
0003a0 59 ea f3 3e fb 71 17 be f7 ee ed 3d fd 96 cb 3d
       0.4763973 -0.14789574 0.116178446 0.09940908
0003b0 1c b5 41 3d b5 26 e8 bc 86 51 81 bd 06 7f d9 be
       0.04729186 -0.02833877 -0.063143775 -0.42479724
0003c0 82 5e a8 be 93 20 20 3e 27 26 ac 3e 27 b1 3c bd
       -0.32884604 0.15637426 0.33622858 -0.046067383
0003d0 a0 8c 8c be 4e 6f 6d 3d c0 30 da bc 0b 1e 51 3e
       -0.27451038 0.057967477 -0.026634574 0.20421617
0003e0 81 36 f5 3d 2a f9 2b be 74 cd 9f 3d da c5 24 3e
       0.119732864 -0.16794267 0.07802859 0.160911
0003f0 26 bf 74 bd a1 e2 8b be fa 2d a1 3e 97 69 f8 bd
       -0.059752606 -0.27321342 0.3148039 -0.12129515
