DeepDoubleX/102X/V021/CvL.onnx (onnx, 237799 bytes, 35 tensors)

ID_pred/kernel:0 f4 [100, 2]
000000 31 a9 f8 3d d8 cc 9e 3b d1 88 53 bd ac 16 ad 3c
       0.12141646 0.0048461966 -0.05164415 0.021128975
000010 c9 90 20 bd 87 8a 4e 3d a5 08 be 3d 92 98 2f 3e
       -0.039200578 0.05042508 0.092789926 0.17148045
000020 d9 8c 9b bd 5f 6d 1d be 1f 60 0b 3e 48 25 14 be
       -0.07595224 -0.15373753 0.13610886 -0.14467347
000030 74 5f 79 3c ff 25 53 bd c2 7f e8 3c d5 7b 70 be
       0.015220512 -0.051549908 0.028381232 -0.23484738
000040 a3 48 fa bd 68 fa 40 bd 53 1e a5 bd 24 e2 97 bb
       -0.122208856 -0.047113806 -0.080624245 -0.0046351124
000050 58 00 cd bc 02 9b 54 3e c2 d5 3e be 6c 33 e7 bd
       -0.025024578 0.20762256 -0.1863623 -0.11289105
000060 a6 a3 08 be ac 8c f2 bc 31 90 e1 bc fd 97 4a 3d
       -0.13343677 -0.029608093 -0.027534576 0.049461354
000070 27 28 97 3d 54 f7 c6 ba 39 b6 ae bd 0d 58 03 3e
       0.07380705 -0.0015179911 -0.0853085 0.12826557
000080 74 65 c0 3c 32 15 39 bd 5e a1 73 3c f9 ab d4 bd
       0.023485877 -0.04518623 0.014870016 -0.10384364
000090 1a 3b 21 3e 57 44 91 bd d6 8c 1c be 6a d7 88 bd
       0.15745202 -0.07093113 -0.152881 -0.06681712
0000a0 9d 20 90 ba 5a 12 aa 3d 15 f7 b0 bc cc be e5 bd
       -0.0010996048 0.083042815 -0.021602193 -0.11218032
0000b0 d7 be 27 be 2f b7 86 bd 02 49 a8 3d ec d2 df bc
       -0.16381393 -0.06577908 0.0821705 -0.027322255
0000c0 8d 78 57 bc 61 c7 a0 3d fd 91 01 3e 09 6f 27 be
       -0.0131513 0.078505285 0.12653346 -0.1635095
0000d0 29 5e 2f 3d 45 1b 21 3e 8d bf a9 bd 96 ea 15 3c
       0.042814407 0.15733059 -0.082884885 0.009150168
0000e0 f8 6e c2 bd 50 d7 33 be 9d 47 a8 3c 03 4d 61 bd
       -0.09493822 -0.17562604 0.02054196 -0.055005085
0000f0 7c e3 de 3d d6 24 14 be ca 49 72 3d 1e 6d 18 bd
       0.10883233 -0.14467177 0.059152402 -0.037213437
000100 04 91 97 3d e2 19 fa bc bc e2 fd bd 57 40 d4 bc
       0.074007064 -0.03052992 -0.12396762 -0.025909586
000110 dd 2d 2c be dc 13 d7 bc dd 7a 4e bd a3 01 be 3d
       -0.1681437 -0.026254587 -0.05041014 0.09277656
000120 ad cf 73 3c 81 76 8a bd a7 13 df bd 76 60 60 bc
       0.014881057 -0.06760884 -0.1089242 -0.013694873
000130 e4 81 28 bc d3 e6 fa bd f7 0e bf 3d 58 53 fb 3b
       -0.010284875 -0.122510575 0.09329026 0.0076698475
000140 1e f8 90 3d d2 1b 14 3e f8 be e5 bd 0b 4f 37 bd
       0.070785746 0.14463738 -0.11218065 -0.044753116
000150 c3 64 e9 3d 9d 03 5c bd 39 d6 4a 3c 8d 7c ad bd
       0.11396172 -0.053714383 0.012380176 -0.08471022
000160 c9 79 e0 bc 2b 43 20 3d 4a 5c c1 3d de 4a 91 3c
       -0.027401822 0.039126556 0.09441431 0.017735895
000170 99 e6 c2 bd 46 7d e6 3c cb 0f 1a be 92 da 77 bd
       -0.09516639 0.028135907 -0.15045087 -0.06051118
000180 f4 64 0b be aa 08 8c bd a1 c1 ee 3c fc c2 f5 3d
       -0.1361273 -0.0683759 0.029145064 0.12000081
000190 53 75 92 3d d9 76 0c 3e 69 1d 9b 3c cc ce 65 bd
       0.07151284 0.13717212 0.018934922 -0.05610542
0001a0 4c 98 53 bd cc 01 2c be f1 f5 2c 3d 55 0d e2 3d
       -0.051658913 -0.1679756 0.042226736 0.11037699
0001b0 55 59 31 bc d3 6c bb bd 70 57 21 bc e6 04 e3 bd
       -0.010824521 -0.09151616 -0.009847507 -0.11084919
0001c0 62 70 f1 bc 4b 1a 8a 3d 5d eb b9 3d 01 a9 ed bc
       -0.029472534 0.06743296 0.09078095 -0.029011251
0001d0 3d 0e 93 bd 35 d5 14 be 32 df 3f bd ec 72 38 3d
       -0.0718045 -0.14534457 -0.046843715 0.045031473
0001e0 e2 d4 8b bd ee e8 c0 3b 64 26 5d 3e f6 76 d0 b9
       -0.068277135 0.0058871424 0.21596676 -0.00039761484
0001f0 f4 c3 4b 3d ec 8b de bc d3 ca d2 3c 5d 62 3a be
       0.049747422 -0.02716633 0.02573148 -0.18201585
000200 f0 fa 45 bb 77 bc 9c 3d b4 4c 1f 3e d1 9e ac 3d
       -0.0030209385 0.07653134 0.15556604 0.08428729
000210 9b 47 a1 bd 98 c7 00 3e 83 36 de bd c4 cd 1b bd
       -0.07874986 0.12576139 -0.10850241 -0.03803803
000220 b5 67 8d bb 79 4f 8c 3d e5 fa 81 bc 6b f0 72 3d
       -0.0043153414 0.06851096 -0.015866706 0.05931131
000230 39 c2 51 bd b2 ea 15 3e 9a 0c 95 3d 8b 20 1f 3e
       -0.051210616 0.1464031 0.07277794 0.15539758
000240 74 80 17 3e 94 50 95 3d 06 9a ea bd 52 85 45 be
       0.14795095 0.0729076 -0.11455159 -0.19289139
000250 d2 93 cc bd d2 4d 85 bc 08 d2 da 3d 81 ab 1c 3d
       -0.09989132 -0.01627246 0.106845915 0.038249496
000260 7a 0c e2 bd 41 09 27 bd 1b 1e bf bb 52 d7 7a 3d
       -0.11037536 -0.04078031 -0.0058324463 0.0612405
000270 da 88 7f bd f0 eb f9 3c 43 e9 53 ba d7 03 07 3e
       -0.06238637 0.030508012 -0.000808377 0.13185059
000280 0b 25 2e be 7e b9 bf bd f3 98 0f 3e 04 d3 6a 3d
       -0.17006318 -0.09361552 0.14023189 0.057330146
000290 54 7f 5c bd 44 82 99 3c d5 54 c6 bc 08 de 4d be
       -0.053832367 0.018738873 -0.024210373 -0.2010423
0002a0 1d 60 91 3d 62 32 2e be f1 38 50 3c ac a9 bc 3d
       0.0709841 -0.17011407 0.012708888 0.0921205
0002b0 71 62 c3 3d b9 72 f5 bd 92 ac 21 bd 1e 97 fd bd
       0.095402606 -0.11984772 -0.039471216 -0.12382339
0002c0 1d b4 28 3d fe dd ff bc 8d 2e ec bc 08 77 27 3d
       0.041187394 -0.031233784 -0.02883079 0.040885
0002d0 c7 f5 e9 bd 24 10 2a bd a2 63 d3 3c 68 da 9f bd
       -0.114238314 -0.0415193 0.025804345 -0.078053296
0002e0 3a 68 cf 3d 37 98 1d 3c 34 2f 0f 3e e7 40 af 3c
       0.101273015 0.00961881 0.1398285 0.021393253
0002f0 46 0e 5f bc 15 d0 5c 3d 58 bf 22 bd 61 0c fd 3c
       -0.013614243 0.05390938 -0.03973326 0.030889692
000300 17 21 55 bd 8d 34 e7 3c 99 0d ac 3e 89 01 ea be
       -0.05203351 0.0282233 0.33604124 -0.45704296
000310 bb 6d 7f bc c9 10 cd 3d 19 aa 6b bd 7a 38 51 3e
       -0.015590127 0.10012967 -0.057535265 0.204317

ID_pred/bias:0 f4 [2]
000000 39 fd 02 3e 15 fb 02 be
       0.1279191 -0.12791093

fc1_relu/kernel:0 f4 [155, 100]
000000 46 1c a4 3d fb 8c ac be 21 77 b0 bd 62 a9 1a be
       0.08013205 -0.3370131 -0.08616472 -0.15103677
000010 c5 d8 bd 3e e7 52 13 40 63 a2 87 3e f4 54 97 bf
       0.37079445 2.301935 0.2649108 -1.1822801
000020 6b 45 02 bf 66 04 25 3e 91 f5 87 bd 4e 45 2d be
       -0.50887173 0.16114959 -0.06638635 -0.16920969
000030 7d fc e1 3d ed 02 ce 3d d5 5c 2d 3f 7a 14 0c bf
       0.110344864 0.10059152 0.67719775 -0.54718745
000040 7f 83 62 bc 85 0e 5c 3e 31 7b 2a 3e d9 cb 84 3e
       -0.013825296 0.21489914 0.16648556 0.25936773
000050 e7 b9 6d 3e ad fd 34 be 73 4a 33 bf d2 13 a9 3d
       0.23215447 -0.17674895 -0.70035475 0.082557335
000060 2c 16 03 bd ab 8e 85 3e 54 d2 5d 3e 62 d7 1f be
       -0.032003567 0.2608541 0.21662265 -0.15609506
000070 db a3 5e 3d 50 61 1f bc 5f d7 cf be 93 2c 11 be
       0.054355484 -0.009727791 -0.40594003 -0.1417716
000080 e0 b8 31 bf 80 07 91 3e e5 df 7e bf d4 cf d1 be
       -0.6942272 0.28326035 -0.99560386 -0.40978873
000090 28 d2 bb bc ab 3f 89 bd 22 53 53 bf 92 0f 29 3f
       -0.022927359 -0.06701597 -0.82548726 0.66039383
0000a0 b9 29 16 be 40 5e 8f 3d bb 1e 2f be 19 75 4c be
       -0.14664353 0.07000399 -0.17101566 -0.19966544
0000b0 70 96 02 be 4d cb 38 be 07 9f ca 3c b6 4d e4 be
       -0.127527 -0.18046303 0.024734033 -0.4459054
0000c0 43 0f 81 bd 3d 3e c7 be 78 96 5c be 34 6c 42 3e
       -0.06301739 -0.38914672 -0.21541774 0.18986589
0000d0 ca 69 3c bf 15 de 8e 3e 31 8b f3 bd 51 24 d8 3c
       -0.7359892 0.2790381 -0.11891783 0.026384505
0000e0 52 d2 af bd 63 10 04 bf 17 f1 23 3c d1 c6 07 bf
       -0.08585037 -0.51587504 0.010006211 -0.53037745
0000f0 8e 83 fc 3d 0e 7a d7 bd b1 30 c2 3c 71 05 17 be
       0.123297796 -0.10521327 0.023704858 -0.1474817
000100 53 54 a4 be b4 e5 ce 3e c5 ca 64 bd b7 e0 6e bd
       -0.32095584 0.40409625 -0.05585744 -0.058319774
000110 1d 1f ba bd e4 dd 78 3e fe d3 4a be 64 16 de be
       -0.09087966 0.24303395 -0.19807431 -0.43376458
000120 13 6f 75 bd 1a 9a e9 be f5 95 3e bf 6f be 18 3e
       -0.05992038 -0.45625383 -0.74447566 0.14916395
000130 7e ce 6e 3c 02 f1 20 3d b5 c6 82 3e b8 ed 0f bf
       0.014575599 0.039292343 0.25542226 -0.56222105
000140 5b 6d 64 bd 75 6c a5 be 48 1b 96 be a1 5b 0c 3e
       -0.055768352 -0.3230931 -0.2931769 0.13706829
000150 28 a4 6b 3e da 5b 2c bb f7 b3 69 bf f8 b4 9c be
       0.2301184 -0.0026299865 -0.9129023 -0.30606818
000160 9c 23 5a 3e cf b9 01 3e d6 cd 15 be c8 83 d3 3d
       0.21302646 0.12668537 -0.14629301 0.1032787
000170 f9 31 d7 bd 2e 77 92 3e 9e 74 81 bc b5 a7 52 be
       -0.105075784 0.28606552 -0.015802678 -0.20571788
000180 52 7a 6b 3e fe f3 70 bf 4f 19 e3 bd 66 99 7b be
       0.2299588 -0.941223 -0.110888116 -0.24570236
000190 0b 0d 4d bb a1 55 1d be 5f 6b 88 3f 4f 20 67 be
       -0.0031288292 -0.15364696 1.0657767 -0.22570919
0001a0 13 8a b6 bb 5a 94 df 3e f3 78 5f be 51 43 b9 be
       -0.005570659 0.4366787 -0.21823482 -0.3618417
0001b0 00 a7 16 3f 43 39 99 be 3c 3a 17 3d 4c ed df 3e
       0.5884857 -0.299265 0.03692077 0.4373573
0001c0 ea ee 8c 3e da bc 92 be 18 29 30 bd 30 8e 40 3f
       0.27526027 -0.28659707 -0.04300794 0.7521696
0001d0 4e 36 88 be fe 84 f9 bd 95 be 02 3f 8d 1a d4 be
       -0.2660393 -0.12183569 0.51072055 -0.41426507
0001e0 88 73 8b 3e fe 3c 21 be a7 15 0d 3f ea cf a7 3e
       0.2723658 -0.15745923 0.55111164 0.32775813
0001f0 46 fb d3 be a3 18 85 3f e5 0f 3f 3f 13 1a ac 3e
       -0.41402644 1.0398144 0.7463363 0.33613643
000200 de c5 0d bf 0f 5f b0 be af 90 10 3f 9c 8f 9f 3d
       -0.55380046 -0.34447524 0.5647077 0.07791063
000210 53 b0 41 3d d8 2d 94 3d c3 e7 be bc 32 27 59 be
       0.047287297 0.072353065 -0.023303872 -0.21206358
000220 9a 88 ab bd f8 18 8a 3e 52 09 4f be 66 52 ed 3e
       -0.08375664 0.26972175 -0.20218399 0.46351928
000230 27 d4 61 3f 74 38 91 bd 6c 3f b2 3e e2 55 7b 3e
       0.88214344 -0.07090846 0.34814012 0.2454448
000240 da 42 82 3e 30 10 03 bf 1c 47 9f 3e 72 50 c9 bd
       0.2544163 -0.51196575 0.3110894 -0.09829797
000250 9a 9a 74 3d f9 0e cb 3e 4d 82 6e be d0 3e dd 3d
       0.059717752 0.3965986 -0.23291893 0.10802996
000260 61 3e b8 bd 83 bf 24 3f eb 64 80 bc 59 f6 3a bd
       -0.08996273 0.64354724 -0.015673121 -0.04564509
000270 68 17 fa be d0 1c ce 3d 8f 88 db bd c9 93 e7 bd
       -0.48845983 0.10064089 -0.10719406 -0.11307485
000280 88 69 18 3f b5 dd b8 3f 21 0b 1f 3e 35 ef 69 3f
       0.5953603 1.444266 0.15531589 0.91380626
000290 48 49 de be 82 5f 20 be 56 72 17 3f 88 74 f8 bd
       -0.43415284 -0.15661433 0.5915884 -0.121316016
0002a0 4c 6a 00 bf c3 9a 39 3d f4 d8 06 3f 61 5b 06 3c
       -0.50162196 0.045313608 0.52674794 0.008200497
0002b0 b4 68 14 3e 88 74 cd 3d 90 ce 17 be be 12 4c be
       0.14493066 0.10031992 -0.14824891 -0.19929025
0002c0 8c 40 7e 3e eb ec a1 3e 4f 34 0f bb ef 3b 24 3e
       0.2482931 0.31626067 -0.0021851247 0.16038488
0002d0 02 74 e5 be ef 51 b6 bd fd bf f5 bc c4 ed d1 bd
       -0.4481507 -0.08902346 -0.029998774 -0.10250428
0002e0 e1 69 9d 3f ec 41 c8 3f d5 b2 c8 bc 3f b2 01 3e
       1.2297937 1.5645118 -0.024499336 0.12665652
0002f0 8a a6 f1 be 10 22 59 3e 77 61 42 be bc f8 6b bd
       -0.47197372 0.212044 -0.18982492 -0.05761026
000300 8f 56 56 3f 60 37 a1 be 09 ef 0f 3e 03 48 7d 3e
       0.8372583 -0.3148756 0.14056028 0.24734502
000310 c8 0b 48 3e 58 c8 c7 bd 7b ec 48 3e 21 e2 82 3f
       0.19535744 -0.097550094 0.1962146 1.0225259
000320 c6 d6 58 bf da 35 0b 3e 30 7c 04 bf 86 b5 db 3d
       -0.8470272 0.13594761 -0.51751995 0.10727982
000330 6f 80 0e be cc 15 66 bf 89 6f cb be d3 49 43 3f
       -0.13916181 -0.8987701 -0.39733532 0.7628452
000340 64 df 9b bd ef 02 d9 3e 07 18 3c be 3d 15 3f bb
       -0.07610968 0.4238505 -0.1836854 -0.0029156946
000350 d4 a5 f2 bd 4e 39 fd be e3 d6 78 bb e3 1c 07 bf
       -0.118480355 -0.49457783 -0.003796988 -0.5277845
000360 0f 1e 3b 3e 8f 94 d1 be 3d 09 31 bf 97 5e 32 be
       0.18273185 -0.40933654 -0.6915472 -0.17418896
000370 ea 6c 8c be c3 d9 f9 3d 12 fc ec 3e a1 f1 14 3c
       -0.27426845 0.12199738 0.46286064 0.009090812
000380 b1 7a a4 bc fb 48 80 bf bf b5 1f 3d e3 a5 6e be
       -0.020078035 -1.0022272 0.038991686 -0.23305468
000390 1d 90 b6 3e 0e 96 b3 3e 9c 94 98 be 81 81 34 3d
       0.35656825 0.3507542 -0.2980088 0.044068817
0003a0 bf 45 9c 3e 32 6a e0 be 22 fe ab bd ef 1b 24 3e
       0.30521962 -0.4383102 -0.08398081 0.16026281
0003b0 49 d0 06 be ac 91 fe 3c a3 91 04 3e 82 b9 63 3e
       -0.13165392 0.031075321 0.12946181 0.22238734
0003c0 a0 cb fe 3c df 70 b0 3e ce bd 78 be fc 91 f4 be
       0.031102955 0.34461114 -0.24291155 -0.47767627
0003d0 9d 45 1a bc bf 68 1a 3f db 52 b9 be 19 32 cd 3e
       -0.009416011 0.6031608 -0.36196026 0.40077284
0003e0 fb 4a 54 3e 03 64 f1 bd e0 5b ba bd 57 82 1b bd
       0.20731728 -0.11786654 -0.09099555 -0.0379661
0003f0 2e 9e a0 3e ff 11 d3 be b6 3e c6 3e b0 98 4c be
       0.31370682 -0.41224667 0.3871972 -0.1998012

fc1_relu/bias:0 f4 [100]
000000 ac 20 eb be 0e 0a b0 bd 5b 93 53 bf ae 58 3e be
       -0.45923364 -0.08595668 -0.8264672 -0.18588516
000010 46 87 a8 3d 05 61 bc bf 37 d8 66 3c b2 fb 08 c0
       0.08228926 -1.4717108 0.014089636 -2.1403623
000020 8c 0b 1e bf e9 78 ba be 2e 40 e1 bf 05 00 a6 3d
       -0.6173637 -0.36420372 -1.7597711 0.081054725
000030 5d 05 01 bf b3 f5 0a bf 65 76 1f be fe ca e0 bf
       -0.5039881 -0.5428116 -0.15572508 -1.7561948
000040 f7 ef 52 3d fa e2 4b bf 25 fc f6 bf 5a a7 6a bf
       0.05149838 -0.79643214 -1.9295698 -0.9166161
000050 5e 2c 8a bd 31 2d ea bd 06 8a ed be 8e f6 3f bf
       -0.067467436 -0.11434401 -0.46394366 -0.7498559
000060 a5 e9 15 bf b0 e3 ff bf 0f 93 6f bf 22 ad a7 bd
       -0.5855964 -1.999136 -0.9358377 -0.08187319
000070 a6 0f 93 bd 33 ad 89 3d a9 67 05 c0 f1 59 d1 be
       -0.07180719 0.06722488 -2.084452 -0.40888932
000080 17 b4 91 be 7a 0c 86 bf 09 61 7a bf 73 3c ae bf
       -0.2845771 -1.0472558 -0.97804314 -1.3612198
000090 06 9f 0c bf c7 a2 11 bf 37 e7 fe be 38 79 a9 be
       -0.5493015 -0.56889004 -0.49785778 -0.33100295
0000a0 32 ed d8 bc 9d 7b 90 3d 47 f9 88 bf a1 f4 16 be
       -0.026480291 0.07054827 -1.0701073 -0.14741756
0000b0 aa 85 8e 3c 6c b7 5e 3d ed cf 46 bf 24 9f 6d bd
       0.01739772 0.054374143 -0.7766102 -0.058013096
0000c0 5f 26 59 3d 84 60 19 be 3a bf 3a bd 31 cd 01 3e
       0.05301511 -0.14978224 -0.045592524 0.1267593
0000d0 70 51 30 be f0 46 0c be 75 a2 21 3d 85 90 32 bf
       -0.17218566 -0.13698936 0.03946157 -0.6975177
0000e0 17 7e d5 be 87 88 3d bf 0b 53 c0 3d c8 1d 2c bf
       -0.4169776 -0.7403645 0.09390839 -0.6723294
0000f0 9b de 7f bd 54 41 c2 bf b4 29 0c 3e 05 19 f9 bf
       -0.062468152 -1.5176187 0.13687783 -1.946076
000100 9b 52 d8 bd a5 94 15 3d dd a5 bf bf fe b6 a7 3c
       -0.10562631 0.03651871 -1.4972492 0.020473
000110 ff 98 aa bd b8 0c 6c bc b7 5d 9e bf e9 6d a0 be
       -0.08329963 -0.014407329 -1.237235 -0.31333855
000120 50 30 99 3c de 03 3c 3d d8 70 61 bd 9d f9 ae 3d
       0.018699795 0.045902126 -0.055039257 0.08543704
000130 42 fa 57 3c 31 a7 93 bc 97 ea 34 bf ba c9 7e bf
       0.013182225 -0.018024059 -0.70670456 -0.9952656
000140 a9 bd 8a be 70 d5 ab bd c9 09 c6 3c d8 66 f1 bf
       -0.27097824 -0.08390319 0.024174588 -1.885951
000150 1c 56 e2 bf 62 d0 94 be 1e fc b2 bf ab e1 be be
       -1.7682528 -0.29065233 -1.398319 -0.37281546
000160 69 1f 7a be 89 5e 1f bb 4c 87 66 be 53 dd 50 bd
       -0.24426045 -0.0024317822 -0.22512549 -0.05099232
000170 dd 23 a4 be a5 96 c3 be de 0c 06 bc 67 a7 e0 bc
       -0.32058612 -0.3820087 -0.008181779 -0.027423574
000180 92 b4 f5 be d9 e5 2f c0 84 5b f3 be 6a 5b c7 bf
       -0.47989327 -2.7484038 -0.47530758 -1.5574772

scale f4 [5]
000000 24 2b c8 3d 47 b5 82 3e 76 ea 30 3e 4c b6 11 3f
       0.097738534 0.2552893 0.1727694 0.5691879
000010 9e 16 0e 3e
       0.13875815

bias f4 [5]
000000 aa fb 99 bf 12 74 17 bf 52 17 2d be 54 47 90 3d
       -1.2029927 -0.59161484 -0.16903427 0.07044855
000010 f0 a0 45 3d
       0.048249185

mean f4 [5]
000000 00 00 00 00 00 00 00 00 00 00 00 00 00 00 00 80
       0.0 0.0 0.0 -0.0
000010 00 00 00 80
       -0.0

var f4 [5]
000000 00 00 80 3f 00 00 80 3f 00 00 80 3f 00 00 80 3f
       1.0 1.0 1.0 1.0
000010 00 00 80 3f
       1.0

tensor_w f4 [1, 150, 32]
000000 6f c5 c5 bb 2f 8f 25 3f 43 6f 95 3e 9e b4 dc 3e
       -0.006035499 0.64671606 0.29186448 0.4310655
000010 e7 1b a8 be 3d 58 18 40 70 5e c5 be 24 38 b0 bc
       -0.32833788 2.3803856 -0.38548613 -0.021511145
000020 c2 94 40 be c2 de c1 bd e2 91 54 bd e7 3d 6d 3f
       -0.18806747 -0.09466316 -0.051896937 0.9267258
000030 06 6b 3b 3f 36 ad 8e 3f 12 51 05 3f 95 29 69 be
       0.7321018 1.114661 0.5207683 -0.22769769
000040 71 19 06 bf 82 2a 4c 3f b6 c3 33 3f e6 78 dc 3f
       -0.5238257 0.7975236 0.70220506 1.7224395
000050 54 61 48 3f 4e 89 67 3e 31 da 70 be b0 32 19 3f
       0.7827351 0.22610971 -0.23520733 0.5984297
000060 79 d7 64 3f 9f f1 e6 3e 1e 76 67 3f 2c e1 84 3f
       0.89391285 0.45106217 0.9041461 1.0381217
000070 70 3a 01 3f 82 28 86 3f 23 66 01 40 04 23 0b 3f
       0.50479794 1.0481112 2.021859 0.54350305
000080 a2 98 aa 3e c6 fa ab 3e 69 c3 30 3f c6 8a 9b be
       0.33319575 0.33589762 0.6904817 -0.30379313
000090 e7 19 d0 3d 34 33 fa 3d 94 6e b7 be f3 e4 85 bf
       0.101611905 0.122167975 -0.35826552 -1.0460495
0000a0 dd 54 8a be c5 14 60 3e 87 07 71 3f 2d fc 82 3e
       -0.2701787 0.21882923 0.9415211 0.2558302
0000b0 91 af ce bd 56 fa 83 3e 39 78 74 3c e7 59 07 3e
       -0.100920804 0.2577693 0.014921241 0.13217889
0000c0 dd 6b f2 3d d4 3e cb 3e 66 2e ca 3d 62 9a 61 3f
       0.118369795 0.39696372 0.09872131 0.88126194
0000d0 7e de 98 3d cc 52 a4 3e ce 1b 7a be 11 83 15 3f
       0.07464312 0.3209442 -0.24424669 0.58403116
0000e0 2e 47 85 3d 40 1e 3b 3e f9 53 d8 3e 9b 68 9c 3e
       0.06507717 0.18273258 0.42251566 0.30548558
0000f0 d0 88 4c bf 55 37 07 3e 63 e4 97 3d 91 fe b2 bd
       -0.7989626 0.13204701 0.07416608 -0.08739961
000100 72 76 9d be ff 1c 9b 3d dc 6f c4 bd 3d d1 8d 3e
       -0.3075443 0.0757389 -0.09591648 0.276987
000110 67 2a b3 3e f2 37 20 3e 91 bd 8f 3e 54 bc 19 be
       0.34993288 0.15646341 0.28074315 -0.15013248
000120 44 e4 1e be 46 cd cf be 35 bc c9 3e 39 e8 c4 3d
       -0.15516764 -0.405863 0.39401403 0.096146055
000130 05 71 c2 3f 6d 67 3e 3e fa 26 18 3f df 75 8b 3e
       1.5190741 0.18594141 0.59434474 0.27238366
000140 83 0b a3 3f d6 50 e6 3e 46 6e 15 3e 6b 52 d5 bd
       1.2737888 0.44983548 0.14592847 -0.104161106
000150 a6 da 9e 3e af 49 1f 3f c6 0c f9 bc 76 be 99 be
       0.3102619 0.6222181 -0.030401599 -0.30028123
000160 2c 5f 3b bf 37 d7 fc be e1 ca 7e 3d 2b f2 97 3e
       -0.73192096 -0.49382946 0.0622052 0.29676947
000170 a8 62 86 3e b2 62 51 bd 53 fa 9f 3e 73 fc 9e 3f
       0.26247144 -0.051119514 0.3124567 1.2420791
000180 cb a9 12 3e 18 b1 14 3f 13 73 f7 3e 16 09 09 3c
       0.14322583 0.58082724 0.48329982 0.008363983
000190 fd 55 1d 3f 17 1a ba 3e 79 9b 96 3e b3 c8 fd be
       0.6145933 0.3634803 0.2941549 -0.49567184
0001a0 2b b6 56 3e a3 e0 b6 bd 71 b8 09 3f 02 6f 31 3f
       0.20967929 -0.08929565 0.5379706 0.6931001
0001b0 8d d0 03 3f 98 46 80 3e a4 4b 00 3f 49 10 fc 3e
       0.514901 0.2505386 0.5011542 0.49231175
0001c0 2e 78 a4 bd 9e b5 35 3e 54 a4 10 3f 24 19 51 3e
       -0.08030735 0.17745063 0.56500745 0.20419747
0001d0 97 87 21 3f f7 10 1f 3d be 6d ac 3e 0c 9f a0 3f
       0.6309752 0.03883454 0.33677477 1.2548537
0001e0 5f f6 e6 3e 60 3e 04 3f 66 b1 27 3e 23 bf 55 bc
       0.4510984 0.51657677 0.16376266 -0.013046059
0001f0 70 c1 ba 3e 8f ad 67 3f c7 1d ff 3e ec da 0f 3f
       0.36475706 0.90499204 0.49827406 0.56193423
000200 e9 dd 01 bf 42 94 60 3e 64 00 f6 3e 80 a0 da 3e
       -0.50729233 0.21931556 0.48047173 0.42700577
000210 6a f4 c4 3e 17 b2 a5 3e 9a 3f 50 3f a5 27 8e 3d
       0.38467723 0.32362434 0.8134705 0.06941155
000220 a2 9b 0c bf 08 53 ec 3e ac cc 96 3e 15 52 20 3f
       -0.54924977 0.46157098 0.29453027 0.6262525
000230 55 7b 53 3f 6c f6 ff bb c4 1b fa 3e 67 ff 96 3e
       0.82610065 -0.007811358 0.48849308 0.29491732
000240 53 f8 b8 3d ca 93 5a 3f a2 0a a2 3e 8c cf 8d 3e
       0.09031739 0.8538176 0.31648737 0.27697408
000250 18 42 cb 3e 4a b4 af 3e 56 ed b6 3d b2 a5 1b 3f
       0.39698863 0.34317237 0.08931987 0.60799706
000260 44 30 c7 3f 07 f5 9d 3e f1 0f 06 3f 7f 46 aa be
       1.5561604 0.30851004 0.52368075 -0.3325691
000270 8d 3b 97 bb 93 5b 2c 3f 5b 6b 67 3f c7 71 c3 3f
       -0.0046152533 0.6732723 0.90398186 1.5269097
000280 7b 87 86 be 3b b7 93 3e 3b 2e 01 3f b2 4e a2 bd
       -0.26275238 0.2885073 0.5046117 -0.07925166
000290 a0 64 48 3e c8 ee b7 3e 4e 15 a7 3b ca f3 95 3f
       0.19569635 0.35924363 0.0050989753 1.1715024
0002a0 14 f1 1e 3b e5 c0 60 be 3c 43 0d 3f 6b 8d b2 3d
       0.002425258 -0.21948583 0.55180717 0.087183796
0002b0 6e b9 d6 3e 45 9d 4c 3e bc 60 19 3e 27 aa 55 3e
       0.41938347 0.19981869 0.14978307 0.20865689
0002c0 1f b8 bd 3e ca d4 98 3e 8e 85 9b bd e6 06 c7 3e
       0.37054536 0.29849845 -0.07593833 0.3887245
0002d0 df 6b 4a 3e a5 53 8b 3f 3b a7 e7 be 53 dd aa 3e
       0.19767712 1.0884901 -0.45244774 0.33371982
0002e0 17 73 a2 be a3 39 ee bd e3 f8 aa 3e 60 f1 88 3d
       -0.31728432 -0.11632087 0.3339301 0.06686664
0002f0 d4 4a 5d 3f 71 11 b0 3e 46 ed 30 3f d9 c6 5b 3f
       0.86442304 0.34388307 0.6911205 0.8585029
000300 a4 7a 08 3f 91 4d 7c 3e 30 61 ad 3d 90 4e 2d 3f
       0.53312135 0.24638964 0.08465803 0.67698
000310 41 10 46 3f 7c 45 3e 3e f5 f2 68 3f d6 13 0a 3f
       0.7736855 0.18581194 0.90995723 0.5393652
000320 99 87 14 3f 77 bf 00 be e7 40 97 be 42 89 de 3d
       0.58019406 -0.12573038 -0.29541704 0.108660236
000330 64 0f 4e 3f 63 3e 81 3e 24 06 20 3f 46 00 7d 3e
       0.80492234 0.2524291 0.6250937 0.24707136
000340 00 eb 57 bd 5d f2 8e 3e 9e f7 1d 3f b5 60 ad bd
       -0.052714348 0.27919284 0.6170596 -0.08465711
000350 11 e1 de 3e e9 64 06 3e 4e 84 41 3e 10 e5 3a be
       0.43531087 0.13124432 0.18898126 -0.18251443
000360 d0 57 2f 3e 55 c5 d0 bc 34 f1 6d be 23 d3 b3 3e
       0.17123342 -0.02548472 -0.23236543 0.35122022
000370 ed e6 85 3e 4a 27 2f 3e b1 2f 87 bf 62 4b 15 3e
       0.26152745 0.17104831 -1.0561429 0.14579538
000380 20 c2 0c be b5 11 13 3f f3 02 5f 3d 29 75 84 3d
       -0.13745928 0.57448894 0.054446172 0.06467659
000390 3c c0 0d bf 6c 27 96 3f d8 30 a0 bd 8b 1a ab be
       -0.5537145 1.1730781 -0.07821816 -0.33418688
0003a0 8e 78 57 3e 3c 4b 62 be 16 93 75 3e 71 f2 2a 3f
       0.21042082 -0.22099012 0.2398189 0.66776186
0003b0 50 f3 3e 3d d1 6f be ba df dc bb 3e 5d d0 c7 ba
       0.04661876 -0.0014529173 0.3669195 -0.0015244592
0003c0 ae 80 a3 bf 05 ca 0d 3e fc c3 43 3e e9 17 12 3f
       -1.2773645 0.13846596 0.19117731 0.57067734
0003d0 2b 8f e4 3e e1 04 4f 3f 69 3b 5b 3f 2f b3 7c bd
       0.44640478 0.8086682 0.8563753 -0.06169432
0003e0 d9 03 db bc f4 29 80 3e 45 3e b6 3e 49 3d 2c be
       -0.026735233 0.25032008 0.35594383 -0.16820253
0003f0 e5 8b 0f 3f 71 28 f5 3e 4b 7e 60 3f b0 d8 24 3f
       0.5607284 0.47882417 0.8769271 0.6439314

tensor_r f4 [1, 150, 50]
000000 83 7b 59 bf b9 6a 3c 3c d0 38 f3 bd 1f d8 b9 3e
       -0.8495409 0.011500054 -0.118760705 0.362977
000010 9a 39 52 3c d6 1f 25 3e 1f 80 51 3e 44 66 46 bd
       0.012831116 0.16125426 0.2045903 -0.04843737
000020 47 af 78 3e d7 ee 1c 3e 09 31 00 3e ba 27 d8 bd
       0.24285613 0.15325485 0.12518705 -0.10554452
000030 2f 0f ac 3d 41 92 1b 3f 5f bc a2 bc bc 40 ad 3e
       0.084013335 0.6077004 -0.019865213 0.3383845
000040 6c 9f 8f 3e 81 12 e5 3e d0 bd c1 3d a6 36 00 be
       0.28051317 0.4474068 0.09460032 -0.12520847
000050 22 84 36 bf f6 89 5f 3e 84 81 54 3d a3 46 4e bc
       -0.7129537 0.21829972 0.05188133 -0.012590083
000060 d1 5e 65 bf 08 4c f2 be 76 af cc 3d 51 d4 09 be
       -0.89597803 -0.47323632 0.09994404 -0.13459899
000070 92 cc 9c 3e 56 f2 a0 bc 11 9e 89 bd 13 67 ee be
       0.30624825 -0.019646805 -0.06719602 -0.46563014
000080 dd b9 4a bd d5 d6 f4 3e 31 0a 35 3d 08 9a b8 be
       -0.04949366 0.47820154 0.044199172 -0.36055017
000090 69 12 52 be 5f 83 87 be 47 30 c1 3d 24 6c 80 3d
       -0.20514835 -0.26467416 0.09433036 0.06270626
0000a0 bf 80 c9 bd 83 9c d2 3c c6 7d ac 3e 27 ee 18 bf
       -0.098390095 0.025709396 0.33689708 -0.5973839
0000b0 8c 3f eb 3e 14 6d d8 3d b8 08 ee bc 24 46 f0 3d
       0.4594692 0.1056768 -0.029056892 0.11732128
0000c0 31 9e 25 3f 9f ff 21 bc 9b db 94 3e 9f 4d 89 be
       0.64694506 -0.009887605 0.29073796 -0.26817033
0000d0 7e ee d7 3d 8d 3d 08 3e 5b c5 0b bf 71 19 5e 3e
       0.10543536 0.1330473 -0.54598016 0.21689393
0000e0 40 5c 3d be 14 c9 5d be 2b e1 e6 3c db 7f 40 bf
       -0.18492222 -0.21658736 0.02818354 -0.7519509
0000f0 96 75 44 bd b7 bb b7 3d 88 b1 e5 3d fb ce 53 be
       -0.0479637 0.08971351 0.11215502 -0.20684426
000100 78 92 59 be 72 b5 d0 bd 22 af 6d 3d b0 5b 01 3e
       -0.2124728 -0.10190858 0.058028348 0.12632632
000110 d8 3c 87 bd 14 3a a2 3e 7f 15 e8 3e 67 ac 80 be
       -0.06603402 0.31684935 0.453289 -0.25131533
000120 75 66 96 bc f2 5c 30 be 4a 80 fb be ac ff ca be
       -0.018359402 -0.17222956 -0.49121314 -0.39648187
000130 77 06 77 3e fe ea 04 be dd f1 49 3c 1e 4d 74 be
       0.2412356 -0.12980267 0.012325731 -0.23857543
000140 85 0f df 3d 7e 0a 94 3e 1a 99 66 3e 56 f3 15 be
       0.10891632 0.28914255 0.22519341 -0.14643607
000150 4d 4c dd bd dd 4f 6d 3e 58 e2 af bd f3 e0 a4 3d
       -0.10805569 0.23174997 -0.085880935 0.08050718
000160 62 84 23 3e 98 87 cc bd 38 65 89 be c2 97 3f bf
       0.15968469 -0.099868 -0.26835036 -0.7484094
000170 16 33 04 3e 83 bf 29 bd 12 23 93 3e 6a b3 b3 bd
       0.12910113 -0.041442405 0.28737694 -0.08774455
000180 24 ad 2a be 4e e7 4d 3d f6 e9 87 be 7b d2 32 3e
       -0.1666761 0.050269417 -0.26545686 0.17463104
000190 69 50 90 3e 4a e2 27 3e f9 63 88 3f 08 4b 91 be
       0.28186348 0.16394916 1.0655509 -0.28377557
0001a0 f2 a3 aa 3e e1 03 57 3e 8c 69 af be d6 2a 1e 3d
       0.33328205 0.20997573 -0.34260213 0.03861507
0001b0 71 b8 94 3e 87 9d c3 bd bc 86 96 3e e2 b6 7f 3e
       0.29046968 -0.0955153 0.2939967 0.24972108
0001c0 d8 f1 44 3d 18 06 d0 3e 26 6c b9 bd 7b 21 3a 3e
       0.048082203 0.4062965 -0.09053831 0.18176834
0001d0 fb 61 14 3e 88 8d 82 bd 26 ab 48 3c b9 56 29 be
       0.14490502 -0.06374651 0.012247836 -0.16536988
0001e0 da 01 74 3e 21 a0 b2 3e e5 cd 5b 3d c4 19 e8 3e
       0.23828831 0.34887794 0.053663153 0.45332158
0001f0 c0 39 2c be eb 8a 81 be db 8c e1 bd 21 90 b4 3e
       -0.16818905 -0.25301298 -0.11013194 0.35266212
000200 aa d6 5a 3e 0b 0f e1 3e 43 17 e9 3e 33 61 d7 3d
       0.2137095 0.4395679 0.4552556 0.10516586
000210 24 1d a6 be 00 6a 4d bf e1 61 80 3d 26 8b 79 be
       -0.32444108 -0.8023987 0.06268669 -0.24369487
000220 3d ca de 3e 7d 4b 6b 3e a4 8e 95 3e 4c eb 35 bd
       0.4351367 0.22978015 0.2921039 -0.04441385
000230 a4 7b 21 be 5f 65 72 be 67 b1 95 bd e2 5f c0 be
       -0.15769821 -0.23671483 -0.073092274 -0.37573153
000240 a3 81 45 bd 43 b9 09 be b4 b7 53 be a6 34 d3 bd
       -0.048219334 -0.13449578 -0.20675546 -0.10312776
000250 32 82 b2 bd 0d 74 8e 3e 2c 1f 81 3e 6d 7a ee 3e
       -0.08716239 0.27822915 0.25219095 0.46577778
000260 0e 9a 92 bc 78 0d 07 bf 6a 90 1d 3f bb 43 4b 3e
       -0.017895725 -0.52754927 0.61548483 0.19850056
000270 07 a1 c2 bd 0b 56 0d 3e 03 77 34 3e d4 8c a3 3e
       -0.0950337 0.13802354 0.17623524 0.3194338
000280 3e d5 52 3e 57 a7 83 3d be a6 78 be 49 98 48 3e
       0.20589158 0.06428402 -0.24282357 0.19589342
000290 0c 34 7a bd 30 36 6e 3e ad 78 f9 3e da 1a ea 3e
       -0.061084792 0.23262858 0.4872488 0.4572361
0002a0 c5 81 04 3e 36 86 24 be 03 ac 85 bd 02 43 45 3d
       0.12940128 -0.16066822 -0.06526949 0.048159607
0002b0 fc e8 91 3c df 48 d4 be d1 a1 b6 bd 57 2c f2 be
       0.01781129 -0.41461846 -0.08917583 -0.47299454
0002c0 13 c9 8e bd 12 03 3c bd f8 5c b9 be 48 c2 0f bd
       -0.069719456 -0.045901366 -0.36203742 -0.03509739
0002d0 5f 60 91 be 1e d1 50 be 61 59 87 ba 27 5b 30 be
       -0.28393838 -0.20392272 -0.001032632 -0.17222272
0002e0 18 10 46 3e ff 8b e5 be 22 5e c1 3d 6a 1c 0e 3e
       0.19342077 -0.4483337 0.094417825 0.13878027
0002f0 55 28 05 3e bc ba 14 3c bc a7 17 be 09 2d 64 be
       0.13003667 0.009077724 -0.1481008 -0.22282805
000300 a7 89 27 be 64 f7 33 3f 16 97 f0 3e fb 25 46 3d
       -0.16361104 0.70299363 0.4699027 0.048376065
000310 87 db 91 3d bb b7 7e be 69 b3 a8 3e 1a b5 87 3e
       0.0712195 -0.24874775 0.3294938 0.26505357
000320 f2 f6 d8 bd da 18 6f 3c d1 a3 85 be c4 18 e4 be
       -0.10593976 0.014593327 -0.26101544 -0.44550145
000330 da 24 07 be d5 5f 71 3e 68 65 8a 3e 28 d5 10 bd
       -0.13197652 0.23571713 0.27030492 -0.03535953
000340 a5 bc 97 3e 85 70 0b be 3e 12 97 3d bd b7 b0 3d
       0.29636112 -0.13617142 0.07376526 0.08628795
000350 59 b2 a9 3d 6e 22 87 3b 36 d4 cc bc 7c d0 20 3e
       0.0828597 0.0041239774 -0.025003534 0.1570453
000360 fb b1 e6 3e 35 82 d9 3d 4e c9 c2 be e5 2a 0c be
       0.45057663 0.10620538 -0.38044208 -0.13688238
000370 b5 b8 be 3e 75 f1 61 be ae da 67 bd b9 a2 b2 be
       0.37250295 -0.22064765 -0.056605034 -0.34889773
000380 90 f5 66 bf ba 04 b8 be 36 8b 01 3e a4 8f 02 3e
       -0.9021845 -0.35941106 0.12650761 0.12750107
000390 09 a2 87 3e 48 a4 34 bf 67 85 f0 3c 89 2f 41 be
       0.2649081 -0.70563173 0.029360486 -0.1886579
0003a0 1e 6a 65 bd 7c ad 2d be 0d fe 81 3e 58 73 00 bf
       -0.056009404 -0.1696071 0.25389138 -0.50176
0003b0 1e c0 09 3e 1f 47 23 3c 0f c9 d4 be 54 7b 18 bf
       0.13452193 0.009965687 -0.41559646 -0.59563184
0003c0 54 1f e0 be 09 54 89 bb 76 d0 79 3d ba 1e b0 3e
       -0.437739 -0.004190926 0.06098982 0.34398443
0003d0 0e ae 2c 3e 3d 37 7f 3c 99 ae 88 be 80 85 11 3d
       0.16863272 0.015577135 -0.26695707 0.035527706
0003e0 49 14 c3 be 3e d0 1a be 8b ac 99 3e 93 fb 75 3e
       -0.38101414 -0.151185 0.30014452 0.24021749
0003f0 b0 0f c3 3d c1 5f b1 3d ff 42 1a be 92 7d 0f 3e
       0.095244765 0.08660842 -0.1506462 0.14012745

tensor_b f4 [1, 300]
000000 8b 8e cb 3e a7 54 66 3f 1d 66 00 3f 86 95 03 3f
       0.3975719 0.8997292 0.5015581 0.5140003
000010 56 39 3b 3f d9 cd 35 3f 6f 8e 8a 3e 0c ce 8d 3e
       0.7313436 0.71017224 0.27061793 0.27696264
000020 5d 2f 4c 3f 6a c6 48 3f eb aa 78 3f 6e 5a f8 3e
       0.7975977 0.78427756 0.971358 0.48506492
000030 67 f9 c3 bd 0f eb 6a 3e 71 9e 3f 3e 05 5a ac 3e
       -0.09569054 0.2294123 0.18712784 0.3366243
000040 33 92 9f 3e 39 ff 63 3f 47 02 13 3f 78 32 85 3e
       0.3116623 0.89061314 0.5742535 0.26015067
000050 b6 1a dc 3e 14 16 3c 3f be 78 8f 3f 5b b6 56 3f
       0.4298913 0.7347119 1.1208723 0.83872
000060 4f 8f 44 3f 06 83 d2 3e 60 e5 2a 3f 2c 9d 24 3f
       0.7678117 0.41115588 0.6675625 0.64302325
000070 c6 6f 44 3e ec d5 76 3f aa 8d 80 3f 12 cb 28 3f
       0.19183263 0.9642017 1.0043232 0.6593486
000080 84 4e 32 3f 51 f0 1e 3f 51 88 0e 3f a6 c1 58 3f
       0.69651055 0.62085444 0.5567675 0.84670484
000090 84 26 5f 3f 41 a5 4b 3f a6 f4 3b 3f 00 08 39 3f
       0.87168145 0.7954903 0.7342018 0.7227783
0000a0 76 fc 65 3f 51 2e 24 3f b3 08 34 3f 17 66 02 3f
       0.8983835 0.64133173 0.70325774 0.50937027
0000b0 94 55 25 3f 72 aa 0c 3f eb bb 3b 3f 79 56 d2 3e
       0.64583707 0.5494758 0.73333615 0.41081598
0000c0 3a 31 92 3f 47 97 21 3f f8 26 84 be 52 cf 2b bf
       1.1421273 0.63121456 -0.2581098 -0.6711322
0000d0 a5 3e fe be b7 03 f0 be c8 b0 05 bf fd 20 a8 be
       -0.4965717 -0.46877834 -0.5222287 -0.32837668
0000e0 ca 87 88 be 3e 79 c0 be c2 71 6d bf 95 04 58 bf
       -0.266661 -0.375925 -0.92751706 -0.8438199
0000f0 85 7a 25 be d9 54 84 be b7 f5 99 be 20 fe dc be
       -0.16160019 -0.25845984 -0.30070278 -0.43162632
000100 d8 87 23 bf cd 3b a4 be a8 aa 2a bf 22 3b f2 be
       -0.63879156 -0.32076874 -0.6666665 -0.4731074
000110 fd 13 c0 be b9 18 48 be 5c db c3 be ab 24 af be
       -0.3751525 -0.19540681 -0.38253295 -0.34207663
000120 eb 78 cf bd e6 2d 1b bf ca 66 0c be 77 f5 f3 be
       -0.10130485 -0.6061691 -0.13711086 -0.47648212
000130 50 cf 80 bf 1a 14 7a bf 72 f0 d7 bd cc b9 e9 be
       -1.0063267 -0.9768692 -0.10543908 -0.45649564
000140 56 f3 52 be f7 fb 77 bf be 44 43 bf cc c8 4a bf
       -0.20600638 -0.9686884 -0.7627677 -0.7921264
000150 55 68 19 bf c7 8c 90 be b0 27 28 bf 8f 71 57 bf
       -0.59924823 -0.28232405 -0.6568556 -0.8415765
000160 1d 49 11 bf 0d ea 5b be a3 47 0e bf b4 ac e6 bd
       -0.56752187 -0.21476002 -0.5557806 -0.11263409
000170 58 e5 51 bd 68 38 d7 be 9a c7 51 bf 77 75 f4 bb
       -0.05124411 -0.42035222 -0.8194519 -0.007460292
000180 2e e7 c4 be 00 07 9f bf 7a e7 2c be 92 30 e7 be
       -0.38457626 -1.2424011 -0.16885176 -0.45154244
000190 c3 1c 70 be 04 f2 8f 3e 42 8f cc bc 54 47 b0 bd
       -0.23448472 0.2811433 -0.024970654 -0.08607355
0001a0 38 1d 57 3d e9 08 9c bd 52 1a 59 be ea 67 91 3c
       0.0525181 -0.07618887 -0.21201447 0.017749745
0001b0 28 80 e5 3d 76 0e 3d 3e b1 a0 16 be cb 21 c6 3e
       0.112060845 0.18462548 -0.14709736 0.38697657
0001c0 57 ac 26 be d4 a8 aa bd 98 ab 3a 3e 4a ab a8 be
       -0.1627668 -0.08332983 0.1822952 -0.32943183
0001d0 47 39 f7 3e ee 7c 61 bc 43 24 b5 bc 16 30 76 be
       0.48285887 -0.013762696 -0.022112017 -0.24041781
0001e0 85 b8 76 3e ea af c5 3e 96 12 ad 3e d2 bf 7c 3e
       0.24093826 0.38610774 0.33803242 0.24682549
0001f0 e3 0f ef be 02 9d a4 be b5 aa b3 3e 7f b3 a2 bd
       -0.46691808 -0.32151037 0.35091177 -0.079443924
000200 2a b6 af 3d 36 65 dd bd d1 81 68 bd 59 c7 92 be
       0.08579667 -0.1081032 -0.056764428 -0.28667715
000210 ce 14 5a bc c4 fa 85 be 4e a1 40 3d 84 0f 03 bf
       -0.013310624 -0.2616788 0.047028832 -0.5119555
000220 fe 49 1b 3c a5 68 ce bd 7b 64 df bd b2 50 9b be
       0.00947809 -0.10078553 -0.10907837 -0.30335003
000230 e7 22 93 be e3 75 da be 16 49 19 be 3a c8 0f 3e
       -0.28737566 -0.42668065 -0.14969286 0.14041224
000240 22 94 29 3e 93 85 57 bd 8d 05 ec 3c c7 3a ce 3e
       0.16560414 -0.05261762 0.02881124 0.4027922
000250 36 a2 65 3e 8a f2 30 bc 00 00 00 00 00 00 00 00
       0.2242516 -0.010800013 0.0 0.0
000260 00 00 00 00 00 00 00 00 00 00 00 00 00 00 00 00
       0.0 0.0 0.0 0.0
000270 00 00 00 00 00 00 00 00 00 00 00 00 00 00 00 00
       0.0 0.0 0.0 0.0
000280 00 00 00 00 00 00 00 00 00 00 00 00 00 00 00 00
       0.0 0.0 0.0 0.0
000290 00 00 00 00 00 00 00 00 00 00 00 00 00 00 00 00
       0.0 0.0 0.0 0.0
0002a0 00 00 00 00 00 00 00 00 00 00 00 00 00 00 00 00
       0.0 0.0 0.0 0.0
0002b0 00 00 00 00 00 00 00 00 00 00 00 00 00 00 00 00
       0.0 0.0 0.0 0.0
0002c0 00 00 00 00 00 00 00 00 00 00 00 00 00 00 00 00
       0.0 0.0 0.0 0.0
0002d0 00 00 00 00 00 00 00 00 00 00 00 00 00 00 00 00
       0.0 0.0 0.0 0.0
0002e0 00 00 00 00 00 00 00 00 00 00 00 00 00 00 00 00
       0.0 0.0 0.0 0.0
0002f0 00 00 00 00 00 00 00 00 00 00 00 00 00 00 00 00
       0.0 0.0 0.0 0.0
000300 00 00 00 00 00 00 00 00 00 00 00 00 00 00 00 00
       0.0 0.0 0.0 0.0
000310 00 00 00 00 00 00 00 00 00 00 00 00 00 00 00 00
       0.0 0.0 0.0 0.0
000320 00 00 00 00 00 00 00 00 00 00 00 00 00 00 00 00
       0.0 0.0 0.0 0.0
000330 00 00 00 00 00 00 00 00 00 00 00 00 00 00 00 00
       0.0 0.0 0.0 0.0
000340 00 00 00 00 00 00 00 00 00 00 00 00 00 00 00 00
       0.0 0.0 0.0 0.0
000350 00 00 00 00 00 00 00 00 00 00 00 00 00 00 00 00
       0.0 0.0 0.0 0.0
000360 00 00 00 00 00 00 00 00 00 00 00 00 00 00 00 00
       0.0 0.0 0.0 0.0
000370 00 00 00 00 00 00 00 00 00 00 00 00 00 00 00 00
       0.0 0.0 0.0 0.0
000380 00 00 00 00 00 00 00 00 00 00 00 00 00 00 00 00
       0.0 0.0 0.0 0.0
000390 00 00 00 00 00 00 00 00 00 00 00 00 00 00 00 00
       0.0 0.0 0.0 0.0
0003a0 00 00 00 00 00 00 00 00 00 00 00 00 00 00 00 00
       0.0 0.0 0.0 0.0
0003b0 00 00 00 00 00 00 00 00 00 00 00 00 00 00 00 00
       0.0 0.0 0.0 0.0
0003c0 00 00 00 00 00 00 00 00 00 00 00 00 00 00 00 00
       0.0 0.0 0.0 0.0
0003d0 00 00 00 00 00 00 00 00 00 00 00 00 00 00 00 00
       0.0 0.0 0.0 0.0
0003e0 00 00 00 00 00 00 00 00 00 00 00 00 00 00 00 00
       0.0 0.0 0.0 0.0
0003f0 00 00 00 00 00 00 00 00 00 00 00 00 00 00 00 00
       0.0 0.0 0.0 0.0

tensor_w1 f4 [1, 150, 32]
000000 cc d6 9b 3e f2 fe 3d 3d 3b dc c1 3e 32 ce f3 bb
       0.30437315 0.046385713 0.37863335 -0.007440352
000010 72 0f 91 be bd ff 0b 3f 9e ad 81 3d 3b 32 bc 3d
       -0.28332096 0.546871 0.06331943 0.09189268
000020 16 40 2f 3c ce 15 df 3d 51 a8 c2 bc 1b 0e a6 3d
       0.010696432 0.10892831 -0.0237619 0.08108159
000030 5d 38 29 bc 50 91 7e 3d 7e d0 42 bd a1 76 02 3e
       -0.010328379 0.0621503 -0.047562115 0.12740566
000040 c6 5b 50 3f 16 15 be 3d 68 43 92 bd 8e 97 36 3e
       0.81390035 0.092813656 -0.07141763 0.17831251
000050 5a 4a 92 3d b6 b1 e2 3e ad eb d3 3e 02 1a 5d 3b
       0.07143088 0.44276208 0.41390744 0.0033737426
000060 d8 92 9c 3c bc 64 42 3e 56 69 2e 3c 3a 71 90 36
       0.01911299 0.1898374 0.010645231 4.3047157e-06
000070 58 40 f2 3b 7e 31 1d bd 26 1d a2 bd c1 18 2d be
       0.0073929243 -0.038377278 -0.07915716 -0.16903974
000080 2f 30 4b be 6c 07 13 3f f5 35 67 3e 61 56 74 3e
       -0.198426 0.574332 0.22579177 0.23861076
000090 68 9d 78 3f 27 05 e0 bd 48 1d 2d 3c e7 77 99 3d
       0.9711518 -0.10938483 0.010566063 0.07493573
0000a0 0e 71 2e 3f fa 9c 55 3d f8 c5 c5 3d 86 17 bd bd
       0.6814126 0.052151658 0.096569 -0.09233002
0000b0 32 b8 25 bd ef da 4b bd 0c 78 5f bd aa 9a 73 3f
       -0.040458865 -0.04976934 -0.054557845 0.95157874
0000c0 91 1b bf 3e a5 6a a8 3e 86 15 83 3e 2f 12 b4 3d
       0.3732572 0.32893863 0.2560236 0.08792531
0000d0 ea 6f 28 be e4 2a 2a b9 99 b0 d2 bd 29 35 95 3c
       -0.16448942 -0.00016228441 -0.102875896 0.018213825
0000e0 e0 67 1d 3e 99 e0 51 3d 20 c4 9e bd 8d 6b 0c bd
       0.15371656 0.051239584 -0.077522516 -0.034282256
0000f0 6b 5c a0 bd a4 84 43 bd c0 e0 87 bd 78 fd ae bd
       -0.07830127 -0.047733918 -0.066346645 -0.08544439
000100 0e f9 aa 3e bb 79 9f 3f 4d ec be be 42 7f 2d 3f
       0.3339314 1.2459024 -0.37289658 0.67772305
000110 17 df 0c 3f 7a 46 02 3f 69 34 0d 3e de c9 8b be
       0.5502791 0.5088879 0.13789524 -0.2730245
000120 b5 f3 e2 3f 88 9e e5 3f 82 38 3b 3f b9 0b c7 3d
       1.7730623 1.7939005 0.731331 0.09719033
000130 69 8b 4a bd 4a a3 4c bd 2e 4b 8d be a8 0a 49 3f
       -0.049449358 -0.049960412 -0.2759642 0.78531885
000140 77 90 c2 3e b1 e4 52 3e 2a 92 79 3f 61 f4 9c 3e
       0.38000843 0.20595051 0.97488654 0.30655196
000150 82 8e ac 3e 68 7b 16 3f 53 84 47 3f 0a 93 2a 3e
       0.33702475 0.58782053 0.77936286 0.16657653
000160 72 e6 9c 3f 45 1c 49 3f 11 18 cd 3d 38 a1 50 3d
       1.2257826 0.7855876 0.10014356 0.050935
000170 d6 d0 18 3e 81 9f fc 3e f8 ce 53 3f 81 86 96 3f
       0.14923415 0.49340442 0.82737684 1.1759797
000180 ac e3 1f 3d 2b 6d 84 3f 32 1c eb 3f 29 92 94 3f
       0.039035484 1.0345815 1.836798 1.1607105
000190 39 f3 2e be 36 2e 84 3e a5 fb ee bb 18 8e 3b 3f
       -0.1708497 0.25816506 -0.007293182 0.7326369
0001a0 47 28 a0 3f f9 c9 c9 3e a5 82 a1 3d 8c 7e aa be
       1.2512292 0.39411905 0.078862466 -0.33299673
0001b0 a1 2b 04 be 70 f8 a9 bc e9 af a9 3c a4 c1 e0 3e
       -0.12907268 -0.020748347 0.020713763 0.43897736
0001c0 6d 0a 8a bd a4 a8 44 3f ed 05 b3 3e db 5b 3f 3f
       -0.0674027 0.76819825 0.3496546 0.74749535
0001d0 94 4d af bc 16 15 08 3f 12 0e c9 3d a1 30 2b 3c
       -0.021399297 0.53157175 0.09817137 0.010448606
0001e0 a5 40 cb 3f b8 d5 84 3e db d7 91 3d a2 93 41 3d
       1.5879103 0.25944304 0.07121249 0.047259934
0001f0 72 74 db 3c 1e 8c c5 bc e3 b9 1d 3e 7c 95 f7 bb
       0.026788924 -0.024114665 0.15402941 -0.0075556617
000200 3d e4 48 40 aa 7f 89 bd 84 86 a0 be a3 36 8d bd
       3.1389306 -0.06713803 -0.31352627 -0.06895187
000210 ad 4a 74 3e f8 2a 56 bd 99 61 d3 40 35 e8 2c bc
       0.23856612 -0.052287072 6.605664 -0.010553409
000220 3b bc be bc 42 83 f7 3e e8 0e 47 bf 58 11 36 3f
       -0.023283115 0.4834233 -0.7775712 0.71120214
000230 27 08 8d 40 49 db 49 3e 0a 41 83 be e0 06 14 3e
       4.407245 0.19712557 -0.25635558 0.14455748
000240 2a 44 35 3f a0 08 67 3e 35 85 42 3f 19 13 2e 3f
       0.70807135 0.22561884 0.7598451 0.6799789
000250 60 3e 8b 3f 8c 88 9e be da aa 04 40 5c ec f2 3e
       1.087841 -0.30963552 2.072928 0.47445953
000260 34 88 c7 3e 7e f8 8c 3f 42 22 0f 3f 59 7e 9a 3e
       0.38971102 1.1013334 0.5591165 0.3017452
000270 f7 77 7d be 2b 0b 76 3f b0 f0 5d 3e 97 31 84 3f
       -0.24752794 0.9611079 0.21673846 1.0327634
000280 a1 e3 2c 3d b1 b8 83 3e 5f 78 cc 3f 5b 59 a9 3c
       0.04220927 0.25726846 1.5974234 0.02067249
000290 63 c0 dc 3f 69 06 f2 3e cd b0 b8 3b 40 6d 0a 3f
       1.7246212 0.47270516 0.0056363107 0.5407295
0002a0 50 0d 24 3d d6 67 29 3f e9 fa ab 3f 1b e3 f4 3d
       0.04005176 0.66174066 1.3435947 0.119573794
0002b0 fd b7 94 bd 96 91 9b bc 68 a1 66 3d f2 df 11 3e
       -0.072616555 -0.01899032 0.056306273 0.14245585
0002c0 b7 bb a3 3f 53 05 94 3f bb c1 23 3f bd f9 a5 3f
       1.2791661 1.1564125 0.63967484 1.2966839
0002d0 2f c6 06 be bf 8b a3 3e be 3b 7e 3d 8d 23 3b 3c
       -0.13161539 0.31942555 0.062068693 0.01142205
0002e0 bb ce 62 3f 77 bc 10 3f ca a9 76 3e a2 36 40 3e
       0.88596696 0.56537575 0.24088207 0.18770841
0002f0 0a 36 58 3d ac e9 86 3b 85 fc 2b 3e 7b 0b 0c 3c
       0.05278591 0.0041172113 0.16795547 0.008547659
000300 24 6f 09 be 54 8b 3c 3e 35 1e 28 3e 60 5e 98 3e
       -0.13421303 0.18412524 0.16417773 0.29759502
000310 e2 26 ed bd 20 78 c6 3d 70 e6 fe bc 25 b6 41 3b
       -0.11579682 0.09690881 -0.03111574 0.002955803
000320 5f 9d 0e 3f 3f 37 2c 3e 6e 04 bb 3e c7 fc 8d bd
       0.5570888 0.1681795 0.36526817 -0.06932979
000330 2b 2e 22 be 46 78 15 3d 28 29 ff bc ce 05 9d 3e
       -0.15837924 0.036491655 -0.031147555 0.3066849
000340 8e 33 86 be a3 59 a8 3e 51 1a 94 3d 1c f4 20 3e
       -0.26211208 0.32880887 0.07231582 0.1571812
000350 d4 ae ab bd 4e e6 0a 3e 21 4b 0b be 9c ea b2 3b
       -0.08382955 0.13564417 -0.13602878 0.0054600965
000360 e6 55 a4 3d 51 bb d2 3d 12 b0 1e 3d fb f8 df 3c
       0.08024196 0.10289634 0.038742132 0.027340403
000370 10 2a 8a 3b db 82 de bc b5 f7 57 3d 5a cb fa be
       0.00421644 -0.027162006 0.052726466 -0.4898327
000380 1b 6d f2 3c c1 65 e0 3e d8 ef d7 bd 9c da 27 3f
       0.029593041 0.43827632 -0.105437934 0.65567946
000390 ea 2e df 3e 2c 74 6d 3f c8 fc 8c 38 ac 41 f6 3d
       0.4359048 0.9275539 6.7228044e-05 0.12024245
0003a0 ba 0d 58 3e 24 7d 26 3e 36 f2 4f 3e cc e8 b1 3f
       0.21098986 0.16258675 0.2030724 1.3899169
0003b0 64 af ed 3e 9b f2 1c 3d 36 b8 97 bc 14 9e 97 bd
       0.46422875 0.038317304 -0.018520456 -0.07403198
0003c0 94 7d bd 3e 1a f5 71 3e e9 6f 37 3d 29 99 f6 3d
       0.3700987 0.23628655 0.04478446 0.12040932
0003d0 3f c5 43 40 cc db 2f 3f 78 67 1e 3f 5c e2 be 3d
       3.058914 0.6869476 0.6187663 0.093205184
0003e0 2e da be 3c 7c 3c c9 3f 74 32 3e 3f 5c d2 0f bd
       0.023297396 1.5721583 0.74295735 -0.035112724
0003f0 8a 28 00 bd 5c fc 1e 3d aa 70 96 3f 9e 00 32 be
       -0.03128866 0.038814887 1.1753132 -0.17383048

tensor_r1 f4 [1, 150, 50]
000000 12 cb 38 bf ee e2 fe bd 6c c2 38 be fd 4a c3 3c
       -0.7218486 -0.12445627 -0.18042916 0.023839468
000010 83 52 f6 bd 62 cb 8b 3e bf fb 3f 3e 90 ba d5 be
       -0.120274566 0.27303606 0.18748377 -0.41743898
000020 9d 91 41 3e 2a 9c e2 be 33 1d 19 be 33 aa 84 bd
       0.18903203 -0.4425977 -0.14952545 -0.064777754
000030 7b 1c fb 3e fa 48 ba 3e 8d 3b 5d 3d 55 c8 de 3c
       0.49045166 0.36383802 0.05401187 0.027195135
000040 59 60 93 3c 24 a4 8c 3d 96 ba b6 be 07 f3 88 3e
       0.017990278 0.06867245 -0.3568923 0.26747915
000050 f5 fe c8 bd 59 e6 24 3f c2 2c da 3d dd e2 86 3e
       -0.09814254 0.6441398 0.10653068 0.26344958
000060 62 45 89 be 76 32 6d be f3 02 63 3d 6d b6 1f be
       -0.26810747 -0.2316378 0.055422734 -0.15596934
000070 3d e2 00 3f ba a7 9c 3b 50 dc c7 be 9e 96 06 3e
       0.5034521 0.0047807368 -0.39035273 0.13143393
000080 1f 85 48 be 2e 53 4a be 25 49 db be 8c 8f d6 3d
       -0.19582032 -0.19758293 -0.42829242 0.10476598
000090 91 47 0c be f2 45 a7 3d 35 06 2e bd 49 a1 dc 3d
       -0.13699175 0.08167638 -0.04248639 0.1077295
0000a0 c3 36 ee bd c9 0b e1 bd c5 88 54 3e b3 d5 0d be
       -0.11631539 -0.10988576 0.20755298 -0.13851051
0000b0 7a b2 da 3e 7e f6 40 bd eb 79 9d 3d a3 a9 db bd
       0.42714292 -0.047110073 0.0768927 -0.10725715
0000c0 63 97 ee 3d e7 f1 dd 3e 2f 88 50 3e e4 6a 44 3e
       0.116499685 0.4334862 0.2036445 0.191814
0000d0 53 55 5c 3d 9b c4 19 be 00 76 b1 3e 6b 87 22 be
       0.05379231 -0.15016405 0.3466034 -0.1587197
0000e0 88 15 8e 3e 73 09 f9 bd 46 84 4a be 98 95 43 be
       0.27750802 -0.121600054 -0.19777021 -0.19100034
0000f0 30 c6 01 be 6a 17 e3 3e dc d4 03 be ad f9 f8 3d
       -0.12673259 0.443538 -0.12874168 0.12156997
000100 ea 4f de 3d f2 de 0d be 24 a7 0e bf 48 19 5e 3d
       0.10855086 -0.13854578 -0.55723786 0.05422333
000110 a7 19 bd 3d 27 2a 8b bd ac a1 57 bd 7d 3c 78 be
       0.092334084 -0.06795149 -0.052644417 -0.24241824
000120 b1 b4 44 3d 9c 0e 07 bc 8e 92 c8 3e f7 5c 55 be
       0.048023883 -0.008243229 0.39174312 -0.20836245
000130 00 e6 e5 be c4 c6 c7 3c 23 02 d4 3d 5d e2 a5 3e
       -0.4490204 0.024386771 0.1035197 0.32399264
000140 77 8b 10 3f ad a4 31 3d b1 f8 e3 bd d0 b7 b2 3d
       0.56462806 0.043369938 -0.111314185 0.08726466
000150 79 16 7a 3d af 03 f6 bd f6 88 9b be 8a ef 27 3e
       0.061056588 -0.12012421 -0.3037793 0.1639997
000160 c8 da c9 3e bd 26 36 bc 43 4c 34 be 08 fc 2f 3e
       0.3942473 -0.011117634 -0.17607217 0.17185986
000170 5d 30 21 3f 50 9e 7f bd 8d 08 f5 bd f3 30 90 3e
       0.6296442 -0.062406838 -0.119645216 0.28162345
000180 7d 1b 93 be 57 a7 42 bd 26 74 9f be 62 cf b5 bd
       -0.2873191 -0.04752287 -0.31143302 -0.08877446
000190 35 fa 2e 3e 11 8c 9c be a1 fc c3 be 46 ee a4 3e
       0.17087634 -0.30575612 -0.38278678 0.32213038
0001a0 4c 00 8d 39 ce 54 20 be 97 c0 a5 3d 0f cf e3 3d
       0.00026893837 -0.1565735 0.08093374 0.11123478
0001b0 13 e3 1d bd 86 0d af be 09 4e 3b be 97 08 ac be
       -0.038546633 -0.34190005 -0.18291487 -0.33600304
0001c0 d7 b3 89 be 99 98 04 3f 29 fe 2e bf 1b 24 a0 3e
       -0.2689502 0.51795346 -0.6835657 0.31277546
0001d0 85 6a 06 3d e3 f2 a8 3b 89 46 f6 3d 98 cb 6a 3e
       0.03281643 0.0051559075 0.12025172 0.22929227
0001e0 91 61 03 bf 26 0f a9 3e 93 10 13 3e 0b b3 11 bc
       -0.5132075 0.3301937 0.14361791 -0.008892785
0001f0 79 72 75 3d e4 cc 94 3d d3 f8 12 3e 0b ff 98 3e
       0.059923623 0.07265642 0.14352731 0.29882082
000200 0a 65 35 3e dc 6a 46 be 6c 9a 6c 3c 15 f1 16 3d
       0.17714325 -0.19376701 0.014441114 0.036851007
000210 1b 6a c3 be b5 f3 7a bc 2d a4 ac be b4 71 06 3e
       -0.3816689 -0.015316893 -0.33719006 0.13129312
000220 fc 02 8f 3c 92 fe 7d bc b7 f6 46 3e 26 c1 e6 bc
       0.017457478 -0.015502589 0.19430052 -0.028168272
000230 94 c3 41 3e 7a 03 96 3c ac 9b 4a 3b 5a 0e b5 be
       0.18922263 0.018312205 0.0030915542 -0.35362512
000240 20 a8 e1 bc b6 df 10 3d a3 ad 04 bd 40 f7 81 bf
       -0.027545989 0.035369597 -0.032392155 -1.015358
000250 43 b3 ac 3d b0 7e 14 3e 7c 90 c4 3d 68 f9 14 bc
       0.08432629 0.14501452 0.09597871 -0.009092666
000260 25 73 bc bd 39 65 75 bc 3e 34 e2 3e 55 20 0c 3f
       -0.092016496 -0.014977747 0.44180483 0.54736835
000270 15 ef bb 3e 3f 6c 66 be 72 e1 4b bf df 9b 38 bd
       0.36705843 -0.2250223 -0.7964088 -0.045070525
000280 94 80 87 be d2 f8 1a 3f 60 89 ff 39 3c 2e 0a bb
       -0.26465285 0.6053592 0.00048739742 -0.0021084687
000290 2e 91 b2 be b7 63 81 3e 6a e1 74 be 7f e8 06 bf
       -0.34876388 0.2527139 -0.23914114 -0.5269851
0002a0 eb db 82 3e 57 1d 95 3d f3 ab ad bf a3 5d b8 be
       0.2555841 0.07280987 -1.35681 -0.3600894
0002b0 7c 41 05 bf fa b2 83 bc 61 de 59 3f 37 83 27 be
       -0.52053046 -0.016076554 0.8510495 -0.16358648
0002c0 47 8c 35 bf 78 81 3e 3e af 4b 35 3f ff f4 41 3f
       -0.7091717 0.18604076 0.7081861 0.7576446
0002d0 50 ac 20 3e 90 0d f3 3c 9c 6c a2 be 31 bd 3b 3c
       0.15690732 0.029669553 -0.31723487 0.011458681
0002e0 b4 36 c1 be 0b eb d1 3e ee 06 03 3f fb 87 2e bd
       -0.37737048 0.40999636 0.5118245 -0.04261015
0002f0 6b ec 13 3d f8 80 22 bd 9a 95 87 3e dd f9 01 bf
       0.036114138 -0.039673775 0.26481324 -0.50771886
000300 25 e3 9f be 54 f3 2d be 8a a7 35 be e2 3e 9f be
       -0.31227985 -0.16987354 -0.17739692 -0.31102663
000310 59 b0 ae 3d 37 a7 80 be 86 0a 99 3f 90 3d f7 bd
       0.085297294 -0.25127575 1.1956336 -0.12072289
000320 21 57 73 3e 46 21 70 be 89 9c 88 3d 1e 76 c8 3d
       0.23763706 -0.23450193 0.06670482 0.09788154
000330 17 72 54 bf 8f 8f 82 3d 98 cc 8b 3d 2a 3d 47 3e
       -0.8298659 0.06375038 0.068261325 0.19456926
000340 22 b5 a5 be 99 8b 3f bc 09 b0 7e be 16 90 b4 be
       -0.32364756 -0.0116909975 -0.2487184 -0.3526618
000350 01 16 83 be 27 fd e6 3e b7 ef e2 be 8b 9f 8f 3e
       -0.25602725 0.45115015 -0.44323513 0.2805141
000360 6e bb 91 be 62 25 fc bd 06 69 2b be ba 35 b1 3d
       -0.2846331 -0.12311818 -0.16739282 0.08652826
000370 11 a2 95 be a4 39 c2 3d 18 c0 8a 3e 6d ff ef 3d
       -0.2922521 0.0948365 0.2709968 0.117186405
000380 2b ff bf be d0 33 ec be 41 37 61 3e aa 7d 34 bd
       -0.37499365 -0.4613328 0.21993734 -0.044065155
000390 ba 14 c8 3b 92 15 b0 be c8 43 8c 3b 31 cc 82 3e
       0.0061059864 -0.34391457 0.004280541 0.2554641
0003a0 dd 59 1c 3e ba 60 0d 3e 44 dd e2 bd 83 32 35 be
       0.15268655 0.1380643 -0.11077359 -0.1769505
0003b0 88 f3 03 3e 42 13 c1 be d7 27 b0 3e d5 35 2b 3e
       0.12885869 -0.37710005 0.34405395 0.16719754
0003c0 62 72 91 bc e8 6e c8 3d 62 70 f4 bd c0 a8 42 be
       -0.017754737 0.09786779 -0.11935498 -0.19009686
0003d0 e2 79 69 be 90 33 1e be c9 bf bb bd 7f ca 8a be
       -0.22800401 -0.15449357 -0.091674395 -0.27107617
0003e0 0b 69 5d bd 60 f2 ec 3c 56 ac ad be f2 7c f0 be
       -0.054055255 0.028924167 -0.33920544 -0.46970326
0003f0 c4 1e 23 be 5c ff 29 3e 48 5e 60 be 9b c1 fc be
       -0.15929705 0.16601318 -0.21910965 -0.4936646
