models/particlenet_AK4/1/model.onnx (onnx, 962132 bytes, 87 tensors)

pf_conv.conv.0.bias f4 [20]
000000 e9 c2 8a bb 9f e7 0d 3b 9c 34 41 bb fd cc c2 bb
       -0.004234661 0.002165295 -0.002948082 -0.0059448467
000010 78 18 ae 3a 6f 0b 9e ba e7 89 9b b9 23 f3 3c 3b
       0.0013282439 -0.0012057851 -0.0002966665 0.0028831444
000020 97 34 a6 3b 49 bc a6 3a c4 d5 bd 39 d1 5b 7a bb
       0.005072187 0.0012720908 0.00036208157 -0.00382017
000030 80 aa af ba 44 6f 39 3a eb ca ae 3a 40 70 a4 ba
       -0.0013402253 0.000707377 0.0013335621 -0.001254566
000040 4c c9 20 3b 9f f2 dd 39 66 2d 3c 3a 2a 21 b5 3b
       0.0024534045 0.00042333172 0.0007178396 0.005527635

pf_conv.conv.0.running_mean f4 [20]
000000 ec e5 b1 bd 3a b4 60 3d e4 dc e9 ba 04 8a 6c 39
       -0.08686432 0.054859377 -0.001784232 0.00022558129
000010 f1 3f ab 3e a3 61 ca 3b 5e a2 7f 3e d3 09 ae be
       0.3344722 0.00617619 0.24964282 -0.3399187
000020 4f 94 96 3f 50 22 60 3e bd df 6c 3b ec a8 ff 3a
       1.176401 0.21888089 0.00361441 0.0019505299
000030 70 fc f5 ba ae ea fa be 7f 41 10 be b5 33 a0 3c
       -0.0018767249 -0.4900717 -0.14087485 0.019555906
000040 34 c2 5e 3e 12 59 02 3e 3a 4d f8 3d 08 98 b8 be
       0.2175377 0.1272929 0.12124105 -0.3605349

pf_conv.conv.0.running_var f4 [20]
000000 95 26 07 3f 35 f7 ec 3e e2 8b 4e 3c 10 4e 58 3c
       0.52793247 0.46282354 0.012606593 0.013202205
000010 dc ee 3a 3f 51 47 87 3e f8 80 98 3e 9d 83 da 3e
       0.7302072 0.26421598 0.29785895 0.42678538
000020 82 d8 b3 40 61 ff 2e 3e b9 ae 59 40 7f fa 07 40
       5.620179 0.17089607 3.4012892 2.124664
000030 5a a7 34 40 5b 47 e5 3f 42 59 df 3e fa bf 38 3b
       2.8227143 1.7912401 0.43622786 0.0028190599
000040 d2 af 2c 3e 7a 86 fd 3f 31 2a e6 3f 2b 12 ba 3f
       0.16863945 1.9806664 1.7981626 1.4536794

pf_conv.conv.0.weight f4 [20]
000000 53 3b 09 41 3d ee ea 40 fb 5d 15 41 23 56 0e 41
       8.576983 7.341582 9.335444 8.896029
000010 3a 20 0e 40 43 8d 03 40 7c f5 85 40 76 eb 27 40
       2.220717 2.055497 4.1862164 2.6237464
000020 c3 7f d5 40 b2 10 79 40 f6 bb dd bf 00 42 17 40
       6.671846 3.891644 -1.7322986 2.3634033
000030 d9 36 f5 3f 8b 21 11 40 6a bb 83 40 b1 80 ff 3f
       1.9157363 2.2676723 4.1166277 1.9961149
000040 43 47 b0 40 90 69 a8 40 6a 21 90 40 07 c2 00 41
       5.508699 5.262886 4.504079 8.04737

pf_conv.conv.1.weight f4 [32, 20, 1]
000000 e4 0a 9e bf 61 9e ba 3f e2 85 4e 3d d3 ce bf 3d
       -1.2347074 1.4579583 0.05042065 0.093656205
000010 8d 71 9f c0 13 24 37 c1 05 10 9d c1 ff b3 9b c0
       -4.982611 -11.446307 -19.632822 -4.865722
000020 20 d8 90 c0 12 08 be 3f 6f e1 81 3f 51 3b 5b bf
       -4.5263824 1.4846213 1.0146922 -0.85637385
000030 73 16 09 3e 90 42 d2 bc 14 36 f1 bf 8d 1e 2e 41
       0.1338747 -0.025666505 -1.8844628 10.882459
000040 58 cf a0 40 74 a2 ee 40 9d 3b ff c0 1e cf 2d 40
       5.0253105 7.4573307 -7.976027 2.7157664
000050 ba 84 aa 3d 42 d6 c9 3d f7 32 2e 3d 9a 7a 96 42
       0.08326097 0.098553196 0.042529073 75.239456
000060 6d 4f 33 c0 91 f8 ea be c5 b6 9d 3e e0 3f 45 3e
       -2.8017228 -0.45892766 0.30803505 0.19262648
000070 bd 47 35 3e 22 7c 2d 3f c7 e5 5f be 94 7d e4 bd
       0.17703147 0.67767537 -0.21864997 -0.111567646
000080 14 dc 80 3f 77 41 da 3f 0a 86 30 3f 16 5d a9 c0
       1.0067163 1.7051228 0.6895453 -5.292613
000090 81 44 fa be 5c c9 bb be 39 6b 46 3e 54 2d 1e be
       -0.4888039 -0.36677063 0.1937684 -0.15446979
0000a0 d3 fd d1 3f d9 4e 01 c0 77 1e 7e c2 6e 3f d3 3d
       1.6405586 -2.0204375 -63.52975 0.10314833
0000b0 07 2f 61 c0 e4 f8 f8 bd 49 1b 50 3f 02 35 e7 3e
       -3.5184953 -0.12156847 0.81291634 0.4515763
0000c0 7b 21 4b 3f e6 9a 53 3f 81 8f 91 be ec d7 8e be
       0.7934796 0.8265823 -0.28429797 -0.2789911
0000d0 de b6 1d bf 50 74 d7 3e 22 ce 93 bf da 5f 28 c1
       -0.6160716 0.42080927 -1.1547282 -10.523401
0000e0 96 72 0d 40 51 2e 8e bf 49 81 0d 3f 98 c3 80 be
       2.2101188 -1.1107885 0.552754 -0.25149226
0000f0 eb e6 01 3f 55 40 cb be 5e 45 24 be 23 d7 c6 bc
       0.5074298 -0.3969752 -0.16042086 -0.024272507
000100 40 44 38 40 8e 91 10 be e1 95 5d c0 76 06 8e 40
       2.8791656 -0.14118025 -3.462273 4.4382887
000110 84 d1 29 bf 7d 9b 86 c0 ab 75 06 bf 90 f1 21 be
       -0.6633532 -4.2064805 -0.525233 -0.15814805
000120 a6 2e 02 c0 09 6a bf 3f ae 77 9f c0 0d 17 22 3f
       -2.0340972 1.4954234 -4.9833593 0.6331642
000130 9d eb 0d c1 a0 2e 9d 41 60 24 76 3f 6a ae e7 3e
       -8.870023 19.647766 0.96149254 0.45250255
000140 00 ba 87 bf 9c 60 52 40 02 42 db 3e 2a 0f 99 be
       -1.0603638 3.2871466 0.42823797 -0.29894382
000150 5f ac 1b c1 74 4e a2 bf 19 b5 72 3f b2 89 59 3f
       -9.729583 -1.2680192 0.94807583 0.8497573
000160 99 a5 4e c2 6c 2d ca 40 c0 a9 24 3e 89 fa a6 3f
       -51.661716 6.3180447 0.1608038 1.3045207
000170 90 83 46 bd 99 6b 18 bc 8a 88 40 c0 93 ab d1 bf
       -0.04846531 -0.009302997 -3.0083337 -1.6380485
000180 d7 5a 00 c1 9e da d1 bf 98 6b 02 40 0f e2 d5 3f
       -8.022178 -1.6394842 2.037817 1.6709613
000190 2d 0e 90 c0 9a ec a4 40 b4 4f db bd f8 41 a0 bd
       -4.5017304 5.153882 -0.107085615 -0.078250825
0001a0 9f 5e 7a bf 72 f2 17 3d da 9e f4 3f f6 85 98 bf
       -0.9780063 0.03709645 1.9110978 -1.1915882
0001b0 33 ef 77 40 f1 9e 96 c1 d8 15 be 3f d0 fe 5b 3f
       3.8739746 -18.827608 1.4850416 0.8593569
0001c0 4c 45 25 3e 7a db 0e 3d 3a 20 73 c0 dc 1c 42 be
       0.16139716 0.034877278 -3.798842 -0.18956321
0001d0 ed 76 0a c1 9b 98 35 bc 6d 96 0e 3d 4c bb 29 c1
       -8.654035 -0.011083747 0.034811426 -10.608227
0001e0 b1 d8 9b c1 4d 2d c8 40 34 e6 de bd 5d 8d 15 bd
       -19.480806 6.25553 -0.108837515 -0.036511768
0001f0 12 70 74 bf 62 c7 72 3d c4 8d de bf bd 26 a4 be
       -0.95483506 0.059272178 -1.7387013 -0.32060805
000200 c0 ee 13 c0 eb dc 31 40 ec ed 6a bf fd f8 04 bf
       -2.3114471 2.7791088 -0.9176929 -0.51942426
000210 5c 9f e2 bf 8a b0 a8 3f d5 ad 00 c1 6a 60 19 c0
       -1.7704883 1.3178875 -8.042439 -2.3965096
000220 0e 04 a7 3f 43 17 a1 3f a2 22 c1 c0 f9 fd 29 bd
       1.3048112 1.2585224 -6.0354776 -0.041501973
000230 04 ef 5f c0 60 8f 82 40 9e 5a 84 c1 24 fc 00 3e
       -3.4989634 4.080002 -16.544247 0.12596184
000240 23 f6 cf c0 18 59 38 41 57 1c 88 3e 02 4f 30 3f
       -6.498796 11.521751 0.26584122 0.68870556
000250 be b7 2d c0 94 25 bf 40 a7 ea d5 3f ae 34 ae be
       -2.7143397 5.973337 1.6712235 -0.34024566
000260 ab 75 35 bf 4a 03 c3 3f 0d 95 03 c1 d6 98 79 41
       -0.7088267 1.5235379 -8.223889 15.599813
000270 d3 52 bc 40 a3 06 a7 3f 7b a8 b5 be c1 5b 15 40
       5.8851104 1.30489 -0.35480103 2.3337252
000280 a4 71 4f bf c0 6b c8 3f 61 6c 43 42 13 44 b8 3e
       -0.81032777 1.5657883 48.85584 0.35989437
000290 2f 1f 02 41 fa 30 21 3d 33 a7 9b bd 54 d3 3f bf
       8.132613 0.03935335 -0.0760025 -0.74931836
0002a0 45 a9 02 c0 ba 25 80 40 38 19 7b 3f f3 4a 29 3f
       -2.0415814 4.0046053 0.98085356 0.6612999
0002b0 42 75 83 c0 5a 26 ea 3f dd 44 0d c1 ae 08 20 41
       -4.1080637 1.8292954 -8.829312 10.002119
0002c0 c8 e0 a1 3f ec 44 55 3d 98 22 81 3f a0 be 4a 3f
       1.2646723 0.052067682 1.0088682 0.7919712
0002d0 ec 40 7e bf c0 64 a6 3f 00 40 bb bc 53 0c 09 3d
       -0.9931781 1.2999496 -0.022857666 0.03345902
0002e0 db 75 10 c0 ab 55 8e 3c 3e 26 10 3b 88 6b c5 3d
       -2.2571933 0.017374834 0.002199545 0.096396506
0002f0 00 2c 10 c0 1c d3 1c 40 dd ad 03 42 bc 06 5f c2
       -2.2526855 2.450385 32.91979 -55.756577
000300 b0 12 45 bf 2e c5 2e 3f 36 2c d8 3e e2 8b b1 be
       -0.7698164 0.6826962 0.4222123 -0.34677035
000310 77 ad 8e c0 24 f7 9f 3e 82 93 a6 be 33 3f 0c 3e
       -4.458675 0.3124324 -0.32534415 0.13695984
000320 eb 8a da 3f ea 81 ae bf e4 9f 7c 42 2e 22 23 be
       1.7073644 -1.3633397 63.156143 -0.15931007
000330 77 3e 95 bf 6f c8 83 bd 76 db 08 3e 88 a4 8a 3d
       -1.1659688 -0.06434714 0.13364968 0.06769663
000340 22 83 d2 3e 92 50 87 3e f8 d0 ce be 8a 9e ba bc
       0.4111567 0.26428658 -0.40393806 -0.022780675
000350 8b d4 a7 3f 94 21 21 bf c3 59 19 bf 55 3d e3 c0
       1.3111738 -0.6294186 -0.5990259 -7.101237
000360 80 f8 30 40 0d f6 83 bf a6 41 9a 3e 59 18 31 be
       2.7651672 -1.0309464 0.3012821 -0.17294444
000370 fb db c9 c1 6c e6 81 40 42 ed b9 3d e7 0f 6a be
       -25.232412 4.0593777 0.090784565 -0.22857629
000380 a2 b6 b8 3f 37 ae a9 bd 5d fa 6e c0 2a 83 c9 bf
       1.4430735 -0.08285182 -3.734031 -1.5743153
000390 58 31 25 c0 a0 d0 3d 40 f3 0b 2b bf 91 24 b2 bd
       -2.5811367 2.9658585 -0.6681511 -0.08698381
0003a0 72 62 64 3f 73 37 85 bf 81 da 07 c1 0c da a2 bf
       0.89212716 -1.0407547 -8.490846 -1.2722793
0003b0 23 4c c2 3e 0e 35 1c c0 b7 20 0c 41 c8 e4 6b bf
       0.37948713 -2.4407382 8.757987 -0.9214597
0003c0 26 6f 0f 40 a3 6a 8f 40 9c 2e 81 3f 96 47 b1 40
       2.241159 4.481767 1.0092349 5.5399885
0003d0 09 42 07 c1 d5 8a c5 40 39 70 34 3f fc 18 de 3e
       -8.453622 6.1731973 0.7048374 0.43378437
0003e0 cf be 99 bf d8 b0 91 3f 9b 5c 90 3b c7 5e 1d be
       -1.2011355 1.1382093 0.0044055707 -0.15368186
0003f0 49 df a2 40 21 30 87 c1 1e f0 47 3f ba 0e 25 41
       5.0897565 -16.8985 0.78100765 10.316095

pf_conv.conv.2.bias f4 [32]
000000 ca d4 87 40 b7 84 da 3e 32 8f 95 3f f4 da 2b c1
       4.244725 0.42679378 1.1684325 -10.740955
000010 08 8d 99 c0 8f bb 08 bf 97 41 53 40 5a d5 a0 40
       -4.7984657 -0.5341119 3.3008783 5.026044
000020 38 56 ae 40 33 c4 c7 3e b2 d8 86 3e 98 1e 13 40
       5.4480247 0.39016876 0.263372 2.2987423
000030 1c e0 4f bf 85 fa 26 c0 64 86 2f 40 15 6d 27 be
       -0.8120134 -2.6090405 2.7425776 -0.16350205
000040 c9 ed d4 3d 2c 1a db 3f f6 b5 6e 40 f0 86 35 40
       0.103969164 1.7117362 3.729856 2.836361
000050 1b 63 d2 bf bc 21 d5 3f 1e af 36 40 24 fa 17 3e
       -1.6436495 1.665092 2.8544383 0.14841515
000060 be 2f f6 40 98 0e 1f 41 5a e9 8c c0 9c 77 9e 40
       7.693328 9.941063 -4.4034853 4.9521008
000070 8a 76 b5 bf fd f0 fc be 3f 4c 81 40 79 3e 7d bc
       -1.41768 -0.4940261 4.0405574 -0.015456789

pf_conv.conv.2.running_mean f4 [32]
000000 fe dc 1a bb 88 b8 e2 be cd 5a 47 3e 97 56 de bb
       -0.0023630257 -0.4428141 0.19468231 -0.0067852247
000010 85 04 89 be fa b0 87 bd 79 19 aa 3d ce 16 3c 3d
       -0.2676126 -0.066255525 0.0830564 0.045920186
000020 bf 00 17 be 5d 19 5a 3e ed 40 3b be 2a a2 c3 3d
       -0.14746378 0.21298738 -0.18286486 0.09552415
000030 39 34 67 bd 30 c2 b5 3c ea dc 05 3e 2a df 0e bd
       -0.056446288 0.022187322 0.13072553 -0.034880795
000040 b0 b1 1d 3d 78 8e 4d bd 43 3b b5 bd 01 f6 09 bc
       0.038499534 -0.050184697 -0.08849194 -0.008420468
000050 86 86 18 be 21 6b bd 3d df fc 84 bd 42 4c e7 3e
       -0.14895067 0.09248949 -0.06493544 0.45175368
000060 bd 82 a6 3d 94 1f 16 3d fe 6d 07 3e 36 fc a2 bd
       0.08130405 0.03665121 0.13225552 -0.07958262
000070 2d 67 25 be 05 05 86 bd f0 bb a4 bd 7c 1f e9 bd
       -0.1615264 -0.06543926 -0.08043659 -0.11382958

pf_conv.conv.2.running_var f4 [32]
000000 5b 50 14 46 50 3f da 48 c1 ad ac 48 03 de 7a 46
       9492.089 446970.5 353646.03 16055.503
000010 42 51 d4 47 8e 2f 7b 46 cb df 95 46 93 14 e4 46
       108706.516 16075.889 19183.896 29194.287
000020 3f f3 4d 48 20 2d 00 47 51 22 a9 48 d1 2d 24 47
       210892.98 32813.125 346386.53 42029.816
000030 bf 7a 0e 46 59 66 14 47 6e 7b e7 45 33 b2 73 46
       9118.687 37990.348 7407.4287 15596.55
000040 a0 b0 3f 47 6c 1f 61 45 d4 0d 94 46 23 2c 41 46
       49072.625 3601.9639 18950.914 12363.034
000050 12 b2 8f 47 b7 44 10 47 8e 2c 85 46 38 de df 48
       73572.14 36932.715 17046.277 458481.75
000060 c0 1a 30 46 94 cf 2a 46 eb 6b 83 46 8a 13 81 47
       11270.6875 10931.895 16821.959 66087.08
000070 e1 3d 66 47 42 03 91 46 92 23 8e 46 9d ab 07 46
       58941.88 18561.629 18193.785 8682.903

pf_conv.conv.2.weight f4 [32]
000000 39 59 41 40 5f 1b 85 41 4a 67 2c 41 be 52 04 41
       3.0210707 16.638365 10.775217 8.270201
000010 ed 08 3f 41 c3 34 20 41 96 d7 dd 40 5e 9e 81 40
       11.939679 10.012881 6.9325666 4.050582
000020 f0 db b6 40 71 0e 9c 40 9a ae 44 41 b0 10 c0 40
       5.714348 4.876763 12.292627 6.002037
000030 a5 14 19 40 87 8e b2 40 6a 65 93 40 95 a7 ac 40
       2.391885 5.5798984 4.6061296 5.395457
000040 e9 cc 31 41 7b 68 01 41 6a c0 9f 40 f9 9c 95 40
       11.112527 8.088008 4.992238 4.6754117
000050 b0 68 0e 41 dc 42 09 41 70 e8 a2 40 02 01 82 41
       8.900558 8.578823 5.0908737 16.250492
000060 f3 b8 57 40 77 2d 37 40 76 a9 b2 40 8a 7e a6 40
       3.3706634 2.86215 5.583186 5.2029467
000070 ec bd 9f 40 43 15 f1 40 c2 9d b2 40 aa 45 2d 41
       4.991934 7.5338454 5.5817575 10.829508

pn.edge_convs.0.bns.0.bias f4 [64]
000000 36 5d 94 c0 40 f4 88 c0 30 4c 99 bd 12 5f a6 bf
       -4.6363783 -4.2798157 -0.07485235 -1.2997763
000010 1a 2d a7 c0 61 10 66 c0 6d 90 61 3f 9c 31 bc 3f
       -5.2242556 -3.5947497 0.88111 1.470264
000020 1b e8 02 40 7f 55 0b c0 ca 6e dc bf ca c8 5d c0
       2.0454166 -2.1770933 -1.722131 -3.4653802
000030 0e b3 a3 3f b4 fb 7f 3f 11 c7 78 c0 87 3c 0c 40
       1.2789018 0.99993443 -3.88715 2.1911943
000040 db ff 0e 40 1f d5 be 3f 89 fd 82 be 9e b0 55 40
       2.2343662 1.4908789 -0.25584057 3.3389049
000050 8d 48 00 40 8f 4b 30 3f c9 f2 19 c0 94 71 54 40
       2.0044281 0.68865293 -2.4054434 3.3194323
000060 c1 d3 9a c0 68 f5 3a c0 e9 94 32 c0 26 3e 08 be
       -4.838349 -2.9212284 -2.7903388 -0.13304958
000070 a1 f1 e3 bf b2 05 65 40 e5 2f 4c c0 64 72 eb c0
       -1.7808114 3.5784726 -3.1904233 -7.3577137
000080 92 af 90 bf 69 42 43 40 61 33 59 3f b1 75 df bf
       -1.130358 3.0509284 0.84844023 -1.7457792
000090 66 a7 35 c0 1b d7 24 c0 b7 d4 ba c0 43 53 cf bd
       -2.8383422 -2.575629 -5.838466 -0.10123303
0000a0 d5 ee c8 3e 3b af ee 3d be 3c 5c c0 f6 fc a4 c0
       0.39244714 0.11654516 -3.4412074 -5.155879
0000b0 7f 15 85 c0 10 f4 6c c0 4b 24 81 3f 59 25 d7 40
       -4.158874 -3.7023964 1.0089201 6.723309
0000c0 f7 31 6f bf 7e b0 98 c0 e6 bc 94 bf 6b 03 fc 3e
       -0.93435615 -4.7715445 -1.1620147 0.49221358
0000d0 d9 a3 8a c0 01 d8 8f c0 29 2a 25 40 ac 4b b1 3f
       -4.332501 -4.4951177 2.5806983 1.3851218
0000e0 9f f4 ae 3f 54 96 09 3e d0 7e 06 c1 8f e7 01 bf
       1.3668402 0.13436252 -8.40596 -0.50743955
0000f0 d6 9f f9 3f 84 24 e9 bf ef a9 09 40 33 15 14 c0
       1.9501903 -1.8214269 2.150997 -2.313794

pn.edge_convs.0.bns.0.running_mean f4 [64]
000000 8c 51 27 42 a2 0e 30 42 e4 be 81 42 5a 8a a1 c2
       41.829636 44.01429 64.87283 -80.77022
000010 22 41 89 42 63 c0 11 42 e5 5f 67 c2 30 44 05 c2
       68.62721 36.437878 -57.843647 -33.31659
000020 a8 c8 8b c2 54 e2 2f c2 4d 62 75 42 d6 23 96 c2
       -69.89191 -43.971024 61.345997 -75.06999
000030 30 59 f9 41 27 83 32 41 5e 2e 51 c1 a0 41 08 bd
       31.168549 11.15702 -13.07382 -0.03326571
000040 61 0d 2e 42 ba ce 30 41 85 c7 9b c2 33 95 59 c2
       43.513065 11.05047 -77.88969 -54.395702
000050 76 25 ab c2 71 ea fc 41 eb 4b c3 41 09 c2 a3 42
       -85.573166 31.614473 24.41207 81.878975
000060 3b 79 d3 40 7d fa bd 40 86 fe 59 c2 fa 14 1e c2
       6.6085486 5.936827 -54.498558 -39.520485
000070 8b fa 8d c2 65 f8 ca c1 a0 69 0b c2 26 1c 82 c2
       -70.98934 -25.371286 -34.85315 -65.05498
000080 6c 7c a8 c2 16 10 01 43 e8 ab 7b c2 42 7e 90 c1
       -84.24301 129.06284 -62.917877 -18.06165
000090 80 51 6d 41 94 ff 12 c2 e9 e5 8e c1 33 54 eb c2
       14.832397 -36.749588 -17.86226 -117.66445
0000a0 b5 95 03 c2 1d d6 72 c2 f3 de 15 c2 6c 9e ee 3f
       -32.8962 -60.709095 -37.467724 1.8642097
0000b0 14 f6 a9 41 92 f3 b8 c1 e7 3f 75 c2 af 8a 85 3e
       21.245155 -23.11893 -61.312405 0.2608237
0000c0 0b 0c 46 c2 7d 11 43 c2 1e 9a 5f c2 3d 64 0c c2
       -49.51176 -48.76708 -55.900505 -35.09789
0000d0 6d 84 85 41 68 53 5c c2 70 b4 52 c2 bb d4 2a 42
       16.689661 -55.08145 -52.67621 42.707745
0000e0 30 4c 9a c2 a8 ea c1 40 74 e4 a5 c2 84 95 8a c1
       -77.1488 6.0598946 -82.9462 -17.323006
0000f0 bd 43 4d 42 0d 2d 5e c2 ee c9 01 c3 04 1a 05 c3
       51.31615 -55.543995 -129.78879 -133.10162

pn.edge_convs.0.bns.0.running_var f4 [64]
000000 c2 f6 e5 46 2c 99 52 46 12 1e a6 46 a5 5e 2c 47
       29435.379 13478.293 21263.035 44126.645
000010 6f 05 02 47 ee 1d ad 46 71 22 1f 47 ac dd 26 47
       33285.434 22158.965 40738.44 42717.67
000020 c3 25 fd 46 6b 4e 68 48 ef b5 0d 46 4c c1 1e 48
       32402.88 237881.67 9069.483 162565.19
000030 77 2f 15 47 fe e2 02 47 be aa 8e 46 4b 72 d4 46
       38191.465 33506.992 18261.371 27193.146
000040 67 a7 8f 46 30 26 40 46 e2 0c 2a 47 11 8a 2f 47
       18387.701 12297.547 43532.883 44938.066
000050 6c 7d aa 46 25 41 5f 46 fe fb 59 46 cd 9d b5 46
       21822.71 14288.286 13950.998 23246.9
000060 49 b0 76 46 95 72 01 47 11 60 a0 46 a7 16 84 46
       15788.071 33138.582 20528.033 16907.326
000070 2a 94 8f 48 22 af d3 46 af 8c 19 47 e8 2d ad 46
       294049.3 27095.566 39308.684 22166.953
000080 33 e6 2e 48 30 41 1c 47 1b 7b f2 46 9b 3d b7 46
       179096.8 40001.188 31037.553 23454.803
000090 c5 43 08 46 f0 a1 cd 46 4e 30 a3 46 6b f9 3c 47
       8720.942 26320.969 20888.152 48377.418
0000a0 71 c2 3c 46 25 3f 85 46 a6 23 fd 46 b4 6c 53 46
       12080.61 17055.572 32401.824 13531.176
0000b0 d7 40 2d 45 b8 7a 57 46 32 51 0b 47 7d 2b 42 46
       2772.0525 13790.68 35665.195 12426.872
0000c0 69 f0 8c 46 b1 80 5e 46 00 6e 81 48 a0 5e 76 48
       18040.205 14240.173 265072.0 252282.5
0000d0 92 e3 76 46 d9 66 1e 46 98 bf 85 46 8d b1 08 47
       15800.893 10137.712 17119.797 34993.55
0000e0 40 88 ef 47 7c 80 1c 46 af 6f 18 47 82 d0 a0 48
       122640.5 10016.121 39023.684 329348.06
0000f0 69 bc 03 47 dd d4 d8 46 a9 e0 5f 47 e3 28 02 48
       33724.41 27754.432 57312.66 133283.55

pn.edge_convs.0.bns.0.weight f4 [64]
000000 cb b5 ad 40 e8 be ab 40 c2 9e 95 40 c5 1e e9 40
       5.4284415 5.367054 4.6756296 7.285006
000010 12 09 b8 40 7c b5 51 40 2e 0f ab 40 5d 23 9b 40
       5.751107 3.276702 5.345603 4.848067
000020 8e b5 ac 40 10 63 88 41 48 87 41 40 8a 59 5f 41
       5.3971624 17.04837 3.023882 13.95936
000030 d0 9f 95 40 b0 8c 70 40 93 3d cc 40 f4 7f a0 40
       4.6757584 3.758587 6.3825164 5.0156193
000040 c8 d7 89 40 d2 d8 57 40 2d b2 d5 40 41 a0 86 40
       4.3075905 3.3726087 6.678 4.2070622
000050 22 71 c6 40 73 41 39 40 54 4b 70 40 9d 46 87 40
       6.20131 2.8946197 3.7545977 4.22737
000060 f7 7c bf 40 b7 bf c7 40 f8 85 ad 40 3d 31 95 40
       5.9840045 6.2421527 5.4226036 4.6622605
000070 b9 a9 4a 41 bc 19 bc 40 f0 94 fb 40 51 15 0f 41
       12.666436 5.8781414 7.861931 8.942704
000080 68 63 7c 41 71 be 9e 40 a5 95 8b 40 83 ee a9 40
       15.774269 4.9607472 4.362017 5.310365
000090 12 e0 69 40 75 bb f5 40 0b 03 8c 40 16 c1 a6 40
       3.6543012 7.679133 4.3753715 5.21107
0000a0 aa d8 c2 40 bf 2a bb 40 08 ff ea 40 e7 33 9a 40
       6.0889482 5.848968 7.3436317 4.8188357
0000b0 f9 f9 85 40 6a 58 9d 40 05 d3 98 40 23 65 4d 40
       4.1867642 4.9170427 4.775759 3.209298
0000c0 71 06 c6 40 98 d7 09 41 76 3e 82 41 48 fd 8a 41
       6.1882863 8.615135 16.280499 17.373672
0000d0 f6 bb 81 40 2e d6 0c 41 ec 5b 55 40 69 94 a6 40
       4.0541945 8.80229 3.3337355 5.2056165
0000e0 1e fc 1c 41 6b b5 9b 40 d8 c4 cf 40 52 ff 8c 41
       9.811552 4.8658957 6.492779 17.624668
0000f0 6b cd c2 40 f3 84 92 40 81 39 fd 40 a2 a5 27 41
       6.0875754 4.578729 7.9132695 10.477938

pn.edge_convs.0.bns.1.bias f4 [64]
000000 9f a9 b7 bf a6 87 96 bf b4 39 8b bd 54 cd 07 bf
       -1.4348639 -1.1760147 -0.067981154 -0.5304768
000010 ca ff 3e 40 02 cc 3b c0 43 b2 7c c0 86 f3 9e c0
       2.9843621 -2.9343266 -3.9483802 -4.967227
000020 eb b7 1a c1 80 ea 03 c0 89 7d 86 3e f7 6b 0b c1
       -9.669902 -2.0611877 0.2626765 -8.713859
000030 38 80 69 40 df 37 06 c0 f2 a0 30 40 9e 01 8e c0
       3.6484509 -2.09716 2.7598233 -4.4376974
000040 2f a7 b3 bd de a7 cb 3f cd 22 e7 3f 64 24 3c c0
       -0.08772122 1.5910604 1.8057495 -2.939721
000050 0d 11 bb bf 79 fe 4c c1 19 04 bf 3e 24 38 af 40
       -1.4614578 -12.812127 0.37307814 5.475603
000060 30 5d 4c bf 80 8e b5 bf 9a c1 64 c0 a7 93 94 bf
       -0.7982969 -1.4184113 -3.5743165 -1.160756
000070 f0 f5 0d c0 fb f4 d0 c0 12 b1 dd c0 47 8d 8f 3f
       -2.2181358 -6.529905 -6.927865 1.121499
000080 fc 4c 89 bf e7 a1 0c c1 a4 ef 66 c0 cb d0 4c c0
       -1.0726619 -8.789527 -3.6083765 -3.2002437
000090 56 4c 26 c1 7a 5d ca c0 57 0b 0f c0 e9 07 9a c0
       -10.393637 -6.3239107 -2.2350671 -4.8134656
0000a0 5c 16 ea c0 f6 88 b3 c0 74 48 6b c0 42 bf 01 bf
       -7.3152294 -5.610469 -3.6762972 -0.5068246
0000b0 0c 92 a6 c0 7c f8 3b c0 f8 64 0b c1 9a 5e 76 c0
       -5.205328 -2.9370413 -8.712151 -3.849524
0000c0 3a 58 9a bf 03 a1 2d 3f a7 e0 e0 3f cd ef 0e 3e
       -1.2058175 0.6782381 1.7568558 0.13958664
0000d0 f9 21 33 40 1b af 53 c0 97 0c 16 c0 f5 63 40 c0
       2.7989485 -3.3075626 -2.3445184 -3.006101
0000e0 aa 4d aa bf 5b a5 82 c0 da 89 14 c0 27 49 8e c0
       -1.3304951 -4.082685 -2.3209138 -4.4464297
0000f0 a3 15 81 c0 4f 30 6b c0 86 6f bb c0 fb 30 01 bc
       -4.033891 -3.6748235 -5.8573637 -0.007885213

pn.edge_convs.0.bns.1.running_mean f4 [64]
000000 f1 8e f9 41 cb c4 6f c3 b4 3e e8 c2 1a d3 05 c3
       31.194796 -239.76872 -116.12247 -133.82462
000010 09 f9 15 c3 35 93 fb c2 4d 54 79 c3 a2 cc 78 c3
       -149.9728 -125.78751 -249.3293 -248.79935
000020 25 3c c0 c3 e2 f5 02 c2 76 18 94 c2 a7 17 a3 c3
       -384.46988 -32.74012 -74.047775 -326.18478
000030 0b 77 93 c2 0f ad 58 c2 f8 e7 6c 42 d7 e6 67 c3
       -73.732506 -54.169003 59.226532 -231.90172
000040 d1 c1 04 c3 fd ec a3 c2 48 5c 8f 42 04 14 25 c2
       -132.7571 -81.96287 71.68024 -41.269547
000050 71 0b 49 40 28 4e 80 41 74 9b 20 c3 2a a4 cb c2
       3.1413233 16.038162 -160.60724 -101.82063
000060 aa f8 1f c3 1a c8 30 43 29 e3 1e c3 bc 02 1a 42
       -159.97134 176.78165 -158.88734 38.50267
000070 25 30 ce 40 0b 3c 5e c3 90 01 5c c1 40 fb 16 c2
       6.443377 -222.23454 -13.750381 -37.74536
000080 d1 0f 00 42 15 13 29 42 69 fe c5 c2 f2 2a 08 c3
       32.015446 42.268635 -98.996895 -136.16776
000090 3a 41 d5 c2 88 da 86 c3 d3 a1 6f 41 5e 31 4e c3
       -106.627396 -269.70728 14.977008 -206.19284
0000a0 74 b1 06 42 1b 5e 76 c3 d5 ab 70 42 a2 87 e1 c2
       33.673294 -246.3676 60.167805 -112.76491
0000b0 3a cc fe 42 dc 6d fc c2 88 00 23 43 40 fa 90 c2
       127.39888 -126.21457 163.00208 -72.48877
0000c0 24 a1 07 c3 72 f1 ce c2 1e 4c 0b c3 24 cc 3c 42
       -135.62946 -103.47157 -139.29733 47.199356
0000d0 53 a9 2a c3 78 f7 6e c2 80 3d 57 42 10 35 54 c1
       -170.66142 -59.74167 53.81006 -13.262955
0000e0 f4 f7 06 43 0d 9a f2 c2 f7 a5 b6 c2 fb 8d 33 c3
       134.96857 -121.30088 -91.32415 -179.55461
0000f0 8b 93 38 41 d6 ee 58 c1 fe 49 dd c1 9e 62 83 40
       11.536021 -13.55831 -27.661129 4.105788

pn.edge_convs.0.bns.1.running_var f4 [64]
000000 f1 a2 05 47 3d 75 43 46 96 21 d6 46 64 d3 5d 46
       34210.94 12509.31 27408.793 14196.848
000010 fe 7b 8f 46 01 8c 32 46 9f af 23 47 86 e7 c9 45
       18365.996 11427.001 41903.62 6460.9404
000020 55 15 9d 48 6b 53 1f 47 aa 69 4c 46 e7 a1 5d 48
       321706.66 40787.418 13082.416 226951.61
000030 63 8c 9e 46 e2 b7 10 47 cb 8b 1d 46 53 a9 f7 46
       20294.193 37047.883 10082.948 31700.662
000040 62 59 85 46 78 9f 0f 47 22 cc 32 46 a2 c6 8b 46
       17068.691 36767.47 11443.033 17891.316
000050 0a 6b 7c 46 af be a7 46 d4 41 a9 46 0f a0 c1 46
       16154.76 21471.342 21664.914 24784.03
000060 97 bb 33 47 32 d0 a5 46 09 78 e7 46 86 af b4 46
       46011.59 21224.098 29628.018 23127.762
000070 e6 a6 dd 45 48 82 3c 48 99 d1 67 45 46 14 46 46
       7092.8623 193033.12 3709.0999 12677.068
000080 c2 24 d0 46 40 1d e3 45 f5 d7 61 46 3f bf 66 46
       26642.379 7267.6562 14453.989 14767.812
000090 4c c4 ce 45 f7 63 33 48 ef 08 31 46 c9 1d b2 47
       6616.537 183695.86 11330.233 91195.57
0000a0 57 b5 4d 47 fc c5 29 48 62 17 52 46 cf fe da 45
       52661.34 173847.94 13445.846 7007.851
0000b0 91 e0 89 46 d3 bc f2 45 f9 a2 05 46 38 54 65 46
       17648.283 7767.603 8552.743 14677.055
0000c0 38 5f 03 46 b6 3a f3 46 82 9a 48 46 41 b0 26 46
       8407.805 31133.355 12838.627 10668.063
0000d0 3d bd b8 46 84 0f d3 45 38 9f a9 46 f6 12 d1 46
       23646.62 6753.9395 21711.61 26761.48
0000e0 e6 a4 22 47 25 34 8f 46 b0 b2 4d 46 28 1d 65 47
       41636.9 18330.072 13164.672 58653.156
0000f0 8a 66 46 46 a8 df 08 46 2f 5c 85 46 75 b0 d8 45
       12697.635 8759.914 17070.092 6934.057

pn.edge_convs.0.bns.1.weight f4 [64]
000000 a5 5d 75 40 92 6b 59 40 14 16 b9 40 31 0a 47 40
       3.8338406 3.3971906 5.783945 3.109997
000010 fb 52 36 40 3a 1b 94 40 11 01 f0 40 63 68 98 40
       2.8488147 4.6283236 7.50013 4.7627425
000020 9d 27 75 41 4a 8b c9 40 8c 02 37 40 aa 8d 68 41
       15.322171 6.298253 2.8595304 14.534586
000030 91 7d 3e 40 10 52 09 41 4f b2 ef 3f ba ab fa 40
       2.976414 8.582535 1.872629 7.8334627
000040 5d d0 8a 40 c0 ef 97 40 e9 7a 06 40 b7 a0 19 41
       4.337935 4.7480164 2.1012518 9.601737
000050 55 61 97 40 eb be ad 40 7a a5 58 40 ff 9a 2f 40
       4.7306314 5.4295554 3.3851 2.7438352
000060 46 96 dc 40 ad 05 6a 40 65 c2 e4 40 1b ab 6d 40
       6.893344 3.6565964 7.14873 3.7135684
000070 fa a3 a0 40 ea 5d 57 41 a5 91 59 40 c6 e8 37 40
       5.0200167 13.460428 3.3995144 2.8735824
000080 a1 37 93 40 21 c7 af 40 c4 68 82 40 d1 50 be 40
       4.6005406 5.4930577 4.075289 5.9473653
000090 90 8a 9d 40 9b 8c 55 41 c8 d3 89 40 4a cd 0e 41
       4.9231644 13.3468275 4.307102 8.925119
0000a0 ee 47 04 41 94 3e 4b 41 7b 56 5a 40 47 a8 89 40
       8.267561 12.702778 3.4115283 4.3017917
0000b0 5e 61 89 40 5a c8 58 40 f0 1f 85 40 c0 4e e5 40
       4.2931356 3.3872285 4.1601486 7.165863
0000c0 70 71 63 40 36 79 8b 40 a1 92 14 40 ca e4 53 40
       3.5537987 4.3585463 2.3214495 3.3108392
0000d0 9c 4c 32 40 54 47 89 40 f0 c6 8b 40 a0 9b 98 40
       2.7859259 4.289957 4.3680344 4.768997
0000e0 0f 31 72 40 c4 cd a4 40 eb d5 72 40 4e f0 0c 41
       3.7842443 5.150118 3.7943065 8.808668
0000f0 23 cf b2 40 d4 a1 81 40 ef ce b1 40 50 49 47 40
       5.5877852 4.0510044 5.5565104 3.1138496

pn.edge_convs.0.bns.2.bias f4 [64]
000000 c7 a0 92 3f 8a e4 9e c0 7f 62 48 c0 25 29 6a c0
       1.1455315 -4.965398 -3.1310117 -3.6587613
000010 38 d0 50 3c 7d 25 03 40 f1 78 27 c0 ea cd b6 c1
       0.012744956 2.049163 -2.6167567 -22.850544
000020 f5 44 22 c1 dd 19 ad 3f a4 b6 f7 3f 15 cb 4a c1
       -10.141835 1.3523518 1.9352612 -12.674581
000030 bb a4 0f c1 b8 f5 4c 40 ed 3e 96 bf 92 15 2f c0
       -8.977717 3.2024975 -1.1737953 -2.7356915
000040 2a 0b 82 40 45 fc c0 be 49 bb d4 bf a0 7c 02 c1
       4.063863 -0.37692466 -1.6619655 -8.155426
000050 95 c9 f7 bf 55 5e 13 40 33 00 fe 3f bc e1 68 c1
       -1.9358393 2.3026326 1.9843811 -14.555111
000060 4a fb 61 40 cb 45 80 c0 07 03 48 c1 4d 2e d8 40
       3.5309625 -4.0085196 -12.500739 6.755652
000070 e4 3e a1 c0 43 8a df c0 f8 94 21 c0 01 5a a2 3e
       -5.038927 -6.9856277 -2.5247173 0.31709293
000080 bf ad bb c0 ae 27 31 bf ea 30 07 c0 21 ce 7a bf
       -5.8649592 -0.6920117 -2.1123605 -0.9797078
000090 dd d2 91 3f ac 08 bf 3f ba cb 82 bf b3 a3 c5 c1
       1.1392475 1.4924521 -1.0218422 -24.704931
0000a0 80 d7 0b c0 36 3d 9b bf 4b 47 39 c1 9b 6d 48 bf
       -2.185028 -1.2128055 -11.5799055 -0.78292245
0000b0 98 ee 92 c0 bc 48 61 bf b5 7e d4 3e 13 b4 78 c0
       -4.591625 -0.8800161 0.4150292 -3.8859909
0000c0 43 df 08 c2 4b 01 db c0 33 d0 d6 c0 9e 56 c4 c0
       -34.21803 -6.843908 -6.712915 -6.1355734
0000d0 bb d7 9c 3f 20 d0 bb c0 84 6e 8c c1 b2 32 1b 40
       1.2253336 -5.869156 -17.553963 2.4249692
0000e0 c9 31 2c 3f 07 48 18 c1 dc 51 59 40 1a 59 11 c0
       0.67263466 -9.517585 3.3956213 -2.2710633
0000f0 2a 50 91 3f 78 8f 8f bd fa 60 91 c0 6d d1 d5 c0
       1.1352589 -0.07009786 -4.543088 -6.6818147

pn.edge_convs.0.bns.2.running_mean f4 [64]
000000 cc f5 13 42 5f 66 95 c2 b8 a1 d7 c0 13 51 50 c2
       36.990036 -74.69994 -6.738491 -52.079174
000010 0e b1 30 c2 08 7e eb c1 34 7c ce c2 11 bc 86 c2
       -44.172905 -29.436539 -103.242584 -67.36732
000020 d3 d3 b3 c2 1b 6f 28 c2 b0 ef b7 c1 82 82 00 c2
       -89.91372 -42.1085 -22.992035 -32.12745
000030 23 eb d9 c1 ea 1b 1f 42 39 d0 22 3f a4 81 14 42
       -27.239813 39.77726 0.6359897 37.126602
000040 24 f1 20 c2 a1 a0 a9 c2 62 40 24 40 69 f0 34 42
       -40.23549 -84.81373 2.5664296 45.234776
000050 99 97 1e c2 65 fa 98 c1 27 57 c4 c2 17 02 83 41
       -39.648045 -19.122263 -98.17022 16.37602
000060 fc 25 52 c2 ed 19 dd c1 61 ec f2 c2 bb 61 75 3e
       -52.537094 -27.63766 -121.46168 0.23963062
000070 7f 66 cd c1 9b ad 94 bf b9 59 86 41 33 87 9d 3f
       -25.675047 -1.161548 16.79381 1.2306885
000080 f5 75 47 42 85 ca c9 c0 10 76 12 c2 5a 30 1e c2
       49.865192 -6.3059716 -36.615295 -39.54722
000090 62 6e 38 c1 08 00 1c c3 64 2d c3 c2 9a 4d 17 c1
       -11.526949 -156.00012 -97.58865 -9.456446
0000a0 a8 c5 00 42 29 28 69 40 bf 87 4c c2 44 8b 02 c2
       32.193024 3.6430762 -51.132565 -32.636
0000b0 1a f9 c7 c2 17 da 88 c1 0d 51 1b c2 84 b6 78 c2
       -99.98653 -17.10649 -38.82915 -62.178238
0000c0 06 e6 98 c1 71 92 49 c2 16 e6 cf c1 5a de 5b c2
       -19.112316 -50.39301 -25.987347 -54.96714
0000d0 03 01 13 c0 03 26 02 c3 b0 dc 8d c2 7b 79 aa c2
       -2.2969368 -130.14848 -70.93103 -85.23727
0000e0 d2 da 22 42 64 1d 38 c2 de 5b 01 42 80 77 69 c2
       40.71369 -46.0287 32.339714 -58.3667
0000f0 f2 01 02 c3 bf 4f 95 c2 52 08 e9 c0 4d 19 94 c2
       -130.0076 -74.655754 -7.2822657 -74.049416

pn.edge_convs.0.bns.2.running_var f4 [64]
000000 f7 2f 52 45 a6 53 19 45 56 ba 0a 45 44 12 b7 44
       3362.9978 2453.228 2219.646 1464.5708
000010 6e df 03 45 ad 43 b4 45 91 b2 72 45 f5 ba c0 44
       2109.9644 5768.4595 3883.1604 1541.8424
000020 e9 03 0f 45 be 43 1c 45 87 77 74 45 dd 37 a3 44
       2288.2444 2500.234 3911.4705 1305.7457
000030 f2 f0 83 45 b3 83 9f 45 32 53 15 45 51 f3 98 44
       4222.118 5104.4624 2389.1997 1223.6036
000040 e0 ae 23 46 3a aa 66 45 22 30 d4 44 6e 1a 1b 44
       10475.719 3690.6392 1697.5042 620.41296
000050 01 f9 79 45 fe 9a 32 45 ce 27 d4 45 02 1c d7 44
       3999.5627 2857.687 6788.9756 1720.8752
000060 93 a4 c4 45 ee d9 9e 44 b5 f9 7d 45 fe 6a c7 45
       6292.572 1270.8103 4063.6067 6381.374
000070 09 d4 88 44 3d ac 3d 45 49 61 5f 46 fb ab fb 44
       1094.6261 3034.765 14296.321 2013.3744
000080 44 d1 5e 45 b2 04 3e 43 32 4b 82 44 05 f1 07 45
       3565.079 190.01834 1042.3499 2175.0637
000090 07 b8 46 44 7f aa 07 46 7a 4f f3 44 bb 07 54 44
       794.8754 8682.624 1946.4836 848.1208
0000a0 d3 54 a5 45 dc 98 3b 45 be 75 8b 45 73 d1 fd 44
       5290.603 3001.5537 4462.718 2030.5453
0000b0 bc 6d 2c 45 8c f7 db 44 ac 39 d9 44 4e 22 06 45
       2758.8584 1759.7358 1737.8022 2146.144
0000c0 aa 2e 47 44 1e 8a f1 44 03 96 9a 44 6d 55 90 44
       796.7291 1932.3162 1236.6879 1154.6696
0000d0 86 8f b0 44 06 a7 92 45 d1 0d d4 44 a3 19 fa 44
       1412.4851 4692.878 1696.4318 2000.8011
0000e0 a9 f5 52 45 c6 22 32 44 56 a6 40 44 a3 be 0d 45
       3375.3538 712.54333 770.599 2267.9148
0000f0 dd 46 46 45 6a 07 9a 44 60 7e a0 44 b6 b7 02 45
       3172.429 1232.2317 1283.9492 2091.482

pn.edge_convs.0.bns.2.weight f4 [64]
000000 57 4a 34 40 7c 41 02 41 fb 9a e1 40 08 17 8c 40
       2.8170373 8.140987 7.0501685 4.3778114
000010 44 f6 92 40 84 38 34 41 46 89 13 41 2e 6f 50 41
       4.5925617 11.263798 9.221014 13.0271435
000020 0a 61 17 41 89 8d 07 40 0f ed 4a 40 ec 04 03 41
       9.461191 2.1180136 3.170719 8.188702
000030 88 d4 2f 41 56 7c 1f 41 a7 05 98 40 91 06 1d 40
       10.9893875 9.967855 4.75069 2.4535258
000040 68 6e 3b 41 6a 8d d6 40 09 07 72 40 26 90 5d 40
       11.714455 6.7047625 3.7816794 3.4619231
000050 4c cc 22 41 25 82 7d 40 0e bf 45 41 75 c6 62 41
       10.174877 3.9610684 12.359144 14.173451
000060 c0 43 a3 40 b3 13 4d 40 d1 91 32 41 32 57 8a 40
       5.1020203 3.2043273 11.1606 4.323144
000070 e0 01 2d 40 21 c7 1d 41 f0 ee 6a 41 f9 86 0b 40
       2.7032394 9.861115 14.683334 2.180113
000080 c1 96 ae 40 4a e1 6e 3e e6 f4 2b 40 63 f3 0f 40
       5.4559026 0.23328128 2.6868224 2.2492301
000090 a5 b8 c6 3f d1 06 b8 40 1c 8e 68 40 f9 67 36 41
       1.5525099 5.750832 3.6336737 11.400384
0000a0 88 ad 12 41 f1 f5 28 41 a4 cf 3d 41 f0 a9 0f 40
       9.167366 10.560044 11.8631935 2.2447472
0000b0 c2 78 d9 40 53 c7 99 40 ac 42 6a 40 be 3a c7 40
       6.795991 4.8055816 3.6603193 6.2259207
0000c0 27 9b 77 41 8e 12 29 41 41 d0 7f 40 5e 73 c6 40
       15.475379 10.56703 3.9970858 6.201583
0000d0 70 1d c8 3f 4d 1e 35 41 b9 5b 0f 41 cb 02 4c 40
       1.5633984 11.319898 8.959893 3.1876705
0000e0 81 36 45 40 e6 af 89 40 e1 3b 80 3f 34 2f 83 40
       3.0814517 4.302722 1.0018274 4.099512
0000f0 dc f3 77 40 3a 05 06 40 e3 7a 62 40 7d a0 fa 40
       3.874259 2.094069 3.5387504 7.832091

pn.edge_convs.0.convs.0.weight f4 [64, 64, 1, 1]
000000 6c dc 94 c0 c6 33 57 40 8b 8e f9 bf b9 81 a6 c0
       -4.651907 3.362535 -1.9496626 -5.2033353
000010 ef e9 2e 41 41 1c 13 c0 ca e2 68 bd b8 6c 03 c0
       10.932113 -2.2985995 -0.056856908 -2.0535107
000020 ad da ea bf 9e 55 19 bf 8d a8 85 bf e1 f5 5e c0
       -1.8347985 -0.59896266 -1.0442063 -3.4837573
000030 48 04 92 40 bd 22 4a 40 64 b7 4e 3f 8a 96 a1 40
       4.5630226 3.1583703 0.8074858 5.0496264
000040 45 b7 e3 3f 68 51 07 40 a1 a5 4a c0 c7 0b 6a c0
       1.7790304 2.1143436 -3.1663592 -3.6569688
000050 f0 36 6f c0 68 02 a6 40 4e af c2 40 e1 1f 95 40
       -3.737728 5.1877937 6.0838995 4.6601415
000060 3c 91 27 c0 fa c8 94 c0 8d 69 74 40 d8 67 93 40
       -2.6182394 -4.6495333 3.8189423 4.6064262
000070 80 18 2c 41 51 e2 11 be c0 47 85 3f 90 fd 13 c0
       10.755981 -0.14246489 1.0412521 -2.3123512
000080 b1 7f b1 c0 7d a3 24 c1 96 23 1b c1 b1 92 c2 c0
       -5.5468373 -10.289914 -9.696188 -6.0804067
000090 5d b8 45 40 52 03 a7 c0 18 73 07 c1 7a ed 2d c1
       3.0893776 -5.2191553 -8.465599 -10.870478
0000a0 44 f2 12 c0 97 34 23 40 e5 bc 1b c1 36 b2 f6 40
       -2.2960367 2.5500848 -9.733617 7.7092543
0000b0 38 2f 67 bf 5f 7c 4d bf f5 bb 01 c0 30 1b 7b 40
       -0.90306425 -0.802679 -2.027097 3.9235344
0000c0 a6 38 80 3e 25 d0 40 c0 79 df 4a 40 7b 27 88 c0
       0.2504322 -3.0127041 3.1698897 -4.2548194
0000d0 68 dd 20 3e ea 95 92 40 75 63 13 40 f8 eb 1f c1
       0.1570946 4.5808 2.3029454 -9.99511
0000e0 40 32 12 c0 4c 80 68 bd e0 46 69 bf 02 62 b5 40
       -2.284317 -0.05676298 -0.9112377 5.668214
0000f0 95 66 0a 41 6e d8 7e c0 81 1f 3e 40 53 83 88 40
       8.650044 -3.9819598 2.9706728 4.266031
000100 14 b3 63 40 ba fc 8e 3f 8e 23 d4 bc c9 48 bf c0
       3.557805 1.1170876 -0.02589586 -5.977635
000110 92 f6 61 40 d8 12 17 3f ed 4f 8e 40 9d 46 8b 40
       3.5306745 0.5901313 4.4472566 4.35237
000120 29 37 ba bf d5 1c ed 40 f2 7e 0b 40 6c ca bf 40
       -1.4548084 7.4097695 2.1796231 5.9934597
000130 18 56 78 40 43 fd 3f 40 0b d7 b7 bf 20 7a bd c0
       3.8802547 2.9998329 -1.4362501 -5.921158
000140 3c 32 85 40 af 2a 38 c0 96 91 fc 40 dc 13 bc bf
       4.162382 -2.8776052 7.8927717 -1.4693561
000150 47 2e 75 c0 4e 36 26 c1 72 3b a9 c0 43 e7 f3 3e
       -3.8309495 -10.388258 -5.2885065 0.47637376
000160 b8 ca 12 40 e7 4f ad 3e e8 c2 76 40 7e 55 10 bf
       2.293623 0.33850023 3.8556461 -0.5638045
000170 a4 6d ae c0 6f 8a 99 be 36 92 18 3f 4c 63 81 40
       -5.450884 -0.2998843 0.595981 4.043371
000180 b7 f0 8e 40 8b 90 5e 40 c8 4c d5 40 56 81 29 c1
       4.466884 3.4775722 6.6656227 -10.594076
000190 43 77 17 41 e3 e7 10 40 fb 72 c6 40 84 bb 13 41
       9.466617 2.2641532 6.2015357 9.23328
0001a0 26 2c b2 40 fe 7c 1b 41 06 72 82 40 14 8d 6a 40
       5.567889 9.718016 4.076419 3.6648607
0001b0 49 27 aa 40 c2 8f 35 c0 57 53 3e bf 85 28 ae c0
       5.3172956 -2.8368993 -0.74345917 -5.442446
0001c0 ba 91 bb 40 27 0d 80 c0 86 9c fb 40 ef 1a a7 3f
       5.861539 -4.0016055 7.862857 1.3055094
0001d0 01 7b ac c0 37 2d 23 c1 69 93 8c c0 6e 32 25 40
       -5.390015 -10.198539 -4.3929944 2.581203
0001e0 48 d8 03 40 44 e8 d9 bf 2d d5 13 41 07 47 a9 c0
       2.0600758 -1.7024007 9.239545 -5.2899203
0001f0 38 78 3f 3f 83 e7 5b 3f 54 8f 44 c0 75 da 4d 40
       0.74792814 0.85900134 -3.071248 3.2164586
000200 f7 45 72 c0 d5 3f 37 40 66 d6 98 3f 88 4d 4b c0
       -3.7855203 2.863271 1.1940429 -3.1766071
000210 6a b7 17 3f 43 26 a1 bd 34 6d bd bf 74 0a f0 3f
       0.5926424 -0.07868626 -1.4798951 1.875319
000220 a9 f0 c8 3e a2 45 57 c0 19 b8 a1 3f f7 64 25 c0
       0.3924611 -3.363625 1.2634307 -2.5842874
000230 c6 a5 e8 40 ec 31 96 c0 d6 70 07 40 a9 9e 98 c0
       7.270236 -4.693594 2.116262 -4.7693677
000240 ea c2 1e c0 14 6a 86 c0 55 0f 49 c0 5b 22 6b c0
       -2.4806466 -4.200449 -3.1415608 -3.673972
000250 b6 c6 73 bf 66 f9 1d c0 c0 40 35 c0 17 92 68 40
       -0.95225084 -2.468347 -2.832077 3.6339166
000260 68 8f d4 3f 8b 86 7e be ec 66 b0 40 91 16 80 41
       1.6606264 -0.24856012 5.5125637 16.011019
000270 99 0c 36 41 ec 77 11 3f 5e d7 c4 3e 24 1e 21 c0
       11.378076 0.5682361 0.38445562 -2.5174646
000280 04 ec 2e c0 97 42 cd 3d 9b 00 c0 bf 61 bc 17 be
       -2.7331553 0.10022467 -1.5000185 -0.14817955
000290 60 07 3f 3f dc 06 ca bf 29 83 07 c0 d8 06 fb bf
       0.7462063 -1.5783343 -2.1173804 -1.9611464
0002a0 b2 ff 46 bf da b1 41 c0 fd e6 e2 be e2 8b 22 c0
       -0.7773391 -3.0264802 -0.44316855 -2.5397878
0002b0 6b 92 dd 40 50 e4 84 c0 f0 0e a1 3f 87 38 54 c0
       6.9241233 -4.15287 1.2582684 -3.3159502
0002c0 4d 5d 81 c0 d1 66 33 c0 e2 aa c7 bf de 1e 0c c0
       -4.0426393 -2.8031504 -1.5599024 -2.189384
0002d0 40 0f fe bf 08 6b 25 c0 3c a5 0c c0 18 38 ce 3f
       -1.9848404 -2.5846577 -2.197585 1.6110868
0002e0 ba fc 07 40 19 53 16 40 ed 40 b4 40 07 5d 83 41
       2.1248002 2.3488219 5.6329255 16.420424
0002f0 32 d6 54 41 58 92 e1 bf db 3f cb 3e 6a eb bb bd
       13.302294 -1.7622786 0.39697155 -0.09175761
000300 f1 40 2d 40 85 a0 9b 3f 28 d9 35 bf 63 50 1f 3f
       2.7070887 1.2158362 -0.7103448 0.62232035
000310 8c 6b 73 bd 81 7b 0c c1 de c4 fa be be e5 27 3e
       -0.059428737 -8.780152 -0.48978323 0.16396233
000320 39 f3 7b bf 7f 71 e7 c1 7e 33 3c 3e f2 5e cf bf
       -0.98418003 -28.930418 0.18379018 -1.620085
000330 a8 8c 98 3f 0c aa 34 c0 00 54 60 c0 8e 6b 5d c0
       1.1917925 -2.8228788 -3.505127 -3.4596896
000340 12 74 59 c0 d8 2d ab bf c7 84 c3 be 3d e8 13 c0
       -3.3977094 -1.3373365 -0.3818724 -2.3110497
000350 8b 64 0b 40 77 09 bb bf e1 82 3b c0 81 a2 b6 3f
       2.1780117 -1.4612263 -2.9298632 1.4268342
000360 a6 68 b8 bf de 15 18 3e c1 fb ed c0 da de 0e 40
       -1.4406936 0.14852092 -7.4369817 2.2323518
000370 c8 15 35 c0 f1 8b d1 c0 58 a6 e9 40 2d c5 cc bf
       -2.8294544 -6.5483327 7.3015556 -1.5997673
000380 29 34 dc 40 1f a3 46 3f f3 02 74 bf 0b e4 16 c0
       6.881367 0.77592653 -0.95317 -2.3576686
000390 c1 34 e1 bb 2b 94 ef c0 c4 37 ce bf 28 e2 c9 3f
       -0.006872744 -7.486837 -1.6110768 1.5772142
0003a0 b5 72 10 3e 0f 72 33 41 7b 9c ed be 5f c5 0a c0
       0.14106257 11.215346 -0.46408448 -2.1682966
0003b0 e5 e9 6d bf f7 9b 1d 40 69 b5 00 40 50 86 35 c0
       -0.9293502 2.4626443 2.0110724 -2.8363228
0003c0 6a b6 86 bf 25 a7 46 c0 c4 42 a3 c1 f7 ba e1 bf
       -1.0524418 -3.1039517 -20.4076 -1.7635182
0003d0 62 c7 12 41 e0 69 1a 40 28 6b 09 c0 cb 86 13 3f
       9.173677 2.412712 -2.1471653 0.5762755
0003e0 ef 63 5d 3f 0b 6c d4 40 4c 64 fc c0 e5 d3 68 40
       0.8648061 6.638189 -7.8872433 3.637933
0003f0 a8 c9 da bf ae 53 9d c0 d4 53 19 41 49 39 05 c0
       -1.7092791 -4.916465 9.582966 -2.0816214

pn.edge_convs.0.convs.1.weight f4 [64, 64, 1, 1]
000000 4b 79 69 40 08 51 11 bf 4c 91 94 41 96 6d 11 c1
       3.6480281 -0.5676427 18.570946 -9.089254
000010 b6 52 36 40 5e 62 7d bf 62 54 9b c0 57 1e 58 40
       2.8487983 -0.9897822 -4.8540506 3.3768518
000020 4e c3 3c be 44 1a 5f 40 53 06 78 40 4c 1b b4 bf
       -0.18433878 3.4859781 3.875386 -1.407083
000030 1a cd e3 40 be 64 3f 40 0f d2 cb c0 9c 1f 29 40
       7.118787 2.9905238 -6.369392 2.6425543
000040 9e 49 05 bf 8f 4c 1f 40 da 61 8f 40 93 89 e7 40
       -0.52065456 2.4890478 4.480695 7.2355437
000050 e4 8f 63 bf e8 4a a2 40 73 21 85 3f 35 f2 18 40
       -0.88891435 5.071644 1.0400833 2.3897831
000060 55 03 0e bf 3b 03 d1 bf 21 75 ff 40 3b bd 1c c0
       -0.55473834 -1.6329111 7.983048 -2.4490497
000070 16 c2 10 c0 d4 50 cc bf dc 79 fb c0 b8 fc 41 c1
       -2.261846 -1.5962167 -7.8586254 -12.124199
000080 2a 14 10 bf c8 37 0b 40 42 8f df c0 35 8b 3b 40
       -0.5628077 2.1752796 -6.9862375 2.9303715
000090 c3 75 83 40 3e 80 1e c0 c9 80 97 3e fe 70 ea c0
       4.108125 -2.4765773 0.29590443 -7.326293
0000a0 5a 39 e1 3f e1 b7 ee bf c2 cd ea c0 87 73 94 be
       1.7595627 -1.8649865 -7.337617 -0.2899439
0000b0 11 ab bc 3f d1 64 8d 40 f7 16 50 40 78 6a 8a 40
       1.4739705 4.4185567 3.2514017 4.3254967
0000c0 a8 2a 0a c1 62 66 5c 40 34 14 17 40 ce 07 e2 3e
       -8.635414 3.443749 2.360608 0.4414658
0000d0 9b 41 91 40 7d 92 95 40 85 78 76 c0 a5 77 ed 3d
       4.5392585 4.674132 -3.851106 0.11595086
0000e0 25 b2 e8 bf dc fb 3d 40 69 e6 01 c1 c4 ae b8 bf
       -1.8179365 2.9684973 -8.1187525 -1.4428334
0000f0 97 98 95 3e f7 23 1c 40 88 46 0d c1 b5 f8 a2 bf
       0.2921798 2.4396951 -8.82972 -1.2732149
000100 97 16 87 40 a1 de 15 3f 73 1d c0 3f 80 62 85 c1
       4.2215075 0.5854283 1.5008987 -16.673096
000110 ed dc 08 c0 bd cf c8 3e 5e 41 af c0 ff 2c 95 40
       -2.1384842 0.39220992 -5.4767294 4.6617427
000120 cf a7 48 c1 4d 1e 2e bf 6a 7d 86 c0 8a 53 57 40
       -12.540969 -0.68014985 -4.2028093 3.3644738
000130 f0 18 3b c0 2f 8b 89 c0 fb 14 6f 40 70 24 aa c0
       -2.923397 -4.29824 3.7356555 -5.316948
000140 d7 75 15 c0 12 f7 cf be fa 00 7e bf 98 1a 7e c0
       -2.3353174 -0.40618187 -0.9922024 -3.9703732
000150 4e 1f a0 3e 0f 3b 7f 40 90 1c cb c0 f6 54 27 c0
       0.31273884 3.9879797 -6.3472366 -2.6145606
000160 a2 4d 18 c1 2d 4f ce 40 e7 d9 d8 c0 6b 81 9b 40
       -9.518953 6.447165 -6.7765994 4.859548
000170 5e c5 a0 be f5 01 ba c0 36 a2 b3 bf 8d a7 d6 3d
       -0.3140058 -5.812739 -1.4033878 0.104811765
000180 fe a8 af 3f 1e 6d 0b bf 62 26 36 c1 07 2c ad be
       1.3723447 -0.54463375 -11.384371 -0.33822653
000190 5e ec 01 c0 73 a3 9d c0 69 4d 3a c0 3a 57 c4 c0
       -2.0300517 -4.9262023 -2.9109747 -6.135648
0001a0 a5 1e a4 c0 2f 07 f9 be 78 30 b4 3f 34 5a c9 bf
       -5.128741 -0.48638293 1.4077291 -1.5730653
0001b0 c6 c6 05 c1 4e 24 89 c0 1b ea eb c0 fe 50 90 40
       -8.361029 -4.2856817 -7.3723273 4.5098867
0001c0 42 cc 77 c1 17 e8 af 3e e9 98 52 3f 9b 6f a3 3f
       -15.487368 0.34356758 0.8226457 1.2768434
0001d0 d2 fb 7e c0 55 0b 6e 40 a5 c7 ba c0 6a 5c 79 40
       -3.98412 3.7194417 -5.8368707 3.8962655
0001e0 f9 01 f8 bf ee 7a 40 c0 b0 66 12 c1 4d aa 18 3f
       -1.9375602 -3.007503 -9.15007 0.5963486
0001f0 c0 1d 09 40 a8 7f d1 c0 a2 66 60 c0 d7 1f e0 bf
       2.1424408 -6.546833 -3.5062642 -1.7509717
000200 b8 11 9a 40 88 a1 9b c0 d7 98 a7 3f 1d 7b 2f 40
       4.814663 -4.863468 1.3093518 2.7418892
000210 04 3f 29 be 81 77 e3 c0 c7 af 07 3f c4 f5 bf 40
       -0.16527945 -7.108338 0.5300259 5.9987507
000220 44 db b3 bf 13 68 55 c0 6f e8 80 bf dc 57 f8 c0
       -1.405129 -3.3344772 -1.0070933 -7.760725
000230 05 ec 58 40 44 0e 00 c1 08 6d 1a c1 b1 5d ef 40
       3.3894055 -8.003483 -9.651619 7.480187
000240 48 d1 48 c0 b5 c0 27 40 cc a8 fd 3e 71 83 e1 bf
       -3.1377735 2.621137 0.49542844 -1.7618238
000250 e7 78 d9 bf 9b a8 8b bf 0a af 93 40 80 28 23 41
       -1.6990021 -1.0910829 4.615117 10.197388
000260 7c 56 c9 c0 a1 e6 33 3f 7c 6f 43 c0 a9 bb 9b 3f
       -6.291807 0.70273787 -3.0536795 1.2166644
000270 33 95 84 bf 8e 3f 56 40 32 b0 44 be 7e 3e 41 c1
       -1.0358032 3.347629 -0.19207838 -12.077757
000280 af cb 0c c1 e9 d0 3f 41 d4 92 d0 3f 13 54 3b 40
       -8.799727 11.988503 1.6294808 2.9270065
000290 9e bc 37 3f 1c 95 0e c0 d5 e8 37 3e 26 53 03 3f
       0.7177218 -2.227851 0.17959912 0.5129875
0002a0 da b5 b8 bf 51 f8 16 c0 91 a0 43 bf 95 e3 4f 40
       -1.4430497 -2.358906 -0.7641688 3.2482655
0002b0 63 27 ac bf d2 fd 81 3f e5 ab 00 c0 52 ea 65 40
       -1.344952 1.0155585 -2.0104916 3.5924268
0002c0 c9 22 23 40 43 b8 fa bf c3 37 c4 bf 0c 92 d6 c0
       2.548998 -1.9587482 -1.5329517 -6.705328
0002d0 99 ea 6c c0 b8 ad 5d 40 79 d2 9d c0 19 45 0c bf
       -3.7018187 3.463728 -4.9319425 -0.54792935
0002e0 c7 b6 85 bd c4 81 38 3f 57 d7 f9 3f 42 8d f8 c0
       -0.06529003 0.72073007 1.9518842 -7.7672434
0002f0 db 44 6d c0 d1 60 ee be 63 25 4d c1 6a 2e f9 3d
       -3.7073276 -0.4655824 -12.821628 0.12167056
000300 e3 60 18 c1 04 83 bd 3f e7 c1 10 40 7a 20 18 c0
       -9.523654 1.4805608 2.2618349 -2.3769822
000310 6e 7b 4e 41 63 1c 11 40 d3 5f 2b c0 5d 8f 42 bf
       12.905134 2.2673576 -2.6777236 -0.76000005
000320 3a 6a 51 c0 2d 33 86 be b8 48 f4 3f 11 fe 96 3c
       -3.2721086 -0.2621092 1.9084692 0.018431695
000330 99 55 2b c1 76 0c 10 c1 dd b5 ed c0 ca ab a8 40
       -10.708398 -9.003042 -7.42845 5.2709703
000340 c9 36 ea c0 9a 9d a4 bf 20 3e 4e c0 82 d4 ed c0
       -7.3191876 -1.2860596 -3.2225418 -7.432191
000350 f7 42 b7 40 45 66 4d bf 82 57 e5 40 c8 b0 e2 be
       5.7269244 -0.80234176 7.166932 -0.44275498
000360 6a 42 db c0 f3 4f 65 3f ce 9d 15 40 a2 08 b0 40
       -6.851857 0.8957512 2.3377566 5.501054
000370 ab cf 0d 3f f9 ab 18 c1 6f 96 60 40 a5 33 d5 3f
       0.55395 -9.5419855 3.5091817 1.6656386
000380 6f 5a 1c 3f d7 b2 0b 41 fc c5 95 bf d5 dc df 3f
       0.6107549 8.731162 -1.1701045 1.7489268
000390 e4 81 10 3f 69 d3 dc 3f 85 6a a1 c0 d4 6e bc bf
       0.564482 1.7252017 -5.044253 -1.4721322
0003a0 8e 32 b8 3f 2f 8e cd bf a6 23 0e 40 61 7d 7f bf
       1.4390428 -1.6059016 2.2209258 -0.9980069
0003b0 91 7d 42 be 76 ba 31 40 e3 5c 1c bf 49 ad e6 40
       -0.18993212 2.7770057 -0.61079234 7.208653
0003c0 ad ce 59 c0 9d 5b a2 3f a8 06 0a c0 9c 71 05 bf
       -3.4032395 1.2684208 -2.1566563 -0.5212648
0003d0 51 e0 9c 40 ea 94 75 c0 a4 94 c8 bf 77 c5 95 c0
       4.9023824 -3.837214 -1.5670362 -4.6803546
0003e0 fd 2b 89 bf a2 7c 14 3e af 10 f9 bf 5a 0c 36 bf
       -1.0716549 0.14500669 -1.9458216 -0.71112597
0003f0 a8 8c 20 c1 39 21 4a c1 70 7c ee c0 b3 46 aa 3f
       -10.03434 -12.633111 -7.45269 1.3302826
