DeepDoubleX/94X/V01/DDB.onnx (onnx, 169128 bytes, 26 tensors)

ID_pred_2/kernel:0 f4 [100, 2]
0	0xbd2eb279	-0.042650674
1	0x3d51c8d7	0.051216926
2	0x3d18df94	0.037322596
3	0xbda44ceb	-0.080224834
4	0x3cb565fe	0.02214336
5	0xbd3e5a12	-0.046472616
6	0x3cc7d66c	0.024394237
7	0xbd98a0b5	-0.074525274
8	0x3c970077	0.018432839
9	0x3df1f93e	0.11815117
10	0xbc95275d	-0.018207246
11	0x3e485eaf	0.19567369
12	0xbdc4dd26	-0.09612493
13	0xbce57524	-0.028009959
14	0xbc9300bb	-0.017944684
15	0xbdcfc2b4	-0.101445585
16	0xbc72acef	-0.014811738
17	0x3d5a42d0	0.053286374
18	0xbe270791	-0.1631148
19	0xbdbdc296	-0.0926563
20	0xbd3d882e	-0.04627245
21	0x3d09cfe1	0.033645514
22	0xbaab72e5	-0.0013080506
23	0xbe4aa391	-0.19788958
24	0xbd25101d	-0.04029857
25	0xbe0d18cc	-0.1377899
26	0x3e14d4e6	0.1453434
27	0x3d8fbb20	0.07018113
28	0x3bfb9ebe	0.0076788357
29	0x3df6d5d0	0.120525
30	0x3d6c68ce	0.057717137
31	0xbd9d642d	-0.07685123
32	0x3e216927	0.15762769
33	0xbb97ed99	-0.004636478
34	0x3dbbdd10	0.09173024
35	0x3ca1f39a	0.019769479
36	0x3d078953	0.033089947
37	0xbe9fb7fc	-0.31195056
38	0xbdbdcf61	-0.0926807
39	0xbd1426cc	-0.036169812
40	0xbc9bbe52	-0.01901165
41	0x3d1a644d	0.03769331
42	0x3d849b81	0.064749725
43	0x3e16bed6	0.14721236
44	0xbd3abc40	-0.045589685
45	0x3d2268fb	0.0396509
46	0xbd2c13a4	-0.04201092
47	0x3cdfccb5	0.027319292
48	0x3e06b86a	0.13156286
49	0xbc0b0e2b	-0.008487265
50	0xbba5cb02	-0.005059601
51	0x3da13172	0.07870759
52	0xbc8f73c7	-0.017511262
53	0x3def42bd	0.11682651
54	0xbbbedc4d	-0.0058246017
55	0x3e4ab1f1	0.19794442
56	0xbd18280d	-0.03714757
57	0xbdea3dc1	-0.1143756
58	0xbc713a7a	-0.014723415
59	0xbe257986	-0.16159639
60	0x3d6eee2f	0.05833262
61	0xbdd6dcce	-0.10491334
62	0x3e1f3070	0.15545821
63	0x3d80315b	0.06259414
64	0xbca29f79	-0.019851433
65	0x3db9ec07	0.09078222
66	0x3e6b17c5	0.22958286
67	0x3ca2d24b	0.019875666
68	0xbd9d52bf	-0.07681798
69	0xbe51c3ba	-0.2048482
70	0x3c163d56	0.009169897
71	0x3e28fabb	0.16501896
72	0xbcd43320	-0.025903285
73	0xbe188d0c	-0.14897555
74	0xbae04bb2	-0.0017112403
75	0x3d800661	0.06251217
76	0x3e08a7cd	0.13345261
77	0x3d56dceb	0.052456778
78	0x3d952709	0.07282836
79	0xbc9d8394	-0.01922778
80	0x3d3e16ef	0.04640859
81	0xbdcc2f3d	-0.099699475
82	0x3e1c94f0	0.1529119
83	0x3c396f1c	0.011317994
84	0x3da1b855	0.07896487
85	0xbb98df2b	-0.0046652756
86	0xbbd2408e	-0.006416387
87	0x3d7f8602	0.06238366
88	0xbe3fb365	-0.18720777
89	0xbdb40339	-0.08789677
90	0x3d32a918	0.04361829
91	0x3e5daf40	0.21648884
92	0x3d75554f	0.05989581
93	0xbd95213a	-0.07281728
94	0xbbd4b86a	-0.0064917104
95	0x3e2307d8	0.15920961
96	0xbead7087	-0.33874914
97	0x3e727cc5	0.23680408
98	0x3d1dfb1e	0.038569562
99	0x3dd48eda	0.10378809
100	0x3d1f1eef	0.03884786
101	0xbd0a1557	-0.033711758
102	0xbd4fb80a	-0.050712623
103	0xbe029c2b	-0.12754886
104	0xbedefade	-0.4355077
105	0x3ed01166	0.40638274
106	0xbdea53d1	-0.11441768
107	0xbcf74de2	-0.030188505
108	0x3e1743f3	0.14772014
109	0x3d876979	0.06611914
110	0x3dcba36b	0.09943279
111	0x3ba20a60	0.0049450845
112	0xbd074dae	-0.033033065
113	0xbde909ca	-0.1137882
114	0x3e3d9315	0.18513139
115	0x3ddeef4e	0.108854875
116	0x3d843997	0.06456297
117	0xbc5d6d62	-0.013514848
118	0xbdf7b0bb	-0.120942555
119	0x3d93769b	0.072003566
120	0x3ab2761c	0.0013615522
121	0x3da88eb6	0.08230345
122	0xbba2d9cb	-0.0049698106
123	0xbd9e76f4	-0.07737532
124	0x3d706393	0.05868871
125	0xbd6e1e54	-0.058134392
126	0xbccb9319	-0.024850415
127	0x3e253701	0.16134264
128	0x3e026a04	0.12735754
129	0x3d230f89	0.039809737
130	0x3dd697ac	0.10478148
131	0xbbde6b3b	-0.006787685
132	0xbe0e5951	-0.13901259
133	0xbd96645d	-0.073433615
134	0xbbd09755	-0.0063656964
135	0x3d6b60da	0.05746541
136	0x3e0598f2	0.13046625
137	0x3ca9ead6	0.020741861
138	0xbcbc1d51	-0.022963198
139	0x3d203731	0.039115135
140	0xbba90ed6	-0.0051592393
141	0xbdaa7d40	-0.08324671
142	0x3de0eb6d	0.10982404
143	0x3c37779d	0.011197952
144	0xbceef18d	-0.029167915
145	0xbdd03a63	-0.101673864
146	0xbcb9e346	-0.02269138
147	0xbdd652dd	-0.10465024
148	0x3deb88e9	0.11500723
149	0xbd2d266e	-0.042272978
150	0x3d2e9fac	0.042632744
151	0x3ded2955	0.11580149
152	0xbe50d582	-0.20393947
153	0xbda16b3d	-0.07881782
154	0xbd124c08	-0.03571704
155	0xbde5c099	-0.11218376
156	0xbe0e14f4	-0.1387518
157	0xbd19b48b	-0.037525695
158	0x3dff1f6c	0.12457165
159	0x3d2e0d4d	0.042493153
160	0xbdf237e6	-0.11827068
161	0xbd224ce7	-0.03962412
162	0x3dca72f0	0.09885204
163	0x3e3b4ff6	0.18292221
164	0xbaaeb627	-0.0013329432
165	0xbdd0c3b4	-0.101935774
166	0xbcb16dee	-0.021658864
167	0xbdd7647b	-0.10517212
168	0xbd37d980	-0.04488516
169	0x3e344b94	0.17606956
170	0xbd2e9df1	-0.042631093
171	0x3cc5a670	0.024127215
172	0x3de56876	0.11201565
173	0xbe193b14	-0.14963943
174	0x3da0bf07	0.078489356
175	0xbd9f5f07	-0.07781797
176	0xbde5da6d	-0.11223302
177	0xbd150075	-0.03637739
178	0xbe1d949e	-0.15388724
179	0x3e383cd2	0.17991951
180	0x3de97179	0.11398596
181	0x3beb9cdc	0.00719033
182	0x3d8927ce	0.06697045
183	0xbb9e27ab	-0.004826506
184	0x3c3d6252	0.011559086
185	0xbde6a050	-0.11261046
186	0x3d85aca6	0.06527071
187	0xba38ef97	-0.00070547446
188	0xbe377441	-0.17915441
189	0xbde9f158	-0.11422986
190	0xbcb8d50c	-0.022562526
191	0x3d430390	0.04761082
192	0xbd2547ea	-0.040351786
193	0x3d69f4b9	0.05711815
194	0x3dad3227	0.084568314
195	0x3b013305	0.0019714248
196	0xbd5f446b	-0.054508608
197	0x3d616346	0.055026315
198	0xbda82c21	-0.08211542
199	0x3d273e13	0.040830683

ID_pred_2/bias:0 f4 [2]
0	0xbed48818	-0.4151008
1	0x3ed48ada	0.41512185

fc1_relu_2/kernel:0 f4 [127, 100]
0	0xbec4844f	-0.38382193
1	0xbee5877a	-0.44829923
2	0x3ec7aa61	0.38997176
3	0xbe473bc7	-0.19456397
4	0x3eb7e942	0.3592015
5	0x3e812440	0.2522297
6	0x3dbbd9e8	0.09172422
7	0xbe11e020	-0.14245653
8	0xbe7d4508	-0.24733365
9	0xbe5b3842	-0.2140818
10	0xbe8919da	-0.26777536
11	0x400c6e0e	2.1942172
12	0xbf47ff5e	-0.78124034
13	0xbe289025	-0.16461237
14	0xbe77f2d6	-0.24213728
15	0xbe09455b	-0.13405363
16	0x40316f2f	2.772411
17	0x3ce173b9	0.027521001
18	0x3d755175	0.059892137
19	0x3dca2248	0.0986982
20	0xbdd59cc0	-0.10430288
21	0xbeeadd66	-0.4587204
22	0x3d903289	0.07040889
23	0xbe8a9f60	-0.27074718
24	0xbdccac82	-0.09993841
25	0xbd90b226	-0.07065229
26	0xbed4d428	-0.41568112
27	0x3dd66013	0.104675435
28	0x3e752a99	0.23942031
29	0x3e4a3ab4	0.19748956
30	0xbbe3a020	-0.0069465786
31	0x3ec82c75	0.39096418
32	0xbf6fdeb5	-0.936992
33	0xbe050d99	-0.12993468
34	0xbdad6679	-0.08466811
35	0xbed60a66	-0.41804808
36	0x3ecfdb7f	0.4059715
37	0xbcf38c19	-0.02972989
38	0x3d88c203	0.0667763
39	0x3eaa8734	0.33306277
40	0xbfb2ade8	-1.3959322
41	0x3dcacabe	0.09901951
42	0xbc64bead	-0.013961476
43	0x3e59a411	0.21253993
44	0xbd91009f	-0.070801966
45	0x3d7f493c	0.0623257
46	0xbd9c2938	-0.07625049
47	0x3e9e12a0	0.30873585
48	0x3e5449cc	0.20731276
49	0xbf089b68	-0.5336213
50	0xbf2b910e	-0.6701821
51	0xbc9e0e47	-0.019293917
52	0xbeda1b0e	-0.42598766
53	0xbed9ab68	-0.42513585
54	0x3ecfe9f9	0.40608194
55	0xbc1c80a9	-0.009552159
56	0xbf216c38	-0.63055754
57	0xbf090e37	-0.53537315
58	0x3e99c267	0.3003113
59	0x3e45a669	0.19301762
60	0xbddf222a	-0.10895188
61	0x3dfa7de8	0.12231046
62	0xbe9ee572	-0.31034428
63	0xbe81e186	-0.25367373
64	0xbe98c9e3	-0.29841527
65	0x3f57a089	0.8422933
66	0xbe77d432	-0.2420204
67	0xbdeca9b1	-0.115558036
68	0x3e8c4ddf	0.2740316
69	0x3d604cd9	0.054760788
70	0xbe1d0b2d	-0.15336294
71	0x3f314983	0.69252795
72	0x3db4c33d	0.08826301
73	0xbe991279	-0.29896906
74	0xbd8572ca	-0.06516035
75	0x3b963c12	0.0045847977
76	0x3e33d7b4	0.17562753
77	0x3f039619	0.51400906
78	0x3d9111b0	0.07083452
79	0xbe828674	-0.25493205
80	0x3e2441db	0.16040747
81	0xbe9aaf64	-0.30211937
82	0xbe4e9788	-0.20174992
83	0x3d27b7fc	0.040946946
84	0x3f64d716	0.89390695
85	0xbe8c55ea	-0.27409297
86	0x400ed1d0	2.231556
87	0x3f26dd20	0.6518116
88	0x3c50ebaf	0.012751504
89	0xbd3b2a43	-0.0456946
90	0x3d85079b	0.06495591
91	0x3ec0d539	0.37662676
92	0x3e61da1e	0.22055861
93	0x3f0e4c92	0.5558559
94	0x3c79885e	0.015230266
95	0x3d3ded71	0.04636902
96	0xbe5b2cbe	-0.21403787
97	0xbf02425b	-0.508825
98	0xbe4d2e8b	-0.20037286
99	0xbe630b8f	-0.22172378
100	0x3f07c0dc	0.53028655
101	0xbfd6accf	-1.6771487
102	0x3e066c5c	0.13127273
103	0x3f8561d0	1.0420475
104	0xbf6d7530	-0.9275694
105	0x3f08afca	0.5339323
106	0xbfcaa01c	-1.5830112
107	0x3e20058c	0.15627116
108	0xbd209b0a	-0.039210357
109	0x3e9c74aa	0.30557758
110	0x3f0e10a4	0.5549414
111	0x3f025b8f	0.5092096
112	0x3f52d090	0.8234949
113	0xbe37d09e	-0.17950675
114	0x3e3fccb8	0.18730438
115	0xbf6df495	-0.9295133
116	0xbfcc984e	-1.598398
117	0xbee8cc8b	-0.45468554
118	0x3ef792f5	0.48354307
119	0x3e31515b	0.17316191
120	0xbe2d89fe	-0.16947171
121	0x3f44627c	0.76712775
122	0x3e6e8ac2	0.2329512
123	0x3e297990	0.16550279
124	0xbe10dd34	-0.14146882
125	0xbed0d12d	-0.40784588
126	0xbdfb5d2c	-0.122736305
127	0x3dfcfa73	0.12352457
128	0x3eb204b7	0.34769222
129	0x3d806511	0.06269277
130	0x3f01ee4b	0.5075423
131	0xbcfe6ae5	-0.03105683
132	0x3e519b88	0.20469487
133	0x40085122	2.129952
134	0x3f435c8d	0.76313096
135	0x3e352a70	0.1769197
136	0xbf94c6c8	-1.1623163
137	0x3eced3db	0.40396008
138	0x3f35e90e	0.7105874
139	0x3edf22f0	0.43581343
140	0x3e6823ef	0.22669958
141	0xbf26dc23	-0.6517965
142	0x3f99067c	1.1955104
143	0xbe03f5eb	-0.12886779
144	0x3e79f2c6	0.24409017
145	0x3f798b1e	0.974779
146	0x3ecfc765	0.40581813
147	0x3eb15724	0.34636796
148	0x3fc011b1	1.5005399
149	0xbe602167	-0.21887742
150	0xbdfbb33e	-0.12290047
151	0x3dcce6a8	0.10004932
152	0x3e77301e	0.24139449
153	0x3f6d34e1	0.9265881
154	0x3e9b0538	0.3027742
155	0x3e1c81cd	0.1528389
156	0x3dfa0733	0.122084044
157	0x3f176c03	0.5914919
158	0xbeb4d75d	-0.3532056
159	0x3dcb5fde	0.099303946
160	0x3ec198e5	0.37811962
161	0xbd9a0597	-0.075205974
162	0x3fe267ad	1.7687889
163	0x3ddab09e	0.10678218
164	0x3e8ba007	0.2727053
165	0xbfa39cf7	-1.2782277
166	0x3d7d62ab	0.061861675
167	0xbeaa9388	-0.33315682
168	0x3ee54fa7	0.44787332
169	0x3da140f2	0.078737155
170	0x3eaa5aaf	0.3327231
171	0x3e5fad0f	0.2184336
172	0xbe208c37	-0.15678488
173	0x3e1178e4	0.14206272
174	0xc0beef8d	-5.966742
175	0xbe4f70a1	-0.20257808
176	0x3c8fc17f	0.01754832
177	0x3f517721	0.818224
178	0x3e5bf173	0.21478824
179	0x3e8d5193	0.276013
180	0xbe889f31	-0.26683953
181	0x3ea19f6d	0.31566945
182	0xbfcc94f0	-1.5982952
183	0x3efe6c6c	0.49692094
184	0xbf2a82c4	-0.6660578
185	0xbf016711	-0.5054789
186	0x3f69e9a2	0.9137212
187	0x3fa18563	1.2618831
188	0xbe8d9982	-0.2765618
189	0x3e130d99	0.14360656
190	0x3f228693	0.63486594
191	0x3f090914	0.5352948
192	0x3f05d82b	0.5228297
193	0x3f8926ea	1.0715001
194	0xbed887a3	-0.42290983
195	0x3f36960e	0.71322715
196	0x3e7258a5	0.23666628
197	0xbdfb0379	-0.12256522
198	0xbdc651f6	-0.096836016
199	0xbf6dfce8	-0.9296403
200	0xbe2a9a33	-0.16660385
201	0x4011346d	2.2688248
202	0xbef8d35d	-0.48598757
203	0x3f390ba0	0.72283363
204	0x3eb48632	0.35258633
205	0x3fc9e58b	1.5773176
206	0xbdc2ed00	-0.095178604
207	0x3e8ed248	0.27894807
208	0xbeca979f	-0.39568803
209	0xbdc98ead	-0.09841666
210	0xbd9008c7	-0.07032924
211	0xbfa7270f	-1.3058795
212	0x3f576eec	0.8415363
213	0xbe73b32c	-0.23798817
214	0x3f9f10df	1.2427024
215	0x3f2c69e5	0.6734908
216	0xbdc3a8cf	-0.09553682
217	0xbf04eb45	-0.5192149
218	0x3fe10b2a	1.7581532
219	0xbf3eac0e	-0.74481285
220	0xbec83358	-0.39101672
221	0xbf0f7394	-0.56035733
222	0x400bf39f	2.1867445
223	0xbeae25d3	-0.34013233
224	0x3f821896	1.0163753
225	0xbaf7cdaa	-0.0018905897
226	0xbe81113b	-0.25208458
227	0x3de76310	0.112981915
228	0xbcd377a5	-0.025813887
229	0x3f0fde13	0.56198233
230	0x3f1f3603	0.6219179
231	0x3e83d23d	0.25746337
232	0x3e35718e	0.17719099
233	0x3f88cffc	1.0688472
234	0x4017470e	2.3637118
235	0x3f5277a3	0.822138
236	0xbf62e442	-0.88629544
237	0x3f19ead5	0.6012395
238	0xbe9b0822	-0.30279642
239	0x3ea30b19	0.31844404
240	0x3da98f06	0.08279233
241	0x3e79dc10	0.24400353
242	0x3f481f99	0.78173214
243	0x3f326d2f	0.6969785
244	0xbee3e355	-0.44509378
245	0xbe719cc7	-0.23594962
246	0x3fd8ba69	1.6931888
247	0x3ecd59de	0.40107626
248	0x3e69eb15	0.22843583
249	0x3e8a6b4d	0.2703499
250	0xbed287f2	-0.41119343
251	0xbf4de823	-0.8043234
252	0x3f1b4a5e	0.6066035
253	0x3f5a20d2	0.8520633
254	0xbda575d8	-0.080791175
255	0xbea0cd5c	-0.31406677

fc1_relu_2/bias:0 f4 [100]
0	0xbfc8c984	-1.5686498
1	0xbfe07212	-1.7534811
2	0xbfc930dd	-1.5718037
3	0xbf3b975c	-0.7327783
4	0xbffd26c9	-1.9777461
5	0xc02613c6	-2.5949569
6	0xbfc8963f	-1.5670851
7	0xbeff3d2f	-0.49851367
8	0xbd572f5d	-0.052535404
9	0xbf450552	-0.76961243
10	0xbfb4d3d6	-1.4127147
11	0xbfec3338	-1.8453131
12	0xc03a5dad	-2.9119675
13	0x3f23506f	0.63794607
14	0xbfbfea99	-1.4993469
15	0xbff30fb5	-1.8989168
16	0xbfa79176	-1.3091266
17	0xbf3fabb7	-0.7487139
18	0xc0afa632	-5.4890375
19	0xbe72ae9d	-0.23699422
20	0xbe29b5b6	-0.16573223
21	0xbf669455	-0.90070087
22	0x3dae8214	0.08520904
23	0xbe9993c4	-0.2999555
24	0xc0395dd6	-2.8963523
25	0xbf9934f0	-1.196928
26	0xc061f14d	-3.5303528
27	0xbf418ad4	-0.7560246
28	0x3e093c71	0.13401963
29	0xbfaec6e2	-1.3654444
30	0xc014b059	-2.3232634
31	0xbe828ffe	-0.25500482
32	0xbfe86e90	-1.8158741
33	0xc027942a	-2.6184182
34	0xbfbda400	-1.4815674
35	0xc02c3485	-2.6907055
36	0xbf304507	-0.6885533
37	0xbfa73742	-1.3063738
38	0xbd2a178f	-0.041526373
39	0xbe00cbe0	-0.12577772
40	0xc0a2ba2d	-5.0852265
41	0xbfad8721	-1.3556863
42	0xbf735e94	-0.9506619
43	0xbfd0a0ac	-1.6299033
44	0xc032c26a	-2.793116
45	0xc06d1d86	-3.704927
46	0xbfa9e12e	-1.3271844
47	0xc035b5fa	-2.839232
48	0xc06be782	-3.686005
49	0xbfc89abd	-1.5672222
50	0xbde580aa	-0.11206181
51	0x3e67241f	0.22572373
52	0xc0357c42	-2.835709
53	0xbfb073ed	-1.3785378
54	0xbc86b0ac	-0.016441666
55	0xbedc41b1	-0.4301887
56	0xbf24873e	-0.64268863
57	0xbfa63d36	-1.298743
58	0x3e212501	0.15736772
59	0xc0173472	-2.362576
60	0x3e6c62ca	0.2308456
61	0x3edf719e	0.4364137
62	0xbfc750f8	-1.5571585
63	0xbfd7d225	-1.6861006
64	0xbea3d9ec	-0.320022
65	0xbf7e646c	-0.9937198
66	0xbe2ca02e	-0.16857979
67	0xbe08d521	-0.13362552
68	0xbf9d99b1	-1.2312528
69	0xbe8199ba	-0.25312597
70	0x3e3c6d2d	0.18401022
71	0x3e37ef6b	0.17962424
72	0xbf075437	-0.52862877
73	0xbf0aebd1	-0.5426608
74	0xbfbabc5e	-1.4588735
75	0xbf35093f	-0.70717233
76	0xc0206a59	-2.506491
77	0xbf80100e	-1.00049
78	0xbef78278	-0.48341727
79	0x3ec05587	0.37565252
80	0xbe0a6f38	-0.13518989
81	0xbfa9ad7a	-1.3256066
82	0xc02b4570	-2.6761131
83	0xbe5d7667	-0.21627198
84	0xc02c411c	-2.691474
85	0xbf13eaae	-0.5777997
86	0xc088977f	-4.268493
87	0xc0773844	-3.8628092
88	0xbf8afb78	-1.0857992
89	0xbff3ee9f	-1.9057196
90	0xbfb169f1	-1.3860456
91	0x3dd2ee90	0.102994084
92	0xbf7f5c11	-0.9974986
93	0xbef97ef8	-0.48729682
94	0x3d0df4a3	0.034657132
95	0x3d89549f	0.06705593
96	0xc00f0a69	-2.2350104
97	0xbf497dcb	-0.7870757
98	0xbfe79b14	-1.8094201
99	0xbff1bd4b	-1.8885893

scale f4 [27]
0	0x3e4f05f8	0.2021712
1	0x3f517451	0.8181811
2	0x3f0ab8f8	0.5418849
3	0x3eda7b6f	0.42672297
4	0x3ec93f93	0.39306316
5	0x3f04ba0c	0.51846385
6	0x3eceffa5	0.40429416
7	0x3ec2e6c5	0.38066688
8	0x3cef11d1	0.0291833
9	0x3ce089cd	0.027409459
10	0x4005840a	2.086184
11	0x3f56c2bd	0.838909
12	0x3f682213	0.90676993
13	0x3e63d632	0.22249678
14	0x3e45e370	0.19325042
15	0x3e6aab9a	0.22917023
16	0x3e9af08e	0.30261654
17	0x3e0d1e48	0.13781083
18	0x3c1e467a	0.009660358
19	0x3c8778bf	0.016537068
20	0x3d836f72	0.06417741
21	0x3d8c8675	0.06861583
22	0x3c3ade36	0.011405518
23	0x3d3e18da	0.04641042
24	0x3dd451d5	0.10367171
25	0x3dee90f8	0.11648744
26	0x3dec6b6c	0.115439266

bias f4 [27]
0	0xc05becdf	-3.4363325
1	0xbf8b08e8	-1.0862093
2	0xbf6dd6da	-0.9290596
3	0xbf74f37d	-0.95684034
4	0xbf08f33f	-0.53496164
5	0xbd81fdd0	-0.06347239
6	0xbd571a78	-0.052515477
7	0x3d939932	0.07206954
8	0xbe6ec132	-0.23315886
9	0xbdc99161	-0.09842182
10	0x3ed1f213	0.41005
11	0xbdb029e8	-0.08601743
12	0x3f0b29fc	0.5436094
13	0xbef5d6c7	-0.48015425
14	0x3d85600a	0.065124586
15	0xbf4069ea	-0.7516161
16	0xbf1d8a23	-0.61538905
17	0xbf272d88	-0.6530385
18	0xbe24c1b4	-0.16089517
19	0xbe0b4c65	-0.13603361
20	0xbdba0a79	-0.09084029
21	0xbeaef55b	-0.34171566
22	0xbde97382	-0.113989845
23	0xbdb5bab6	-0.08873503
24	0xbe8b9535	-0.27262273
25	0xbe3ef057	-0.1864637
26	0xbead8571	-0.3389087

mean f4 [27]
0	0x00000000	0.0
1	0x00000000	0.0
2	0x00000000	0.0
3	0x00000000	0.0
4	0x00000000	0.0
5	0x80000000	-0.0
6	0x00000000	0.0
7	0x80000000	-0.0
8	0x00000000	0.0
9	0x00000000	0.0
10	0x80000000	-0.0
11	0x00000000	0.0
12	0x80000000	-0.0
13	0x00000000	0.0
14	0x00000000	0.0
15	0x00000000	0.0
16	0x00000000	0.0
17	0x00000000	0.0
18	0x00000000	0.0
19	0x00000000	0.0
20	0x00000000	0.0
21	0x00000000	0.0
22	0x00000000	0.0
23	0x00000000	0.0
24	0x00000000	0.0
25	0x00000000	0.0
26	0x00000000	0.0

var f4 [27]
0	0x3f800000	1.0
1	0x3f800000	1.0
2	0x3f800000	1.0
3	0x3f800000	1.0
4	0x3f800000	1.0
5	0x3f800000	1.0
6	0x3f800000	1.0
7	0x3f800000	1.0
8	0x3f800000	1.0
9	0x3f800000	1.0
10	0x3f800000	1.0
11	0x3f800000	1.0
12	0x3f800000	1.0
13	0x3f800000	1.0
14	0x3f800000	1.0
15	0x3f800000	1.0
16	0x3f800000	1.0
17	0x3f800000	1.0
18	0x3f800000	1.0
19	0x3f800000	1.0
20	0x3f800000	1.0
21	0x3f800000	1.0
22	0x3f800000	1.0
23	0x3f800000	1.0
24	0x3f800000	1.0
25	0x3f800000	1.0
26	0x3f800000	1.0

tensor_w f4 [1, 150, 32]
0	0x401555bf	2.3333585
1	0x3f601420	0.8753071
2	0x3e1a944c	0.15095633
3	0x3ebacbf4	0.3648373
4	0x3c9045db	0.017611435
5	0xbc67657b	-0.014123316
6	0x3d1ca862	0.03824652
7	0x3e02bacc	0.1276657
8	0x3dd9e703	0.10639765
9	0x3fa97881	1.32399
10	0x3ce5a344	0.028031953
11	0xbd98a39c	-0.07453081
12	0x3de2f6d0	0.11082232
13	0x3e832114	0.25611174
14	0x3dc59083	0.09646704
15	0xbf4d2be5	-0.801451
16	0x3d8aa21c	0.06769201
17	0xbcfb715b	-0.0306937
18	0x3efdcdad	0.4957098
19	0x3f18dbdf	0.59710497
20	0xbe650f09	-0.22369017
21	0x3e2dad07	0.16960536
22	0x400bf983	2.187104
23	0x3dcce58c	0.1000472
24	0x3f26c225	0.6513999
25	0x3fa21167	1.2661561
26	0x3d59627c	0.053072438
27	0xbd3a484a	-0.045479096
28	0x3e0a9590	0.13533616
29	0xbec37728	-0.38176847
30	0xbea9ffc8	-0.33202958
31	0xbd896da0	-0.067103624
32	0x40ca3028	6.3183784
33	0x3fb2681d	1.3938023
34	0x4007d3e9	2.122309
35	0x3f1fb920	0.62391853
36	0xbcde00f5	-0.027100066
37	0xbe5ca037	-0.21545492
38	0xbe941dab	-0.28928885
39	0xbd9d2f33	-0.07675018
40	0x4002f3cb	2.04613
41	0x3fbda1d7	1.4815015
42	0x3d56e0ed	0.0524606
43	0x3defe30e	0.11713229
44	0x3f0ce686	0.5503925
45	0x3edff013	0.4373785
46	0x3d1a951b	0.037739854
47	0xbec68c21	-0.38778785
48	0x3d82f2bf	0.063939564
49	0xbc0a8ffb	-0.008457179
50	0x3ff47305	1.9097601
51	0x3f71edc1	0.9450341
52	0xbea0234b	-0.31276926
53	0xba876434	-0.0010329545
54	0x40155ccc	2.3337889
55	0x3e191755	0.14950307
56	0x4046b69e	3.104896
57	0x3f23799d	0.6385744
58	0x3f95be2d	1.1698662
59	0xbd64074d	-0.055671025
60	0xbd8508b3	-0.064958
61	0x3f564558	0.8369956
62	0xbe9e9eb5	-0.3098046
63	0x3c0874aa	0.008328596
64	0xbc416d85	-0.011805897
65	0x3d12448c	0.035709903
66	0x3f4b73bd	0.7947348
67	0xbe014cb5	-0.12626918
68	0xbbeee70e	-0.0072907275
69	0xbe7dad2b	-0.2477309
70	0xbe0e2825	-0.13882501
71	0xbc89bd36	-0.016813856
72	0x3d1ec6ed	0.03876393
73	0xbdce117b	-0.10061928
74	0x3d039d36	0.03213235
75	0x3db7b57a	0.08970161
76	0x3e7f85ef	0.24953435
77	0x3b98f5aa	0.0046679573
78	0xbde598c1	-0.11210776
79	0x3aa4a0f2	0.0012560172
80	0x3ddaabb4	0.10677281
81	0x3e245db9	0.16051377
82	0x3e504cea	0.2034184
83	0x3b84a0a1	0.004047469
84	0x3c2f0880	0.010683179
85	0x3e0c5050	0.13702512
86	0x3e5569fd	0.20841213
87	0x3e31c711	0.17361094
88	0x3d8edeb1	0.06976069
89	0x3dae3b3b	0.08507391
90	0xbe489e76	-0.19591698
91	0x3d965d1b	0.07341977
92	0xbe3c2ab4	-0.18375665
93	0xbddbffb5	-0.107421316
94	0x3cec4f2e	0.02884635
95	0xbd966be0	-0.07344794
96	0x3f0e2860	0.5553036
97	0x3f1ce8e4	0.6129286
98	0x3f4e432c	0.80571246
99	0x3f841e96	1.0321834
100	0x3dc0cc49	0.09413964
101	0x3fe548e3	1.7912868
102	0x3f48df9e	0.7846621
103	0x3c0c57c8	0.008565851
104	0x3e63a92e	0.22232506
105	0xbed6169d	-0.41814128
106	0x3cfab92f	0.03060588
107	0x3f32a345	0.6978038
108	0x3c8f41f4	0.017487504
109	0x3daaf488	0.08347422
110	0x3da5c4d0	0.0809418
111	0x3ee17cc5	0.44040504
112	0x3e2e7f48	0.17040741
113	0x3e8e8679	0.2783697
114	0x3faee3db	1.3663286
115	0x3f0720b4	0.52784276
116	0x3f108f4e	0.56468666
117	0x3fd0ba47	1.6306847
118	0x3ccb4d29	0.024817066
119	0x3d6de53f	0.058079954
120	0xbcc8bde0	-0.024504602
121	0xb78fe060	-1.7151411e-05
122	0x3db21b02	0.086965576
123	0x3c248a15	0.010042687
124	0x3f842ca2	1.0326121
125	0x3fad0130	1.3515987
126	0x3ee71fd2	0.45141464
127	0x3e7237f2	0.23654154
128	0xbcf6991f	-0.03010231
129	0x3d73da62	0.059534438
130	0x3f01f612	0.507661
131	0x3e581221	0.21100666
132	0x3d38f303	0.04515363
133	0x3e22c293	0.15894537
134	0xbd0c2026	-0.034210347
135	0x3c6d5c9a	0.01448741
136	0x3eda9de0	0.42698574
137	0x3f507a3e	0.81436527
138	0xbd205fe0	-0.039153934
139	0xbd93d1d4	-0.07217756
140	0xbc2746b8	-0.010209732
141	0x3e9201d5	0.28517023
142	0x3ec70041	0.3886738
143	0xbc4afc35	-0.012389232
144	0x378ba51a	1.6646973e-05
145	0x3e1f92ff	0.15583418
146	0x3d86213d	0.065493084
147	0x3d4385c6	0.047735
148	0xbd24b461	-0.040211085
149	0x3e3af97f	0.18259238
150	0x3ee1f80a	0.4413455
151	0x3de954d6	0.11393134
152	0xbd5e2790	-0.05423695
153	0x3f991caa	1.1961873
154	0xbe2a783d	-0.1664743
155	0x3d8621b2	0.065493956
156	0x3d233ef1	0.039854947
157	0xbdc5196d	-0.0962399
158	0xbde820c0	-0.113343716
159	0x3e0d70e2	0.13812593
160	0x3fb7ed50	1.4369297
161	0x3f82b052	1.0210059
162	0x3f5bafec	0.8581531
163	0x3e7af2e8	0.24506724
164	0x3ee7755b	0.45206723
165	0x3f8e32be	1.1109235
166	0x3e86473e	0.26226228
167	0xbdc0cd9b	-0.09414216
168	0xbdadd07b	-0.0848703
169	0x3eb249ea	0.34822017
170	0x3c27e874	0.010248292
171	0x3e89bbca	0.26901084
172	0x3f0dad91	0.55342966
173	0x3d42bce8	0.047543436
174	0x3ea88833	0.32916412
175	0xbcd05aa0	-0.025433838
176	0x3f15abd9	0.58465344
177	0x3f1736c1	0.5906792
178	0x3ee5b952	0.4486795
179	0x3f90e7c8	1.1320734
180	0xbecdae7e	-0.4017219
181	0x3f3f2e5d	0.7468012
182	0x3ee92ebb	0.45543465
183	0x3e891ee1	0.2678137
184	0x3e9851ce	0.29749912
185	0x3e0228e4	0.12710911
186	0x3f146504	0.5796664
187	0x3edf5d8d	0.4362606
188	0xbe940eb1	-0.2891746
189	0xbca64221	-0.020295205
190	0x3e2af488	0.16694844
191	0x3ebd2b0f	0.36946914
192	0x3ed5c612	0.41752678
193	0xbdac1ec2	-0.08404304
194	0x3f7b9a07	0.982819
195	0xbed0844c	-0.40725935
196	0xbce55e38	-0.027999029
197	0xbe6fdbb6	-0.23423657
198	0xbdec8064	-0.11547926
199	0x3d178f14	0.037001684
200	0x3ec84f5f	0.39123055
201	0xbea50b73	-0.32235298
202	0x3c334217	0.01094105
203	0xbcb928ec	-0.02260252
204	0x3f83270f	1.0246295
205	0x3e731f1c	0.23742336
206	0x4002802c	2.039073
207	0x3e9c30dc	0.30506027
208	0x3d46bb1f	0.048518296
209	0xbe230429	-0.15919556
210	0xbdb12669	-0.08649904
211	0x3e26cc7d	0.16288944
212	0xbe151c68	-0.14561617
213	0xbd9e282b	-0.07722505
214	0x3f9289d7	1.1448315
215	0x3d4a076d	0.049323488
216	0x3ed49a43	0.41523942
217	0x400b78a2	2.1792378
218	0x3f539d13	0.8266155
219	0x3dcbe8fe	0.09956549
220	0xbe2dc226	-0.16968593
221	0xbed17452	-0.40909058
222	0x3ed2ac8f	0.41147277
223	0x3e83ae5e	0.2571897
224	0x3f8e8e42	1.1137164
225	0x3fbcfd0c	1.4764724
226	0x3f9f6b77	1.2454671
227	0x3ed81fa5	0.42211643
228	0x3f6273a5	0.8845771
229	0x3e0daab3	0.13834648
230	0x3e846e87	0.25865576
231	0xbe1c7882	-0.15280345
232	0x3c56478c	0.013078582
233	0x3f4ee01c	0.80810714
234	0x3e3c7062	0.18402246
235	0xbe3a3bd8	-0.18186891
236	0x3f346b83	0.7047655
237	0x3dbb679d	0.09150622
238	0x3eb0f8d2	0.34564835
239	0xbfad79f2	-1.355284
240	0x3f24192f	0.6410093
241	0x3e99ed5b	0.300639
242	0x3ed89aa6	0.42305487
243	0x3dc8cf9c	0.09805223
244	0xbe802d34	-0.25034487
245	0x3f068f07	0.5256199
246	0x3fac520f	1.3462542
247	0x3eae3088	0.340214
248	0x3ee3951c	0.444497
249	0x3f9da55b	1.2316087
250	0xbb1728e9	-0.0023065156
251	0x3e91d80e	0.2848515
252	0x3e000ed5	0.12505658
253	0xbdc3facb	-0.09569319
254	0xbe516904	-0.20450217
255	0x3cb4c539	0.0220667

tensor_r f4 [1, 150, 50]
0	0x3f65d45f	0.8977718
1	0x3da05d5a	0.078303054
2	0x3f67feb7	0.9062304
3	0x3f55b762	0.83482945
4	0xbe33f821	-0.17575122
5	0xbf2ca918	-0.67445517
6	0xbe240de8	-0.1602093
7	0xbccc994f	-0.024975447
8	0x3ea60b0b	0.324303
9	0xbf080d2f	-0.53145117
10	0xbed4a2ab	-0.41530356
11	0xbe94855c	-0.29007995
12	0xbf82c39a	-1.0215943
13	0xbf298c09	-0.662293
14	0x3f2ee75d	0.6832178
15	0xbe91a699	-0.28447416
16	0x3f1b87eb	0.6075427
17	0x3deb7e1e	0.11498664
18	0xbea3bd26	-0.31980246
19	0xbf687b42	-0.90813076
20	0xbf08af3a	-0.53392375
21	0x3ed46f4d	0.41491166
22	0xbcc3974d	-0.023875857
23	0xbe313449	-0.17305101
24	0x3e9cf076	0.30652207
25	0x3e2846d5	0.1643327
26	0xbe9e218e	-0.30884975
27	0xbd61fe78	-0.05517432
28	0x3e2101b7	0.1572331
29	0xbe46172b	-0.19344775
30	0x3f041069	0.5158754
31	0x3f09e6e1	0.5386792
32	0xbf19c252	-0.60062134
33	0xbf0ca026	-0.5493187
34	0x3ec26256	0.3796565
35	0xbe6a6240	-0.22889042
36	0xbe619480	-0.22029305
37	0x3e6cbdbc	0.23119253
38	0xbf952e5a	-1.165477
39	0x3f8cc3c1	1.0997239
40	0xbe9c2355	-0.30495706
41	0x3dac96d4	0.08427206
42	0xbd8a0d17	-0.06740778
43	0x3e3e6507	0.18593226
44	0xbe35382b	-0.17697208
45	0xbde42aae	-0.11140953
46	0x3f0d85b2	0.5528213
47	0xbe8dfcf5	-0.27732053
48	0x3f36459a	0.71199954
49	0xbf31eeb8	-0.6950488
50	0xbe5d0b1a	-0.21586266
51	0x3e79c1d4	0.24390346
52	0x3f103eae	0.5634564
53	0xbd93d882	-0.0721903
54	0xbf5c97f4	-0.8616936
55	0x3f6723b9	0.90288883
56	0x3fad56ef	1.3542155
57	0x3e88a44c	0.2668785
58	0xbfbc1e82	-1.469681
59	0x3e9b4548	0.30326295
60	0x3f1698a3	0.58826655
61	0x3d6b0e4c	0.05738668
62	0x3e7ff834	0.24997026
63	0xbe060f5e	-0.130918
64	0xbf3f2031	-0.74658495
65	0xbee81a5d	-0.45332614
66	0xbe5d4d52	-0.21611527
67	0xbd60073f	-0.05469441
68	0xbf220318	-0.6328597
69	0x3af1c3f6	0.0018445242
70	0xbf21196a	-0.62929404
71	0x3d66b00c	0.056320235
72	0xbf77a860	-0.96741295
73	0x3e250455	0.16114934
74	0xbf121e5f	-0.5707759
75	0xbefe9c71	-0.4972873
76	0x3eb6e4a2	0.35721308
77	0x3efe3e93	0.49657115
78	0xbf577983	-0.8416979
79	0xbfa96354	-1.3233438
80	0xbe353f59	-0.17699946
81	0xbef35da8	-0.47532392
82	0xbfc8178f	-1.563219
83	0xbee40430	-0.44534445
84	0x3e239b0d	0.15977116
85	0xbe25502b	-0.16143863
86	0xbe85ef5e	-0.26159185
87	0x3e6ba808	0.23013318
88	0xbf140c98	-0.57831717
89	0xbf21e067	-0.63233036
90	0x3dd37779	0.10325522
91	0xbf3a7025	-0.7282737
92	0x3e44163c	0.19149107
93	0x3f618419	0.8809219
94	0xbee7505f	-0.45178506
95	0xbe55b76e	-0.20870754
96	0xbe9a49e8	-0.3013451
97	0xbdaf6083	-0.0856333
98	0x3efd91a2	0.49525172
99	0x3e3fcbc4	0.18730074
100	0xbe649725	-0.22323282
101	0x3e18c491	0.14918734
102	0xbf5ce575	-0.86287624
103	0xbe35b30a	-0.17744079
104	0x3ec90975	0.39265028
105	0xbe6ef08a	-0.23333946
106	0xbeb4918f	-0.35267302
107	0x3e8a4d40	0.27012062
108	0xbe0e39c2	-0.1388922
109	0x3d92f11f	0.071748964
110	0x3e173ad5	0.14768536
111	0x3e32bbdb	0.17454474
112	0xbd8d37e8	-0.06895429
113	0xbd44c111	-0.048035685
114	0x3f88df28	1.0693102
115	0x3e891895	0.26776567
116	0xbf5a6a26	-0.8531822
117	0xbee930d5	-0.45545068
118	0xbd186460	-0.0372051
119	0xbe11001e	-0.14160201
120	0xbeea3609	-0.4574435
121	0xbe019255	-0.12653477
122	0xbe2ff40c	-0.1718294
123	0xbe0b856c	-0.13625115
124	0xbec4335a	-0.38320428
125	0x3ecddf4b	0.40209422
126	0xbe17a070	-0.14807296
127	0x3d56247b	0.052280884
128	0x3de4cc98	0.11171836
129	0x3e57cf72	0.21075228
130	0xbe9e8aec	-0.30965364
131	0xbe6c2752	-0.23061875
132	0xbccb9fd8	-0.024856493
133	0xbf061c88	-0.52387285
134	0xbf0c02a3	-0.54691523
135	0xbd38f86e	-0.045158796
136	0x3e0d48b6	0.13797268
137	0xbf18e68f	-0.59726804
138	0x3e03cc13	0.12870817
139	0x3d34df51	0.044158284
140	0x3e52f91f	0.20602845
141	0x3ed4ca84	0.41560757
142	0x3e487ae7	0.19578134
143	0x3d6805b3	0.05664606
144	0x3eae8094	0.34082472
145	0x3eeabee1	0.45848754
146	0x3ecb0a1f	0.3965616
147	0x3ed6df03	0.4196702
148	0x3ddd302e	0.10800205
149	0xbf1a1b98	-0.60198355
150	0x3e7da03a	0.24768153
151	0x3e2b2c5a	0.16716138
152	0x3f1eae5e	0.61984813
153	0xbcfcaaed	-0.030843223
154	0xbd247025	-0.04014601
155	0xbe37c229	-0.1794516
156	0x3ce6b7eb	0.02816387
157	0xbee186c7	-0.4404814
158	0x3d375028	0.044754177
159	0x3e1e89be	0.15482232
160	0xbe259e94	-0.16173774
161	0xbd950acd	-0.07277451
162	0x3eb4fe04	0.3535005
163	0x3d424c55	0.047436077
164	0x3eb12524	0.3459865
165	0xbd0094e8	-0.031392008
166	0x3e80bb19	0.25142744
167	0x3e4397de	0.19100901
168	0x3e5e9429	0.21736206
169	0x3d50c099	0.050964925
170	0xbde8ddf8	-0.11370462
171	0x3d92b64b	0.07163676
172	0xbf5298a6	-0.82264173
173	0xbd8f5809	-0.06999213
174	0xbd6be60c	-0.057592437
175	0xbdcf3764	-0.10117987
176	0x3e2f8df8	0.17144
177	0x3eb80803	0.35943612
178	0xbdc556da	-0.09635706
179	0xbed346af	-0.41264865
180	0x3ecb1d4d	0.39670792
181	0xbe42dba6	-0.19029102
182	0x3d801490	0.06253922
183	0xbe9d58b2	-0.30731732
184	0x3cf7a3a0	0.03022939
185	0xbde5501c	-0.1119692
186	0xbe108932	-0.14114836
187	0xbda509a7	-0.08058482
188	0xbe76eb96	-0.24113306
189	0xbf0dbb44	-0.5536387
190	0xbe38e319	-0.18055381
191	0x3e827d41	0.25486186
192	0x3eb78c55	0.35849252
193	0x3e27af60	0.16375494
194	0xbd759313	-0.059954714
195	0x3cab1df6	0.02088831
196	0x3e185882	0.14877513
197	0xbde7a54c	-0.11310825
198	0xbe8e094d	-0.2774147
199	0x3e4a6a6b	0.19767158
200	0x3f11b75d	0.56920415
201	0x3f27b1a9	0.6550546
202	0x3d87859d	0.066172816
203	0x3f11a55c	0.56892943
204	0x3deff48e	0.11716567
205	0xc022049c	-2.5315313
206	0x3f82382d	1.0173393
207	0x3ec8c061	0.39209273
208	0x3f231820	0.63708687
209	0xbe40b329	-0.18818344
210	0xbf844bf1	-1.0335675
211	0x3db3e49e	0.0878384
212	0xbea58575	-0.32328382
213	0xbeff5ad7	-0.49873993
214	0x3f272d25	0.6530326
215	0x3c1f79a2	0.009733589
216	0x3f185ba2	0.5951482
217	0x3e376424	0.17909294
218	0x3f0bbe19	0.5458694
219	0xbef5398a	-0.4789546
220	0xbecc148f	-0.39859435
221	0x3cb648d4	0.022251524
222	0xbd238569	-0.03992215
223	0x3f0d536b	0.5520541
224	0xbe6682aa	-0.22510782
225	0x3ee93764	0.45550072
226	0x3ea6a83a	0.32550222
227	0x3e9442dc	0.2895726
228	0x3f3493c0	0.7053795
229	0x3f4bd68a	0.79624236
230	0x3eb186c0	0.3467312
231	0xbdb7626f	-0.089543216
232	0xbf50c8a8	-0.8155618
233	0xbf3f10cb	-0.74635
234	0xbe2b17f4	-0.16708356
235	0x3f7c5f3b	0.9858281
236	0xbf5f1ad9	-0.8715034
237	0x3eb2f86c	0.34955156
238	0x3e386de3	0.18010668
239	0xbaa168b8	-0.0012314534
240	0x3d99563a	0.074871495
241	0xbe2be761	-0.16787483
242	0xbe97d3f5	-0.29653898
243	0xbf2b2888	-0.6685872
244	0x3f6099b6	0.87734544
245	0x3f4aa008	0.7915044
246	0x3f8df183	1.1089329
247	0x3dcea51f	0.10090088
248	0x3f6b5ffc	0.91943336
249	0xbf06f5b6	-0.52718675
250	0xbebb20ba	-0.36548406
251	0x3e61bcb1	0.22044636
252	0xbe9b0de1	-0.30284026
253	0x3e8a1b18	0.26973796
254	0xbf857214	-1.0425439
255	0xbfaf4b0a	-1.3694775

tensor_b f4 [1, 300]
0	0xbe9a6d1f	-0.30161378
1	0x3f4b9126	0.79518354
2	0x40060a56	2.0943809
3	0x3f2829a3	0.6568853
4	0x3ca0f01a	0.01964574
5	0x3f645d34	0.89204717
6	0x3f9ce296	1.2256649
7	0x3e8bf4dc	0.2733525
8	0x3f463fed	0.77441293
9	0xbe8766f1	-0.26445726
10	0x3f8e3b19	1.1111785
11	0x3f0240df	0.50880235
12	0x3f69919a	0.91237795
13	0xbd9dc454	-0.07703462
14	0x3f190ae9	0.5978227
15	0x3f427284	0.75955987
16	0x3e649db9	0.22325791
17	0x3f89fadf	1.0779685
18	0x3f48a3f8	0.78375196
19	0x3eb2807d	0.34863654
20	0x3f3319f7	0.69961494
21	0x3f96534b	1.1744169
22	0x3f252b5c	0.64519286
23	0x3f583a4e	0.84463966
24	0x3f5fbdc9	0.87398964
25	0x3e171b9b	0.14756624
26	0xbdb06819	-0.08613605
27	0x3ebbc51a	0.36673814
28	0x3f3fde41	0.7494851
29	0x3f4ecffb	0.80786103
30	0x3e7651c7	0.24054633
31	0x3f2a9a4f	0.66641706
32	0x3fe0e666	1.7570312
33	0x3f9db4ed	1.2320839
34	0x3f58d7ea	0.8470446
35	0x3fa66e88	1.3002481
36	0x3fc2eec8	1.522912
37	0x3c173968	0.009229995
38	0x3e929e4f	0.28636405
39	0xbe5577ad	-0.20846434
40	0x3f24acf2	0.64326394
41	0x3f94292a	1.1575062
42	0x3f14ad99	0.5807739
43	0x3f151b15	0.5824445
44	0x3fb2ad6b	1.3959173
45	0x3ea63086	0.32458895
46	0xbd909bd6	-0.07060973
47	0x3e919e66	0.2844116
48	0x3f55aa4a	0.83462965
49	0x3faf2bec	1.3685279
50	0xbf203dfe	-0.6259459
51	0xbfca5c25	-1.580937
52	0xbf0cc448	-0.54987
53	0xbdb71486	-0.089394614
54	0xbeb04f81	-0.34435657
55	0x3dbf7e5c	0.09350273
56	0xbf4c9744	-0.79918313
57	0xbf5d0058	-0.8632865
58	0xbf9e979f	-1.2390021
59	0xbf91b6f4	-1.1383958
60	0xbfb639f0	-1.4236431
61	0xbf84d478	-1.037734
62	0xbf9031c3	-1.1265186
63	0xbf961a35	-1.1726748
64	0xbef77514	-0.4833151
65	0xbeaf0024	-0.34179795
66	0xbf1c1895	-0.6097501
67	0xbf9027ca	-1.1262143
68	0xbfcff56b	-1.6246771
69	0xbf922f51	-1.142069
70	0xbf92d7d6	-1.1472118
71	0xbf8adca5	-1.0848585
72	0xbf402a5e	-0.7506465
73	0xbf807bbb	-1.003776
74	0xbf6a8663	-0.9161131
75	0xbf8ddc8c	-1.108293
76	0xbf8a178f	-1.078844
77	0xbf797d67	-0.97456974
78	0xbf8cdfaf	-1.1005763
79	0xbf5c46db	-0.86045617
80	0xbfc29f71	-1.5204908
81	0xbf2aaf1b	-0.6667344
82	0xbffad7ad	-1.9597069
83	0xbf7cf540	-0.9881172
84	0xbfaba137	-1.3408574
85	0xbf7dd21b	-0.9914872
86	0xbfbb5bd6	-1.4637401
87	0xc0178775	-2.3676426
88	0xbf505187	-0.813744
89	0xbf8322b4	-1.0244966
90	0xbfc17e7f	-1.5116729
91	0xbf637704	-0.8885348
92	0xbf781d6a	-0.9691988
93	0xbf512800	-0.8170166
94	0xbf96b10d	-1.1772782
95	0xc00a785e	-2.1635966
96	0xbfd0cc60	-1.631237
97	0xbf3dab97	-0.7408995
98	0xbdc4ee55	-0.09615771
99	0xbf6d4951	-0.92689997
100	0xbd811075	-0.06301967
101	0xbed1f9a9	-0.41010788
102	0xbedf710f	-0.43640944
103	0x3ead50ef	0.3385081
104	0xbdbfad63	-0.09359243
105	0xbe2fdfc1	-0.17175199
106	0x3e459b29	0.1929747
107	0xbe94f1fc	-0.2909087
108	0xbf792140	-0.9731636
109	0x3ebecc1b	0.37265095
110	0x3c2de0bc	0.010612663
111	0x3eb511da	0.35365182
112	0xbed34998	-0.41267085
113	0xbe8d9309	-0.2765124
114	0xbe60ab7e	-0.21940419
115	0x3ded9c1a	0.1160204
116	0x3f340ffb	0.70336884
117	0xbd2b8192	-0.041871615
118	0x3f37b8b1	0.7176619
119	0xbf0db7dd	-0.5535868
120	0x3e3288df	0.17435025
121	0x3f92689f	1.1438178
122	0xbdb42adf	-0.087972395
123	0xbedc1d0e	-0.42990917
124	0xbdf70b3b	-0.12062689
125	0xbe658601	-0.224144
126	0x3daa91b7	0.08328574
127	0xbebde077	-0.37085316
128	0x3ea2bdbc	0.3178538
129	0x3d1bc3fe	0.03802871
130	0x3d9404c5	0.07227472
131	0x3e0d7b94	0.13816673
132	0x3e8619b8	0.26191497
133	0xbe0b02bf	-0.13575266
134	0xbc89e7e9	-0.016834216
135	0x3ea67de2	0.32517916
136	0xbe220214	-0.15821105
137	0x3e5992e2	0.21247438
138	0x3db66a73	0.08907022
139	0xbedbda09	-0.42939785
140	0x3e52c3e0	0.20582533
141	0x3db4ce87	0.088284545
142	0xbdc56772	-0.09638871
143	0xbd03276a	-0.03202001
144	0xbe81a899	-0.25323942
145	0x3e7f2b3f	0.24918841
146	0x3e938d0c	0.28818548
147	0x3df327e2	0.118728414
148	0x3be41a0c	0.006961113
149	0x3e3943a7	0.18092214
150	0x00000000	0.0
151	0x00000000	0.0
152	0x00000000	0.0
153	0x00000000	0.0
154	0x00000000	0.0
155	0x00000000	0.0
156	0x00000000	0.0
157	0x00000000	0.0
158	0x00000000	0.0
159	0x00000000	0.0
160	0x00000000	0.0
161	0x00000000	0.0
162	0x00000000	0.0
163	0x00000000	0.0
164	0x00000000	0.0
165	0x00000000	0.0
166	0x00000000	0.0
167	0x00000000	0.0
168	0x00000000	0.0
169	0x00000000	0.0
170	0x00000000	0.0
171	0x00000000	0.0
172	0x00000000	0.0
173	0x00000000	0.0
174	0x00000000	0.0
175	0x00000000	0.0
176	0x00000000	0.0
177	0x00000000	0.0
178	0x00000000	0.0
179	0x00000000	0.0
180	0x00000000	0.0
181	0x00000000	0.0
182	0x00000000	0.0
183	0x00000000	0.0
184	0x00000000	0.0
185	0x00000000	0.0
186	0x00000000	0.0
187	0x00000000	0.0
188	0x00000000	0.0
189	0x00000000	0.0
190	0x00000000	0.0
191	0x00000000	0.0
192	0x00000000	0.0
193	0x00000000	0.0
194	0x00000000	0.0
195	0x00000000	0.0
196	0x00000000	0.0
197	0x00000000	0.0
198	0x00000000	0.0
199	0x00000000	0.0
200	0x00000000	0.0
201	0x00000000	0.0
202	0x00000000	0.0
203	0x00000000	0.0
204	0x00000000	0.0
205	0x00000000	0.0
206	0x00000000	0.0
207	0x00000000	0.0
208	0x00000000	0.0
209	0x00000000	0.0
210	0x00000000	0.0
211	0x00000000	0.0
212	0x00000000	0.0
213	0x00000000	0.0
214	0x00000000	0.0
215	0x00000000	0.0
216	0x00000000	0.0
217	0x00000000	0.0
218	0x00000000	0.0
219	0x00000000	0.0
220	0x00000000	0.0
221	0x00000000	0.0
222	0x00000000	0.0
223	0x00000000	0.0
224	0x00000000	0.0
225	0x00000000	0.0
226	0x00000000	0.0
227	0x00000000	0.0
228	0x00000000	0.0
229	0x00000000	0.0
230	0x00000000	0.0
231	0x00000000	0.0
232	0x00000000	0.0
233	0x00000000	0.0
234	0x00000000	0.0
235	0x00000000	0.0
236	0x00000000	0.0
237	0x00000000	0.0
238	0x00000000	0.0
239	0x00000000	0.0
240	0x00000000	0.0
241	0x00000000	0.0
242	0x00000000	0.0
243	0x00000000	0.0
244	0x00000000	0.0
245	0x00000000	0.0
246	0x00000000	0.0
247	0x00000000	0.0
248	0x00000000	0.0
249	0x00000000	0.0
250	0x00000000	0.0
251	0x00000000	0.0
252	0x00000000	0.0
253	0x00000000	0.0
254	0x00000000	0.0
255	0x00000000	0.0

tensor_w1 f4 [1, 150, 32]
0	0xbe890cf8	-0.26767707
1	0x3e1950a8	0.14972174
2	0x3e54506d	0.20733805
3	0x3e8ef3b1	0.27920297
4	0x3fc6a540	1.551918
5	0x400bda63	2.1852043
6	0x3f480e66	0.7814697
7	0x3ec8d59c	0.3922547
8	0x4035c251	2.8399851
9	0x3ecb3071	0.39685395
10	0x3ec2bbe0	0.38033962
11	0x3daabbba	0.08336587
12	0x3e708da0	0.23491526
13	0x3ed7bfc1	0.42138484
14	0xbe7ea109	-0.24866118
15	0x3f8e09b9	1.1096717
16	0x4041d454	3.0285845
17	0x401cca39	2.4498427
18	0x3f5299aa	0.8226572
19	0x3e7eed5c	0.24895233
20	0x3e601424	0.21882683
21	0x3e844905	0.2583696
22	0x3f7398f6	0.95155275
23	0x3e3b7c25	0.18309076
24	0x3e49adb7	0.19695173
25	0x403f25ed	2.9866898
26	0x3ef38712	0.47563988
27	0x3f67e208	0.9057927
28	0x40280073	2.6250274
29	0x3febbba8	1.8416643
30	0x3f0dd5e2	0.55404484
31	0x3e884129	0.26612213
32	0xbe2377b5	-0.15963633
33	0x3ea29272	0.31752354
34	0x3deb604b	0.11492976
35	0x3ec70d91	0.38877538
36	0x3e0fdc24	0.1404882
37	0x3f5b6432	0.8569976
38	0x3f06f155	0.52711993
39	0x3f8c1538	1.0943975
40	0x3f251bf6	0.6449579
41	0x3d965a06	0.07341389
42	0x3dddcceb	0.108301006
43	0x3ed72c41	0.4202595
44	0x3efa3184	0.48865902
45	0x3f8ca366	1.0987365
46	0xbf2981e1	-0.66213804
47	0x3dbf8f48	0.093535006
48	0x3f0dbb13	0.5536358
49	0x3e9dfbb1	0.30856088
50	0x3e866f11	0.26256612
51	0x3e089201	0.13336946
52	0x3f2d2d26	0.67647016
53	0x3cb9dc82	0.022688154
54	0x3f97bbf1	1.185423
55	0x3ee80adf	0.45320794
56	0x3fbcc4a3	1.4747509
57	0x3f19b1cb	0.60036916
58	0x3f034147	0.5127148
59	0x3ce6454f	0.02810922
60	0xbca6fd26	-0.020384382
61	0x3f98dd58	1.1942549
62	0x3f4feef3	0.8122398
63	0xbc88b548	-0.016688004
64	0x3fd72d55	1.6810709
65	0xbef08244	-0.46974385
66	0x3ea19f05	0.31566635
67	0x3eb6e636	0.35722512
68	0x3e2dfe85	0.16991623
69	0xbea2584e	-0.31707996
70	0x3e097fee	0.13427708
71	0x3f8f17ff	1.1179198
72	0xbf63c2cd	-0.8896912
73	0x3fe54c61	1.7913934
74	0xbdd70f38	-0.105009496
75	0x3c95a9cc	0.018269442
76	0x3d753e6c	0.059873983
77	0xbf6fe2cd	-0.93705446
78	0x3fcda892	1.6067069
79	0x3f8e2ea2	1.1107981
80	0xbe1f928a	-0.15583244
81	0x3ea5bb65	0.32369533
82	0x3f90f910	1.1326008
83	0x3fe4a8da	1.786403
84	0xbf3a7392	-0.72832596
85	0x3ef0a101	0.46997836
86	0xbe981625	-0.29704395
87	0x3ea45929	0.32099274
88	0x3f4cd8d4	0.80018353
89	0xbf25f89c	-0.6483247
90	0x3de6479a	0.11244126
91	0x3fa366a2	1.2765696
92	0x3ef558ea	0.479194
93	0xbe92f650	-0.28703547
94	0xbf000422	-0.50006306
95	0x3ec14d01	0.37754062
96	0x3f320ff8	0.69555616
97	0x3d3f5666	0.046713255
98	0x3f96efab	1.1791891
99	0x3edae14c	0.42750013
100	0x3e21e7fc	0.15811151
101	0x3f4a3ac6	0.7899593
102	0x3ee52194	0.4475218
103	0x40001cb4	2.001752
104	0x3f4006d1	0.750104
105	0x3f86dc9d	1.0536076
106	0x3f836395	1.0264765
107	0xbdc0f4c7	-0.094216876
108	0xbe546ecc	-0.2074539
109	0x3f1a58d6	0.602918
110	0x3fef1f91	1.8681508
111	0x3f47bee5	0.78025657
112	0x3f18b5d2	0.59652436
113	0x3f1c1dab	0.6098277
114	0x3f3bd8a6	0.73377454
115	0x3fbb6f35	1.4643313
116	0x3f12ce38	0.57345915
117	0x3f158645	0.58408004
118	0x3f10c3ff	0.56549066
119	0xbdd8954b	-0.105753504
120	0x3fbb8d53	1.4652504
121	0x3f2b2fcc	0.6686981
122	0x3bd7d23c	0.006586341
123	0x3ef8682a	0.4851697
124	0x3f32061b	0.69540566
125	0x3f1a0361	0.60161406
126	0x3ecd7abf	0.4013271
127	0x3eeaadff	0.45835873
128	0x3f4b8182	0.7949449
129	0x3f794503	0.9737093
130	0x3f0e0f11	0.5549174
131	0x3f71b601	0.9441834
132	0xbdcda126	-0.10040502
133	0x3fb56ba1	1.4173471
134	0x3f8fa5fc	1.122253
135	0x3fcf475d	1.6193653
136	0x3fb0c492	1.3809988
137	0x3f9db514	1.2320886
138	0x3f733215	0.94998294
139	0xbe2fc5e5	-0.17165335
140	0x3e655289	0.22394766
141	0x3fa23567	1.2672547
142	0x40060ff4	2.0947237
143	0x3f257666	0.64633787
144	0x4007d707	2.1224992
145	0x3f017f68	0.5058503
146	0x40545169	3.317469
147	0x3f123e72	0.57126534
148	0x3ff289e1	1.8948327
149	0x3f7cf177	0.98805946
150	0x3fb16a61	1.3860589
151	0xbd1be8b2	-0.038063712
152	0x3f82f5b7	1.0231236
153	0x40079e67	2.119043
154	0x3f0047f9	0.5010982
155	0x3f0c9f44	0.5493052
156	0xbdca9e4b	-0.09893473
157	0x3f886142	1.0654681
158	0x3fd7048a	1.679826
159	0x3f6a60eb	0.91554135
160	0x3d355853	0.044273686
161	0xbdb86233	-0.09003105
162	0x3edab613	0.42717037
163	0x3eaf6fa8	0.34264874
164	0x3eb443a1	0.35207847
165	0x3fcb2861	1.5871698
166	0x3f87d212	1.0610983
167	0xbea22f58	-0.31676745
168	0x3f9cba85	1.2244421
169	0x3f8b6468	1.0890017
170	0x3efaf7ae	0.4901709
171	0x3e86d8ca	0.26337272
172	0xbdfe3862	-0.12413098
173	0x3f5e54cc	0.8684814
174	0x3f117bfc	0.5682981
175	0x3f862e01	1.0482789
176	0x3f47963e	0.77963626
177	0x3fb5ba63	1.4197506
178	0x3f53b52d	0.8269833
179	0x3ef20ed7	0.47276947
180	0x3d8c70f4	0.068574816
181	0x3e3552a7	0.1770731
182	0x3f9a42d0	1.205164
183	0x3f02e5bc	0.51131797
184	0xbe8687d1	-0.26275495
185	0x3f789a0f	0.97110075
186	0xbd93dd58	-0.07219952
187	0x3f93ad79	1.1537315
188	0x3f639092	0.8889247
189	0x3fe3d569	1.7799503
190	0x3e885b86	0.26632327
191	0x3e5c0c4c	0.21489066
192	0x3f02daf5	0.5111535
193	0x3f136ea4	0.575907
194	0x3e6f4500	0.23366165
195	0x3e54fbfd	0.20799251
196	0x3cbe4675	0.023226956
197	0x3fb28f7b	1.3950037
198	0x3f4774bc	0.779125
199	0x3d5ceac6	0.053934835
200	0x3fe3e719	1.78049
201	0x3e7d49d8	0.247352
202	0xbd84e483	-0.06488898
203	0x3f3e6b18	0.7438216
204	0x3e8e00c8	0.2773497
205	0x3f830eef	1.0238932
206	0x401342db	2.3009555
207	0xbc3fde5e	-0.011710731
208	0x3fd22890	1.6418629
209	0x3f2f3fe8	0.6845689
210	0x3b4fa11d	0.0031681724
211	0x3e28f128	0.16498244
212	0x3f8ec469	1.115369
213	0x3e879966	0.2648422
214	0x3f926102	1.1435854
215	0x3edfe966	0.43732756
216	0x3f4158ee	0.7552632
217	0x4012770a	2.2885156
218	0x3e75309a	0.23944321
219	0xbd012a19	-0.031534288
220	0x3ed35b25	0.41280475
221	0x3fa80b3e	1.3128431
222	0x3f3d692e	0.73988616
223	0x3e4673bb	0.19380085
224	0x3f8e6b4c	1.1126494
225	0x3f8e834e	1.1133821
226	0x3fcfd5cc	1.6237121
227	0x3f83aa9a	1.0286438
228	0x40117d72	2.2732816
229	0x3fa84e9b	1.3148988
230	0x3f6c1745	0.92223006
231	0xbe9e0d91	-0.30869725
232	0x3fbf1720	1.4928932
233	0x3f9eda24	1.2410321
234	0x3fd87074	1.6909318
235	0x3e9dd705	0.3082811
236	0x3e3b3867	0.18283235
237	0x3f3118a8	0.6917825
238	0x3e65c23d	0.22437377
239	0x401c1032	2.4384885
240	0x3fa89a67	1.317212
241	0x3f97d68a	1.1862347
242	0xbf797d79	-0.9745708
243	0x3f54f695	0.83188754
244	0x3ebb1fb7	0.36547634
245	0x3f472010	0.777833
246	0x3f2d3837	0.676639
247	0x3dfca03c	0.1233525
248	0xbd688c0e	-0.05677419
249	0x3faa0e74	1.3285661
250	0x3e67a1ba	0.22620288
251	0x3ff8b245	1.9429404
252	0x3fa96706	1.3234565
253	0x3f98d986	1.1941383
254	0x3f4f4df3	0.80978316
255	0x3f2d155f	0.67610735

tensor_r1 f4 [1, 150, 50]
0	0x3fb2db7b	1.397323
1	0xbf372b7c	-0.71550727
2	0x3f514733	0.81749266
3	0x3ed5ccf7	0.41757938
4	0x3f37cb5d	0.7179468
5	0x3f19cf1b	0.6008164
6	0x3d887d67	0.066645436
7	0xbed98867	-0.4248688
8	0x3f3155fa	0.69271815
9	0xbe3b859b	-0.18312685
10	0x3f461dab	0.7738902
11	0xbc7a7538	-0.015286736
12	0xbeb910dd	-0.36145678
13	0xbe2a349c	-0.16621631
14	0x3e6af74c	0.22945899
15	0x3e33e8ca	0.1756927
16	0x3f28dd1d	0.6596239
17	0x3de183c2	0.11011459
18	0x3d800db7	0.06252616
19	0xbd2d315e	-0.04228341
20	0xbf9e1d84	-1.2352757
21	0xbd7ef548	-0.062245637
22	0x3f32630a	0.6968237
23	0x3fff134a	1.9927762
24	0xbe2497db	-0.16073553
25	0x3f6a2278	0.91458845
26	0x3f82dddf	1.022396
27	0x3ef6f4a7	0.4823353
28	0xbf249655	-0.6429189
29	0xbe057dc9	-0.13036264
30	0xbf200be6	-0.62518156
31	0xbf410a0e	-0.7540597
32	0x3f174491	0.59089
33	0xbf6083ac	-0.87700915
34	0xbf5cf3b6	-0.86309373
35	0x3e723211	0.23651911
36	0xbf58d3f1	-0.84698397
37	0x3f169ad3	0.58829993
38	0x3ed760a6	0.42065924
39	0xbee02bf4	-0.43783534
40	0x3f224633	0.63388366
41	0xbe747f16	-0.23876604
42	0x3f8fa07a	1.1220849
43	0xbf5ebb78	-0.87004805
44	0xbf4dfec6	-0.8046688
45	0xbf49e2b8	-0.7886157
46	0x3d5de867	0.054176714
47	0x3f891d24	1.0712018
48	0xbf37f296	-0.7185453
49	0x3f1abc2d	0.60443383
50	0xbe5f53c8	-0.21809304
51	0x3fb9a6d3	1.4504036
52	0x3e8ee6c5	0.27910438
53	0x3e430fb5	0.1904896
54	0x3e9ae70d	0.30254403
55	0x3f9a752c	1.2067008
56	0x3d8f650a	0.070016935
57	0x3f9fb4fa	1.2477105
58	0x3fba9199	1.4575683
59	0x3f366553	0.7124836
60	0xc0005104	-2.0049448
61	0x3f16341a	0.5867325
62	0x3f4571f9	0.77127033
63	0x3ee4f89a	0.44720918
64	0x3f2190c7	0.6311154
65	0x3f3ed8fe	0.74549854
66	0xbee031f5	-0.43788114
67	0xbeb96cf6	-0.36215943
68	0x3fa0a889	1.2551433
69	0xbefadd58	-0.48996997
70	0xbd57cd47	-0.052686002
71	0x3fbaada0	1.4584236
72	0xbec88662	-0.39165026
73	0xc00a7e05	-2.1639416
74	0x3fee50c7	1.8618401
75	0x3ecef2d3	0.40419635
76	0x3dffe07f	0.12493991
77	0xbee2d8ad	-0.44305936
78	0x3e5d5610	0.21614861
79	0xbfc10f6e	-1.5082834
80	0x3f895943	1.0730366
81	0x3f10c051	0.5654345
82	0xbf25006d	-0.64453775
83	0xbe805d7d	-0.25071326
84	0x40036b25	2.0534146
85	0xbf9de428	-1.2335253
86	0xbfaf312b	-1.368688
87	0xbeeb878d	-0.46001855
88	0xbecdc6e5	-0.40190807
89	0x3e4a7ffe	0.19775388
90	0x3f93dfc2	1.155266
91	0x3d97b340	0.07407236
92	0xbf247dd0	-0.64254475
93	0x3eff033a	0.4980715
94	0x3e1c1759	0.15243281
95	0xbe7bafb1	-0.2457874
96	0x3f1a68df	0.6031627
97	0xbef48209	-0.4775546
98	0xbfec4537	-1.8458623
99	0xbf1437c0	-0.5789757
100	0x3f0dd6d2	0.55405915
101	0x3f31de78	0.69480085
102	0xbf312f9a	-0.6921326
103	0x3fd64a7f	1.6741484
104	0xbfc9143f	-1.5709304
105	0xbeaa3263	-0.33241567
106	0x3fa8c141	1.3183976
107	0x3e4bf785	0.1991864
108	0x3eb71dfe	0.3576507
109	0xbd3948ff	-0.04523563
110	0x3f6037db	0.8758523
111	0xbf928048	-1.1445398
112	0xbf126a52	-0.5719348
113	0x3dcd5a35	0.10026971
114	0xbf280e0f	-0.6564645
115	0xbd9489db	-0.07252856
116	0xbf053161	-0.5202847
117	0xbd916c21	-0.07100702
118	0xbfdda61c	-1.7316318
119	0xbdd4f95b	-0.10399123
120	0x3ec7043f	0.38870427
121	0x3ef63631	0.4808822
122	0x3d8e939e	0.069617495
123	0xbe26641c	-0.16249126
124	0x3f12605c	0.5717828
125	0xbe7eb6e2	-0.24874452
126	0x3c75550f	0.014973893
127	0xbf04fbd6	-0.5194677
128	0x3f58cd5c	0.84688354
129	0xbedfecb4	-0.43735278
130	0xbfc1d730	-1.5143795
131	0x3e5ce86d	0.21573038
132	0xbeed025a	-0.46290857
133	0x40355e5a	2.8338838
134	0xbd8c1cb4	-0.06841412
135	0xbe32bafc	-0.17454141
136	0xbfbdf888	-1.4841471
137	0xbe07f181	-0.1327572
138	0xbf3a4171	-0.72756106
139	0x3e659ba1	0.22422649
140	0xbe84cb32	-0.25936276
141	0x3e8304f3	0.25589713
142	0x3e9ce35f	0.3064222
143	0xbe5e9812	-0.21737698
144	0x3d83d734	0.06437531
145	0xbec509f0	-0.38484144
146	0xbdef4cdd	-0.116845824
147	0x3fabf345	1.3433615
148	0xbfcdb6fa	-1.6071465
149	0x3ef23019	0.4730232
150	0x3cdaaf28	0.02669485
151	0x3fbf27b5	1.4933993
152	0xbe6e5809	-0.2327577
153	0x3ed34fa0	0.41271687
154	0xc03f7c15	-2.9919484
155	0xbe5b6537	-0.21425329
156	0x3d8419c6	0.064502284
157	0x3f8132a5	1.009358
158	0x3b46142d	0.0030224428
159	0xbf6f0c4e	-0.9337815
160	0x3fe0010d	1.7500321
161	0xbf885838	-1.0651922
162	0x3ea85d75	0.32883802
163	0x3e4d27ee	0.20034763
164	0x3f782cab	0.9694316
165	0xbe97b49c	-0.29629982
166	0xbd77333e	-0.060351603
167	0xbd98fc8b	-0.07470044
168	0xbe8fc384	-0.28078854
169	0x3f64cdc4	0.89376473
170	0x3f81464c	1.0099578
171	0x3ec1aacd	0.37825623
172	0xbf8c9cf3	-1.0985397
173	0xbf698dc6	-0.91231954
174	0xbfc247a2	-1.5178111
175	0xbe3529a8	-0.17691672
176	0x3e0aad47	0.13542663
177	0xbf811d7b	-1.0087122
178	0x3fca9130	1.5825558
179	0x3f6db592	0.9285518
180	0x3ffad778	1.9597006
181	0xbe9e0369	-0.30861977
182	0x3f2cbae0	0.6747265
183	0x3ffa222d	1.954168
184	0xbf48c3a9	-0.78423554
185	0xbef55f49	-0.4792426
186	0xbfdf0ae1	-1.7425195
187	0x3f0d73f3	0.5525505
188	0xbdab23b0	-0.08356416
189	0x3f83882e	1.0275934
190	0xbf00814c	-0.5019729
191	0x3d053a6f	0.03252643
192	0xbf005a7e	-0.5013808
193	0x3fcfe4a5	1.6241652
194	0x3f36858f	0.71297544
195	0xbfcce6b7	-1.6007909
196	0xbde2fe43	-0.11083653
197	0xbeb452fc	-0.35219562
198	0xbf667f7c	-0.90038276
199	0x3fa896cc	1.317102
200	0x3fe7e93b	1.8118051
201	0x3f82cf5c	1.0219531
202	0x3f81af93	1.0131706
203	0x3e69cda4	0.22832352
204	0xbfe030d2	-1.7514899
205	0xbf73fa12	-0.9530345
206	0xbf10b7a0	-0.5653019
207	0x3ee230d5	0.4417788
208	0xbfbf9562	-1.4967463
209	0xbf78a307	-0.9712376
210	0x3efedc26	0.49777335
211	0x3fd43cc5	1.6581045
212	0xbf01c145	-0.5068553
213	0x4001ba76	2.0270057
214	0xbf6d6d32	-0.92744744
215	0x3e80fe8f	0.25194213
216	0xbd9cdce1	-0.07659317
217	0xbec0e855	-0.37677255
218	0xbf90e25c	-1.1319079
219	0x3f19c701	0.6006928
220	0x3f871623	1.055363
221	0x3f56f092	0.8396083
222	0xbf389550	-0.7210283
223	0xbf5aac8b	-0.8541953
224	0x3d470d57	0.048596706
225	0x3e89c49e	0.2690782
226	0x3ec3bd0d	0.38230172
227	0x3fb38079	1.4023582
228	0xbfa99456	-1.3248394
229	0x3e84c050	0.25927973
230	0x3e1a9ffe	0.15100095
231	0xbea7880b	-0.3272098
232	0x3f834cc3	1.0257801
233	0x3ef755f7	0.48307773
234	0x3d7163b0	0.05893296
235	0x3e8014a9	0.25015762
236	0xbf1ec954	-0.6202595
237	0x3e690caf	0.22758745
238	0x3ebea2ef	0.37233683
239	0x3c573240	0.013134539
240	0xbf1fd940	-0.6244087
241	0xbf528b5d	-0.822439
242	0xbbcdeade	-0.006284102
243	0xbea2f49b	-0.31827244
244	0x3f5967ce	0.8492402
245	0x3f055f29	0.5209833
246	0xbf229755	-0.63512164
247	0xbd96c625	-0.07362012
248	0x3e49fa11	0.19724299
249	0x3f0f0255	0.55862933
250	0xc012636d	-2.2873185
251	0x3e2fb1ef	0.1715772
252	0xbf14b86c	-0.58093905
253	0x3e44733b	0.19184582
254	0xbf7243d4	-0.9463475
255	0x3e750785	0.2392865
