DeepDoubleX/94X/V01/DDB_mass_independent.onnx (onnx, 169128 bytes, 26 tensors)

ID_pred_3/kernel:0 f4 [100, 2]
0	0x3e3e732d	0.18598624
1	0x3dd1426e	0.102177486
2	0x3de22cd0	0.110437036
3	0x3d830119	0.06396694
4	0x3e28ea53	0.16495638
5	0x3db7a316	0.08966653
6	0x3c47128b	0.012150417
7	0x3d05e2a5	0.03268685
8	0x3c8415ad	0.016123617
9	0xbdbec006	-0.09313969
10	0x3d3a5586	0.045491718
11	0xbc6782cf	-0.014130308
12	0x3e35207a	0.1768817
13	0x3df8cb9d	0.12148211
14	0xbe032608	-0.12807477
15	0x3e22680e	0.15860006
16	0x3dcc293c	0.09968802
17	0x3d4d22aa	0.050081886
18	0xbdb2e71a	-0.087354854
19	0xbe03f5ef	-0.12886785
20	0x3ba008b0	0.004883848
21	0x3d5bbcb2	0.05364675
22	0x3da7244e	0.081612214
23	0x3d04b81b	0.03240214
24	0x3c9be6c3	0.019030934
25	0xbd56e8ac	-0.052467987
26	0xbd6f606c	-0.058441564
27	0x3d2d6997	0.042337026
28	0x3d34852f	0.044072326
29	0xbc2d8313	-0.010590333
30	0xbc9bd627	-0.019023014
31	0xbd8be564	-0.06830862
32	0xbe0b0f11	-0.13579966
33	0xbd4d66c2	-0.050146826
34	0xbd59603d	-0.053070296
35	0x3d9f4b7e	0.07778071
36	0x3e011033	0.12603836
37	0x3d5c523c	0.053789362
38	0xbd8c69d0	-0.0685612
39	0xbdee66f5	-0.11640731
40	0xbdac480e	-0.08412181
41	0xbe1efe81	-0.15526773
42	0x3df6d5d0	0.120525
43	0x3e403398	0.18769681
44	0x3cbc89c0	0.023014903
45	0xbd25a61b	-0.040441614
46	0xbd4d4385	-0.05011322
47	0x3dc3875f	0.09547304
48	0x3d9fd88e	0.078049764
49	0xbb1fd57a	-0.0024388717
50	0x3dea3ed7	0.11437767
51	0x3d691a87	0.056910064
52	0xbc3a5c90	-0.011374608
53	0x3b939ded	0.00450491
54	0x3df858b3	0.12126293
55	0x3d917b6c	0.07103619
56	0x3d0ff52a	0.035145916
57	0xbcffe21d	-0.031235749
58	0x3e313a84	0.17307478
59	0x3de3ea70	0.111287
60	0x3d76eb55	0.060283024
61	0x3c37bf2d	0.011215013
62	0x3c587c49	0.013213226
63	0xbd376d48	-0.044781953
64	0x3dd70acf	0.105001085
65	0x3e1927db	0.1495661
66	0x3d8c814e	0.068606004
67	0x3c378826	0.011201894
68	0xbdc5a4f9	-0.09650607
69	0xba4e2f82	-0.00078653556
70	0xbe396b72	-0.18107393
71	0x3e950ac9	0.2910979
72	0x3d69db14	0.057093695
73	0x3bb7fb48	0.005614672
74	0x3d698172	0.057008214
75	0x3c536a72	0.0129037965
76	0x3ce8a17a	0.02839731
77	0x3db4cd4a	0.08828218
78	0xbdec9426	-0.115516946
79	0xbe322521	-0.17396976
80	0x3d965e24	0.07342175
81	0x3df57da0	0.11986852
82	0x3d058f34	0.032607272
83	0xbcdb5110	-0.026772052
84	0xbcde2353	-0.027116453
85	0x3de64d92	0.11245264
86	0xbe166c11	-0.14689662
87	0xbd807f80	-0.06274319
88	0xbdb6c9b7	-0.08925193
89	0xbd247bb8	-0.04015705
90	0x3e1570dd	0.14593835
91	0x3da83b09	0.08214385
92	0x3bce0923	0.0062877103
93	0x3e25c437	0.16188131
94	0x3da724d8	0.08161324
95	0x3c8ffabb	0.017575612
96	0xbe03480b	-0.12820451
97	0xbda7238d	-0.08161078
98	0xbd3cbb64	-0.046077147
99	0xbe085866	-0.13314971
100	0x3d57a64a	0.05264882
101	0xbd93f49d	-0.07224391
102	0xbd1d1bf3	-0.038356733
103	0x3c13c182	0.009018304
104	0x3b56644a	0.0032713586
105	0xbd564349	-0.052310262
106	0x3d0e81c8	0.034791738
107	0x3dcce284	0.10004142
108	0xbbb8b32d	-0.005636594
109	0x3d239c37	0.0399439
110	0x3e12e496	0.14345011
111	0x3da87425	0.08225278
112	0xbc94dfad	-0.018173063
113	0xbdb17c6d	-0.086663105
114	0x3d6004cb	0.05469207
115	0x3a5f12cc	0.0008509576
116	0x3ddffd4a	0.10936983
117	0x3d0b1e57	0.03396448
118	0xbca9b5e2	-0.020716611
119	0xbd7fbcde	-0.062435977
120	0x3e8260a4	0.25464356
121	0x3b916637	0.004437234
122	0xbd143468	-0.03618279
123	0x3d5aef6a	0.05345098
124	0xbc6aa267	-0.014320946
125	0xbd9a704a	-0.07540949
126	0xbcf3f21a	-0.029778529
127	0x3cfb89da	0.030705381
128	0x3c773a74	0.01508962
129	0xbd811f32	-0.06304778
130	0xbca48269	-0.020081716
131	0xbdc7c356	-0.09754054
132	0xbd8d02bf	-0.068852894
133	0xbde84b5b	-0.11342498
134	0xbc92e38e	-0.017930772
135	0x3c96d32a	0.018411238
136	0xbd9df6ed	-0.07713113
137	0xbe09b50d	-0.13447972
138	0xbbd69994	-0.0065490697
139	0xbd852a20	-0.06502175
140	0xbd8c2be0	-0.06844306
141	0xbcf543bf	-0.02993953
142	0x3d77ee28	0.060529858
143	0xbcd92dce	-0.0265111
144	0x3e421ca3	0.18956237
145	0x3e058c3c	0.13041776
146	0x3c2173dc	0.009854283
147	0x3d953d35	0.07287065
148	0xbd403832	-0.046928592
149	0xbe15d5d6	-0.14632353
150	0x3d7c864c	0.061651513
151	0xbdc4a91a	-0.09602566
152	0xbd960e64	-0.073269635
153	0xbe244226	-0.16040859
154	0x3cef74a5	0.029230425
155	0x3df54545	0.11976103
156	0x3e14a224	0.14514977
157	0x3daa53e6	0.083167836
158	0x3d91451e	0.07093261
159	0x3e06efe2	0.13177446
160	0xbe542735	-0.20718081
161	0x3e8714d4	0.26383078
162	0xbdeabe53	-0.11462083
163	0xbdaa3a2a	-0.08311875
164	0xbd9e6199	-0.07733459
165	0xbd52a22d	-0.051424194
166	0xbd824840	-0.06361437
167	0xbe48a1e2	-0.19593003
168	0x3e15d28d	0.146311
169	0x3d1f7812	0.038932867
170	0xbca57571	-0.020197602
171	0xbdfb1f0c	-0.12261781
172	0x3b3b8d1c	0.0028618043
173	0xbd18d11c	-0.037308797
174	0xbd727d99	-0.05920181
175	0x3d981780	0.07426357
176	0xbd8425eb	-0.06452545
177	0x3cb67af3	0.022275424
178	0xbe2f2c57	-0.17106758
179	0xbdf51723	-0.119673036
180	0xbd0cc72f	-0.034369644
181	0xbd9ea601	-0.077465065
182	0x3da2f788	0.07957369
183	0x3e02b8d1	0.12765814
184	0xbc2f7f10	-0.010711446
185	0xbe2fa9fc	-0.17154688
186	0x3dcc671f	0.09980606
187	0x3e09931b	0.13435023
188	0x3daf38c0	0.08555746
189	0x3e07fa81	0.13279153
190	0x3c169954	0.00919183
191	0x3e358694	0.17727119
192	0x3dae6f23	0.085172914
193	0x3d1b0cff	0.03785419
194	0xbdee8165	-0.11645774
195	0xbda85b29	-0.082205124
196	0xbd729002	-0.059219368
197	0xbab89520	-0.0014082529
198	0x3bd2ff13	0.0064390986
199	0x3d2c319f	0.04203951

ID_pred_3/bias:0 f4 [2]
0	0xbf0fb160	-0.5613003
1	0x3f0faea9	0.56125885

fc1_relu_3/kernel:0 f4 [127, 100]
0	0xbcfcf27c	-0.030877344
1	0xbe94f332	-0.29091793
2	0x3e44a93f	0.19205187
3	0x3e405bb9	0.1878499
4	0xbdc186bd	-0.094495274
5	0xbe566bc6	-0.2093955
6	0xbe9fe0b9	-0.31226137
7	0x3dacf2a1	0.08444715
8	0x3fbc650b	1.4718336
9	0xbb9790b7	-0.0046254057
10	0xbdaf9a8c	-0.08574399
11	0x3e979034	0.29602206
12	0xbe11e82f	-0.14248727
13	0xbeb3c14b	-0.35108408
14	0xbe59b5e4	-0.21260792
15	0xbe324de6	-0.17412528
16	0x3e9fe561	0.3122969
17	0xbedd08c2	-0.43170744
18	0x3e8b955a	0.27262384
19	0x3db54d5e	0.08852647
20	0x3e68681b	0.22695963
21	0xbf1786cc	-0.5919006
22	0xbf272bc3	-0.6530115
23	0xbe172b5d	-0.14762636
24	0xbf88be32	-1.0683043
25	0xbf77aff4	-0.9675286
26	0x3ee82f14	0.45348418
27	0xbdc0000d	-0.0937501
28	0x3e83e9cb	0.25764307
29	0x3cd9cb15	0.026586095
30	0xbf070710	-0.5274515
31	0x3e253a62	0.16135553
32	0xbf238b5e	-0.6388453
33	0xba68f8d7	-0.00088871777
34	0x3de9dac0	0.114186764
35	0xbed7f98c	-0.42182577
36	0xba81e720	-0.00099108
37	0x3da89f48	0.082335055
38	0x3d5f02e4	0.054446116
39	0x3fdb8de0	1.7152672
40	0xbe632d20	-0.22185183
41	0xbe8c1c7e	-0.27365488
42	0x3dff5a7f	0.12468433
43	0xbd23f822	-0.04003156
44	0xbdd7d09f	-0.10537838
45	0xbec99d51	-0.39377835
46	0xbd88aa35	-0.066730894
47	0x3e705b20	0.23472261
48	0x3ba7a7f0	0.0051164553
49	0x3ce60d1f	0.028082429
50	0x3f4363d2	0.7632419
51	0xbeca8262	-0.395526
52	0xbcc34ced	-0.023840392
53	0xbec29084	-0.38000882
54	0x3f0f9bcb	0.56097096
55	0xbf5ad764	-0.8548491
56	0xbe9d581d	-0.30731288
57	0x3d3eb818	0.046562284
58	0xbef30d50	-0.47471094
59	0x3d9ecf83	0.077544235
60	0xbddc81f5	-0.10766975
61	0xbe2493b9	-0.16071977
62	0xbe727ba6	-0.2367998
63	0xbeaa33d4	-0.33242667
64	0x3d5906ce	0.052985005
65	0x3cbeab11	0.02327493
66	0xbea70b87	-0.32625982
67	0x3e2f09b8	0.17093551
68	0xba74ebf2	-0.000934302
69	0x3d317d1e	0.04333221
70	0x3e12fdc6	0.1435462
71	0xbe7642b1	-0.24048878
72	0x3ebc3a59	0.36763266
73	0x3d52b237	0.05143949
74	0x3e72b821	0.23703052
75	0xbd9b03bc	-0.07569072
76	0xbde931f0	-0.11386478
77	0xbd09848b	-0.03357367
78	0xbe513454	-0.20430118
79	0xbe6abd4d	-0.22923775
80	0xbe9ce90b	-0.30646548
81	0xbc4ddc7c	-0.012564775
82	0xbbcebb62	-0.006308959
83	0x3dc47781	0.09593106
84	0x3e43cf16	0.19121966
85	0xbe49a25b	-0.1969084
86	0x3d9460bc	0.07245013
87	0xbf2885e0	-0.6582928
88	0xbdb16dca	-0.08663519
89	0xbe410d20	-0.18852663
90	0x3b402df7	0.0029324272
91	0xbdcfbe95	-0.101437725
92	0x40416cfb	3.0222766
93	0x3e2982fb	0.16553871
94	0xbee1b0d6	-0.44080228
95	0x3c689628	0.014195956
96	0x3e7b6c2c	0.24552983
97	0x3db7d835	0.08976785
98	0xbc941c0b	-0.018079778
99	0x3d9f1b02	0.07768823
100	0x3ef8bcc0	0.48581505
101	0xbdd3d754	-0.10343805
102	0xbd3bad43	-0.045819532
103	0x3e97e54a	0.2966712
104	0x3e2404aa	0.16017404
105	0xbfc4ac26	-1.5365036
106	0x3d99452b	0.07483896
107	0xbd1dcb8d	-0.0385242
108	0xbd97cd3f	-0.074121945
109	0x3f8120c1	1.0088121
110	0x3d6a0efa	0.05714319
111	0x3f1a5d41	0.60298544
112	0x3e3a8708	0.18215573
113	0xbe9e4a1b	-0.30915913
114	0x3eaa5273	0.3326603
115	0x3cfa435d	0.0305497
116	0x3c8a8df2	0.016913388
117	0xbf675f64	-0.9037993
118	0x3f368684	0.71299005
119	0xbec1de63	-0.3786498
120	0xbf667ee3	-0.90037364
121	0xbe0c6072	-0.13708666
122	0xbd4cbfeb	-0.049987715
123	0x3e72dd72	0.23717287
124	0xbef242cd	-0.4731659
125	0x3dff0913	0.12452903
126	0xbf53a4d9	-0.8267341
127	0x3f8e5967	1.1121033
128	0xc0120033	-2.2812622
129	0x3f62beb7	0.8857226
130	0x3e234aa8	0.15946448
131	0x3eec9f3f	0.46215245
132	0x3d634005	0.055480976
133	0x3dc4543f	0.09586381
134	0x3f314f78	0.69261885
135	0x3e2e8c48	0.170457
136	0x3f0a9af7	0.5414271
137	0x3f2c72d8	0.6736274
138	0x3dea1abb	0.1143088
139	0xc00198bf	-2.024948
140	0x3d2f8914	0.042855337
141	0x3e6040b3	0.21899681
142	0x3e12b87b	0.14328186
143	0xbf05efc3	-0.5231897
144	0x3e47138e	0.19441053
145	0x3fab4d1d	1.3382908
146	0x3f6bdc8d	0.9213341
147	0xbde66920	-0.1125052
148	0xbeb5648c	-0.35428274
149	0x3f1b1f03	0.60594195
150	0xbf1594f3	-0.58430403
151	0x3ef0c8e4	0.47028267
152	0x3f47fc40	0.7811928
153	0xbe9856f6	-0.29753846
154	0x3d906a36	0.07051508
155	0x3f14a1e2	0.58059514
156	0x3f50f0a9	0.8161722
157	0xbe91aa88	-0.28450418
158	0x3f033af7	0.5126185
159	0xbf3ad6fc	-0.7298429
160	0x3d9e11cb	0.077182375
161	0x3ec3d2e8	0.38246846
162	0x3e5351f3	0.2063673
163	0xbd5c20d7	-0.053742256
164	0x3d92d04a	0.07168634
165	0x3fcf1624	1.6178632
166	0xbe84d271	-0.25941804
167	0x3e42e578	0.19032848
168	0x3f086b46	0.53288686
169	0x3d2ebcc8	0.042660505
170	0xbd8ef446	-0.06980185
171	0xbf82a95c	-1.0207934
172	0x3f63b21c	0.8894365
173	0xbf093b11	-0.53605753
174	0xbd3889c3	-0.045053255
175	0x3f20e80e	0.6285409
176	0x3f2d441f	0.6768207
177	0xbef7327b	-0.482807
178	0xbebc723b	-0.368059
179	0xbdeccce9	-0.11562521
180	0x3e56d2d1	0.20978858
181	0x3f16efd3	0.5895969
182	0x3f879b59	1.0594283
183	0x3e8ca71c	0.27471244
184	0x3fd21dd5	1.6415354
185	0xc08a378a	-4.3192797
186	0xbe63e463	-0.22255091
187	0x3f8e3671	1.1110364
188	0x3bba80fc	0.0056916457
189	0x3e3fbcb1	0.18724324
190	0x3efe0d9b	0.49619755
191	0x3d49f7d7	0.049308624
192	0xbee8b422	-0.4544993
193	0xbdc37da2	-0.09545447
194	0x3f423d7e	0.7587508
195	0x3f278b0b	0.6544654
196	0xbe0fbe99	-0.14037551
197	0x3d376e8d	0.044783164
198	0xbf64e8cd	-0.89417726
199	0x3d24c047	0.040222432
200	0x3eef676d	0.46758595
201	0x3d0a39a2	0.03374637
202	0xbeb0b2e0	-0.3451147
203	0xbf121289	-0.5705953
204	0x3fe227aa	1.7668355
205	0xbf09d3f5	-0.53839046
206	0x3f3db580	0.7410507
207	0x3f21c512	0.6319133
208	0xbe33d313	-0.17560987
209	0xbe0fe5f6	-0.14052567
210	0xbd2ba1b1	-0.041902248
211	0x3f59f421	0.85138136
212	0x3e0b04ba	0.13576022
213	0xbec4b071	-0.38415864
214	0xbf1d83ca	-0.6152922
215	0x3e1fe5fa	0.15615073
216	0x3f0e614c	0.55617213
217	0x3fcc0a66	1.5940673
218	0x3e8b59d6	0.27216977
219	0x3d9857f4	0.07438651
220	0x3e41d9d6	0.18930754
221	0x3eb35bcc	0.35030973
222	0xbf5551d6	-0.83327997
223	0xbfcc70ae	-1.5971887
224	0x3ee6668e	0.45000118
225	0x3e4f1fdc	0.20226997
226	0x3f76bd33	0.96382445
227	0xbf3ff303	-0.7498018
228	0x3f318d33	0.6935608
229	0xbf4fb2b5	-0.8113206
230	0x3cbfd8a5	0.023418734
231	0x3f58a8ea	0.8463274
232	0x3ca57ce6	0.020201158
233	0xbeaf48c0	-0.3423519
234	0x3f02a151	0.510274
235	0x3fa53ff1	1.2910138
236	0x3e40bf92	0.18823078
237	0xbfb5b692	-1.4196341
238	0x40090565	2.1409543
239	0x3ee08e62	0.4385863
240	0xbf15781e	-0.5838641
241	0xbe74b412	-0.23896816
242	0x3db0175b	0.08598205
243	0x3f2b502c	0.6691921
244	0xbf1b6141	-0.6069527
245	0x3da0effd	0.07858274
246	0x3f439a89	0.76407677
247	0xbf016973	-0.5055153
248	0xbeb7d195	-0.35902086
249	0x3f53d391	0.827447
250	0xbf52c8b2	-0.82337487
251	0x3ed46cbe	0.41489214
252	0xbcc4ba2a	-0.024014551
253	0x3e839378	0.25698447
254	0xbe09e9f7	-0.13468157
255	0x3faffe47	1.3749474

fc1_relu_3/bias:0 f4 [100]
0	0xbff5b32f	-1.9195307
1	0x3d838a09	0.064228125
2	0xbf5d99bc	-0.86562705
3	0xc0348c1a	-2.8210511
4	0xbff9c872	-1.9514296
5	0xbed9b8b1	-0.4252372
6	0xc046fbf8	-3.109129
7	0xbfeef679	-1.8668967
8	0x3f01f591	0.5076533
9	0x3e275731	0.16341855
10	0x3d7a923a	0.06117461
11	0xbf1fd935	-0.62440807
12	0xbecf8dd3	-0.4053789
13	0xbfebcdf7	-1.842223
14	0x3f1c5847	0.610722
15	0xbe35f728	-0.17770064
16	0xc023a64f	-2.5570257
17	0xbf956876	-1.1672504
18	0xbeda7acc	-0.42671812
19	0xbf420233	-0.75784606
20	0xbf31c405	-0.6943973
21	0xbf47db08	-0.7806859
22	0xc00852ef	-2.1300619
23	0xbfe67494	-1.8004327
24	0xbfb2677e	-1.3937833
25	0xc084625f	-4.137008
26	0xbfa31db3	-1.2743438
27	0xbee0fda7	-0.4394352
28	0xbed6d9fd	-0.41963187
29	0x3e8ce350	0.27517176
30	0x3c64b21f	0.013958483
31	0xbfa0dd6d	-1.2567574
32	0xc0245983	-2.5679634
33	0xbedab3f5	-0.4271542
34	0xc027557e	-2.614593
35	0xc048667a	-3.1312547
36	0xbe96be3b	-0.2944201
37	0xc01cd2a7	-2.4503572
38	0xbf154eaa	-0.58323157
39	0xbf0a177a	-0.5394207
40	0xbd88e581	-0.066843994
41	0xbed6d107	-0.4195635
42	0xbf869e21	-1.0517007
43	0xbf87eedb	-1.0619768
44	0xbfd9c17e	-1.7012174
45	0xbf175175	-0.5910867
46	0xc01ed3de	-2.4816813
47	0x3f1f66b2	0.62266076
48	0xbdc2169b	-0.09476968
49	0xbf68f97b	-0.91005677
50	0xbffa51c5	-1.9556204
51	0xbc7e7ed5	-0.015533169
52	0xbcaf98f1	-0.021435233
53	0xbf87a02e	-1.0595758
54	0xbe8061e0	-0.25074673
55	0xc0035b09	-2.0524313
56	0xc02a860f	-2.6644323
57	0xbf11d8a9	-0.5697122
58	0xbfc5faa4	-1.5467114
59	0xbe1ff193	-0.15619497
60	0xc0a5b9fb	-5.1789527
61	0xbfbab0a0	-1.4585152
62	0x3f032f57	0.5124411
63	0xbe682fa4	-0.22674423
64	0xbf8fa0f6	-1.1220996
65	0xbf824f3c	-1.018043
66	0xbe3524ce	-0.17689821
67	0x3deb2897	0.11482351
68	0x3e8814c0	0.2657833
69	0xbfbb7388	-1.4644632
70	0xbd86bc6e	-0.06578909
71	0xbfadbaa9	-1.3572589
72	0xbe04e02e	-0.12976143
73	0xc025b356	-2.5890708
74	0xbfa69979	-1.3015586
75	0xc02efb76	-2.734098
76	0xbfd865f6	-1.6906116
77	0xbfd818bc	-1.6882548
78	0xbed64a5d	-0.4185361
79	0xbec7574a	-0.38933784
80	0xc097c2d5	-4.742533
81	0xbdfd1171	-0.12356842
82	0x3e324b5d	0.17411561
83	0xc00a9304	-2.1652231
84	0xc039a7d8	-2.9008694
85	0xc01423ba	-2.3146806
86	0x3df059c0	0.117358685
87	0xc01239be	-2.2847743
88	0xbf994216	-1.1973293
89	0xbf76d72c	-0.96422076
90	0xbe76f247	-0.24115859
91	0xbed897d4	-0.42303336
92	0xbff5a941	-1.9192277
93	0xbf4d2d0c	-0.8014686
94	0xbf252f7f	-0.645256
95	0xbffe1383	-1.9849705
96	0x3ec4db17	0.38448402
97	0x3e74100e	0.2383425
98	0xbf478911	-0.7794352
99	0xbe57d009	-0.21075453

scale f4 [27]
0	0x3e47e9ff	0.19522856
1	0x3f55eb30	0.8356199
2	0x3f084ab5	0.53238994
3	0x3edc4f04	0.43029034
4	0x3ed1f3b2	0.41006237
5	0x3f0f1633	0.5589325
6	0x3ef28ad9	0.47371557
7	0x3ec886ca	0.39165336
8	0x3cd92876	0.026508551
9	0x3c87eaed	0.016591514
10	0x4001d17b	2.0284107
11	0x3f548658	0.8301749
12	0x3f778036	0.9668001
13	0x3e484046	0.19555768
14	0x3e20d7f5	0.15707381
15	0x3e581b31	0.21104123
16	0x3e9a7c56	0.30172986
17	0x3e093e73	0.13402729
18	0x3c40cb34	0.011767197
19	0x3ca49f54	0.020095505
20	0x3d8b0e0a	0.06789787
21	0x3dc2912a	0.09500344
22	0x3c4a7bca	0.012358615
23	0x3d9c46ed	0.076307155
24	0x3e1f09aa	0.1553103
25	0x3dcde0ab	0.10052618
26	0x3dbcea1a	0.09224339

bias f4 [27]
0	0xc051f395	-3.280492
1	0xbf86a654	-1.0519509
2	0xbf5cbe0f	-0.86227506
3	0xbf7dfbb4	-0.99212193
4	0xbf147e26	-0.5800499
5	0x3db98940	0.090593815
6	0xbdccaf83	-0.09994414
7	0x3cb54930	0.022129625
8	0xbe501598	-0.20320737
9	0xbd81e5c6	-0.06342654
10	0x3edf5bf7	0.4362485
11	0xbd488b02	-0.048960693
12	0x3f104441	0.5635415
13	0xbec7ad4c	-0.38999403
14	0xba8b83c0	-0.0010644123
15	0xbf33af27	-0.70189136
16	0xbf25d06c	-0.6477115
17	0xbf24e97c	-0.6441877
18	0xbe13227c	-0.14368623
19	0xbe338800	-0.17532349
20	0xbd9c24af	-0.07624184
21	0xbf01b825	-0.5067161
22	0xbe1a6f81	-0.15081598
23	0xbe673681	-0.22579385
24	0xbec754ec	-0.38931978
25	0xbdecf8f2	-0.1157092
26	0xbe7a52c2	-0.24445632

mean f4 [27]
0	0x00000000	0.0
1	0x00000000	0.0
2	0x00000000	0.0
3	0x00000000	0.0
4	0x00000000	0.0
5	0x80000000	-0.0
6	0x00000000	0.0
7	0x80000000	-0.0
8	0x00000000	0.0
9	0x00000000	0.0
10	0x80000000	-0.0
11	0x00000000	0.0
12	0x80000000	-0.0
13	0x00000000	0.0
14	0x00000000	0.0
15	0x00000000	0.0
16	0x00000000	0.0
17	0x00000000	0.0
18	0x00000000	0.0
19	0x00000000	0.0
20	0x00000000	0.0
21	0x00000000	0.0
22	0x00000000	0.0
23	0x00000000	0.0
24	0x00000000	0.0
25	0x00000000	0.0
26	0x00000000	0.0

var f4 [27]
0	0x3f800000	1.0
1	0x3f800000	1.0
2	0x3f800000	1.0
3	0x3f800000	1.0
4	0x3f800000	1.0
5	0x3f800000	1.0
6	0x3f800000	1.0
7	0x3f800000	1.0
8	0x3f800000	1.0
9	0x3f800000	1.0
10	0x3f800000	1.0
11	0x3f800000	1.0
12	0x3f800000	1.0
13	0x3f800000	1.0
14	0x3f800000	1.0
15	0x3f800000	1.0
16	0x3f800000	1.0
17	0x3f800000	1.0
18	0x3f800000	1.0
19	0x3f800000	1.0
20	0x3f800000	1.0
21	0x3f800000	1.0
22	0x3f800000	1.0
23	0x3f800000	1.0
24	0x3f800000	1.0
25	0x3f800000	1.0
26	0x3f800000	1.0

tensor_w f4 [1, 150, 32]
0	0x3db98eeb	0.090604626
1	0x3f03f360	0.51543236
2	0xbe02f348	-0.12788117
3	0x3ee2ad59	0.4427288
4	0x3c385991	0.011251823
5	0x3ef68804	0.48150647
6	0xbd250357	-0.04028639
7	0x3f147d54	0.58003736
8	0x3eb7cf3c	0.35900295
9	0x3d27b658	0.04094538
10	0x3fa8775f	1.3161429
11	0x3ecc2e98	0.39879298
12	0xbe1d4793	-0.15359335
13	0x3f2ee93a	0.68324625
14	0x3f601f31	0.87547594
15	0x3f359e5c	0.7094476
16	0x3eca1d70	0.39475584
17	0x3f30b2fb	0.690231
18	0x3f74b4a8	0.9558816
19	0x3f0e61d0	0.55618
20	0x3eb02d15	0.34409395
21	0x3f62c813	0.8858654
22	0xbf64d152	-0.893819
23	0x3f202e09	0.62570244
24	0x3ec6f552	0.3885904
25	0x3eb84b13	0.35994777
26	0x3f308dae	0.68966186
27	0xbcb574ee	-0.022150483
28	0x3f4df03c	0.80444694
29	0x3eeb67ce	0.45977634
30	0x3f553695	0.8328641
31	0x3da31952	0.07963814
32	0x3fc3dc74	1.5301652
33	0x3f273474	0.6531441
34	0xbd35445f	-0.044254657
35	0x400e6e2b	2.225474
36	0x3e9a0894	0.3008467
37	0xbf097097	-0.53687423
38	0x3f1e75f0	0.6189871
39	0xbf192f1b	-0.598375
40	0xbe7f1d8d	-0.24913616
41	0xbe117aff	-0.14207076
42	0x3f0233e1	0.5086041
43	0xbe361a52	-0.17783478
44	0xbf49e3e4	-0.7886336
45	0x3e3c79c3	0.18405823
46	0x3e11bd68	0.14232409
47	0xbda109a0	-0.07863164
48	0x3eda4e27	0.4263775
49	0x3e19e878	0.15030086
50	0xbd222ae1	-0.039591674
51	0xbf15a37d	-0.5845259
52	0x3f84750c	1.034822
53	0x3e8becd4	0.27329123
54	0x3eac6d1d	0.33676997
55	0x3f07485b	0.5284478
56	0x3e310e67	0.1729065
57	0x3f722c93	0.94599265
58	0x3e350cba	0.17680636
59	0xbd9a109c	-0.07522699
60	0x3fa4349b	1.2828554
61	0x3f4349e3	0.7628462
62	0x3fc96fde	1.5737264
63	0x3d30ada7	0.043134358
64	0x3fff1e51	1.9931127
65	0x3e2e80b5	0.17041285
66	0x3f06c370	0.52641964
67	0x403490e5	2.8213437
68	0x3f17ee16	0.59347665
69	0x3f96490f	1.1741046
70	0x3df2e0b5	0.11859266
71	0x3f097ee5	0.5370925
72	0x3fa3cc90	1.2796803
73	0x3f223529	0.63362366
74	0x3e3ff8d9	0.18747272
75	0x3fb0290f	1.376253
76	0xbf8f2707	-1.1183785
77	0x3e5e525f	0.2171111
78	0x3f7bfb0b	0.98429936
79	0xbe1e0936	-0.15433201
80	0x3ee216e3	0.44158086
81	0xbdb1b808	-0.08677679
82	0x3f08736a	0.5330111
83	0x3f68770b	0.90806645
84	0x3ce38ee3	0.027778095
85	0xbe90ac80	-0.28256607
86	0x3e8cb62d	0.2748274
87	0x3ea464e2	0.32108217
88	0x3e8d1867	0.2755768
89	0xbd6089f9	-0.05481908
90	0x3f71dec8	0.9448056
91	0x3eeb61d5	0.45973077
92	0x3d1ac97d	0.03778981
93	0x3d829ac8	0.063771784
94	0x3da3948f	0.0798732
95	0x3cf1ad32	0.029501531
96	0x3de0356e	0.10947691
97	0x3e875cbe	0.26437944
98	0xbd8bb752	-0.06822075
99	0x3f1a6a49	0.6031843
100	0x3e5e39ce	0.21701738
101	0x3d09f7ac	0.033683464
102	0x3f1dad60	0.61592674
103	0xbe12554c	-0.1429035
104	0xbde825e9	-0.11335356
105	0x3f0309a9	0.51186615
106	0x3de86f52	0.11349358
107	0xbd332ee8	-0.043745905
108	0xbf0954d6	-0.53645074
109	0xbca5f2f2	-0.020257447
110	0x3e9bbe12	0.3041845
111	0x3ffae035	1.9599673
112	0x3e8c1f95	0.27367845
113	0xbd0affb9	-0.033935282
114	0xbc7f7324	-0.0155914165
115	0xbe85f6d8	-0.2616489
116	0x40183876	2.378446
117	0x3e7ac35e	0.24488589
118	0x3cfc1b06	0.030774605
119	0x3e29b430	0.16572642
120	0x3e755f8e	0.23962232
121	0xbef1b11b	-0.47205433
122	0x3df853e9	0.121253796
123	0x3e0078e4	0.12546116
124	0x3fad1b39	1.3523933
125	0x3dbe3870	0.09288108
126	0x3e7505a9	0.2392794
127	0x3e3aa17d	0.18225665
128	0x3ff6af11	1.9272176
129	0x3edd307f	0.43201062
130	0x3e406768	0.18789446
131	0x404443ff	3.0666502
132	0x3f8c95d5	1.0983225
133	0x3e8d8d3c	0.27646816
134	0x3d93485b	0.07191535
135	0x3e85fa6b	0.26167616
136	0x3e8a2d3b	0.26987633
137	0x406b0eaa	3.67277
138	0xbde37714	-0.11106697
139	0xbdb55288	-0.08853632
140	0xbf2e577a	-0.6810223
141	0xbe6cb374	-0.23115331
142	0xbdba3a3a	-0.09093137
143	0x3f2eca0e	0.6827706
144	0x4014b369	2.3234503
145	0xbe6b579b	-0.22982638
146	0x3d84f142	0.06491329
147	0xbf7492c6	-0.9553646
148	0x3f1e53ec	0.61846805
149	0x3eb3e2e0	0.3513403
150	0xbec9b3db	-0.3939503
151	0x3ff673b2	1.9254057
152	0x40a6f504	5.217409
153	0x3ff2258f	1.8917712
154	0x3dc0bccf	0.094110124
155	0x3fc7fceb	1.562406
156	0x3f7a6b54	0.9782002
157	0xbe569826	-0.20956478
158	0x3e844859	0.25836447
159	0x3ed8e685	0.42363372
160	0xbbdbee16	-0.0067117317
161	0xbebf0142	-0.37305647
162	0x3d8f1c7d	0.069878556
163	0xbe6cef5c	-0.23138183
164	0xbe46d8fb	-0.19418709
165	0x3deae94c	0.11470279
166	0xbc6c6ea6	-0.0144306775
167	0xbd5d8409	-0.054080997
168	0x3ebf2907	0.3733599
169	0x3f9aae2e	1.2084405
170	0xba44db9d	-0.00075095316
171	0xba0d8877	-0.0005399058
172	0x3f157c55	0.5839284
173	0x3d440938	0.047860354
174	0x3e3202ab	0.1738383
175	0x3e029678	0.12752712
176	0x3e1cfe86	0.15331468
177	0xbbf8ae5b	-0.007589144
178	0xbc70b2ab	-0.014691035
179	0xbea6e933	-0.32599792
180	0xbcc157f9	-0.023601519
181	0x3db7be7a	0.089718774
182	0xbc7d7ff8	-0.015472405
183	0x3f25ba84	0.64737725
184	0xbc69423c	-0.014236983
185	0x3eadbc83	0.33932886
186	0xbdb42ea6	-0.0879796
187	0x3d7ad4bd	0.06123804
188	0x3c942fc3	0.01808918
189	0x3cda2f16	0.02663378
190	0xbc57483d	-0.013139782
191	0xbe0b0d7b	-0.13579361
192	0xbf328205	-0.69729644
193	0xbe9daba4	-0.30795014
194	0xbe5a917a	-0.21344557
195	0x3e5a4c1a	0.21318093
196	0x3c8d2455	0.017229239
197	0xbdc4c172	-0.09607209
198	0x3f2b4c64	0.6691344
199	0xbe97d7df	-0.29656884
200	0xbf19b533	-0.60042113
201	0x3fc48810	1.5354023
202	0x3e7aa0a3	0.2447534
203	0xbd5c835d	-0.053836215
204	0xbfbdb3ae	-1.4820459
205	0x3c8268a2	0.015919033
206	0xbd74ca36	-0.059763156
207	0x3fcad300	1.5845642
208	0x3be6f4f5	0.007048244
209	0x3c3db865	0.011579608
210	0xbe7b486f	-0.2453935
211	0xbd4d6da3	-0.050153386
212	0x3fa82f1a	1.3139374
213	0xbe81411e	-0.25244993
214	0xbf2cf878	-0.67566633
215	0x3f4d85be	0.802822
216	0x3d3c2b1a	0.045939542
217	0xbeaca56f	-0.33719966
218	0x3e5e4ce7	0.21709023
219	0x3e27a172	0.1637018
220	0xbee4af85	-0.4466516
221	0x3ce301c9	0.027710812
222	0x3d062e9d	0.032759298
223	0x3da7e4a3	0.08197906
224	0xbea305ce	-0.31840366
225	0xbe6669ab	-0.22501247
226	0x3d7db755	0.061942417
227	0x3de07a9e	0.10960887
228	0x3ee344c7	0.4438841
229	0x3e80ea2b	0.25178656
230	0x3e26427b	0.16236298
231	0x3ec9a13e	0.3938083
232	0x3e74abb4	0.23893625
233	0x3f41a0d9	0.7563606
234	0x3ed8fa52	0.4237848
235	0x3df8af8f	0.1214286
236	0xbfa86fad	-1.3159081
237	0x3f8f0373	1.1172928
238	0x3e30f6ee	0.17281696
239	0x3f1b0e47	0.6056866
240	0xbe1de249	-0.15418352
241	0x3eb0fe67	0.34569094
242	0x3cdcc40a	0.026948947
243	0xbe715c99	-0.2357048
244	0x3f07cd98	0.53048086
245	0xbebf3e29	-0.37352112
246	0x3d9550ca	0.072908
247	0x3f096b82	0.5367967
248	0x3ea4b335	0.32167974
249	0x3f5b712c	0.8571956
250	0x3d94ee69	0.07272036
251	0x3f992408	1.1964121
252	0x3ee6ca6b	0.45076308
253	0x3e3d53e5	0.18489034
254	0x3e47b0af	0.19500993
255	0x3e11bc91	0.14232089

tensor_r f4 [1, 150, 50]
0	0xbf9dfaa9	-1.234212
1	0xbef7c00b	-0.48388705
2	0xbd80b4a8	-0.062844574
3	0xbd5811a5	-0.052751202
4	0x3e5f084d	0.2178051
5	0xbf35e576	-0.71053255
6	0xbef56abe	-0.47933
7	0x3e3a7812	0.18209866
8	0xbc854993	-0.016270434
9	0x3ecc6791	0.39922765
10	0x3e580a0e	0.21097586
11	0xbe901d6a	-0.2814744
12	0xbdcb32f0	-0.09921825
13	0x3ec80664	0.39067376
14	0x3e109df0	0.14122748
15	0xbd92a9d0	-0.071612954
16	0xbe66174a	-0.22469822
17	0xbe89edf0	-0.26939344
18	0xbf06d71a	-0.5267197
19	0x3f041322	0.51591694
20	0x3e68854b	0.22707097
21	0x3e1a2a1c	0.15055126
22	0xbe028e26	-0.12749538
23	0x3e10dec7	0.14147483
24	0x3e6777be	0.22604272
25	0x3ba55147	0.0050450894
26	0x3f086b79	0.5328899
27	0x3f117819	0.5682388
28	0xbe04aa7f	-0.12955664
29	0xbe100cad	-0.14067335
30	0xbeb1aeca	-0.34703666
31	0x3ee83d4d	0.4535927
32	0xbf4c5035	-0.79809886
33	0xbeeb12da	-0.4591282
34	0x3c4acd9d	0.012378124
35	0xbe6ac7d4	-0.22927791
36	0xbeb7efdb	-0.35925183
37	0xbeb8356f	-0.35978267
38	0x3dcd4145	0.10022215
39	0xbbfd5de4	-0.00773214
40	0xbf061b9d	-0.52385885
41	0x3e2d2650	0.16909146
42	0x3ed5f492	0.41788155
43	0xbd86c0c4	-0.06579736
44	0xbf1e3030	-0.6179228
45	0x3edf087e	0.43561167
46	0x3f14703e	0.5798377
47	0x3f1c292d	0.6100033
48	0xbe8b05a6	-0.27152747
49	0xbe05f891	-0.13083102
50	0xbe9927b1	-0.29913095
51	0x3f7c388c	0.98523784
52	0xbab15f4f	-0.0013532432
53	0x3ec8585f	0.39129922
54	0xbe0a4734	-0.13503724
55	0xbe1e6e89	-0.15471853
56	0x3d37febf	0.04492068
57	0x3e6d703a	0.23187342
58	0x3d9bf736	0.07615511
59	0xbed82a35	-0.422197
60	0xbe7a6207	-0.24451457
61	0xbe00bec9	-0.12572779
62	0x3db84b4b	0.08998736
63	0xbeff32eb	-0.49843535
64	0xbe0f79dd	-0.14011331
65	0x3f0013ad	0.5003002
66	0xbe93d847	-0.28875944
67	0x3e83e647	0.25761625
68	0x3f5fc97e	0.8741683
69	0x3e9063aa	0.28201038
70	0x3e3001ec	0.17188233
71	0x3d9dfca1	0.07714201
72	0x3eabe810	0.33575487
73	0x3d18f65f	0.037344333
74	0xbe30af39	-0.17254342
75	0xbe585668	-0.21126711
76	0x3f22f7aa	0.63659155
77	0xbecb904c	-0.39758527
78	0xbfb4132b	-1.406835
79	0xbe04ba7a	-0.1296176
80	0xb9af6fbb	-0.00033461847
81	0x3de27bf6	0.110588
82	0xbea7e682	-0.3279305
83	0xbf3f01a1	-0.7461186
84	0xbe4b4179	-0.19849195
85	0xbdfb56bd	-0.122724034
86	0x3f168f4d	0.5881241
87	0x3e4654ee	0.19368336
88	0xbede446c	-0.43411577
89	0x3f237608	0.63851976
90	0xbf30025d	-0.68753606
91	0xbefcb223	-0.49354658
92	0xbb389075	-0.0028162275
93	0xbe8268c9	-0.2547057
94	0x3e610ed6	0.21978316
95	0x3e7de727	0.24795209
96	0xbe338d3e	-0.17534348
97	0xbca318fc	-0.019909374
98	0xbea6bd42	-0.32566267
99	0xbe809649	-0.25114658
100	0x3edd4df3	0.43223533
101	0xbea39c56	-0.31955212
102	0xbe039f2f	-0.12853692
103	0xbf073600	-0.5281677
104	0xbdbe408f	-0.09289657
105	0x3e8adb4e	0.2712044
106	0xbd5e1fc1	-0.0542295
107	0xbe1a645d	-0.15077348
108	0x3eac0f03	0.33605203
109	0xbf425727	-0.75914234
110	0xbecf4928	-0.404855
111	0xbdc0465c	-0.0938842
112	0x3ed224a6	0.41043586
113	0x3e1686a1	0.14699794
114	0x3eae291d	0.34015742
115	0x3ed80ceb	0.42197356
116	0x3ddc5819	0.10758991
117	0x3ee42c12	0.44564873
118	0x3ee27bce	0.4423508
119	0xbe08205a	-0.13293591
120	0xbeeb623e	-0.4597339
121	0xbe0b32d2	-0.13593605
122	0xbb101f6a	-0.002199138
123	0x3e6f01c2	0.23340514
124	0xbe85f9f2	-0.26167256
125	0xbe9ac556	-0.3022868
126	0x3e931ffb	0.28735337
127	0xbe916200	-0.2839508
128	0xbe073caf	-0.13206743
129	0x3ec4de35	0.3845078
130	0xbe528e7c	-0.20562166
131	0x3cc424f5	0.023943404
132	0x3e70b9b4	0.2350834
133	0x3da98280	0.08276844
134	0xbd04f20e	-0.032457404
135	0xbe9fa04d	-0.31176987
136	0x3e622427	0.22084104
137	0xbd602152	-0.054719277
138	0x3eb7ee12	0.3592382
139	0x3f0511ef	0.5198049
140	0x3ed42fa9	0.41442612
141	0xbdebb5b8	-0.115092695
142	0x3df96db7	0.121791296
143	0x3dbc966d	0.09208379
144	0xbddd655e	-0.1081035
145	0x3d73ee65	0.059553523
146	0x3f1c1730	0.6097288
147	0xbe9040c6	-0.28174418
148	0xbf4327b9	-0.76232487
149	0x3d12dec0	0.035856962
150	0xbf48b9df	-0.78408617
151	0xbdb870b7	-0.09005874
152	0xbe0b8009	-0.1362306
153	0xbdedcf73	-0.116118334
154	0x3e0b79cc	0.1362068
155	0xbec126d5	-0.3772494
156	0x3d326d36	0.043561183
157	0x3efcadaf	0.4935126
158	0xbeeac3da	-0.45852548
159	0xbef46ad4	-0.47737753
160	0x3ed76ce9	0.4207528
161	0xbf43670b	-0.76329106
162	0x3f1bc835	0.60852367
163	0xbf3c52b5	-0.735637
164	0xbfa358eb	-1.2761511
165	0x3c3f55b9	0.011678153
166	0xbf83d008	-1.0297861
167	0x3eb4e8ad	0.35333768
168	0x3dc2a975	0.095049776
169	0x3e48df5e	0.19616458
170	0xbfaf8293	-1.3711723
171	0x3d616e66	0.055036925
172	0xbe7bc8b7	-0.24588285
173	0x3e94678e	0.28985256
174	0xbf2c9ec0	-0.67429733
175	0xbe54e81a	-0.20791665
176	0x3f704ac7	0.938641
177	0xbf3a84f6	-0.7285913
178	0xbf7cfeec	-0.9882648
179	0xbf735473	-0.95050734
180	0xbea50851	-0.32232907
181	0x3e685ae5	0.22690924
182	0xbd609aa5	-0.05483498
183	0x3d4fe039	0.050750945
184	0x3e0677dc	0.1313166
185	0xbf5b7733	-0.8572876
186	0xbe897af2	-0.26851612
187	0xbe8b9d0b	-0.27268252
188	0xbcf1a434	-0.029497243
189	0xbb27cd6c	-0.0025604619
190	0xbe0e74ad	-0.13911696
191	0x3ef44b75	0.4771382
192	0xbe4c4c6d	-0.19951029
193	0xbf192949	-0.5982862
194	0x3e39d5d5	0.18147977
195	0x3e15b573	0.14619999
196	0x3ec1f44d	0.378817
197	0x3eb364d1	0.35037854
198	0x3eec2cb2	0.4612785
199	0xbf2aca3f	-0.66714853
200	0x3b3e45ff	0.002903342
201	0xbe169828	-0.1470648
202	0xbf3152db	-0.6926705
203	0x3e8cbef4	0.27489436
204	0xbeae4c2b	-0.34042487
205	0xbea15b43	-0.3151494
206	0xbd1d2c68	-0.038372427
207	0x3d7763c9	0.060397897
208	0x3d0cbfa4	0.03436245
209	0xbcf41987	-0.029797329
210	0x3d40eef5	0.047102887
211	0xbe7fe2b3	-0.24988823
212	0xbd4db3ff	-0.050220486
213	0xbd26dbe4	-0.040737048
214	0x3da117f4	0.07865897
215	0x3f35ad60	0.70967674
216	0x3e4fc043	0.20288186
217	0xbec3b549	-0.38224247
218	0x3e7ac38d	0.24488659
219	0xbe9e5857	-0.30926773
220	0x3e2eba4f	0.17063259
221	0x3e3949e6	0.18094596
222	0xbdedda1f	-0.11613869
223	0xbcf68344	-0.03009189
224	0xbe127278	-0.14301479
225	0xbf8f04ad	-1.1173302
226	0x3bcaeb29	0.006192584
227	0x3e32bb94	0.17454368
228	0x3e874ca7	0.2642567
229	0x3f06fa15	0.52725345
230	0xbed48b9e	-0.4151277
231	0xbd0e1ea3	-0.034697186
232	0x3e8f6ca1	0.28012565
233	0x3e713e2c	0.23558873
234	0xbe03ca7d	-0.12870212
235	0xbd9d75a8	-0.07688457
236	0x3ed93908	0.42426324
237	0x3d9d5bb3	0.07683506
238	0xbe4e5e30	-0.20153117
239	0xbeb34d4a	-0.35019904
240	0x3e86c1dc	0.26319778
241	0xbe2fe710	-0.17177987
242	0xbe17dc64	-0.14830166
243	0x3f7c1443	0.98468417
244	0xbce52ded	-0.027976
245	0x3d6f1cfb	0.058377247
246	0x3f49e4c1	0.78864676
247	0xbca9516d	-0.02066871
248	0x3cc14d45	0.023596415
249	0x3c8f65ef	0.01750466
250	0x3da6ed4e	0.08150731
251	0xbee90430	-0.45511007
252	0x3e3a3606	0.18184671
253	0xbead2b92	-0.33822304
254	0x3e6f5b18	0.23374593
255	0xbf1f1959	-0.6214805

tensor_b f4 [1, 300]
0	0x3f4d513f	0.80202097
1	0x3ea8f898	0.33002162
2	0x3f221c99	0.63324887
3	0x3ef721a1	0.48267844
4	0x3f037606	0.51351964
5	0x3e89eeb3	0.26939926
6	0x3edb28bc	0.42804515
7	0x3f0e8ea6	0.55686414
8	0x3ee5ef5a	0.44909173
9	0x3f4dedc9	0.80440956
10	0x3f07a79f	0.52990144
11	0xbe8a34e9	-0.26993492
12	0x3f4801e0	0.7812786
13	0x3e7ef068	0.24896395
14	0x3f61e7dd	0.8824442
15	0x3f835eec	1.0263343
16	0xbd69dc5f	-0.057094928
17	0x3f238657	0.6387686
18	0x3f1690c5	0.5881465
19	0x3f15d228	0.585238
20	0x3fad316a	1.3530705
21	0x3f1e1f58	0.61766577
22	0x3ebac182	0.3647576
23	0x3edda946	0.43293208
24	0x3f391131	0.72291857
25	0x3f25d800	0.64782715
26	0x3dc56211	0.09637845
27	0x3ed79350	0.42104578
28	0x3f85653b	1.0421518
29	0x3f12e7b3	0.57384795
30	0x3f1fa044	0.6235392
31	0x3f925f71	1.1435376
32	0x3f48b57c	0.78401923
33	0x3f1a96eb	0.6038653
34	0x3f4aa8e9	0.79163986
35	0x3f010890	0.5040369
36	0x3f8ef9da	1.1169999
37	0x3f52ef4f	0.82396406
38	0x3f5537ec	0.83288455
39	0x3ee6567c	0.44987857
40	0x3ee7623d	0.45192137
41	0x3f8da3dc	1.1065631
42	0x3f3a9b0b	0.72892827
43	0x3f1d75b6	0.6150774
44	0x3f749cd6	0.9555181
45	0x3f23714d	0.6384476
46	0x3ed92752	0.42412812
47	0xbe423e45	-0.18969066
48	0x3ed04f89	0.4068568
49	0x3e92a74b	0.2864326
50	0xbeebe725	-0.46074787
51	0xbf7efb37	-0.99602073
52	0xbf21e4e3	-0.6323988
53	0xbfa9bfc3	-1.3261646
54	0xbf5f84b2	-0.8731185
55	0xbff688c0	-1.9260483
56	0xbf221537	-0.6331362
57	0xbf47fa3c	-0.781162
58	0xbf83c529	-1.0294544
59	0xbe828935	-0.25495306
60	0xbf814dab	-1.0101827
61	0xbfa46801	-1.284424
62	0xbfd9ec40	-1.7025223
63	0xbfa51434	-1.289679
64	0xbf2f094b	-0.68373555
65	0xbbcaf3b8	-0.0061936043
66	0xbffe46da	-1.9865372
67	0xbf09ff88	-0.53905535
68	0xbea06118	-0.31324077
69	0xbf4bbd67	-0.7958588
70	0xbf6c1e52	-0.92233765
71	0xbf159f3a	-0.58446085
72	0xbf8f9720	-1.1217995
73	0xbf701ede	-0.937971
74	0xbf53c157	-0.8271689
75	0xbf9199df	-1.1375083
76	0xbf777c10	-0.9667368
77	0xbf68ebe7	-0.9098496
78	0xbf48064c	-0.7813461
79	0xbf12e1eb	-0.57375973
80	0xbf974d40	-1.182045
81	0xbffc619d	-1.9717289
82	0xbf758702	-0.9590913
83	0xbe5fb63e	-0.21846864
84	0xbf81603c	-1.0107493
85	0xbef94796	-0.48687428
86	0xbfb42fc0	-1.4077072
87	0xbeded236	-0.43519753
88	0xbf86df38	-1.0536871
89	0xbf68869d	-0.90830404
90	0xbf4aba7d	-0.7919081
91	0xbf6d7a52	-0.9276477
92	0xbf7690c6	-0.96314657
93	0xbf468793	-0.7755062
94	0xbf7848c8	-0.96986055
95	0xbe070d19	-0.1318859
96	0xbfa64812	-1.2990744
97	0xbf6dc146	-0.92873037
98	0xbf491a44	-0.78555703
99	0xbf55332a	-0.83281195
100	0xbdfcc0ab	-0.12341436
101	0xbe7c13de	-0.24616954
102	0xbe084d97	-0.13310848
103	0xbdc784fb	-0.09742161
104	0x3f427c87	0.75971264
105	0x3e2679dd	0.16257425
106	0xbda10f80	-0.078642845
107	0x3e718291	0.23584963
108	0xbd3511bb	-0.044206362
109	0x3e6439c5	0.22287662
110	0x3eb87391	0.3602567
111	0xbea6ac1c	-0.32553184
112	0x3f1274e1	0.57209593
113	0x3d23e53f	0.040013548
114	0x3ee53048	0.44763398
115	0x3f2f6748	0.6851697
116	0x3e78b134	0.24286348
117	0xbe21c4ff	-0.15797804
118	0xbe1b04dc	-0.15138572
119	0xbf131d8a	-0.5746695
120	0x3e44a9a8	0.19205344
121	0x3d9b59b4	0.07585469
122	0xbd1ceb48	-0.03831032
123	0xbd8e4a92	-0.06947817
124	0xbee83ce1	-0.45358947
125	0xbece7f64	-0.40331566
126	0x3e2b9e85	0.16759689
127	0xbe3d0c5f	-0.1846175
128	0x3d9fd359	0.07803983
129	0xbbc59319	-0.0060294983
130	0x3e1d2503	0.1534615
131	0xbe613730	-0.21993709
132	0x3cc9e842	0.024646882
133	0xbe5ee7b6	-0.21768078
134	0x3f2469b6	0.642238
135	0xbe947b05	-0.29000106
136	0x3fb9dc2c	1.4520316
137	0xbe766cf0	-0.24064994
138	0x3dfb72f1	0.12277783
139	0x3e3a29b2	0.18179968
140	0xbeb75b78	-0.35811973
141	0x3dcbc01a	0.0994875
142	0x3e580f41	0.21099569
143	0x3e3a71ce	0.18207476
144	0x3e7d3519	0.24727286
145	0x3e14a1e4	0.14514881
146	0xbd60daa0	-0.054895997
147	0x3e644a89	0.22294058
148	0xbda27ec0	-0.07934332
149	0x3db47ef9	0.088132806
150	0x00000000	0.0
151	0x00000000	0.0
152	0x00000000	0.0
153	0x00000000	0.0
154	0x00000000	0.0
155	0x00000000	0.0
156	0x00000000	0.0
157	0x00000000	0.0
158	0x00000000	0.0
159	0x00000000	0.0
160	0x00000000	0.0
161	0x00000000	0.0
162	0x00000000	0.0
163	0x00000000	0.0
164	0x00000000	0.0
165	0x00000000	0.0
166	0x00000000	0.0
167	0x00000000	0.0
168	0x00000000	0.0
169	0x00000000	0.0
170	0x00000000	0.0
171	0x00000000	0.0
172	0x00000000	0.0
173	0x00000000	0.0
174	0x00000000	0.0
175	0x00000000	0.0
176	0x00000000	0.0
177	0x00000000	0.0
178	0x00000000	0.0
179	0x00000000	0.0
180	0x00000000	0.0
181	0x00000000	0.0
182	0x00000000	0.0
183	0x00000000	0.0
184	0x00000000	0.0
185	0x00000000	0.0
186	0x00000000	0.0
187	0x00000000	0.0
188	0x00000000	0.0
189	0x00000000	0.0
190	0x00000000	0.0
191	0x00000000	0.0
192	0x00000000	0.0
193	0x00000000	0.0
194	0x00000000	0.0
195	0x00000000	0.0
196	0x00000000	0.0
197	0x00000000	0.0
198	0x00000000	0.0
199	0x00000000	0.0
200	0x00000000	0.0
201	0x00000000	0.0
202	0x00000000	0.0
203	0x00000000	0.0
204	0x00000000	0.0
205	0x00000000	0.0
206	0x00000000	0.0
207	0x00000000	0.0
208	0x00000000	0.0
209	0x00000000	0.0
210	0x00000000	0.0
211	0x00000000	0.0
212	0x00000000	0.0
213	0x00000000	0.0
214	0x00000000	0.0
215	0x00000000	0.0
216	0x00000000	0.0
217	0x00000000	0.0
218	0x00000000	0.0
219	0x00000000	0.0
220	0x00000000	0.0
221	0x00000000	0.0
222	0x00000000	0.0
223	0x00000000	0.0
224	0x00000000	0.0
225	0x00000000	0.0
226	0x00000000	0.0
227	0x00000000	0.0
228	0x00000000	0.0
229	0x00000000	0.0
230	0x00000000	0.0
231	0x00000000	0.0
232	0x00000000	0.0
233	0x00000000	0.0
234	0x00000000	0.0
235	0x00000000	0.0
236	0x00000000	0.0
237	0x00000000	0.0
238	0x00000000	0.0
239	0x00000000	0.0
240	0x00000000	0.0
241	0x00000000	0.0
242	0x00000000	0.0
243	0x00000000	0.0
244	0x00000000	0.0
245	0x00000000	0.0
246	0x00000000	0.0
247	0x00000000	0.0
248	0x00000000	0.0
249	0x00000000	0.0
250	0x00000000	0.0
251	0x00000000	0.0
252	0x00000000	0.0
253	0x00000000	0.0
254	0x00000000	0.0
255	0x00000000	0.0

tensor_w1 f4 [1, 150, 32]
0	0xbfde5fcc	-1.7372985
1	0x3ed9af29	0.4251645
2	0xbf2a2019	-0.6645523
3	0x3e36fcd9	0.17869891
4	0x3e964429	0.29348877
5	0x3ddf29cf	0.10896646
6	0x3d8da0c6	0.06915431
7	0x3db52107	0.0884419
8	0x3e550967	0.20804368
9	0xbc668987	-0.014070875
10	0x3eeaffdf	0.4589834
11	0x3e425ac5	0.18979938
12	0x3d94cd5f	0.07265734
13	0x3ffc4197	1.9707516
14	0x3f0dabad	0.5534008
15	0x3ec12102	0.37720495
16	0x3e53d250	0.20685697
17	0x3eb7de39	0.3591173
18	0x3e03a8e2	0.12857392
19	0x3ddd368b	0.10801419
20	0x3db219cf	0.08696329
21	0x3e3acf81	0.18243219
22	0x3e512b5d	0.20426698
23	0x3eece48c	0.46268117
24	0x3f36973d	0.7132452
25	0xbee25786	-0.442074
26	0x3d75f8e5	0.060051817
27	0x3e1ff920	0.15622377
28	0x3ed201f4	0.41017115
29	0x3e5dd2c6	0.21662435
30	0x3eb00331	0.34377435
31	0xbf8df41c	-1.1090121
32	0xbf8e9f6f	-1.1142405
33	0x3f9f6102	1.245148
34	0xbf846fe9	-1.0346652
35	0x3f2bba4b	0.67081136
36	0x3f84a397	1.0362424
37	0x3ee20382	0.441433
38	0xbeef32c3	-0.46718416
39	0x4006cc70	2.1062279
40	0x3f43373d	0.7625616
41	0x400c438a	2.1916223
42	0x3f3cef9d	0.7380312
43	0x3f3be08d	0.7338951
44	0x3ec6c6f9	0.3882368
45	0x3feec65c	1.8654284
46	0x3f0fd8eb	0.56190366
47	0xbe941080	-0.28918839
48	0x3f2424f2	0.64118874
49	0x3f763ba4	0.96184754
50	0xbeeabcdb	-0.4584721
51	0x3f41af2b	0.7565791
52	0x4009d636	2.1536994
53	0x3ef22aef	0.4729838
54	0x3f31f5cf	0.695157
55	0xbf795038	-0.9738803
56	0x3e1e37fd	0.15451045
57	0xbf9a0626	-1.2033126
58	0x3ee6f279	0.45106867
59	0x3fe68074	1.8007951
60	0x3fa87b75	1.3162676
61	0x3f231c4a	0.6371504
62	0x3f8fde2a	1.1239674
63	0x3e8633cb	0.2621139
64	0xc00dddb3	-2.2166564
65	0x3ecd154d	0.40055314
66	0xc03f69ca	-2.9908319
67	0x3ec39cb1	0.38205484
68	0x3ed5bdcf	0.41746375
69	0xbe0f8ad2	-0.140178
70	0xbfb1497a	-1.3850548
71	0xbd84200c	-0.06451425
72	0x3ef8d815	0.48602358
73	0x3eeb1b02	0.45919043
74	0xc0352c9e	-2.8308482
75	0x3f139647	0.5765118
76	0x3f45b371	0.7722693
77	0x3f03a239	0.5141941
78	0x3b89f264	0.0042098034
79	0xbe9965f3	-0.29960594
80	0x40333af2	2.8004727
81	0x3e2939e4	0.1652599
82	0xbfce7775	-1.6130205
83	0x3ff7dd0c	1.9364333
84	0x4048920a	3.1339135
85	0x3faaa9ce	1.333307
86	0x40314d03	2.7703254
87	0xc0112d34	-2.268384
88	0x3ea148ed	0.3150095
89	0xbf913d59	-1.1346847
90	0x3f11d544	0.5696604
91	0x3edd016c	0.43165147
92	0xbd6cda20	-0.057825208
93	0x404cc0a7	3.1992586
94	0xbd43a37d	-0.047763336
95	0xc0c13619	-6.0378537
96	0x3fa8099a	1.312793
97	0xbd934a30	-0.071918845
98	0x3fac9f86	1.3486183
99	0x3fdd9aef	1.7312907
100	0x3f4d5c61	0.80219084
101	0x3d994903	0.07484629
102	0x3fc65d1d	1.5497166
103	0x3f000d06	0.5001987
104	0x3f999c23	1.2000774
105	0x3d53e811	0.051734988
106	0x3f9c8792	1.2228873
107	0x3fdffbde	1.7498739
108	0x3fb41717	1.4069546
109	0xbe48645d	-0.19569536
110	0x3fb88814	1.4416528
111	0x3f2751c8	0.65359163
112	0x3fa49fd3	1.2861274
113	0x3fb7e142	1.4365618
114	0x3fd3d399	1.654895
115	0x3fcb379e	1.5876348
116	0x3f2cff3d	0.6757696
117	0x3f95723d	1.1675488
118	0x3f9e6707	1.2375191
119	0x3fd03818	1.6267118
120	0x3f3ac517	0.72956985
121	0x3fa7ff55	1.3124796
122	0x3ebfbb3b	0.37447533
123	0x3e0660bd	0.1312284
124	0x3e7e1eed	0.24816485
125	0x3f83e290	1.0303516
126	0x3f5df1a0	0.86696815
127	0x3f47494f	0.77846235
128	0x3feb83fa	1.8399651
129	0xbdaa0551	-0.08301795
130	0x4026b59a	2.604834
131	0x3e854ba5	0.26034275
132	0x3e7b75f0	0.24556708
133	0x3d919465	0.07108382
134	0x40012299	2.0177367
135	0x3dc28568	0.094981015
136	0x3e96941f	0.29409882
137	0xbc1b168e	-0.009465827
138	0x4036460a	2.8480248
139	0x3fac36ba	1.3454201
140	0x3ea84b39	0.3286989
141	0xbab1163c	-0.0013510655
142	0x3f01f195	0.5075925
143	0xbd3a7f43	-0.045531522
144	0x3e5e29aa	0.21695581
145	0x3f2fdaa5	0.68693
146	0x3ff2b41b	1.8961214
147	0x3e754de5	0.23955496
148	0xbcd291e5	-0.025704334
149	0x3e1da05e	0.15393206
150	0x3ced2a99	0.028950976
151	0x401fde83	2.497956
152	0x401efd79	2.4842207
153	0x3ec3053c	0.3808993
154	0x3e863c53	0.262179
155	0xbcdc6123	-0.026901787
156	0x3f0a6866	0.5406555
157	0x3e1acb32	0.15116575
158	0x3f225dc9	0.63424355
159	0x3fad7269	1.355054
160	0x3f115132	0.5676452
161	0x3e3eeadb	0.18644278
162	0x3e2f0de2	0.1709514
163	0xbe4dc372	-0.20094088
164	0xbea59a53	-0.32344303
165	0x3f8576be	1.0426862
166	0xbe9e541b	-0.30923542
167	0x3cb3f85c	0.021969013
168	0xbe9f6dc2	-0.31138426
169	0x3e0c89a0	0.13724375
170	0xbd93aa73	-0.07210245
171	0xbe886dae	-0.2664618
172	0xbec8e715	-0.39238802
173	0xbd7eb9df	-0.06218898
174	0xbe3dd929	-0.18539871
175	0xbe7344b5	-0.23756678
176	0xbe91e89f	-0.28497788
177	0x3fdbaa53	1.7161354
178	0xbe8fd209	-0.28089932
179	0xbeb02cb5	-0.3440911
180	0x3ea68e8a	0.32530624
181	0xbe9fdee7	-0.31224748
182	0xbe6b28df	-0.2296481
183	0xbe1c0319	-0.15235557
184	0x3deee1f5	0.11664192
185	0x3f0609ad	0.52358514
186	0xbeaa6251	-0.33278134
187	0xbdec4cd6	-0.11538093
188	0x3f3a032a	0.7266108
189	0xbe5b5f3a	-0.21423045
190	0x3f5f367d	0.8719252
191	0x3e3b630d	0.18299504
192	0x3e998753	0.29986057
193	0x3f87a154	1.0596108
194	0x3f9c3e44	1.2206502
195	0x3e07d919	0.1326641
196	0x3d8f0395	0.06983105
197	0xbe103d8c	-0.14085978
198	0x3f052085	0.52002746
199	0xbe9a7906	-0.3017046
200	0x3e62977c	0.22128099
201	0x3ec74cea	0.38925868
202	0x3f9662e6	1.1748931
203	0x3ee5ac2e	0.44857925
204	0x3e3c4bb0	0.18388247
205	0x3f1e3ce9	0.6181169
206	0x3e675239	0.22589959
207	0x3f319aba	0.6937672
208	0x3e429acd	0.19004364
209	0x3e9ec1b6	0.31007165
210	0x3f3fd9c5	0.74941665
211	0x3e917e22	0.28416544
212	0xbd875755	-0.06608454
213	0x3e8a5378	0.27016807
214	0x3e390362	0.18067697
215	0x3f5b9356	0.8577169
216	0x3c0fa76d	0.008767945
217	0x3e4ef401	0.20210268
218	0x3e8c46f2	0.27397877
219	0x3e89a57e	0.26884073
220	0x3f25934c	0.6467788
221	0x3db398e0	0.08769393
222	0x3f28ee83	0.6598894
223	0x3ff4c658	1.912303
224	0x3f3ac1ee	0.72952163
225	0x3f87385e	1.0564077
226	0x3fb9babb	1.4510111
227	0x3ed5b53d	0.41739836
228	0x3e01d6f5	0.12679656
229	0x3f2f1332	0.68388665
230	0x3e0fd532	0.14046171
231	0x3f760ab7	0.961101
232	0x3d7066af	0.058691677
233	0x3fccdc15	1.6004664
234	0x3ed075b4	0.407148
235	0x3dbc5b45	0.09197096
236	0xbd97385e	-0.07383798
237	0x3fd0809a	1.6289246
238	0x3e51198c	0.20419902
239	0x3ea65efc	0.32494342
240	0x3da7b64e	0.08189069
241	0xbd4ffc06	-0.050777458
242	0x3e736a33	0.2377098
243	0x3d7bd64c	0.061483666
244	0x3e5e9a3b	0.21738522
245	0x3db7262b	0.08942827
246	0x3db46ff3	0.08810415
247	0x3eafc045	0.34326378
248	0xbd90e0fb	-0.070741616
249	0x3f345251	0.70438105
250	0x3b1a8d8a	0.00235829
251	0x3f7cc24d	0.9873398
252	0x3edba2d0	0.42897654
253	0x3d58e0ce	0.052948765
254	0x3d09a58c	0.033605143
255	0x403d2a2c	2.955699

tensor_r1 f4 [1, 150, 50]
0	0xbf7957ed	-0.9739979
1	0x3f1f0d00	0.6212921
2	0xbf61121b	-0.8791825
3	0xbee6cdf8	-0.45079017
4	0x4022b754	2.5424395
5	0xb9b12ecd	-0.0003379494
6	0xbf1b35c4	-0.60628915
7	0xbf7c1d28	-0.9848199
8	0xbfc9419e	-1.572315
9	0x3f44f9b5	0.7694352
10	0x3f075e28	0.52878046
11	0x3f1214c1	0.5706292
12	0xbec3310c	-0.38123357
13	0xbe0b9028	-0.1362921
14	0x3f287ff4	0.6582024
15	0x3f5d371e	0.8641223
16	0xbfd48b28	-1.6604967
17	0xbed510f4	-0.41614497
18	0x3f2141f7	0.6299128
19	0x3fb87580	1.4410858
20	0x3f7ccebb	0.98752946
21	0xbeac10ca	-0.3360656
22	0xbf7a9300	-0.97880554
23	0x3e97487e	0.29547495
24	0x3ce4565b	0.027873209
25	0xbea859af	-0.32880923
26	0xc0248c21	-2.5710528
27	0xbf3c661a	-0.73593295
28	0x3f08a030	0.53369427
29	0x3ff27a4b	1.8943571
30	0xbf7624d9	-0.96149975
31	0xbe233f14	-0.15942031
32	0x3eb34c82	0.35019308
33	0xbe88b71b	-0.26702198
34	0xc00fc155	-2.246175
35	0xc000c751	-2.0121653
36	0x3ff6f61c	1.9293857
37	0xbf1d8f43	-0.61546725
38	0xbf33585f	-0.7005672
39	0x402aa565	2.666345
40	0xbf264034	-0.64941716
41	0x3b3f65e5	0.002920502
42	0xbedd7178	-0.43250632
43	0x3f537d66	0.8261322
44	0xbe792fa3	-0.24334578
45	0xbf64e2c8	-0.8940854
46	0xbd51d077	-0.0512242
47	0xbf40ad38	-0.7526431
48	0x3f9a3b1b	1.2049288
49	0xbf5e808a	-0.86914885
50	0xbe57ce9e	-0.21074912
51	0xbf502de3	-0.8132002
52	0xbf9d8459	-1.2306014
53	0xbf9c7583	-1.2223362
54	0x3fca465a	1.580272
55	0x3e6a965c	0.2290892
56	0xbf1f5113	-0.62233084
57	0xc03f8a98	-2.992834
58	0xbec70b03	-0.3887559
59	0xbe31d589	-0.17366613
60	0x3fe7a80d	1.809816
61	0x3d4d9e1a	0.050199606
62	0x3f36049b	0.7110078
63	0x3f39dca3	0.7260229
64	0xbf30661c	-0.68905807
65	0x3eaff2c2	0.34364897
66	0x3ebfb192	0.37440163
67	0x3f6e0ba0	0.9298649
68	0xbf718ec0	-0.94358444
69	0x3cc65bec	0.024213754
70	0xbf56b7b9	-0.8387409
71	0xbf730065	-0.94922477
72	0x3f9343fc	1.1505122
73	0x3f603c0f	0.8759164
74	0x3fa46808	1.2844248
75	0xc06e9445	-3.7277997
76	0x3f994a96	1.1975887
77	0x3f9a3aa3	1.2049145
78	0xbe487af2	-0.1957815
79	0xc02d0f5d	-2.7040627
80	0x3edd3d5e	0.43210882
81	0xbf2abfe7	-0.6669907
82	0xbf94b4fd	-1.1617733
83	0xbce977d4	-0.028499521
84	0x3df422bd	0.11920688
85	0xbc1f0739	-0.009706312
86	0xbd3e1e66	-0.04641571
87	0x40101023	2.250985
88	0xbfce45b7	-1.6115025
89	0x3f96b3d2	1.1773627
90	0xbf9cc482	-1.224747
91	0xbf547b36	-0.83000505
92	0xbe75fc2c	-0.24021977
93	0x402deaf0	2.7174644
94	0x3e872fe6	0.2640373
95	0x3fc4e69f	1.538288
96	0xbf20505c	-0.6262262
97	0x3f2f66f6	0.6851648
98	0x3f1dc6b7	0.6163134
99	0xbe471a4c	-0.19443625
100	0xbdc55db0	-0.0963701
101	0xbebc583e	-0.36786073
102	0xbf130547	-0.5742993
103	0x3bba015c	0.0056764316
104	0xbfbe2c12	-1.4857199
105	0xbf03134c	-0.5120132
106	0x3dcca27e	0.099919304
107	0xbf5e78fd	-0.86903363
108	0x3e0c0976	0.13675484
109	0xbf020bcb	-0.50799245
110	0xbccec623	-0.025240963
111	0xbfe886ac	-1.8166099
112	0xbf90e39c	-1.1319461
113	0x3e101d9c	0.14073795
114	0x3d57d5b1	0.052694026
115	0xbe6dcafe	-0.23221967
116	0x3fcf9365	1.6216856
117	0xbf34525d	-0.70438176
118	0xbe02adde	-0.12761638
119	0x4041f013	3.030278
120	0xbf91f089	-1.140153
121	0x3f5e71f8	0.8689265
122	0x3eaa1d2c	0.3322538
123	0x3ec0b1f7	0.37635776
124	0x3daa1299	0.083043285
125	0xbf237989	-0.6385732
126	0x3eef85ce	0.46781772
127	0xbf901de4	-1.1259122
128	0xbf8a29a7	-1.0793961
129	0xbe8748f9	-0.2642286
130	0xbf03da0c	-0.5150459
131	0x3ec516f9	0.3849409
132	0xbf5fbee6	-0.8740066
133	0x3f1a1dfc	0.60202
134	0x3e59affb	0.21258537
135	0xbfade7a4	-1.3586316
136	0x3e849e43	0.25901994
137	0x3fd22aba	1.6419289
138	0x3ec408f3	0.38288078
139	0x3f76a801	0.96350104
140	0xbd1dfa59	-0.03856883
141	0xbfbd8fd3	-1.4809517
142	0x3f99fa46	1.2029502
143	0xbf454d2c	-0.7707088
144	0xbd61a7ac	-0.055091545
145	0xbe9a3569	-0.30118874
146	0xbea51988	-0.3224604
147	0x3e791c61	0.24327232
148	0x3fbd9366	1.4810607
149	0x3ecc9180	0.39954758
150	0xbdbd8d3a	-0.092554525
151	0xbf768d95	-0.9630979
152	0xbcc380aa	-0.023865063
153	0x3ea68a0d	0.325272
154	0x3f8b6502	1.08902
155	0x3fd3130b	1.6490186
156	0xbf66778f	-0.9002618
157	0xbf8aa1d2	-1.0830634
158	0xbee42de5	-0.44566265
159	0x3ec99b1c	0.39376152
160	0x3f918f13	1.1371788
161	0x3f0e4b0f	0.5558328
162	0xbed4bb6c	-0.41549242
163	0x3ebee0db	0.37280926
164	0x3e200241	0.1562586
165	0xbe0b9409	-0.1363069
166	0xbf815c03	-1.0106205
167	0x3f525e09	0.82174736
168	0xbfc095ca	-1.5045712
169	0xbdefe6df	-0.11713957
170	0xbc65d18c	-0.014027011
171	0x3f462f11	0.7741557
172	0xbdded656	-0.10880725
173	0xbf7e3674	-0.9930184
174	0x3fd6bc6f	1.6776255
175	0x3e051cbb	0.12999241
176	0xbe5d1f0e	-0.21593878
177	0xbf3098b3	-0.68983
178	0x3c0ae5d5	0.008477648
179	0xbe4b5ff0	-0.19860816
180	0x3f52a4a7	0.8228249
181	0xbdc3654e	-0.09540807
182	0xbd793519	-0.060841653
183	0x3f8127dc	1.0090289
184	0xbdba8476	-0.09107296
185	0xbe5a9e44	-0.21349436
186	0xbf7e7513	-0.9939739
187	0xbf7de8b8	-0.99183226
188	0xbf480e73	-0.7814705
189	0xbf2e8a22	-0.68179524
190	0x3f8efbd2	1.11706
191	0x3d839f2a	0.064268425
192	0x3f1c1c11	0.60980326
193	0xbf115a5d	-0.5677851
194	0xbf5151b1	-0.81765276
195	0xbf032063	-0.51221293
196	0xbd99660c	-0.07490167
197	0x3dd7319e	0.105075106
198	0x3e983a22	0.29731852
199	0xbf02a801	-0.51037604
200	0x3e417fae	0.18896362
201	0xbfe2680c	-1.7688003
202	0x3f552072	0.8325263
203	0x4004a58b	2.072604
204	0x3e54b3e3	0.20771746
205	0xbeffe813	-0.49981746
206	0xbecf8c92	-0.40536934
207	0xbdfdce79	-0.12392897
208	0x3f13394d	0.5750931
209	0xbf7bbce0	-0.98335075
210	0xbf043168	-0.5163789
211	0xbf2b02b5	-0.66801006
212	0xbebaef55	-0.3651072
213	0x3eada5cf	0.33915564
214	0x3fee0577	1.8595418
215	0x3f0714c1	0.5276604
216	0xbfe2a8b2	-1.7707732
217	0x3f66c231	0.9014006
218	0xbf26dd7b	-0.651817
219	0xbf9d2743	-1.2277607
220	0x3e61ad10	0.22038674
221	0x3e8c63f1	0.2742
222	0xbe9ae367	-0.3025162
223	0xc006b502	-2.1047978
224	0xbf2ec764	-0.68272996
225	0xbd751368	-0.05983296
226	0x3e633f51	0.22192122
227	0xbf506d32	-0.8141662
228	0xbecf82d1	-0.40529492
229	0x3fec9fc4	1.8486257
230	0x3f92b736	1.1462162
231	0xbd8a93e4	-0.06766489
232	0x3fc4cf88	1.5375834
233	0xbe979e74	-0.29613078
234	0x3f9de91d	1.2336766
235	0xbf9305f8	-1.1486197
236	0xbf89da82	-1.0769808
237	0x3f9428d4	1.157496
238	0xbd8cb008	-0.06869513
239	0x3f83f4e3	1.0309108
240	0xbf108c9c	-0.5646455
241	0x3eb54db2	0.3541084
242	0x3fa98160	1.3242607
243	0x3f625a68	0.884192
244	0xbf60d34f	-0.8782243
245	0x3cef8d78	0.029242262
246	0xbf4a0bb3	-0.789241
247	0x3dadf644	0.08494237
248	0xbe9d8f35	-0.3077332
249	0xbd8610b6	-0.06546156
250	0xbf7e983e	-0.99451053
251	0x3f91eca4	1.1400342
252	0x3fa0265a	1.2511704
253	0xbf9f9431	-1.24671
254	0xbf7bb462	-0.9832212
255	0xbec4e8bb	-0.3845881
