DeepDoubleX/94X/V01/DDC.onnx (onnx, 169128 bytes, 26 tensors)

ID_pred_1/kernel:0 f4 [100, 2]
0.050986905 0.120055854 -0.05118392 0.02081968 0.13113983 0.051541165 0.09190944 0.018162902
-0.035478625 0.018814145 -0.18024598 -0.08512877 -0.11922896 -0.04491591 -2.3865272e-05 0.09376813
-0.015537711 0.06601268 0.19878335 0.13231929 -0.18179655 -0.0040222025 -0.089775294 0.03256528
0.03467202 -0.042097405 0.022278884 0.10278249 -0.09533689 -0.18066537 0.0033095968 -0.12792303
0.049263753 -0.044962727 0.017389912 0.08412295 -0.010682186 0.07944593 -0.25017524 -0.051716417
-0.024866302 0.049017806 0.10986223 0.012455727 -0.101791725 0.14948797 -0.079563074 0.01095419
-0.1573 0.18625809 -0.09885969 -0.05733812 0.058239095 -0.09431735 0.114814326 0.053184368
0.019136837 -0.0682319 0.050580416 -0.015328848 0.028264137 0.11240356 0.07327429 0.20581055
0.03524718 -0.05029334 -0.07301528 0.06690101 -0.02315231 0.037908 -0.07143892 0.017824184
-0.025258861 0.041533887 0.107746415 0.03123508 -0.0800277 0.05075985 -0.08420049 -0.16509415
0.08177018 -0.036384124 0.21447022 0.013687383 0.07724181 0.0128260385 0.07634028 0.14321473
-0.07694434 -0.14184296 0.11039386 0.00961324 -0.05932395 0.01571438 0.043741915 0.113864794
0.028621921 -0.02311518 -0.036155812 0.06946119 -0.16686198 -0.03099976 -0.009984687 0.07471354
0.09788765 0.037842445 0.15615116 0.08654104 0.11007762 0.027573358 -0.04115213 -0.090929
-0.012495614 0.07001386 -0.016362619 -0.111660175 0.00815153 -0.07640206 -0.06850278 -0.1476975
0.04986731 -0.036044754 0.041406542 0.115725935 0.10558623 0.017946761 -0.21384293 -0.04881484
-0.0679408 -0.13024786 0.01317131 0.08300479 -0.025245931 0.06331901 0.03527465 -0.03865452
0.071999736 0.16417515 -0.17441079 -0.068787046 0.13219953 -0.09738162 0.0638701 -0.018798012
-0.12413118 -0.020500744 -0.05038453 0.053314168 0.006801074 -0.1566705 -0.16972381 -0.0864716
-0.05245358 0.022232573 -0.058555335 0.029921474 -0.007840246 0.103830315 0.060462404 -0.055405803
-0.005188539 -0.09216906 0.15700693 0.060176 0.06034332 0.12856221 -0.0043374533 0.07329926
0.013570057 -0.07355763 0.120717525 0.0025511403 -0.031158699 -0.0914467 0.050534062 -0.05986917
0.02845824 -0.076143175 -0.05483747 -0.13316856 -0.0036666205 0.08257099 0.11881575 -0.082724735
-0.050305143 0.02624506 -0.07334573 0.00784364 -0.010708421 0.09004663 -0.15337624 0.11537235
-0.037988964 0.056092445 -0.08670292 -0.0020873065 -0.04498419 0.014077979 -0.018224735 -0.12125389
00000000: a5d7 503d d8df f53d 3ba6 51bd 098e aa3c
00000010: 8549 063e d41c 533d 043b bc3d 5eca 943c
00000020: 0952 11bd 1f20 9a3c 6792 38be fe57 aebd
00000030: 502e f4bd bff9 37bd 4832 c8b7 8109 c03d
00000040: e291 7ebc a831 873d dd8d 4b3e b57e 073e
00000050: e028 3abe aecc 83bb 1cdc b7bd 2c63 053d
00000060: 3f04 0e3d 546e 2cbd 3582 b63c a07f d23d
00000070: fd3f c3bd 5800 39be d2e5 583b 41fe 02be
00000080: cac8 493d d62a 38bd 4a75 8e3c a748 ac3d
00000090: 5604 2fbc 8cb4 a23d f816 80be 98d4 53bd
000000a0: 6ab4 cbbc e5c6 483d 73ff e03d 1b13 4c3c
000000b0: 2e78 d0bd 6013 193e f7f1 a2bd 3479 333c
000000c0: 4013 21be 71ba 3e3e f376 cabd 60db 6abd
000000d0: 1e8c 6e3d 7429 c1bd c623 eb3d dad7 593d
000000e0: dbc4 9c3c 2bbd 8bbd 692d 4f3d d925 7bbc
000000f0: 318a e73c d633 e63d d510 963d 00c0 523e
00000100: 595f 103d 6400 4ebd 0989 95bd 6603 893d
00000110: eaa9 bdbc 6b45 1b3d 924e 92bd 0604 923c
00000120: aceb cebc 701f 2a3d 27aa dc3d b6e0 ff3c
00000130: 90e5 a3bd 8fe9 4f3d 4e71 acbd 710e 29be
00000140: 2077 a73d 8507 15bd 159e 5b3e 0c41 603c
00000150: f430 9e3d 4e24 523c 4b58 9c3d e2a6 123e
00000160: fe94 9dbd 483f 11be 2d16 e23d da80 1d3c
00000170: acfd 72bd 72bb 803c b92a 333d f231 e93d
00000180: 8578 ea3c 0c5c bdbc 1e18 14bd ab41 8e3d
00000190: dedd 2abe 35f3 fdbc d096 23bc 6a03 993d
000001a0: 5279 c83d ae00 1b3d 17e6 1f3e 6e3c b13d
000001b0: 6070 e13d 86e1 e13c 238f 28bd fc38 babd
000001c0: 67ba 4cbc 6d63 8f3d e60a 86bc 17ae e4bd
000001d0: ff8d 053c af78 9cbd 2f4b 8cbd 033e 17be
000001e0: aa41 4c3d aaa3 13bd e899 293d b801 ed3d
000001f0: 983d d83d 1605 933c a4f9 5abe 12f2 47bd
00000200: 8c24 8bbd b25f 05be 7acc 573c 6afe a93d
00000210: 8ed0 cebc 66ad 813d 277c 103d 3454 1ebd
00000220: 9974 933d 881d 283e be98 32be 39e0 8cbd
00000230: 505f 073e 0470 c7bd 54ce 823d 4afe 99bc
00000240: 7d38 febd 2df1 a7bc 0260 4ebd f55f 5a3d
00000250: 8bdb de3b 3b6e 20be 14cc 2dbe 0618 b1bd
00000260: 91d9 56bd 1621 b63c b8d7 6fbd e11d f53c
00000270: 6074 00bc fda4 d43d 6da7 773d 32f1 62bd
00000280: 9f04 aabb 22c3 bcbd 6dc6 203e 1c7b 763d
00000290: 8f2a 773d d0a5 033e 3221 8ebb ec1d 963d
000002a0: f254 5e3c 62a5 96bd c03a f73d 0831 273b
000002b0: 8740 ffbc 6848 bbbd cefc 4e3d 6039 75bd
000002c0: 4121 e93c f4f0 9bbd 419d 60bd 575d 08be
000002d0: af4b 70bb fb1a a93d ac55 f33d 966b a9bd
000002e0: c40c 4ebd e1ff d63c 4936 96bd 9c82 003c
000002f0: 5f72 2fbc 5e6a b83d a90e 1dbe 5748 ec3d
00000300: 519a 1bbd 31c1 653d 4d91 b1bd 31cb 08bb
00000310: 5841 38bd 53a7 663c 0a4c 95bc f653 f8bd

ID_pred_1/bias:0 f4 [2]
0.025913635 -0.025881326
00000000: d548 d43c 1305 d4bc

fc1_relu_1/kernel:0 f4 [127, 100]
0.04428424 -0.15893444 -0.40203506 0.49908155 -0.6306443 -0.09468471 -0.48607895 0.34561762
-0.18901409 0.13771231 0.06710134 0.13967828 0.065598354 -0.50610363 0.014246274 0.015779415
0.03161409 -0.038597297 -0.2848351 -0.062390607 0.29234943 0.36426932 -0.20881554 -0.01768201
-0.70060956 -0.17676042 0.033256695 -0.06993885 -0.8130088 -0.09719882 -0.2756596 0.15699004
-1.0940044 0.26911625 -0.56787574 -0.19492793 -0.38501653 -0.28051433 -0.047967892 0.0715964
-0.50334686 -0.2954841 0.20547403 0.2767172 0.35085437 0.27325597 -0.017905386 -0.30111146
0.036087565 0.18427882 -0.03584419 -0.016290959 0.17966442 -0.04994478 0.33328843 -0.040160976
-0.15813671 -0.6542285 -0.5630882 -0.5027726 0.9039651 -0.16887903 1.1172881 -0.8471813
0.125103 -0.30028325 0.22542049 0.7638 0.030765522 0.15771863 3.1540618 0.16099432
0.20386963 0.07856842 -0.112333454 0.46170267 -0.09461486 0.049822368 -0.17375259 0.0493034
0.63792956 -0.36809552 0.091560885 -0.08930632 0.029117005 0.13859625 -0.33739704 1.4941986
0.054025892 0.3024806 -0.032675795 -0.223313 -0.3908259 0.17473212 0.44129363 -0.086024255
-1.354872 0.038512506 -0.12704103 -0.34180796 0.037746448 0.398741 0.16967215 -1.4675642
0.14447315 0.25971735 0.18226056 -0.5747344 0.20391446 0.33394548 0.2044979 0.88167715
0.66333014 0.8257788 -2.0038328 -0.22119951 0.07031358 0.31222636 0.6567167 0.41774088
-0.4721631 0.6692735 0.089978255 -0.10973574 0.15243894 0.5316342 0.6359638 0.6062032
0.9755388 0.19874828 -0.76994795 0.8523968 -0.8897847 0.0021684277 0.35268468 0.4642212
-0.30569655 -1.3074181 0.27620935 -0.51833814 0.10493616 -3.360096 0.91418356 0.26178223
0.21132892 0.51724666 0.08271405 0.1762478 0.33468497 -1.9561847 0.9965555 0.64693147
-0.5931783 -0.5332208 0.5114814 0.62884164 0.2764737 1.3593916 0.116417244 1.070698
-1.5258427 0.035738632 1.23308 -0.22108383 0.061620332 -0.23979495 -0.04402756 0.22626597
0.6738192 -0.21690412 -0.38176498 1.7560287 0.6009934 0.934 -2.353962 -0.436994
1.1637847 2.1692724 0.2595509 -1.9776406 2.1750846 1.2986575 -1.2239097 -0.17490292
0.0019704525 0.75419515 0.2139156 -1.410561 1.0087854 1.3600748 0.030703269 -0.018405383
0.28688407 -0.36075786 0.62052953 0.23447403 -0.12827799 -0.13195992 -0.12353572 -0.10529533
-0.2725326 -0.17152771 -0.042021126 0.22536802 0.16236083 0.15328024 0.6532257 0.09649314
0.21003427 0.47859195 0.53308374 0.2726133 -0.36121055 0.1681046 1.2968175 0.36721614
-0.65497506 -0.46298605 0.38228554 2.950574 -0.37120923 -0.10521866 0.9474626 -0.067497954
1.2286693 0.35418847 1.1789144 0.12142544 0.30475155 -0.25788265 0.16264133 1.7289884
0.31887558 2.2347927 -0.5645634 -2.0327942 -0.17641343 -0.09328683 -0.08390346 -0.008522095
0.35897562 2.0825775 0.4003104 0.36187863 -0.22217596 0.06228817 -0.07092403 0.08892989
0.17820273 -0.09997321 -1.752119 -0.88314676 -0.43504244 0.12824407 0.6248229 0.9550882
00000000: 6463 353d b6bf 22be 8ad7 cdbe 9e87 ff3e
00000010: e871 21bf 0fea c1bd 57df f8be cbf4 b03e
00000020: e98c 41be 7504 0d3e 6d6c 893d d307 0f3e
00000030: 6e58 863d 0290 01bf 3469 693c d543 813c
00000040: c77d 013d 3318 1ebd e8d5 91be 4b8d 7fbd
00000050: d3ae 953e 8281 ba3e bed3 55be ddd9 90bc
00000060: 265b 33bf af00 35be 2c38 083d 1a3c 8fbd
00000070: 5821 50bf 2d10 c7bd 4123 8dbe ffc1 203e
00000080: 5608 8cbf 9bc9 893e 4e60 11bf 309b 47be
00000090: e320 c5be 939f 8fbe fb79 44bd 22a1 923d
000000a0: 57db 00bf b149 97be c967 523e e0ad 8d3e
000000b0: 2fa3 b33e 35e8 8b3e 51ae 92bc 482b 9abe
000000c0: 8ed0 133d 96b3 3c3e 5bd1 12bd 9e74 85bc
000000d0: f3f9 373e e692 4cbd c8a4 aa3e d67f 24bd
000000e0: 97ee 21be 857b 27bf 8c26 10bf b5b5 00bf
000000f0: 426a 673f a0ee 2cbe 4c03 8f3f e0e0 58bf
00000100: 001b 003e babe 99be a1d4 663e 6688 433f
00000110: fa07 fc3c fe80 213e 26dc 4940 b2db 243e
00000120: 33c3 503e 7be8 a03d 150f e6bd 4b64 ec3e
00000130: 70c5 c1bd 8a12 4c3d 33ec 31be 5df2 493d
00000140: 5a4f 233f 0477 bcbe 4684 bb3d 3be6 b6bd
00000150: c986 ee3c 2dec 0d3e 4ebf acbe e641 bf3f
00000160: 414a 5d3d bdde 9a3e 0ed7 05bd 2aac 64be
00000170: 551a c8be faec 323e 3df1 e13e 7c2d b0bd
00000180: 726c adbf 4abf 1d3d 0b17 02be 7401 afbe
00000190: 059c 1a3d c827 cc3e 89be 2d3e 25d9 bbbf
000001a0: c5f0 133e acf9 843e 83a2 3a3e cb21 13bf
000001b0: f4ce 503e e7fa aa3e e667 513e 98b5 613f
000001c0: 01d0 293f 3d66 533f cc3e 00c0 2082 62be
000001d0: 9100 903d 22dc 9f3e 961e 283f 22e2 d53e
000001e0: 5dbf f1be 8255 2b3f 8546 b83d 22bd e0bd
000001f0: f418 1c3e 2e19 083f 86ce 223f 2230 1b3f
00000200: e9bc 793f ab84 4b3e 4f1b 45bf ad36 5a3f
00000210: eec8 63bf 2e1c 0e3b 1693 b43e 67ae ed3e
00000220: 4284 9cbe 7a59 a7bf 506b 8d3e cfb1 04bf
00000230: c5e8 d63d d00b 57c0 ef07 6a3f 5208 863e
00000240: 9c66 583e 476a 043f fc65 a93d 4e7a 343e
00000250: d45b ab3e 4364 fabf 431e 7f3f 4d9d 253f
00000260: 88da 17bf 2981 08bf 72f0 023f c4fb 203f
00000270: f68d 8d3e 8b00 ae3f 2a6c ee3d a20c 893f
00000280: d04e c3bf ac62 123d 91d5 9d3f cd63 62be
00000290: 9a65 7c3d cf8c 75be 3e56 34bd 44b2 673e
000002a0: 6a7f 2c3f 1d1c 5ebe b376 c3be 8cc5 e03f
000002b0: b4da 193f a01a 6f3f 50a7 16c0 adbd dfbe
000002c0: e6f6 943f 5cd5 0a40 dbe3 843e 5423 fdbf
000002d0: 9634 0b40 693a a63f 13a9 9cbf c019 33be
000002e0: b522 013b ef12 413f b10c 5b3e 438d b4bf
000002f0: e11f 813f ee16 ae3f 6c85 fb3c e3c6 96bc
00000300: 78e2 923e 41b5 b8be 06db 1e3f f619 703e
00000310: 4e5b 03be 8020 07be 4c00 fdbd 14a5 d7bd
00000320: 6589 8bbe f6a4 2fbe 581e 2cbd e0c6 663e
00000330: eb41 263e 7ff5 1c3e cd39 273f 329e c53d
00000340: 3913 573e 010a f53e 2d78 083f f893 8b3e
00000350: 97f0 b8be 9d23 2c3e 1efe a53f c103 bc3e
00000360: 72ac 27bf 820c edbe eeba c33e 34d6 3c40
00000370: 230f bebe e17c d7bd e98c 723f 5e3c 8abd
00000380: 0945 9d3f 3158 b53e abe6 963f e7ad f83d
00000390: 6508 9c3e 3209 84be 738b 263e 7e4f dd3f
000003a0: a943 a33e d806 0f40 3a87 10bf 4d19 02c0
000003b0: b9a5 34be 2a0d bfbd 94d5 abbd 42a0 0bbc
000003c0: a7cb b73e f348 0540 7cf5 cc3e 2848 b93e
000003d0: 1882 63be e121 7f3d 9e40 91bd e020 b63d
000003e0: c77a 363e c1be ccbd 6f45 e0bf e815 62bf
000003f0: e2bd debe 6a52 033e 65f4 1f3f a980 743f

fc1_relu_1/bias:0 f4 [100]
0.44918966 0.4843236 -1.0667208 0.020232463 -1.5916998 -0.3983231 -1.3710551 -2.8820534
0.31615648 -1.077491 -5.386369 -2.469494 -0.7486344 -2.1044238 -0.78158444 -1.7035714
-1.5555347 -0.5304607 -3.6284723 -3.1936476 -0.7646629 -1.9932716 -4.1445003 -3.1347485
-5.356044 -1.9928478 -3.8560555 -0.18871376 -1.0581168 -0.3581632 -0.90153086 -3.8403587
-3.0696678 -2.9268527 -0.8803635 -1.8881829 -0.5986463 -1.16646 -1.1017478 -0.08100803
-3.8953364 -3.073439 -1.979687 0.40757775 -0.1725168 -3.4128752 -0.4949236 0.28817275
-0.30020532 -2.3815086 -3.8740518 -1.9854182 -0.446781 0.013390095 -0.21963903 -0.29956496
0.14958988 -2.7845452 -1.7571181 -1.8821005 -0.73879254 0.46661752 -3.1697836 -4.340272
-0.0366171 -0.1327508 -0.7472798 -0.9567093 -3.2444518 -1.0641401 -2.721226 -1.8335088
-2.1447697 -1.5012188 -4.0720453 -0.4520625 -1.0416148 -0.9469095 -2.4944556 -1.8725649
-1.6264367 -3.2061913 -0.9848578 -0.032066084 -1.8968102 -1.7121136 -0.6027142 -2.4807537
-2.5568874 -0.83903366 0.31496975 -4.568896 -0.5456939 -0.64334816 -3.5927687 -4.298948
-3.6505487 0.29017442 -0.66284174 -3.251435
00000000: 30fc e53e 43f9 f73e 4f8a 88bf 8dbe a53c
00000010: d2bc cbbf 01f1 cbbe bc7e afbf 9073 38c0
00000020: 43df a13e 3aeb 89bf 235d acc0 310c 1ec0
00000030: 81a6 3fbf e1ae 06c0 eb15 48bf a10e dabf
00000040: c31b c7bf 46cc 07bf e438 68c0 b964 4cc0
00000050: f3c0 43bf 8623 ffbf bf9f 84c0 b89f 48c0
00000060: b664 abc0 a315 ffbf 9dc9 76c0 2e3e 41be
00000070: 5f70 87bf 2b61 b7be baca 66bf 70c8 75c0
00000080: 7075 44c0 8e51 3bc0 815f 61bf faaf f1bf
00000090: e240 19bf 904e 95bf 1206 8dbf 8ae7 a5bd
000000a0: 314d 79c0 39b3 44c0 6266 fdbf 08ae d03e
000000b0: 3ea8 30be 8c6c 5ac0 a066 fdbe 618b 933e
000000c0: 83b4 99be a36a 18c0 77f0 77c0 2f22 febf
000000d0: 7bc0 e4be 2162 5b3c 0ee9 60be 9460 99be
000000e0: 172e 193e fd35 32c0 3fe9 e0bf abe8 f0bf
000000f0: 8221 3dbf 7ee8 ee3e bcdd 4ac0 82e3 8ac0
00000100: d0fb 15bd d3ef 07be bb4d 3fbf e7ea 74bf
00000110: 19a5 4fc0 be35 88bf 9128 2ec0 6bb0 eabf
00000120: e843 09c0 f027 c0bf 324e 82c0 bc74 e7be
00000130: a253 85bf a968 72bf 29a5 1fc0 35b0 efbf
00000140: 142f d0bf 3d32 4dc0 a41f 7cbf ba57 03bd
00000150: adca f2bf 8a26 dbbf 7a4b 1abf abc4 1ec0
00000160: 0ba4 23c0 e9ca 56bf b743 a13e 6534 92c0
00000170: 98b2 0bbf 77b2 24bf ecef 65c0 fb90 89c0
00000180: 97a2 69c0 be91 943e ffaf 29bf 8317 50c0

scale f4 [27]
0.19746792 0.8973036 0.6014551 0.44096178 0.3444672 0.57892025 0.4827995 0.35223967
0.022669608 0.025270563 2.0699804 1.1801043 1.3340249 0.23804721 0.22389945 0.4482874
0.5028099 0.17488481 0.010081637 0.020531934 0.0673815 0.115755856 0.009224443 0.06845425
0.19600059 0.14517231 0.09554374
00000000: 0835 4a3e b0b5 653f f6f8 193f bec5 e13e
00000010: 015e b03e 1e34 143f 7f31 f73e c258 b43e
00000020: 9db5 b93c 3604 cf3c 8f7a 0440 a80d 973f
00000030: 54c1 aa3f a6c2 733e e645 653e ed85 e53e
00000040: 26b8 003f 0115 333e 732d 253c 9632 a83c
00000050: 50ff 893d 6811 ed3d 1e22 173c be31 8c3d
00000060: 61b4 483e 0da8 143e 70ac c33d

bias f4 [27]
-3.2653296 -1.0907596 -1.0615277 -1.0184662 -0.49653825 0.09854617 0.031373348 0.043678798
-0.13882165 -0.010629235 0.57446945 0.11704858 0.8939773 -0.3247567 0.03433196 -0.8999453
-0.6682695 -0.57397443 -0.08437613 -0.18099146 -0.05060647 -0.39666522 -0.13069034 -0.17133166
-0.42211312 -0.1302016 -0.32510483
00000000: 29fb 50c0 039e 8bbf 24e0 87bf 1a5d 82bf
00000010: 433a febe 93d2 c93d 5781 003d 8ae8 323d
00000020: 4327 0ebe 3e26 2ebc 6e10 133f 2ab7 ef3d
00000030: b2db 643f 8346 a6be ab9f 0c3d d162 66bf
00000040: b613 2bbf fdef 12bf 64cd acbd d355 39be
00000050: bb48 4fbd b417 cbbe b0d3 05be 9171 2fbe
00000060: 361f d8be 9153 05be 2474 a6be

mean f4 [27]
0.0 0.0 0.0 0.0 0.0 -0.0 -0.0 -0.0
0.0 0.0 -0.0 -0.0 -0.0 0.0 -0.0 0.0
0.0 0.0 0.0 0.0 0.0 0.0 0.0 0.0
0.0 0.0 0.0
00000000: 0000 0000 0000 0000 0000 0000 0000 0000
00000010: 0000 0000 0000 0080 0000 0080 0000 0080
00000020: 0000 0000 0000 0000 0000 0080 0000 0080
00000030: 0000 0080 0000 0000 0000 0080 0000 0000
00000040: 0000 0000 0000 0000 0000 0000 0000 0000
00000050: 0000 0000 0000 0000 0000 0000 0000 0000
00000060: 0000 0000 0000 0000 0000 0000

var f4 [27]
1.0 1.0 1.0 1.0 1.0 1.0 1.0 1.0
1.0 1.0 1.0 1.0 1.0 1.0 1.0 1.0
1.0 1.0 1.0 1.0 1.0 1.0 1.0 1.0
1.0 1.0 1.0
00000000: 0000 803f 0000 803f 0000 803f 0000 803f
00000010: 0000 803f 0000 803f 0000 803f 0000 803f
00000020: 0000 803f 0000 803f 0000 803f 0000 803f
00000030: 0000 803f 0000 803f 0000 803f 0000 803f
00000040: 0000 803f 0000 803f 0000 803f 0000 803f
00000050: 0000 803f 0000 803f 0000 803f 0000 803f
00000060: 0000 803f 0000 803f 0000 803f

tensor_w f4 [1, 150, 32]
0.07529728 0.50824076 1.067494 0.15105261 0.298654 -0.2437439 0.48694405 -0.0944518
0.14197153 0.12213063 0.07699317 0.23561424 0.015125588 0.4085005 0.051215194 0.98620373
0.26704296 -0.00040820593 0.050573368 0.0148632 1.4551194 0.25370014 0.16653724 0.112938166
-0.06278108 0.08471064 0.23187721 -0.06200595 0.27789736 0.40023386 -0.33099136 0.2970068
0.022442432 0.17096558 -0.39386025 0.07760002 0.21415757 0.15217182 0.021632377 0.042544067
0.40251863 0.76064867 0.14218257 0.20448576 1.0613303 0.19071522 0.21967697 0.3604775
1.1467551 1.2629308 -0.056383748 0.9300095 0.3850735 -0.098177694 0.15003535 0.6732041
0.17022133 0.71479076 -0.15494339 -0.08538528 -0.029870505 0.04980867 -0.14392552 -0.17045452
0.68633324 0.71136475 -0.05914632 -0.48984095 0.06352353 0.44518906 0.6598921 0.68472046
0.680561 1.8531024 -0.056194227 0.70169663 -0.009182488 0.5342491 -0.041733608 0.03734721
0.58332443 -0.036136195 0.66599363 0.005524693 -0.40927884 0.5043499 0.015538077 0.08131218
0.9258806 0.8417517 0.9187945 2.3500092 -0.24078138 -0.033227764 0.28135905 0.5400756
1.8077923 2.5211563 2.1993868 0.14027184 0.009529553 3.149771 5.4633703 6.002257
-0.013506345 -0.040384497 1.9813048 0.27011034 0.06938209 1.753652 1.9733812 1.0409607
2.6118636 0.14603691 0.70349354 -0.24679744 0.5096506 1.2859478 0.20910798 0.03128622
1.8589923 0.04795442 0.12162472 8.1313 0.43809935 -0.19538754 2.2276633 1.2468916
1.8897852 0.552088 -0.7294246 -0.45114177 0.19877762 0.18467702 0.4187158 0.17459683
0.27274367 0.90475005 0.033420492 0.1453705 0.17525823 -0.528511 -0.017574746 0.16666003
-0.23076648 0.04400927 1.0613729 0.092436865 -0.20563029 0.056288254 0.25003 0.32418022
-0.064756304 0.41454768 0.23726904 0.14685835 -0.111296706 -0.7809748 -0.0056480994 -0.19143713
-0.29812118 0.55234843 0.029744694 0.015097268 -0.08045232 3.0216115 -0.1085321 0.091036
0.09949025 0.2186163 0.08931652 -0.119977675 0.011568543 -0.65648603 0.03804027 0.5335613
3.0145955 0.29449847 0.20845447 -0.0052679502 0.24065897 -0.6867238 1.4753602 0.17343028
0.061110143 -0.0077093956 -0.49435705 -0.072049215 -0.1496402 0.14231098 2.9451506 -0.7091549
0.11608951 0.26515093 -0.11282894 0.036261603 -0.17542186 0.4695522 0.252102 0.12573846
0.2510935 0.8249423 0.5478316 0.021625908 1.0107037 0.08385412 0.27762187 0.23291206
0.04310034 1.1831301 0.43583035 0.06727199 1.2135755 0.055829488 0.10072736 0.6780471
-0.071720764 0.32088384 -0.71117604 -0.06283889 -0.16020817 -0.29713538 0.1566912 -0.1905831
0.0044033877 0.8682733 0.34970078 0.021367095 -0.16057184 0.5774086 0.22932164 -0.120109305
0.0036539212 0.05563818 0.18935524 0.24900787 0.05464674 0.12293692 0.3751758 1.6754427
0.905288 0.056506947 0.13193479 0.00842416 2.338988 -0.0036077911 0.5589656 0.14994352
0.021125542 -0.07851711 -0.13427418 -0.021157833 -0.30605882 -0.026100438 0.49500877 -0.0944859
00000000: 7635 9a3d 111c 023f a5a3 883f 89ad 1a3e
00000010: 2de9 983e 0098 79be bb50 f93e f26f c1bd
00000020: fc60 113e a01f fa3d 98ae 9d3d dc44 713e
00000030: 50d1 773c fa26 d13e 06c7 513d d977 7c3f
00000040: dbb9 883e 7904 d6b9 0526 4f3d c784 733c
00000050: 5a41 ba3f fce4 813e bd88 2a3e 204c e73d
00000060: 5e93 80bd c67c ad3d 3871 6d3e f3f9 7dbd
00000070: 9048 8e3e 74eb cc3e b377 a9be 4611 983e
00000080: 31d9 b73c 9a11 2f3e 0da8 c9be c2ec 9e3d
00000090: 1f4c 5b3e eed2 1b3e 6236 b13c b042 2e3d
000000a0: ec16 ce3e dfb9 423f 4f98 113e b764 513e
000000b0: acd9 873f da4a 433e 00f3 603e 8290 b83e
000000c0: dfc8 923f b7a7 a13f a5f2 66bd 1a15 6e3f
000000d0: 5b28 c53e 6311 c9bd dea2 193e 1b57 2c3f
000000e0: 804e 2e3e 87fc 363f 7ba9 1ebe 7ade aebd
000000f0: fdb2 f4bc 2d04 4c3d 3661 13be a18b 2ebe
00000100: 89b3 2f3f 001c 363f 6943 72bd 6fcc fabe
00000110: a018 823d d2ef e33e b0ee 283f d749 2f3f
00000120: 3f39 2e3f 7632 ed3f eb2b 66bd 64a2 333f
00000130: 2572 16bc 8dc4 083f dcf0 2abd 63f9 183d
00000140: c054 153f 8c03 14bd 8f7e 2a3f 7c08 b53b
00000150: ff8c d1be 131d 013f 6b93 7e3c 0087 a63d
00000160: 8306 6d3f 0a7d 573f 1e36 6b3f 8d66 1640
00000170: 658f 76be d619 08bd 4b0e 903e 6542 0a3f
00000180: bd65 e73f a05a 2140 c1c2 0c40 6ca3 0f3e
00000190: d821 1c3c d995 4940 eed3 ae40 7d12 c040
000001a0: b849 5dbc 376a 25bd 659b fd3f e74b 8a3e
000001b0: 3218 8e3d ab77 e03f c197 fc3f 333e 853f
000001c0: c628 2740 b38a 153e 2718 343f 78b8 7cbe
000001d0: 7678 023f f099 a43f 6720 563e fb25 003d
000001e0: 76f3 ed3f db6b 443d 6216 f93d ce19 0241
000001f0: 8f4e e03e ac13 48be 0992 0e40 259a 9f3f
00000200: 7be4 f13f a455 0d3f 92bb 3abf 0efc e6be
00000210: 5c8c 4b3e f91b 3d3e eb61 d63e 83c9 323e
00000220: 0fa5 8b3e b39d 673f ede3 083d 01dc 143e
00000230: e576 333e 7f4c 07bf eaf8 8fbc eda8 2a3e
00000240: 0c4e 6cbe 1043 343d 11db 873f 8a4f bd3d
00000250: bf90 52be 838e 663d ef03 803e f3fa a53e
00000260: f49e 84bd 983f d43e a8f6 723e 0962 163e
00000270: 87ef e3bd f7ed 47bf b113 b9bb 1808 44be
00000280: 57a3 98be b566 0d3f 25ab f33c 885a 773c
00000290: 30c4 a4bd 1562 4140 1446 debd 1571 ba3d
000002a0: 8bc1 cb3d f4dc 5f3e 94eb b63d dbb6 f5bd
000002b0: fc89 3d3c 780f 28bf 1dd0 1b3d 7997 083f
000002c0: 22ef 4040 81c8 963e 1775 553e c59e acbb
000002d0: 4e6f 763e 22cd 2fbf 9ad8 bc3f b597 313e
000002e0: a14e 7a3d 199f fcbb 5e1c fdbe 8a8e 93bd
000002f0: 483b 19be f8b9 113e 597d 3c40 2d8b 35bf
00000300: 56c0 ed3d ddc1 873e dc12 e7bd 0c87 143d
00000310: caa1 33be 2569 f03e 8313 813e 95c1 003e
00000320: 548f 803e 6b2f 533f b13e 0c3f d128 b13c
00000330: bd5e 813f b5bb ab3d 7424 8e3e 8080 6e3e
00000340: fb89 303d cf70 973f 2825 df3e e6c5 893d
00000350: 7156 9b3f 76ad 643d 254a ce3d 7f94 2d3f
00000360: 56e2 92bd e34a a43e a20f 36bf adb1 80bd
00000370: 9c0d 24be 2122 98be a873 203e 3728 43be
00000380: 4b4a 903b 2947 5e3f fb0b b33e 0c0a af3c
00000390: f26c 24be 0dd1 133f 4bd3 6a3e defb f5bd
000003a0: a076 6f3b dce4 633d 57e6 413e ebfb 7e3e
000003b0: 43d5 5f3d 5ac6 fb3d 0b17 c03e e874 d63f
000003c0: f4c0 673f d473 673d ea19 073e 7d05 0a3c
000003d0: fbb1 1540 b170 6cbb 5f18 0f3f cb8a 193e
000003e0: 790f ad3c 94cd a0bd 2c7f 09be 3153 adbc
000003f0: beb3 9cbe 96d0 d5bc ca71 fd3e d381 c1bd

tensor_r f4 [1, 150, 50]
-0.1537673 0.53037345 -0.481732 0.16495825 0.9276473 -0.21646456 -0.22359242 0.06666796
0.36323258 -0.035263088 0.026055688 0.2740163 0.41871032 -0.37743688 0.48373118 -0.54620427
0.18240853 0.5700497 -0.002986185 0.20916387 0.502205 0.18851788 -0.18050283 0.5712633
0.48023358 -0.28819156 -0.24148394 -0.20498477 0.26191622 -0.43872648 -0.2823537 0.8744755
0.25480196 -0.07566467 0.21622774 -0.15032576 0.54530925 -0.34662223 0.29612234 -0.04511401
-0.26476234 -0.35963377 0.3276847 -0.82812667 0.69179744 -0.6530012 -0.25666508 -0.16143154
-0.091642015 -0.41094372 0.34353125 0.4378047 0.0330031 -0.010442059 0.04463453 0.054757245
-0.13672611 -0.23312464 0.054048143 -0.11989461 -0.5328644 -0.36253428 0.2128822 0.64582664
-0.01774506 0.13316938 0.13677539 0.33495265 0.8186882 0.17490493 0.39706755 0.17491011
-0.12379216 0.1637839 -0.14269124 0.19251457 -0.31294858 0.040007915 -0.1315098 -0.117626525
0.013050724 0.1274669 0.33920914 -0.09357632 0.011831722 -0.22806554 -0.4086063 -0.018165424
-0.44546223 0.036935885 0.18083882 -0.010960863 -0.030696943 0.076663114 -0.12741171 -0.23090714
0.09698721 -0.020996805 0.030778555 0.459959 0.13048992 -0.12652728 0.2790486 -0.11740887
0.13389498 0.0026641584 -0.13799262 -0.20212954 0.15500973 -0.1275844 0.04653089 -0.18646039
0.11529967 0.12383 0.0088909445 0.17675266 0.2983982 -0.39022505 0.10799558 0.003956959
-0.020962136 0.20005074 -0.002089181 -0.2538334 0.04941193 0.033349182 0.036841664 0.048276182
-0.16597614 0.029151734 0.14366676 0.0044119665 -0.016863456 0.18933135 -0.53467745 -0.0671039
0.16775979 -0.086733185 0.3342813 0.12518625 0.037236694 -0.11107657 0.11197406 0.115792334
-0.45008412 -0.16596168 -0.115292765 0.17087923 0.1738657 0.38126728 0.00183201 -0.13239996
0.34714487 -0.5087029 0.15446608 0.0395211 0.28476492 0.17518581 0.7077861 0.22337133
-0.17408235 -0.079271264 -0.13342537 -0.11462909 -0.03814695 0.05936915 -0.10172063 -0.16033359
0.49691308 -0.024917297 0.0155685 -0.07218037 -0.043701064 -0.6299097 0.14371938 -0.15210843
-0.052355602 0.34927425 0.08896138 0.36419106 -0.27907196 -0.045873635 0.037402965 -0.037953507
-0.11631483 0.101414345 0.070351176 -0.59930116 -0.8581171 0.4203316 -0.061358184 0.0217923
0.0892495 0.1778687 -0.18682192 -0.26131213 0.07218226 -0.21154681 0.049049478 -0.17525591
-0.35393924 -0.5984276 0.20737092 0.04515073 -0.7582231 -0.12858912 -0.34117714 -0.052349336
-0.052689947 -0.24309519 0.29945555 0.44848296 -0.040819913 0.28689787 -0.25380415 -0.14868723
-0.40339512 -0.00929938 1.087624 0.01311477 0.45580882 -0.0012636412 0.18004255 -0.3620687
0.36523765 0.33550102 -0.5203895 0.026549945 -0.019774472 0.15514317 0.023969028 0.03593606
0.14686613 0.07663337 -0.1318444 0.3247738 0.23826303 -0.30365708 0.21243294 -0.21716216
-0.034293376 -0.34302688 -0.112510815 0.07672908 0.29956838 -0.03695086 0.09362674 0.17909583
0.42758784 -0.3621927 -0.08257825 -0.014326789 0.29453257 -0.4441134 -0.42841053 0.4886116
00000000: 2d75 1dbe 8ec6 073f 94a5 f6be d1ea 283e
00000010: 4b7a 6d3f e3a8 5dbe 69f5 64be 3689 883d
00000020: 9ff9 b93e 0770 10bd bd72 d53c dd4b 8c3e
00000030: 3361 d63e 683f c1be 9dab f73e 0bd4 0bbf
00000040: 4dc9 3a3e c7ee 113f dfb3 43bb 0e2f 563e
00000050: 8290 003f d50a 413e bcd5 38be 503e 123f
00000060: 2de1 f53e d88d 93be 9147 77be 87e7 51be
00000070: e219 863e c2a0 e0be aa90 90be a0dd 5f3f
00000080: 6775 823e 14f6 9abd ce6a 5d3e ffee 19be
00000090: 6399 0b3f 7878 b1be 599d 973e 78c9 38bd
000000a0: ee8e 87be eb21 b8be 4ac6 a73e 1c00 54bf
000000b0: a319 313f 162b 27bf 9b69 83be 4f4e 25be
000000c0: cfae bbbd 3767 d2be 54e3 af3e f027 e03e
000000d0: 422e 073d 2b15 2bbc b2d2 363d 2249 603d
000000e0: ee01 0cbe 3ab8 6ebe 9661 5d3d 4e8b f5bd
000000f0: cd69 08bf 189e b9be cbfd 593e e554 253f
00000100: 175e 91bc 8e5d 083e d90e 0c3e ea7e ab3e
00000110: 8d95 513f 471a 333e 704c cb3e a31b 333e
00000120: be86 fdbd f7b6 273e a71d 12be 8a22 453e
00000130: cc3a a0be 57df 233d 81aa 06be 2de6 f0bd
00000140: b4d2 553c af86 023e d2ac ad3e f1a4 bfbd
00000150: d7d9 413c 038a 69be d834 d1be a8cf 94bc
00000160: a013 e4be 154a 173d d02d 393e 3195 33bc
00000170: 2878 fbbc 8d01 9d3d 3778 02be ec72 6cbe
00000180: 3ba1 c63d 7e01 acbc 4f23 fc3c bf7f eb3e
00000190: 269f 053e 5e90 01be 75df 8e3e 1074 f0bd
000001a0: c41b 093e 2999 2e3b f04d 0dbe 0cfb 4ebe
000001b0: dfba 1e3e 7ca5 02be 2d97 3e3d 79ef 3ebe
000001c0: 3c22 ec3d 959a fd3d 53ab 113c a6fe 343e
000001d0: a6c7 983e 94cb c7be c92c dd3d 61a9 813b
000001e0: c9b8 abbc 1ada 4c3e a4ea 08bb 74f6 81be
000001f0: 2a64 4a3d 2799 083d 49e7 163d 3fbd 453d
00000200: a6f5 29be 9ecf ee3c 611d 133e 4292 903b
00000210: 3b25 8abc 14e0 413e 9fe0 08bf c56d 89bd
00000220: 39c9 2b3e 2ba1 b1bd eb26 ab3e d330 003e
00000230: 8185 183d 1d7c e3bd a852 e53d 8824 ed3d
00000240: 6d71 e6be dcf1 29be 9d1e ecbd f7fa 2e3e
00000250: da09 323e 7735 c33e 0e20 f03a db93 07be
00000260: f9bc b13e 5a3a 02bf 5b2c 1e3e e1e0 213d
00000270: b5cc 913e e963 333e 7831 353f 74bb 643e
00000280: a542 32be f958 a2bd a9a0 08be a8c2 eabd
00000290: fa3f 1cbd 112d 733d e852 d0bd 7d2e 24be
000002a0: 646b fe3e 5c1f ccbc 0613 7f3c 4dd3 93bd
000002b0: e3ff 32bd c341 21bf 2c2b 133e 50c2 1bbe
000002c0: d472 56bd 13d4 b23e 6231 b63d 4077 ba3e
000002d0: 85e2 8ebe fee5 3bbd da33 193d 2375 1bbd
000002e0: 7836 eebd 53b2 cf3d 4714 903d cd6b 19bf
000002f0: 90ad 5bbf b435 d73e b852 7bbd c485 b23c
00000300: 71c8 b63d 3623 363e 3f4e 3fbe b4ca 85be
00000310: 4bd4 933d ba9f 58be 1be8 483d 4976 33be
00000320: 8637 b5be 8d32 19bf 0b59 543e f9ef 383d
00000330: e91a 42bf deac 03be c5ae aebe 426c 56bd
00000340: 6ad1 57bd f2ed 78be 3d52 993e 8f9f e53e
00000350: c832 27bd 47e4 923e 9ef2 81be 7741 18be
00000360: ce89 cebe 6d5c 18bc 4337 8b3f 55df 563c
00000370: c65f e93e c3a0 a5ba 135d 383e 1261 b9be
00000380: 6e00 bb3e cac6 ab3e 3f38 05bf 457f d93c
00000390: 13fe a1bc dadd 1e3e b25a c43c b131 133d
000003a0: 1364 163e f5f1 9c3d 3802 07be c048 a63e
000003b0: 39fb 733e f178 9bbe 0588 593e c25f 5ebe
000003c0: 3677 0cbd 38a1 afbe 126c e6bd 2324 9d3d
000003d0: 0761 993e c959 17bd 60bf bf3d e664 373e
000003e0: cbec da3e 5271 b9be c91e a9bd e9ba 6abc
000003f0: f9cc 963e d562 e3be a058 dbbe 4d2b fa3e

tensor_b f4 [1, 300]
0.046729673 0.79286253 0.9099804 0.6754147 0.65486515 0.9483781 0.8498216 0.69901943
0.7713563 0.9883611 1.210084 0.20173225 0.20393603 0.698696 1.2400949 1.0047426
1.2248626 0.78623784 0.53729606 1.5209385 0.9108203 0.9460629 -0.48707876 0.79760957
0.60222423 1.59789 0.7869895 0.47777078 -0.14518566 0.43516368 0.5361915 0.47961214
1.2111976 0.7471502 -0.01945426 0.43456292 0.72190905 0.92404956 0.8018856 0.50390303
1.0749401 1.1131476 0.28351966 0.6803517 0.91723627 0.9203535 1.3641284 0.48344266
0.5098772 1.1186751 -1.1846489 -1.5643284 -0.3239545 -1.7534779 -0.8786223 -1.0858396
-2.0475225 -1.9040039 -0.32206655 -0.70197433 -1.278547 -0.6028864 -1.3761696 -0.8824073
-0.6747377 -1.0844941 -1.6425537 -1.0050187 -0.47913456 -1.1407667 -0.98029196 -1.3597533
-0.6445186 -0.97406054 -1.3844976 -2.257912 -0.4517551 -0.8126882 -0.7548719 -1.1286695
-0.26962885 -2.1680946 -0.9045423 -0.5983394 -0.7066281 -1.3195754 -0.36188072 -1.0645275
-1.405088 -1.4591311 -0.8117152 -1.3297973 -0.9275138 -0.633377 -1.4472922 -0.8134007
-0.80712885 -0.92339826 -1.1889987 -0.77427447 0.12684 0.13224353 0.28550607 0.027910093
0.06855161 0.23829159 0.15209876 0.12843442 0.6622061 0.20550272 0.1512127 0.031041393
-0.035358313 0.003773917 -0.15940149 0.81237185 0.7478204 -0.14824523 0.559911 0.58501637
-0.041510783 -0.67145985 0.21618901 -0.21414024 -0.21665856 -0.21548837 -0.5206729 0.08640706
-0.06939691 0.2212596 -0.77211076 0.015696887 0.339038 -0.058560595 -1.2474194 0.30525452
-0.36156344 -0.5248447 -0.15937714 0.059522334 0.09171025 -0.8492496 -0.46892118 0.25934583
-0.12811442 0.25866687 -0.1057057 0.20188545 0.09430677 -0.49661317 0.0 0.0
0.0 0.0 0.0 0.0 0.0 0.0 0.0 0.0
0.0 0.0 0.0 0.0 0.0 0.0 0.0 0.0
0.0 0.0 0.0 0.0 0.0 0.0 0.0 0.0
0.0 0.0 0.0 0.0 0.0 0.0 0.0 0.0
0.0 0.0 0.0 0.0 0.0 0.0 0.0 0.0
0.0 0.0 0.0 0.0 0.0 0.0 0.0 0.0
0.0 0.0 0.0 0.0 0.0 0.0 0.0 0.0
0.0 0.0 0.0 0.0 0.0 0.0 0.0 0.0
0.0 0.0 0.0 0.0 0.0 0.0 0.0 0.0
0.0 0.0 0.0 0.0 0.0 0.0 0.0 0.0
0.0 0.0 0.0 0.0 0.0 0.0 0.0 0.0
0.0 0.0 0.0 0.0 0.0 0.0 0.0 0.0
0.0 0.0 0.0 0.0 0.0 0.0 0.0 0.0
00000000: 9d67 3f3d 0af9 4a3f 7af4 683f fae7 2c3f
00000010: 3ea5 273f e8c8 723f e98d 593f f0f2 323f
00000020: 9b77 453f 3c05 7d3f 08e4 9a3f e692 4e3e
00000030: 9bd4 503e bedd 323f 6ebb 9e3f 689b 803f
00000040: 4cc8 9c3f e246 493f 3c8c 093f 1dae c23f
00000050: 852b 693f 2e31 723f 6362 f9be 2430 4c3f
00000060: 5e2b 1a3f a987 cc3f 2578 493f 5f9e f43e
00000070: 8dab 14be c6cd de3e d943 093f b98f f53e
00000080: 8608 9b3f 3c45 3f3f 8a5e 9fbc 087f de3e
00000090: 08cf 383f 838e 6c3f 6048 4d3f caff 003f
000000a0: a397 893f 9f7b 8e3f 7d29 913e 872b 2e3f
000000b0: ffcf 6a3f 499c 6b3f c29b ae3f cc85 f73e
000000c0: 5087 023f bf30 8f3f 93a2 97bf ea3b c8bf
000000d0: 5ddd a5be f771 e0bf 64ed 60bf cbfc 8abf
000000e0: 9c0a 03c0 66b6 f3bf e8e5 a4be 97b4 33bf
000000f0: 6ea7 a3bf c356 1abf 5326 b0bf 72e5 61bf
00000100: 9cbb 2cbf b4d0 8abf 333f d2bf 74a4 80bf
00000110: 2051 f5be a504 92bf 6af4 7abf 650c aebf
00000120: 2cff 24bf 085c 79bf 3837 b1bf a181 10c0
00000130: 724c e7be 550c 50bf 493f 41bf 3e78 90bf
00000140: cb0c 8abe 10c2 0ac0 1690 67bf c52c 19bf
00000150: 94e5 34bf d9e7 a8bf 6e48 b9be 7042 88bf
00000160: ecd9 b3bf cfc4 babf 91cc 4fbf cc36 aabf
00000170: 8b71 6dbf ff24 22bf df40 b9bf 073b 50bf
00000180: ff9f 4ebf d463 6cbf 1c31 98bf da36 46bf
00000190: 58e2 013e d96a 073e da2d 923e b5a3 e43c
000001a0: c964 8c3d b602 743e c7bf 1b3e 5084 033e
000001b0: 5786 293f 4e6f 523e 81d7 1a3e 854a fe3c
000001c0: e1d3 10bd d253 773b 253a 23be 9af7 4f3f
000001d0: 2871 3f3f 99cd 17be 5456 0f3f a2c3 153f
000001e0: 3607 2abd cbe4 2bbf a760 5d3e 9447 5bbe
000001f0: bedb 5dbe fca8 5cbe d24a 05bf 2ff6 b03d
00000200: f81f 8ebd e091 623e 0da9 45bf c296 803c
00000210: 6496 ad3e 3cdd 6fbd 70ab 9fbf 524a 9c3e
00000220: d81e b9be 395c 06bf c333 23be b1cd 733d
00000230: 95d2 bb3d 6c68 59bf 7016 f0be fac8 843e
00000240: 6d30 03be fc6f 843e 3b7c d8bd 0fbb 4e3e
00000250: e823 c13d 1544 febe 0000 0000 0000 0000
00000260: 0000 0000 0000 0000 0000 0000 0000 0000
00000270: 0000 0000 0000 0000 0000 0000 0000 0000
00000280: 0000 0000 0000 0000 0000 0000 0000 0000
00000290: 0000 0000 0000 0000 0000 0000 0000 0000
000002a0: 0000 0000 0000 0000 0000 0000 0000 0000
000002b0: 0000 0000 0000 0000 0000 0000 0000 0000
000002c0: 0000 0000 0000 0000 0000 0000 0000 0000
000002d0: 0000 0000 0000 0000 0000 0000 0000 0000
000002e0: 0000 0000 0000 0000 0000 0000 0000 0000
000002f0: 0000 0000 0000 0000 0000 0000 0000 0000
00000300: 0000 0000 0000 0000 0000 0000 0000 0000
00000310: 0000 0000 0000 0000 0000 0000 0000 0000
00000320: 0000 0000 0000 0000 0000 0000 0000 0000
00000330: 0000 0000 0000 0000 0000 0000 0000 0000
00000340: 0000 0000 0000 0000 0000 0000 0000 0000
00000350: 0000 0000 0000 0000 0000 0000 0000 0000
00000360: 0000 0000 0000 0000 0000 0000 0000 0000
00000370: 0000 0000 0000 0000 0000 0000 0000 0000
00000380: 0000 0000 0000 0000 0000 0000 0000 0000
00000390: 0000 0000 0000 0000 0000 0000 0000 0000
000003a0: 0000 0000 0000 0000 0000 0000 0000 0000
000003b0: 0000 0000 0000 0000 0000 0000 0000 0000
000003c0: 0000 0000 0000 0000 0000 0000 0000 0000
000003d0: 0000 0000 0000 0000 0000 0000 0000 0000
000003e0: 0000 0000 0000 0000 0000 0000 0000 0000
000003f0: 0000 0000 0000 0000 0000 0000 0000 0000

tensor_w1 f4 [1, 150, 32]
0.05757683 -3.4170334 2.932156 -0.49338922 0.34111485 3.072707 -0.53923905 -0.45225108
-0.33314297 0.61096674 0.04822188 1.4480598 0.33536077 -0.48182392 -1.4010601 2.6128492
-0.6859593 0.16895884 2.9113355 -0.94422376 -0.3639 0.24605358 0.7912683 -0.87250054
0.3710181 2.560768 0.948794 0.17619388 0.53132045 0.57474285 0.28448567 0.110524066
0.10731734 0.28514677 1.118948 0.99245095 0.015872857 0.8115909 1.1658505 1.2627829
-0.08793163 1.6100972 0.5003383 0.23636201 1.9874092 1.8516803 0.83387005 1.4757202
0.47589347 0.038081616 0.5753172 -0.134554 1.832818 0.39153355 0.41037047 2.3659625
0.08308748 1.2745426 0.50522274 0.1334023 0.40748253 1.5924392 0.42916942 2.4174223
0.92044777 1.4136115 0.70539266 0.08883188 0.04937957 0.5616143 0.18623118 -0.021315398
0.14709918 0.9442014 -0.21116613 0.7365472 1.2024966 -0.13733555 0.15172869 0.61673135
0.1327718 1.2580565 1.126707 -0.030529626 -0.039899625 0.1972503 0.22005898 -0.16440672
0.06728653 0.5476396 0.37999043 0.10888861 1.3863691 1.0167334 0.06190591 1.2132457
0.90587187 -0.81949514 0.9291851 0.5319077 0.20371053 0.82610154 1.275461 0.39093253
0.63286626 1.0321121 0.1820082 0.6515762 1.7049131 0.4882676 0.34814647 0.70750463
0.51719576 0.64979 0.69116014 -0.96230996 0.6808212 0.3885509 0.35482392 0.6370435
0.26190618 0.34358528 0.57464373 0.22519936 0.8569398 0.0002403715 0.23683776 1.8643678
-0.1415478 0.96889174 0.558973 -0.48408365 0.7728984 0.39280945 -0.01105745 -0.5820612
-0.29750425 2.064899 0.75018585 0.6010344 1.7064263 -0.9613055 0.53115356 0.13286075
0.5535636 0.4113517 -0.06910883 0.21015371 0.6986617 0.87404794 0.35997695 -0.70667154
0.90074664 0.47440293 0.4560422 0.76171905 0.47964782 1.7673278 0.8225825 1.0832225
0.5265952 2.6235769 0.55011666 2.096806 0.22413011 0.5000738 1.0393354 2.687426
1.3633094 1.8693075 0.09432611 0.6586015 0.10957167 1.7601373 2.2200856 0.7428794
0.4601249 0.07387131 0.78590447 0.0837144 -0.25673127 0.34539792 0.40005672 1.357948
0.30803683 0.3931541 0.6834911 0.09860715 0.3645036 1.8282284 0.2487376 -0.061519973
0.4322414 -1.2822255 2.6214728 -0.019949308 0.33000124 2.0889394 0.48847947 0.27100703
0.5736331 1.0565737 0.577662 0.6958511 1.7804055 0.58125323 0.74937165 2.7599773
0.48068762 0.2708737 1.4911654 0.61458695 -0.27239767 0.47308847 0.91706514 0.18500876
0.333941 1.2646415 2.0827947 0.50319296 0.18715802 0.59878445 0.5782543 1.9839057
-0.21323974 -0.20716691 1.2877564 -0.23488761 0.73542315 0.91155195 -0.78961104 -0.43039468
-0.06417486 0.23417392 0.8381062 0.5752185 0.44164824 -1.7199414 0.8703912 1.2100334
1.1559631 0.06364768 0.47356603 1.2476366 0.038647152 0.69946975 2.1607504 -1.4748942
0.7603881 1.5532267 1.4317389 0.74205756 0.3261734 0.25246984 0.5657637 0.37048328
00000000: afd5 6b3d adb0 5ac0 72a8 3b40 839d fcbe
00000010: 9ba6 ae3e 3ba7 4440 920b 0abf 748d e7be
00000020: b791 aabe 5168 1c3f 4e84 453d 065a b93f
00000030: 68b4 ab3e a0b1 f6be f055 b3bf ec38 2740
00000040: 079b 2fbf 8c03 2d3e 5253 3a40 a6b8 71bf
00000050: 1a51 babe 78f5 7b3e 8f90 4a3f 325c 5fbf
00000060: 16f6 bd3e 9fe3 2340 2ae4 723f 2b6c 343e
00000070: 9e04 083f 5922 133f 1ba8 913e 715a e23d
00000080: 32c9 db3d c2fe 913e b039 8f3f 4411 7e3f
00000090: cb07 823c 6cc4 4f3f 973a 953f dfa2 a13f
000000a0: 8015 b4bd aa17 ce3f 2c16 003f e208 723e
000000b0: 6d63 fe3f dc03 ed3f 8278 553f 66e4 bc3f
000000c0: 4fa8 f33e 78fb 1b3d fd47 133f 86c8 09be
000000d0: c899 ea3f 1677 c83e 141c d23e ee6b 1740
000000e0: c529 aa3d 3624 a33f 4756 013f 9d9a 083e
000000f0: 8da1 d03e 0cd5 cb3f 18bc db3e 0cb7 1a40
00000100: 77a2 6b3f 39f1 b43f 9d94 343f 7ded b53d
00000110: 3b42 4a3d f4c5 0f3f 63b3 3e3e a19d aebc
00000120: 2ba1 163e 2fb7 713f ef3b 58be 5b8e 3c3f
00000130: 69eb 993f b1a1 0cbe c45e 1b3e 1be2 1d3f
00000140: 55f5 073e ff07 a13f ef37 903f 4419 fabc
00000150: ca6d 23bd fcfb 493e 2457 613e 3c5a 28be
00000160: 85cd 893d 1c32 0c3f 1b8e c23e fe00 df3d
00000170: 8b74 b13f 5224 823f 0d91 7d3d a34b 9b3f
00000180: 38e7 673f 6fca 51bf 13df 6d3f 1a2b 083f
00000190: 7e99 503e 647b 533f 4e42 a33f 4f28 c83e
000001a0: 8603 223f 401c 843f 5c60 3a3e b3cd 263f
000001b0: 983a da3f 36fe f93e 4140 b23e 061f 353f
000001c0: f166 043f a358 263f dfef 303f f259 76bf
000001d0: 4c4a 2e3f 25f0 c63e 7bab b53e 4815 233f
000001e0: 9118 863e 69ea af3e da1b 133f a99a 663e
000001f0: 6860 5b3f 3c0c 7c39 9985 723e 9ba3 ee3f
00000200: e8f1 10be 4a09 783f db18 0f3f d0d9 f7be
00000210: abdc 453f 521e c93e 4f2a 35bc f601 15bf
00000220: 7a52 98be 4e27 0440 2e0c 403f 64dd 193f
00000230: 2d6c da3f 1e18 76bf aef9 073f a60c 083e
00000240: 58b6 0d3f b19c d23e ee88 8dbd 8932 573e
00000250: 7edb 323f 9bc1 5f3f e64e b83e 6de8 34bf
00000260: 5597 663f f1e4 f23e 5d7e e93e 0500 433f
00000270: 6694 f53e cc37 e23f c494 523f 09a7 8a3f
00000280: f1ce 063f afe8 2740 72d4 0c3f 1232 0640
00000290: 5d82 653e d604 003f f108 853f cafe 2b40
000002a0: ec80 ae3f 7845 ef3f 0c2e c13d 1c9a 283f
000002b0: 1d67 e03d 2e4c e13f e215 0e40 582d 3e3f
000002c0: 7e95 eb3e d749 973d 0931 493f 7572 ab3d
000002d0: 4872 83be ffd7 b03e 3cd4 cc3e 3dd1 ad3f
000002e0: 01b7 9d3e 7f4b c93e 46f9 2e3f 8cf2 c93d
000002f0: 37a0 ba3e 6303 ea3f 12b5 7e3e 5efc 7bbd
00000300: bf4e dd3e f71f a4bf 36c6 2740 bb6c a3bc
00000310: ecf5 a83e 2fb1 0540 fb19 fa3e 6fc1 8a3e
00000320: 9ed9 123f cf3d 873f a8e1 133f 4c23 323f
00000330: 54e4 e33f 03cd 143f d2d6 3f3f 78a3 3040
00000340: b01c f63e f5af 8a3e 82de be3f 9255 1d3f
00000350: b577 8bbe a738 f23e c8c4 6a3f f072 3d3e
00000360: 51fa aa3e c6df a13f 824c 0540 41d1 003f
00000370: 5aa6 3f3e f049 193f 7908 143f 9ff0 fd3f
00000380: 855b 5abe 9023 54be 34d5 a43f 6186 70be
00000390: b144 3c3f 785b 693f f323 4abf b15c dcbe
000003a0: 1c6e 83bd 4acb 6f3e 218e 563f 8541 133f
000003b0: b81f e23e 0a27 dcbf f5d1 5e3f 60e2 9a3f
000003c0: 99f6 933f b759 823d 3f77 f23e 8eb2 9f3f
000003d0: 7a4c 1e3d 7310 333f bc49 0a40 55c9 bcbf
000003e0: cba8 423f 22d0 c63f 3843 b73f 7cf7 3d3f
000003f0: 3300 a73e ba43 813e e4d5 103f fcaf bd3e

tensor_r1 f4 [1, 150, 50]
0.9793986 0.2610511 -0.4658301 0.6465678 0.7654278 -0.36472335 1.0202695 0.27600908
-0.3404833 1.5430361 1.4646221 -0.3899828 -0.080508366 0.08835321 1.1423591 0.6362057
-0.08708165 -0.53542495 -0.34673685 1.6387838 0.038640995 -0.32688877 1.8981438 2.2021668
0.39187458 -0.70788574 0.13587688 1.0861249 0.92856455 -0.20315295 0.7123345 0.49052402
0.7518465 1.5172495 0.19306709 0.92030245 1.3572311 -0.06289878 -1.231983 1.6373404
0.24486873 0.86560214 -0.8848603 -0.7111361 -0.87513137 -0.37585548 0.8380444 -0.98147607
0.9608801 -1.602506 1.5204871 0.55872345 -0.44155148 -1.1757469 3.33609 0.0007009961
0.1778045 0.27883682 0.5741616 -0.30898616 0.19876616 0.8358718 -0.94341534 0.17152716
-1.1067393 -0.25191933 -2.7995307 0.2732036 -0.07420572 -0.8066433 -0.39967504 -0.32899398
1.0306573 -1.0453664 0.68746316 0.20384397 0.34808686 -0.8267113 1.749285 -0.98164725
-3.7201486 1.8960849 0.49996305 -0.9881992 1.4735494 1.5303092 0.6206357 0.022542937
0.5194735 -0.6691814 -0.99469346 0.6857401 1.3654449 -1.1453146 3.4522128 0.66571015
0.25859714 0.24157214 -1.0095495 -0.52105564 0.62728274 0.37471604 -2.2713315 -0.04460785
-2.2562428 1.5889733 0.5661772 -0.79794073 -0.5193337 0.02914207 -1.5877761 0.12975574
-1.613118 0.13239671 0.25472954 -1.5925199 -0.29191062 0.43514764 1.0557353 -1.0930003
-0.083927736 1.0655762 -0.91301143 -2.5470057 1.5438368 0.5587874 -0.12205032 -0.97640955
-0.37763146 0.92747635 -1.7975023 -0.10312446 0.35420597 0.80698514 -0.4379537 0.4669948
2.1230042 0.8202577 0.6259261 0.9546832 -0.8170077 -0.40453097 -1.7704356 0.36969182
0.10415367 -0.09795047 1.0410063 1.0506468 -0.086127535 1.343781 -1.284803 -0.69411236
0.12641713 -0.003086251 -0.48356956 -1.6634711 0.36010718 0.08287307 -1.0524957 0.5286208
-3.1022987 -0.11697288 0.4137143 3.0895624 -1.5039407 -0.34643826 -1.3653868 1.6830119
-1.5760039 -0.4810011 0.46573934 0.82254666 0.6779356 -0.5449367 0.89464605 -0.113928944
-1.4969972 0.33392707 1.4347196 -1.6679807 1.1389955 -0.5963551 1.8106928 -0.46317574
0.27076414 -1.0315245 -0.38922065 -1.3399191 -0.9187579 -0.79955703 -0.20924096 0.47730976
0.48815033 0.1421186 -1.1689379 -0.09146029 -1.0077244 1.1293662 0.7502676 0.76933205
0.7131503 0.75225335 -0.19878234 -2.3286629 0.62443054 -0.36489642 -0.98177725 -0.02652099
-0.4209141 -1.5425633 -0.57000774 -0.18299963 -0.608922 -0.022340367 -2.458427 -0.9751366
0.17001055 1.0443186 -1.8976417 -0.48105267 -0.2067905 0.5308071 0.32718843 -1.1694428
2.7365105 -0.16260768 1.53432 -0.6784802 -0.7670958 -0.7373524 0.6494795 0.9005994
-0.48882416 1.4752479 0.71541154 0.0725867 -0.65337926 -0.5507651 2.0820487 0.9934164
2.3082952 0.38207883 0.4451692 -3.0825856 -2.9411669 -0.25846598 -0.42807868 0.6763307
0.22883715 -0.6145279 0.4658947 -1.669706 -0.4588519 0.4459002 0.82980007 1.0377822
00000000: deb9 7a3f 7da8 853e 4881 eebe 7885 253f
00000010: 14f3 433f 05bd babe 3198 823f 1051 8d3e
00000020: d453 aebe 3582 c53f bd78 bb3f d3ab c7be
00000030: 92e1 a4bd 87f2 b43d d338 923f 60de 223f
00000040: dd57 b2bd 9c11 09bf 7e87 b1be abc3 d13f
00000050: 0546 1e3d f75d a7be 60f6 f23f 4df0 0c40
00000060: c9a3 c83e 0038 35bf 4f23 0b3e 2406 8b3f
00000070: 68b6 6d3f 5407 50be 8e5b 363f f725 fb3e
00000080: 0379 403f 3b35 c23f 61b3 453e f198 6b3f
00000090: c0b9 ad3f 13d1 80bd 9eb1 9dbf 5f94 d13f
000000a0: debe 7a3e 1a98 5d3f 3486 62bf 040d 36bf
000000b0: 9c08 60bf 2170 c0be 148a 563f 0442 7bbf
000000c0: 3dfc 753f eb1e cdbf 529f c23f 8008 0f3f
000000d0: 0913 e2be e07e 96bf 8082 5540 0dc3 373a
000000e0: 6212 363e b3c3 8e3e 41fc 123f 6f33 9ebe
000000f0: 5b89 4b3e b2fb 553f ab83 71bf d1a4 2f3e
00000100: a2a9 8dbf 92fb 80be 832b 33c0 58e1 8b3e
00000110: 2bf9 97bd 2d80 4ebf 35a2 ccbe e671 a8be
00000120: 94ec 833f 91ce 85bf 96fd 2f3f 79bc 503e
00000130: 7138 b23e 5aa3 53bf 92e8 df3f 3c4d 7bbf
00000140: ea16 6ec0 e9b2 f23f 28fb ff3e 9ffa 7cbf
00000150: 449d bc3f 2ce1 c33f fbe1 1e3f f7ab b83c
00000160: 37fc 043f 794f 2bbf 3ba4 7ebf aa8c 2f3f
00000170: e6c6 ae3f ab99 92bf 0ef1 5c40 fb6b 2a3f
00000180: d866 843e b05e 773e eb38 81bf e763 05bf
00000190: 9a95 203f c8da bf3e 7f5d 11c0 b9b6 36bd
000001a0: 4866 10c0 7a63 cb3f fdf0 103f d845 4cbf
000001b0: 0ef3 04bf 5abb ee3c 3f3c cbbf b0de 043e
000001c0: a77a cebf 0193 073e e96b 823e b1d7 cbbf
000001d0: 4f75 95be accb de3e 5622 873f 6fe7 8bbf
000001e0: 4ee2 abbd cd64 883f 1ebb 69bf 2402 23c0
000001f0: 729c c53f b10c 0f3f 85f5 f9bd faf5 79bf
00000200: e958 c1be 176f 6d3f 8e14 e6bf eb32 d3bd
00000210: 7c5a b53e 9496 4e3f 783b e0be f119 ef3e
00000220: 4ddf 0740 69fc 513f b13c 203f 1e66 743f
00000230: 6b27 51bf af1e cfbe a29d e2bf 3f48 bd3e
00000240: 854e d53d 429a c8bd b23f 853f 987b 863f
00000250: a263 b0bd 0401 ac3f 6d74 a4bf 59b1 31bf
00000260: 7e73 013e b342 4abb 6e96 f7be 9fec d4bf
00000270: f85f b83e 5bb9 a93d 2eb8 86bf b153 073f
00000280: 108c 46c0 7a8f efbd 5cd2 d33e 64bb 4540
00000290: 2181 c0bf 5b60 b1be ffc4 aebf ef6c d73f
000002a0: 7fba c9bf c745 f6be 6375 ee3e 6b92 523f
000002b0: 308d 2d3f f980 0bbf 8607 653f 9453 e9bd
000002c0: 9b9d bfbf 7df8 aa3e e4a4 b73f 6480 d5bf
000002d0: 9bca 913f baaa 18bf c8c4 e73f 5f25 edbe
000002e0: 99a1 8a3e ff08 84bf ee47 c7be 7882 abbf
000002f0: b833 6bbf c5af 4cbf 4343 56be f261 f43e
00000300: d7ee f93e 8a87 113e c29f 95bf 884f bbbd
00000310: 1dfd 80bf 128f 903f 8a11 403f f2f2 443f
00000320: 0591 363f ad93 403f 998d 4bbe d008 15c0
00000330: aeda 1f3f b4d3 babe c155 7bbf 8c42 d9bc
00000340: 0e82 d7be b772 c5bf 07ec 11bf 4164 3bbe
00000350: 50e2 1bbf 2503 b7bc de56 1dc0 8da2 79bf
00000360: 3f17 2e3e 3bac 853f ece5 f2bf 894c f6be
00000370: e4c0 53be f9e2 073f 3e85 a73e 4db0 95bf
00000380: fd22 2f40 a182 26be 9964 c43f e1b0 2dbf
00000390: 6460 44bf 20c3 3cbf 4a44 263f af8d 663f
000003a0: 2947 fabe ecd4 bc3f 3625 373f 56a8 943d
000003b0: dd43 27bf f1fe 0cbf 4940 0540 8a50 7e3f
000003c0: 1cbb 1340 d69f c33e 38ed e33e 1549 45c0
000003d0: 143c 3cc0 a755 84be 212d dbbe 0224 2d3f
000003e0: 4954 6a3e b351 1dbf c089 ee3e edb8 d5bf
000003f0: a3ee eabe 084d e43e c76d 543f 0cd6 843f
