DeepDoubleX/94X/V01/DDC_mass_independent.onnx (onnx, 169128 bytes, 26 tensors)

ID_pred_4/kernel:0 f4 [100, 2]
00000000: 34d4 123d b735 50bd 04cb d93c bb58 41bd
00000010: 3e7d 283e de4f e83d be3a a1bd 3f40 68be
00000020: d5e4 ffbd bb73 b2bc d2db b73b d919 55bd
00000030: 76d0 ffba 3485 d83d c67a 133c c358 10bd
00000040: ab66 d0bd 6bbb 07be 9a44 613d 4885 ca3d
00000050: 6e15 d63d f33d 4d3d 3108 07bd 31c5 ec3c
00000060: e3d9 b3bd ff87 32bd 8138 3bbd ddcd b9bb
00000070: 3ee5 76bc 20f7 6abd 0543 f33b 1120 49be
00000080: 0a6c 0e3d 04cd be3d 6dfd ce3d 3f96 613d
00000090: c35d ffbd f898 98bd 0f9e edbd 82e3 2cbe
000000a0: c160 c63d 2ffb 053e 8bc2 74bc 7d55 1f3d
000000b0: cbb6 493c 38d0 3d3d 98a8 ad3d 6bb6 013e
000000c0: 373e 76bd b544 d5bd fca1 e0bd 57a1 d2bc
000000d0: 141d d23c 6f1e 12bd 8909 043e 18ee 9b3d
000000e0: ab30 923c a42e aa3d 0a29 6fbd bc34 abbc
000000f0: 0030 903d ff7f e63d 3740 eebd eb73 8fbd
00000100: 38b6 8fbd a63b 07bd 8d32 a23d b85e 123e
00000110: 8a2f 1b3d 15db b03b b989 643d 7673 eabd
00000120: ccfb c63c cfb5 75bc a720 02be 70a1 9ebd
00000130: a254 793d 437d c73c 88ab 3dbc d26e e1bd
00000140: ea65 173e db50 3cbc c70e 313e 84fe c43d
00000150: ad36 04bd dac6 ae3c 49d5 60bc fe71 9d3d
00000160: 18b8 a2bc 8a36 0f3c 47b4 aabc e0f5 903c
00000170: e74c cd3a ec7d 263d 975f 87bd ee5d 03bd
00000180: a174 823d 8910 0cbd f5f2 fc3c c903 cbba
00000190: 7912 1f3d b89f a83d 267f 6e3d 4f8e 4bbd
000001a0: 3001 99bd 5b04 c4bb ce7e 2abd 72ad 8ebd
000001b0: 6b47 f2bd 4b4c b5bc cdf8 aebc 0b3c f43c
000001c0: 5763 c9bd a124 7e3d 5189 653d 1a3e 853c
000001d0: a009 933d e19d 3abb 327e 973b 3cec 2abd
000001e0: f779 833c 539e 09be 40ac 67ba 183c 95bd
000001f0: 59c0 9fbd 0a39 33bd ed67 553d 10ff 65bd
00000200: 3449 bfbd 950a 14be 2dcc 0a3d 9d28 03bd
00000210: 1ae2 7c3d d0ac bd3c 59f1 b2bd c062 7dbd
00000220: 8cd8 8abc 9863 a5bd 43fa 7d3d 6e41 7ebc
00000230: 395c 293b 19cf 2b3d 935d 8c3d c765 bf3c
00000240: 562e 673d 8d34 8cbd a0ad b23c 582a 703d
00000250: 209a 4cbc 5296 a53d 38c5 0d3d 0ccd f53d
00000260: 5727 97bd 9207 08be 06cc 23bd e61d 1d3d
00000270: 7365 ee3c 8eac 973d 9f62 1f3d 784c dcbb
00000280: 45e9 8c3d 0d60 0d3d 0818 a8bd 7468 3cbd
00000290: 1d5d d0bd ca0d 8ebd 76d7 0c3e 0390 c93d
000002a0: 9083 1c3a f2c5 71bd 2bf1 94bc f9e8 a33c
000002b0: 7cba 49bd 9e91 07ba 6d22 21bd 6d88 a4bd
000002c0: 97e5 c03d 19c5 0a3e ec07 01be 50be 8dbd
000002d0: 3ac1 bcbd 7806 29be 7272 0cbe 6a79 bebd
000002e0: f908 c93d 5bdd 613d cf00 be3b 05b6 19bd
000002f0: cc61 02bd 70ad b2bd d172 e03b 3ace 9a3d
00000300: 481d 883d 22a9 dd3d 7cfc 353d b762 b73d
00000310: 5641 88bd 30a5 523b 519b 45bd ff65 22bc
0.035846904 -0.050832476 0.026586063 -0.04720376 0.16454026 0.113433585 -0.07872532 -0.22680758
-0.12494818 -0.0217837 0.0056109214 -0.052026603 -0.0019517082 0.105722815 0.009001439 -0.0352409
-0.10175832 -0.13255088 0.054997064 0.09888703 0.10453306 0.050107908 -0.032966796 0.028902622
-0.08781793 -0.043586727 -0.045708183 -0.005670293 -0.015069304 -0.057364583 0.007423761 -0.19641139
0.034771003 0.093164474 0.10106931 0.055074926 -0.124690555 -0.074510515 -0.11602413 -0.16883662
0.09686423 0.130841 -0.014938961 0.038899887 0.012311648 0.04634115 0.08479422 0.12667243
-0.060117926 -0.104134955 -0.10968396 -0.025711698 0.025648631 -0.035673555 0.12894262 0.07613772
0.017845472 0.08309677 -0.058388747 -0.02089917 0.07040405 0.11254882 -0.11633342 -0.070045315
-0.07017177 -0.03301587 0.07919798 0.14293945 0.037887134 0.0053972104 0.055795405 -0.11447804
0.024289988 -0.01499696 -0.12707768 -0.077456355 0.060871728 0.024351722 -0.011576541 -0.110074654
0.14784971 -0.011493887 0.17290793 0.096188575 -0.032278705 0.021335054 -0.013722726 0.07687758
-0.019863173 0.0087410305 -0.020837916 0.017695367 0.0015663177 0.040647432 -0.06610029 -0.032072
0.063699014 -0.034195457 0.03087757 -0.0015488799 0.038835976 0.08233589 0.058226727 -0.049696263
-0.074709296 -0.0059819645 -0.041624837 -0.06966676 -0.11830028 -0.022131106 -0.021358872 0.029813787
-0.09833401 0.06204665 0.05603916 0.016264964 0.0717957 -0.002847545 0.004623198 -0.041729197
0.016049368 -0.13439302 -0.0008837618 -0.072868526 -0.07800359 -0.04375557 0.052101064 -0.05615145
-0.09340134 -0.14457162 0.033886123 -0.032021154 0.061739065 0.023153692 -0.0873744 -0.061861753
-0.01694896 -0.080756366 0.062006246 -0.015518529 0.0025842323 0.04194555 0.06853785 0.02336396
0.056440674 -0.06845961 0.021811306 0.058634132 -0.012487918 0.08085312 0.03461191 0.12002
-0.0738055 -0.13284138 -0.039989494 0.03835859 0.02910111 0.07405959 0.03891241 -0.006722983
0.0688043 0.03451543 -0.082077086 -0.04599805 -0.1017401 -0.06936224 0.13754067 0.09841921
0.0005970532 -0.059026666 -0.018181404 0.020008551 -0.04925011 -0.000517154 -0.03933947 -0.08033834
0.09418791 0.1355175 -0.12600678 -0.06921065 -0.092165425 -0.16506374 -0.13715532 -0.09300502
0.098161645 0.05514274 0.0057984362 -0.037527103 -0.031831548 -0.08724487 0.0068496247 0.07558866
0.0664621 0.10823275 0.04443024 0.08954375 -0.06653087 0.0032141916 -0.048243824 -0.009912013

ID_pred_4/bias:0 f4 [2]
00000000: f6b1 90bd c0b2 903d
-0.07065193 0.07065344

fc1_relu_4/kernel:0 f4 [127, 100]
00000000: da0c ff3e 6b34 46be f8ee bf3d 2f10 273f
00000010: 6eae 313e e28c cb3d c39c a8be 8694 a13e
00000020: a51b 5cbe 521f a5bc 01a2 a03e beb9 213d
00000030: 506d 91be c059 66bd 0ac3 7ebe 5373 85be
00000040: adb2 9abc c377 bfbe 2568 223e 3183 7bbd
00000050: 0707 97be 6f74 21bd 6c0c cebb 27bf b4bc
00000060: 98d1 653e 3398 133e 4913 383e 6ec3 17be
00000070: b155 f53d ca52 053e c462 efbe 47d7 aa3e
00000080: 0cca 9f3e b16d 8dbb 8be4 e4bb 4d64 3540
00000090: 56e9 e53d a918 e4bd 5978 39bf 679f 033e
000000a0: 54da 16be 4fb9 a83f f8a4 be3e 8858 49bc
000000b0: 6605 ea3d 5981 1b3e c350 4ebe 5456 fa3d
000000c0: 9611 8dbe 6d98 dfbd 0a90 093e 8c70 6bbf
000000d0: f8dd 7d3d 9faf 2fbf 8bec 053e 5a94 923e
000000e0: 37ec dabc e5be 9fbd 5f82 963e 1b04 6b3f
000000f0: 6d84 a2bd 2c20 25bd 24a6 843b 710a 7e3f
00000100: 2c7b 093f f684 f3be 33be 4c3e 7f75 97be
00000110: 21d9 e53e 9dd6 7abe 0090 af3d caa4 6a3d
00000120: 4211 c0be 2fd1 bb3e c9e6 e03d 2898 fe3d
00000130: fb16 cebd 4fbf 243e 1063 60be 38c1 f93d
00000140: b648 48be 8808 2fbe 3c1b 223e 10ab f9be
00000150: 86d6 ee3d ce5a 2a3e ca45 d93d 8030 293f
00000160: 2b3d 5dbe 9915 0dbf d423 c33b ce7f bb3e
00000170: 7982 733e f77b 433e 27c6 1a3f c701 02bf
00000180: f81c fd3d 53a8 39be c32d 733f 75e4 0abf
00000190: 7c08 683f 4f40 883e 6166 26bf 2899 d83e
000001a0: be36 17be 3dc3 ca3f 468a 33c0 ac5d 993f
000001b0: 2f62 98bc fca7 53bd de5b 4c3f 0ca1 2a3f
000001c0: 973c fb3e 1ee6 c9be 1668 263f 9591 2ec0
000001d0: 11f7 983f 6153 2e3f 7426 de3c b5af 3e3e
000001e0: 24cc 4a3e 5a1e 043f b00f 193a 3bfd 8cbf
000001f0: 5799 103f b08c fabe 815d 06c0 fc2e cc3e
00000200: bc08 1a3e f3c2 a03e 125f 6e3e 59c0 8c3e
00000210: 2daa 56bf 9c95 dd3c c76b 1cbf 4b38 80be
00000220: 3564 fdbf 3abf 28bd a474 863f e2db b83e
00000230: ec84 d63e 9549 883f ba75 4ebe 4346 acbe
00000240: 679f 1e3f 0eec e73f f5c5 d03c ac2d 853b
00000250: 03cb 753d 4a30 32be b83d 223f d7b1 0d3e
00000260: 5112 1a3f 688a 483f 9cee 463f 2b26 0fbe
00000270: 052f 083f d556 f03e c702 a53f cbaa 23c0
00000280: a466 3c3d c327 793d 63b0 e53e cdd8 443f
00000290: a1cb 553f 5937 9c3f ab7d 83bf e3c8 da3e
000002a0: f26d afbe 8a35 8ebe 6cf0 cabe 2361 8fbf
000002b0: c50b 04c0 3b5a fc3e 783f 923e 4a92 723e
000002c0: 2efa 15be 820e afbc bfca b9bd 5e25 f33d
000002d0: 5022 433e de00 01bf 944a 913e 8c9c c03e
000002e0: 6342 803f 6478 9f3e 20ca c93e 53ed 303c
000002f0: 48c5 743e 39b5 ebbd d4f4 223f 56da e13e
00000300: 936a 4bbf 0ba6 79be c444 bcbf e968 d6be
00000310: 5b30 1cbe 1991 44be b68e 81bf 5e60 363f
00000320: ebed c8bd bf38 d93e 0e99 1fbe e36e 1e3f
00000330: 1c09 f53e 02d8 bd3e f046 b63e d517 593d
00000340: 11a1 aebe 2c02 b0be 47f4 04be 68dc bf3b
00000350: 7b5b 4cbe 41ea 943e 76a4 b0be 1a83 ff3f
00000360: f3ec f03e ca6a 5fbd 24b0 c8be 9558 133e
00000370: 419e 77bc 8dc9 c93f b7f2 b93d 1c9e 3d3e
00000380: 9b6d 083f b3fb d0be ca82 15be 94ab 7bbf
00000390: ea18 fbbf e21a c7be 5381 81be 02d6 d5bc
000003a0: 3972 133e ac54 b43f 7cd7 093f c475 64be
000003b0: e314 8c3f 85d0 b9bd 86f7 1dbf ae41 7d3f
000003c0: e373 643f 2e6a 633f 137e c83e 2cf2 813f
000003d0: e2b5 ea3d 55c0 f93d 0b23 b7be 324f b63e
000003e0: d6fe 953f ee0f c2bd d60f e03f 8dce 8b3e
000003f0: c65d 0340 67e1 96be d6c7 9ebf a8c1 0cbe
0.49814492 -0.19355933 0.093717515 0.6525907 0.17351696 0.09938981 -0.329321 0.31558627
-0.2149492 -0.020156536 0.313736 0.03948378 -0.2840371 -0.056237936 -0.24879089 -0.26064548
-0.018884027 -0.37396058 0.1586004 -0.06140441 -0.2949755 -0.03941768 -0.006288102 -0.022063805
0.22443235 0.14413528 0.17976107 -0.14820644 0.11979235 0.13019863 -0.4675504 0.3336737
0.31208837 -0.0043160548 -0.0069852523 2.8342469 0.11226146 -0.11137516 -0.7244926 0.12853776
-0.14731723 1.3181552 0.37235236 -0.012289174 0.11426811 0.15186061 -0.20147996 0.12223497
-0.2755248 -0.10917745 0.13433853 -0.9196861 0.061979264 -0.6862735 0.13078515 0.28628808
-0.026723964 -0.07800082 0.2939634 0.9180314 -0.079354145 -0.040313885 0.004048126 0.9923468
0.5370357 -0.4756238 0.1999443 -0.2958183 0.4489222 -0.24495931 0.08572388 0.05728606
-0.37513167 0.36683032 0.10981519 0.12431365 -0.10062977 0.16088603 -0.2191279 0.12195057
-0.19558987 -0.17093098 0.15830702 -0.48763323 0.11662011 0.16636202 0.10609014 0.6608963
-0.21605365 -0.5511108 0.005955199 0.36620945 0.2378024 0.19090258 0.60458606 -0.5078396
0.12359041 -0.18130617 0.949917 -0.5425485 0.90637946 0.26611564 -0.6499997 0.4230435
-0.14766976 1.5840832 -2.8053145 1.1981711 -0.018601505 -0.051673874 0.7982768 0.6665199
0.49069664 -0.39433378 0.6500257 -2.7276356 1.1950399 0.68095976 0.027117945 0.18621714
0.19804436 0.5160881 0.00058388244 -1.101478 0.5648398 -0.4893546 -2.099457 0.39879596
0.15042394 0.31398734 0.23278454 0.274905 -0.8385342 0.027048878 -0.61101955 -0.25042948
-1.9796206 -0.041197993 1.0504346 0.36105257 0.41898286 1.0647455 -0.20162097 -0.33647355
0.6196198 1.8118913 0.025485018 0.0040642824 0.06000806 -0.17401233 0.63375425 0.13837372
0.601842 0.7833619 0.7770784 -0.13979404 0.53196746 0.46941248 1.2891473 -2.5572994
0.045996323 0.060828935 0.44861135 0.7689331 0.8351384 1.2204391 -1.0272726 0.4273139
-0.3426357 -0.27775222 -0.39636552 -1.1201519 -2.0632184 0.4928759 0.28564048 0.23688617
-0.14646217 -0.021369223 -0.09071874 0.118723616 0.19056058 -0.5039195 0.2837721 0.37619436
1.002026 0.31146538 0.39412022 0.01079877 0.23903382 -0.11509175 0.6365483 0.4411189
-0.79459494 -0.24379747 -1.4708486 -0.41876915 -0.15252821 -0.19195975 -1.0121677 0.71240795
-0.09811004 0.42426106 -0.1558573 0.6188795 0.47858512 0.37078863 0.35600996 0.053001244
-0.3410726 -0.34376657 -0.1298381 0.005855132 -0.19956772 0.29084972 -0.34500474 1.9961884
0.47055778 -0.0545452 -0.39196885 0.1438926 -0.015113414 1.5764633 0.09079497 0.18517345
0.53292245 -0.4081703 -0.14600673 -0.9830868 -1.9616978 -0.38887697 -0.2529398 -0.026103023
0.14399041 1.408834 0.5384443 -0.22310549 1.0943874 -0.09072975 -0.61705816 0.98928344
0.8923933 0.8883389 0.39158687 1.015203 0.11460473 0.121948875 -0.35768923 0.35607296
1.1718395 -0.094756946 1.7504833 0.27306023 2.0525985 -0.29468843 -1.2404735 -0.13745749

fc1_relu_4/bias:0 f4 [100]
00000000: 6cf3 1cc0 4c3f bbbf 885a 2dbe 41b5 53c0
00000010: 9a3e 61c0 6f81 63bf 650d 18c0 689f fbbf
00000020: 628f c7bc d553 7b3b 812f 58bf 9950 1fc0
00000030: a875 08be f124 cfbe d968 53bf 1d9c 47c0
00000040: 489b e7bf 14f4 b4be 05e2 e5bd a59b 3c3d
00000050: 8356 9bba 7c8a 6cbf e61c d93d 29a8 bfbe
00000060: 9e91 b4bd 882d babf 614f 76bf f14a 0bc0
00000070: 0340 f9bf 7044 893e 792b 3bbf d97d 0dc0
00000080: a1fc 50bc 4895 33c0 f1ef ddbe 1226 14c0
00000090: 6b73 1bbf a311 f03c 0ed5 b6bf ccb4 27c0
000000a0: 5848 58c0 3d23 a9bf 41a6 93bf 4b41 2cc0
000000b0: 80b5 25be e859 14bf e748 d5be ed80 25bf
000000c0: fd1a 36c0 97f3 30bf 398a a1bf a91d 56c0
000000d0: fcfc a5bf 9ea5 87bf 2496 86c0 728e d0bf
000000e0: 5d25 aebf ecb0 f9bd 1c29 bebe 0f11 6bbf
000000f0: 17a6 54c0 b85d 53bf 9348 c73c 9ced 48c0
00000100: 9014 babe a2e5 e3bf a18d 47be faea 59bf
00000110: b3b8 f6bf 9784 43c0 d76b a7bf 93f5 0dbf
00000120: b7a6 3ac0 51ce aabf c7cf 08c0 33c9 4fbe
00000130: 630d 69bf 0b0e fabf b50d cdbd 54f7 7a3d
00000140: 2b38 21bf ae87 83bf d435 003e fb5a dcbe
00000150: 2527 08be 8a1b 89be 37b3 32bf 3ee5 7e3e
00000160: 90b1 27bf 7af3 a1bf b3e4 84bf 8e1d d9bf
00000170: 95ee bdbe 80f3 353e cac4 56bf d1f1 45c0
00000180: 5a64 48be 09d4 7cbe b234 b6bf ae0c 99bf
-2.4523573 -1.4628692 -0.16929066 -3.3079379 -3.519446 -0.88869375 -2.3758175 -1.9658022
-0.024360362 0.0038349528 -0.84447485 -2.4892943 -0.13326132 -0.40457872 -0.8258186 -3.1189034
-1.8094263 -0.35342467 -0.112247504 0.04604687 -0.0011851344 -0.9239881 0.10601215 -0.37432984
-0.08816837 -1.4545145 -0.9621487 -2.176449 -1.947266 0.26810026 -0.7311321 -2.2108061
-0.012755544 -2.8059864 -0.43347123 -2.3148236 -0.6072299 0.029305285 -1.4283769 -2.62041
-3.3794155 -1.3213879 -1.1535112 -2.6914852 -0.16182518 -0.57949686 -0.41657183 -0.6464985
-2.8453972 -0.6912169 -1.2620307 -3.3455603 -1.296783 -1.0597417 -4.2058277 -1.6293471
-1.3605152 -0.12191948 -0.3714074 -0.91822904 -3.3226373 -0.8256488 0.024326598 -3.1395025
-0.36343813 -1.7804453 -0.19487621 -0.8512417 -1.9275116 -3.0549676 -1.3079785 -0.5545284
-2.9164255 -1.3344213 -2.1376817 -0.20291595 -0.9103605 -1.9535536 -0.1001238 0.061271027
-0.6297633 -1.0275781 0.12520534 -0.43038163 -0.13296182 -0.26778823 -0.6980471 0.24892136
-0.65505314 -1.2652428 -1.0382293 -1.6962144 -0.37096086 0.17768669 -0.83894026 -3.0928843
-0.19569531 -0.2469026 -1.4234831 -1.1956995

scale f4 [27]
00000000: bb17 4a3e 641c 693f 8a49 193f 84f4 e53e
00000010: f0ae a33e 3433 0e3f 3925 013f 307f a43e
00000020: f274 cb3c 1974 9b3c 98d7 0640 749f 963f
00000030: c6e6 a83f 2637 783e 72cf 613e 2f10 f13e
00000040: a645 023f c233 353e 3a14 233c a5c6 993c
00000050: 7c91 8d3d 8e69 bd3d 276e 203c 3243 463d
00000060: c7ab 1b3e 1999 e83d b358 c33d
0.19735615 0.91058946 0.59877837 0.44913113 0.31969404 0.5554688 0.5044742 0.32128286
0.024836037 0.018976258 2.1069088 1.1767411 1.3195426 0.24239787 0.2205179 0.4708266
0.50887525 0.17695525 0.009953553 0.018771479 0.069125146 0.092486486 0.009791887 0.048403926
0.15202247 0.11357326 0.095384024

bias f4 [27]
00000000: 0264 54c0 410d 85bf f67c 89bf 6872 78bf
00000010: 56a9 ebbe 50de 483d b84b ec3c 2af1 b13d
00000020: 8aea 12be e06b 91bc a9a4 103f b4a2 313e
00000030: 940a 7a3f 9ecd b0be 43f1 9e3d 7fa8 7abf
00000040: 6d53 37bf 965a 0dbf 457e e5bd bf5c 03be
00000050: c639 96bd 6469 a9be 8611 8ebd 4bc1 06be
00000060: 0d5e 89be ce8d 45be 3046 a9be
-3.318604 -1.039467 -1.074126 -0.9704957 -0.4602763 0.04904014 0.0288447 0.086885765
-0.14347282 -0.017751634 0.5650125 0.17347223 0.9767239 -0.34531873 0.07760861 -0.97913355
-0.7161167 -0.5521635 -0.112057246 -0.12828349 -0.07335238 -0.3308822 -0.06936936 -0.13159673
-0.26829568 -0.19292375 -0.3306136

mean f4 [27]
00000000: 0000 0000 0000 0000 0000 0000 0000 0000
00000010: 0000 0000 0000 0080 0000 0080 0000 0080
00000020: 0000 0000 0000 0000 0000 0080 0000 0080
00000030: 0000 0080 0000 0000 0000 0080 0000 0000
00000040: 0000 0000 0000 0000 0000 0000 0000 0000
00000050: 0000 0000 0000 0000 0000 0000 0000 0000
00000060: 0000 0000 0000 0000 0000 0000
0.0 0.0 0.0 0.0 0.0 -0.0 -0.0 -0.0
0.0 0.0 -0.0 -0.0 -0.0 0.0 -0.0 0.0
0.0 0.0 0.0 0.0 0.0 0.0 0.0 0.0
0.0 0.0 0.0

var f4 [27]
00000000: 0000 803f 0000 803f 0000 803f 0000 803f
00000010: 0000 803f 0000 803f 0000 803f 0000 803f
00000020: 0000 803f 0000 803f 0000 803f 0000 803f
00000030: 0000 803f 0000 803f 0000 803f 0000 803f
00000040: 0000 803f 0000 803f 0000 803f 0000 803f
00000050: 0000 803f 0000 803f 0000 803f 0000 803f
00000060: 0000 803f 0000 803f 0000 803f
1.0 1.0 1.0 1.0 1.0 1.0 1.0 1.0
1.0 1.0 1.0 1.0 1.0 1.0 1.0 1.0
1.0 1.0 1.0 1.0 1.0 1.0 1.0 1.0
1.0 1.0 1.0

tensor_w f4 [1, 150, 32]
00000000: ca5b 673e cf02 b2bd 37e3 703f 5dbc 02be
00000010: 0c77 083f b87c 893e 1d1f 6cbe 6937 003f
00000020: 66e6 9bbe bded d63e ee02 8ebe 0ed6 693f
00000030: 45dc 633d 8958 cb3f f9e3 943f 2bdb 813f
00000040: 17e4 95be 03d3 d03f 4189 223f 0f30 32be
00000050: ee08 103f 1d40 4bbe 2349 a83e 441f 453f
00000060: e53d 0240 40fb 003e ac70 ac3e cd5a 213f
00000070: 24aa 13bf 49e4 8cbd ce7a 2e3e 7d41 53bf
00000080: 29f8 503e cf09 293f 6ba4 0ebe f440 1e3e
00000090: 9cb6 233e 29f9 8d3e 4c75 9e3d ffb4 5140
000000a0: dd10 de3b c286 ab3f 00c7 27bd 4cc1 af3d
000000b0: c0da 80bd 4b63 d53e b7be 423f 8304 b73f
000000c0: e25d 783d f667 eb3d 0a13 b03f f8a7 8f3c
000000d0: a8d8 aa3d 8ee6 9d3e 585b 003d 8fbc 0ebe
000000e0: 882d cf3e 276c 5ebe 805c f5b4 21ff b13d
000000f0: d379 bc3f 2aab 70bd 6909 283d 3308 a53c
00000100: bcf5 9e3e a912 593f a165 7b3e 65e2 533e
00000110: e46c d33e d7eb 3b3e f18b 4c3e 8ca8 9440
00000120: e8c6 7cbf 5ba2 093e 7126 60be b169 233e
00000130: 1af4 293d 71e8 2c40 5bdc cc3f 121c 4440
00000140: 214a 0d3f 767d 433f 4d62 3e3f a0ea 19bc
00000150: e9a2 8f3f fdbf c6bd bf88 5f3f 8fdb 73bd
00000160: 3ef2 2c40 3dfb b2bd 2dd2 da3e 8e3f ea3e
00000170: 5c9f e93e 9b0f 4e3f 70b3 1d3f 8407 48c0
00000180: 47c4 84bd 71c4 f03d 8993 ad3e 54b9 853e
00000190: 63dd 003f a43a 803d 9173 283e 0857 473f
000001a0: d64b 8e3f f174 883e 184b d23d 62a3 7e3e
000001b0: d002 ed3d b4a1 593c fbc3 0f3f 52ca 5f3f
000001c0: 63b9 ca3e 8001 39bd d3bf 84be b804 d43d
000001d0: 477a 8f3c abd2 be3e ccde 653d db53 763e
000001e0: 8d95 343f 487f dc3d 61d6 3b3f 63b7 973f
000001f0: af11 4d3d 2026 06bf 64ad b03d 831c fc3e
00000200: 3767 15be a75e ad40 fb45 913f 66cb 893f
00000210: d759 a13f ecab 203f f5a4 fb3f 5fad 8640
00000220: 25be 1e3d d200 d63e 6939 b7be e938 313f
00000230: e4be a23c 9190 183f c70b b23f 2a97 4f40
00000240: 4957 f93f a526 38bf fef0 2840 ba79 2d3c
00000250: 6773 16bc 651a 01be 004a 403f 839b d13e
00000260: ea91 473f 7a10 e0bd 2b3b c53f 5683 9f3f
00000270: a354 0440 6d16 a5be 086d bc3f b22a fe3c
00000280: 7b31 90bd 55c6 f5be 6151 dd3f c734 1cbe
00000290: d3e2 7b3f 14c3 8139 bb48 8a3e 3a97 af3f
000002a0: 0d6c 05be 0651 823f 6892 8b3d 74dd 0140
000002b0: 39ef 0a3e 5b3d 9a3d 14f5 a43e 6e48 e83f
000002c0: 0f56 9cbd b094 843c cdcd 363f 5b35 3abc
000002d0: f8b0 46bd 581f 1dbf 88a9 f63e 8922 1040
000002e0: 56a3 c13e 8ec1 973c 480a 923f 2b26 0740
000002f0: 07b6 24bf 7bfc c73d 61c1 21be 4581 d8bd
00000300: f150 9bbe ddeb 2dbd 2c1a 003d d8c2 c63d
00000310: c443 d23d cf3f 683e 32ac 813d 7f8c ae3f
00000320: 6277 93bf d5da 763e 5756 353f 8b7e 8fbd
00000330: 71ba 113e d6d9 243f fca2 3c3f 1677 6e3f
00000340: e1f0 db3d 90bd 8c3e a931 dfbd 0ef8 fe3d
00000350: f2b3 7b3e 6129 00be 60ad 7bbe 657e f4bd
00000360: 6fc9 0e3f 679d 0bbe 0672 b93d b1b1 e4be
00000370: f12e 1d3f a624 553f eab6 09bc a40c 89c0
00000380: 5863 493e 8211 2d40 d3ee 443f 4a2b ef3b
00000390: 4432 d73e ee0e 9b3f 0677 1d3e 984b 5b40
000003a0: 5c5d 73be 556b d93e 3078 1b3f c195 bf3e
000003b0: 8dc3 013f c40e 873e db3d 3a3f 8e90 4540
000003c0: 2a0a 793f d59b e73e cd3a 113f b9f7 d33e
000003d0: 14c5 a33f 8dd0 46bf 71f8 583c 97e6 283e
000003e0: 431d 433f 56fb d53c 0a64 0e3f 946c f53e
000003f0: a254 903f d2ee a73e d94a c73e 2dfd e9be
0.22593608 -0.08691942 0.940967 -0.12767167 0.5330665 0.26852965 -0.23058744 0.5008455
-0.30449218 0.41978255 -0.2773661 0.91342247 0.055629987 1.5886394 1.1632072 1.014501
-0.2927558 1.6314396 0.6349068 -0.17401145 0.56263626 -0.19848676 0.328683 0.7700083
2.0350277 0.12595844 0.33679712 0.63029176 -0.5768149 -0.068794794 0.17039034 -0.825218
0.20407166 0.6603059 -0.13929908 0.15454465 0.15987629 0.27729157 0.07737216 3.2766721
0.0067769126 1.34005 -0.040961266 0.0858179 -0.06291723 0.41677317 0.7607226 1.4298252
0.06063641 0.11494438 1.375581 0.017536148 0.08342105 0.30839962 0.031337112 -0.13939117
0.40464425 -0.21720944 -4.570211e-07 0.0869124 1.4724678 -0.058756985 0.0410246 0.020145511
0.31046855 0.847941 0.24550487 0.20691831 0.41294014 0.18351685 0.19975258 4.6455746
-0.98741007 0.1344084 -0.21889664 0.15958287 0.04149256 2.701687 1.6004747 3.0642133
0.55191237 0.76363313 0.74368745 -0.009394318 1.1221591 -0.097045876 0.8731803 -0.05953556
2.7022853 -0.08739326 0.42738476 0.45751613 0.45629394 0.8049256 0.61601925 -3.1254587
-0.064827494 0.11756218 0.33901623 0.26117957 0.5033781 0.06261185 0.16450335 0.77867174
1.1116893 0.2665172 0.10268229 0.24867013 0.11572802 0.013283182 0.5615842 0.8741809
0.39594564 -0.045167446 -0.259276 0.103524625 0.017514361 0.37270102 0.05612068 0.24055426
0.70540696 0.107664645 0.7337399 1.185284 0.050065693 -0.52401924 0.08626822 0.49240503
-0.14590155 5.4178042 1.1349481 1.0765197 1.2605542 0.6276233 1.9659716 4.2086635
0.038755555 0.417975 -0.35785988 0.69227463 0.019866414 0.5959559 1.3909844 3.2436013
1.9479762 -0.71933967 2.639709 0.010588104 -0.0091827875 -0.12607725 0.75112915 0.4093896
0.7795702 -0.10940643 1.5408682 1.2461956 2.0676658 -0.32243672 1.4720774 0.031026218
-0.07040688 -0.48002878 1.729046 -0.15254508 0.9839298 0.00024750142 0.27008614 1.3718026
-0.130295 1.0180976 0.06815034 2.0291414 0.13567819 0.07531234 0.3221823 1.8147104
-0.07633602 0.016184181 0.7140778 -0.01136526 -0.048508614 -0.6137595 0.48176217 2.2521079
0.37819928 0.018524911 1.1409388 2.1117046 -0.6434025 0.09764954 -0.15796424 -0.10571531
-0.3033519 -0.042461265 0.03127496 0.09705132 0.102668315 0.22680591 0.06331672 1.3636626
-1.1520808 0.24106915 0.7083487 -0.07006558 0.14231278 0.6439489 0.73686194 0.9315046
0.107393034 0.27488375 -0.10898144 0.124496564 0.24580362 -0.12515785 -0.24577856 -0.1193817
0.55776113 -0.13634263 0.09054951 -0.44666818 0.6139975 0.83259046 -0.0084054265 -4.282793
0.19666803 2.7041936 0.76926917 0.0072988616 0.42030537 1.2113931 0.15377435 3.4264889
-0.23766083 0.424647 0.60730267 0.3741894 0.5068901 0.26378453 0.72750634 3.086948
0.97281134 0.45236078 0.5673035 0.41399935 1.2794518 -0.77661973 0.013242827 0.16494213
0.76216525 0.026120823 0.556214 0.479344 1.1275828 0.32799393 0.38924292 -0.4570097

tensor_r f4 [1, 150, 50]
00000000: 9ad7 babd 0bae 96bb f75a bfbe 710b 123e
00000010: 6d5b a73e 7f70 3cbd 4c0a 0dbe f952 a4be
00000020: d579 4bbd 87f2 5cbf 6040 3f3e 1323 253e
00000030: 37c2 2c3d d5ed 2f3f 3268 413e 22e5 633e
00000040: c43d 553e df2d 393f e27a e1be 626d b7be
00000050: 8b4c 35bf 22c4 07bf a890 f13b bd14 51bf
00000060: ca5a d83d 876b f03e 2207 7ebd e59f ba3e
00000070: 0c05 b03e 89d5 5a3f 0ea8 9cbd f095 243f
00000080: 9329 f3bd 0d50 5bbe eb73 03be 5eea d8be
00000090: b296 d9be 952f a7be cad7 143e 0445 5a3f
000000a0: 620f 9c3e f1e0 2a3e 734f 733e bb5e 1a3f
000000b0: ce1d d23c f02b fcbc 110e c9be 653b 4e3e
000000c0: 5005 30bf dbb0 943e 22cb 45bd 1f24 5fbf
000000d0: 4416 a0bd 2912 bb3e ce67 bebe 6c08 a13d
000000e0: a217 6a3e f9dd 5e3e b335 853e b189 3c3e
000000f0: 7a78 a8bd 03ab a53e 0185 91be a371 5dbe
00000100: e304 b43d 4ac5 c93d 907f a13e 43a0 e3be
00000110: 2292 2ebf 6cc8 84be 328e 403f 9276 7c3f
00000120: 6a09 953d 5ad8 153f 489d b4be 5244 3b3e
00000130: e682 07be 7b68 eebb 3cdc 59bf 238c a6be
00000140: 3fef 3b3f ed9b e9be fa50 0cbc 6257 79be
00000150: eede c23e fa8b 93be 0691 883e e16d debe
00000160: c35b f7bd e0a0 4a3e b7df 9d3e add8 1cbb
00000170: ba44 943e 4023 1b3f 49d6 3a3e 4694 253f
00000180: 613f b93d ced0 003f 452c c9bd 64c9 90be
00000190: 2790 4cbe 9348 69be 3add 983f e227 0e3e
000001a0: 2823 433e 1600 083e 2cca 25be 0f1f 4e3c
000001b0: e839 87be 36aa 46be 87fc 7bbd 6191 a03e
000001c0: 5ef0 503e 936c a83f 48ec e1be f733 97be
000001d0: 9095 bfbc c955 a43e 10d0 56bf 22a2 de3d
000001e0: e3de 8c3d 9d2e 1fbf e45b 84be c2de debc
000001f0: 9f36 42bf 15a9 703f e76a a0be 2c67 d6be
00000200: b90f b43e 56a8 0a3f af4e 8b3d a1b1 aa3e
00000210: 15a7 fb3e 88c2 bf3e bf8d b63b 73fa 6ebe
00000220: 5167 603d bc2f c73e 1251 7fbc ca63 1fbe
00000230: df9f 923e 2ae8 813f d23a e43c 87dc 4bbe
00000240: 4976 8d3d 20d9 5c3e d83b 50bb 8609 ea3e
00000250: 40bd 7c3e 08e5 6fbf a6a9 d03e d345 0c3e
00000260: 2360 1e3f 2fbd ba3d 1c4c 31be d89b adbe
00000270: 6ad4 533d 5c13 393f aacf c8bd d419 ebbe
00000280: 0664 c53d 3234 25be b061 5f3e 1311 47bf
00000290: 4340 ddbd 7786 e1bd 1c54 08be 2f65 d6be
000002a0: 2c0a 0dbe c75a b73e 96c3 e03e 1afc bfbd
000002b0: 99d4 9b3d 9098 4e3e 9bf9 063f cf2d fbbe
000002c0: 694c 523b 896a 9dbe bca1 08bf 1f6d 30be
000002d0: 2ac5 8cbe d614 7ebe 9411 ce3d 337d 3cbf
000002e0: 0883 fa3e 415e b63e 0f62 683e 0769 21bd
000002f0: 4207 283d 0ead 4e3f 2de3 513e ad43 cb3e
00000300: 650a a13e 1bf4 b2bd 3dc5 883e 267f 98be
00000310: 07df b23e edd2 49bc 684a e63b e323 7abd
00000320: 4f73 a03c 5848 8a3d 26db 41bc cdaa 043e
00000330: c15b b13e 4686 5cbc 6b89 d03d 68d7 d53d
00000340: 1b60 38be d091 54bd 3a29 31be ad38 963e
00000350: 7a22 be3e 7ee5 12be 28cb a0bd 8149 b0be
00000360: addf 783e 9bf8 543e 1827 8a3c dfcf fabd
00000370: 22c3 823e 484f cabd b783 22bc 20f9 d03e
00000380: 1031 e5be 17e4 6d3d a574 45bc 0502 8e3d
00000390: a56e 60be 90be da3d f374 63be a1e8 1a3f
000003a0: 5bea 3c3d 9463 0f3e 7f7b 83bd 22ee e23c
000003b0: 26c4 a13d 0a97 1dbe 457a 0abe 8862 4d3e
000003c0: 7fc4 863e 560a 7bbd 5140 9b3d 14cd 033e
000003d0: ce9f be3e 015b 2c3e 362e aebe b1d2 313e
000003e0: 9541 3b3d 5059 bdbd 62f5 223f 1e51 f93e
000003f0: 29db 20bf 07cd 96be b636 c5bd 7c1b 4abf
-0.09123154 -0.0045983843 -0.37374088 0.14262177 0.3268694 -0.046005722 -0.13773459 -0.32094553
-0.049676735 -0.8630757 0.18676901 0.16126661 0.042177405 0.6872228 0.18887404 0.22255376
0.20824343 0.7233562 -0.44039065 -0.3582564 -0.7081992 -0.5303365 0.0073719807 -0.8167227
0.10564192 0.46957037 -0.06201852 0.36450115 0.3437885 0.8548208 -0.076492414 0.64291286
-0.11873164 -0.21417256 -0.12837188 -0.42366308 -0.42497784 -0.3265349 0.14535442 0.8526156
0.30480486 0.16687371 0.23760776 0.603008 0.025648978 -0.03078267 -0.39268544 0.20139845
-0.68758106 0.2904118 -0.048289426 -0.8716449 -0.07816747 0.36537293 -0.37188572 0.078629345
0.22860578 0.21764363 0.26017532 0.184119 -0.08226104 0.32357034 -0.28421786 -0.2162538
0.087899946 0.09852083 0.31542635 -0.44458207 -0.6819173 -0.2593416 0.7521697 0.98618424
0.07277186 0.5853325 -0.35276246 0.18287781 -0.13233528 -0.0072756386 -0.85101676 -0.3252879
0.73411936 -0.45626774 -0.008564228 -0.2434974 0.38060707 -0.2881773 0.26673144 -0.43443206
-0.12078049 0.19787931 0.30834743 -0.002393286 0.28958684 0.6060066 0.18245806 0.6467937
0.09045292 0.5031861 -0.09822897 -0.2827865 -0.19976865 -0.22781591 1.1942513 0.13882402
0.1905638 0.13281283 -0.16190404 0.012580647 -0.26411366 -0.19400868 -0.061520126 0.31360915
0.20404193 1.3158134 -0.4412558 -0.29531834 -0.023386747 0.320967 -0.8391123 0.10870768
0.0687845 -0.621805 -0.25851357 -0.027205829 -0.75864595 0.94008 -0.3133156 -0.4187559
0.35168245 0.5416311 0.06802117 0.33338645 0.4915091 0.37453103 0.0055710967 -0.23337726
0.05478603 0.38903606 -0.0155832935 -0.1556541 0.28637597 1.0148976 0.027860079 -0.19908343
0.06907327 0.21567202 -0.003177395 0.4571039 0.24681568 -0.9370885 0.4075443 0.13698511
0.61865443 0.09118115 -0.1731419 -0.33907962 0.051716246 0.72295165 -0.09805234 -0.45918143
0.096382186 -0.16133192 0.21814609 -0.7776043 -0.108032726 -0.11011975 -0.13313335 -0.41874072
-0.13773412 0.35811445 0.4389922 -0.093742564 0.07608909 0.20175385 0.5272462 -0.49058387
0.0032089 -0.30745342 -0.5337179 -0.17229126 -0.27494174 -0.24812636 0.100619465 -0.7362854
0.48928094 0.35618785 0.22693656 -0.039406803 0.041022547 0.8073281 0.20496817 0.3970007
0.31453243 -0.08737966 0.2671298 -0.29784507 0.3493578 -0.012318355 0.007027913 -0.06106938
0.019586233 0.0675208 -0.011832034 0.1295578 0.34640315 -0.013459748 0.101824604 0.10441476
-0.18005411 -0.05189687 -0.17300883 0.29340115 0.3713568 -0.14345357 -0.07851249 -0.3443108
0.24304076 0.2079796 0.016864344 -0.122466795 0.255395 -0.09878403 -0.009919099 0.40815067
-0.44763994 0.05807885 -0.012051736 0.06933979 -0.21917208 0.10680878 -0.22212581 0.60511214
0.046121936 0.1400283 -0.064200394 0.027701441 0.078987405 -0.15389648 -0.13523205 0.20057118
0.2632179 -0.061289154 0.07580627 0.128712 0.37231296 0.1683159 -0.3401963 0.17365529
0.04571684 -0.09245551 0.63655674 0.486947 -0.6283441 -0.29453298 -0.09629576 -0.7894819

tensor_b f4 [1, 300]
00000000: aede 2a3e 60d3 c93e 9ae1 c03b 201f 163f
00000010: a312 c53e ebbb 1e3f 9066 d53e 7264 b03e
00000020: a117 1e3f f134 c13d 1b66 753f 4e39 683f
00000030: e3b1 5b3f 2599 8a3f acbf 013e cad4 9a3e
00000040: 3361 8b3f 9fb3 d63e c3ce 733f 65af 4c3f
00000050: 883f 7a3f 07f7 783e f3ca 873f 0cf7 a53f
00000060: 37d4 013f 1e85 483f 8a24 123f 9941 f13e
00000070: c627 7a3f 0d1a 823f e242 d03e d5be 5e3f
00000080: 33c1 a73e 7669 363f 209c 553f f422 c63f
00000090: 2198 d33e 6e3d fa3e 4dac 803f 2e57 223f
000000a0: 508d 983f b21c 103f 927c f03e 1621 1a3f
000000b0: df92 8d3f 9d28 883f a49f af3d 77d8 403f
000000c0: cce8 e33e 7e02 b73f 07d6 f8bf 690f 95bf
000000d0: 965b a6bf 5b84 71bf 2e37 17bf 4a68 67bf
000000e0: dc89 57bf 6bee 16bf fd11 6cbf 4c4b 0bbf
000000f0: a4b7 5dbf f921 21bf f69f 78bf 9065 a0bf
00000100: 265d 0ebf e0aa 0fbf 641e 22bf 0865 07bf
00000110: 88c2 77bf 4a43 a9bf a0ec cc3e ff9d 30bf
00000120: 9300 7dbf a42e f4be 3c18 9dbf af7e 16bf
00000130: 4ba2 90bf a95c 63bf 8250 dcbe 56f4 a03b
00000140: b0ec 49bf 42d7 03bf 4f00 cbbe 21b3 06be
00000150: b667 87bf f298 82bf 97b4 43bf 70dc 36bf
00000160: 6d69 5ebf 8f00 94bf 6055 9ebf e26c 86bf
00000170: 019f 87bf 6c48 54bf ffc4 83bf adc8 8abf
00000180: 8354 9fbf cca7 64bf ab69 73bf 5656 84bf
00000190: 5299 913e 1cea 183d 3bbe 163e a813 c63d
000001a0: 58ad 123f 077a 613e 5d40 653e c479 803e
000001b0: 3c13 bb3e 9fde 0c3f 6209 b73d f21a ba3e
000001c0: b2a7 1dbe 2f0d 593e e5cc 29be 9947 94be
000001d0: fc81 b6bd df2e bfbe b73f c6be 46fd 24bf
000001e0: 9e39 c73d 23f3 bd3e 3c2d 433e 2110 29be
000001f0: 7cb6 2abf 92ee 203f 590f 85be 62ef b23e
00000200: 03f4 9a3e 9147 6abe 8d48 85bf 932e 543d
00000210: e12e 153b b50c e23d 7ea9 5b3e d488 693d
00000220: 1a6c 3b3e e1d8 bebe 1753 5cbf 398f a33e
00000230: e4ef f83e af53 96be 04e2 943e bf7a 95be
00000240: 65dd f33d 5211 ab3e a033 bc3e b2bd ee3e
00000250: 2ffc 2c3f f904 1f3f 0000 0000 0000 0000
00000260: 0000 0000 0000 0000 0000 0000 0000 0000
00000270: 0000 0000 0000 0000 0000 0000 0000 0000
00000280: 0000 0000 0000 0000 0000 0000 0000 0000
00000290: 0000 0000 0000 0000 0000 0000 0000 0000
000002a0: 0000 0000 0000 0000 0000 0000 0000 0000
000002b0: 0000 0000 0000 0000 0000 0000 0000 0000
000002c0: 0000 0000 0000 0000 0000 0000 0000 0000
000002d0: 0000 0000 0000 0000 0000 0000 0000 0000
000002e0: 0000 0000 0000 0000 0000 0000 0000 0000
000002f0: 0000 0000 0000 0000 0000 0000 0000 0000
00000300: 0000 0000 0000 0000 0000 0000 0000 0000
00000310: 0000 0000 0000 0000 0000 0000 0000 0000
00000320: 0000 0000 0000 0000 0000 0000 0000 0000
00000330: 0000 0000 0000 0000 0000 0000 0000 0000
00000340: 0000 0000 0000 0000 0000 0000 0000 0000
00000350: 0000 0000 0000 0000 0000 0000 0000 0000
00000360: 0000 0000 0000 0000 0000 0000 0000 0000
00000370: 0000 0000 0000 0000 0000 0000 0000 0000
00000380: 0000 0000 0000 0000 0000 0000 0000 0000
00000390: 0000 0000 0000 0000 0000 0000 0000 0000
000003a0: 0000 0000 0000 0000 0000 0000 0000 0000
000003b0: 0000 0000 0000 0000 0000 0000 0000 0000
000003c0: 0000 0000 0000 0000 0000 0000 0000 0000
000003d0: 0000 0000 0000 0000 0000 0000 0000 0000
000003e0: 0000 0000 0000 0000 0000 0000 0000 0000
000003f0: 0000 0000 0000 0000 0000 0000 0000 0000
0.16686508 0.3941908 0.005886269 0.58641243 0.3849078 0.6200549 0.4167981 0.34451634
0.61754805 0.09433926 0.95858926 0.9071244 0.8581831 1.0827986 0.12670773 0.3024047
1.0889038 0.41933915 0.9523737 0.7995513 0.9775319 0.24312983 1.060881 1.2966018
0.5071444 0.7832812 0.57087004 0.4712036 0.9771694 1.01642 0.40676028 0.87009937
0.32764587 0.7125467 0.8344135 1.5479417 0.41327003 0.48874992 1.0052582 0.63414276
1.1918125 0.56293786 0.4697004 0.60206735 1.1060447 1.0637394 0.08575371 0.753303
0.44513547 1.4297636 -1.9440316 -1.1645328 -1.29967 -0.94342583 -0.5906857 -0.9039351
-0.8419473 -0.58957547 -0.9221495 -0.5441177 -0.8660834 -0.62942463 -0.9711908 -1.2530994
-0.55610883 -0.5612011 -0.6332762 -0.52888536 -0.96781206 -1.322366 0.4002428 -0.6899108
-0.98829 -0.47691834 -1.2273021 -0.58787054 -1.1299528 -0.88813263 -0.43030173 0.0049119396
-0.7887678 -0.5150033 -0.39648673 -0.1315427 -1.0578525 -1.0202925 -0.76447433 -0.7143011
-0.86879617 -1.156267 -1.2369804 -1.0501978 -1.0595399 -0.82923007 -1.0294493 -1.0842491
-1.2447666 -0.8931854 -0.9508311 -1.0338848 0.28437287 0.03733264 0.14721005 0.09671718
0.5729575 0.22019206 0.22387834 0.250929 0.36538112 0.5502719 0.089373365 0.36348683
-0.15396002 0.21196435 -0.16582067 -0.28960875 -0.08911511 -0.37340447 -0.38720486 -0.64448965
0.097277865 0.3709956 0.19060224 -0.16510059 -0.666847 0.6286403 -0.25988272 0.3494826
0.3026429 -0.22878863 -1.0412766 0.05180223 0.0022763538 0.1103758 0.21451375 0.057015255
0.18302956 -0.3727484 -0.86064285 0.31945208 0.48620522 -0.2936072 0.29078686 -0.2919521
0.11907462 0.33411652 0.36758137 0.466291 0.675723 0.6211696 0.0 0.0
0.0 0.0 0.0 0.0 0.0 0.0 0.0 0.0
0.0 0.0 0.0 0.0 0.0 0.0 0.0 0.0
0.0 0.0 0.0 0.0 0.0 0.0 0.0 0.0
0.0 0.0 0.0 0.0 0.0 0.0 0.0 0.0
0.0 0.0 0.0 0.0 0.0 0.0 0.0 0.0
0.0 0.0 0.0 0.0 0.0 0.0 0.0 0.0
0.0 0.0 0.0 0.0 0.0 0.0 0.0 0.0
0.0 0.0 0.0 0.0 0.0 0.0 0.0 0.0
0.0 0.0 0.0 0.0 0.0 0.0 0.0 0.0
0.0 0.0 0.0 0.0 0.0 0.0 0.0 0.0
0.0 0.0 0.0 0.0 0.0 0.0 0.0 0.0
0.0 0.0 0.0 0.0 0.0 0.0 0.0 0.0
0.0 0.0 0.0 0.0 0.0 0.0 0.0 0.0

tensor_w1 f4 [1, 150, 32]
00000000: 44df 423d e414 52bf c46f 9bbd 6f6e f83e
00000010: 8772 de3f f4c3 3a3f e054 bcbf cee7 453e
00000020: b6c2 cabe 005c 253f 116e d4be 6f67 143f
00000030: ac6c c2be f175 163e 0bf3 463e 577d 5a3e
00000040: f859 42bd 8ba7 35be 0aa9 043e 1a46 1e3f
00000050: 2be1 4e3e dbd0 3d3f a174 f0bd a192 843e
00000060: aa9b 53be e66d 203f 3327 7d3c 7180 07be
00000070: bc3a 20be 340c 5dbd 3d6b d53f aece e9bd
00000080: fa28 be3f 509e 88bf a14c 703f e057 ffbe
00000090: 60a7 1f40 eb16 a33f 6a85 57bf 39cf 9abf
000000a0: ca61 f6bd 05ac af3f 6676 b33e 0be7 473e
000000b0: 5f78 943f 0f07 f33e 1df1 e33d 21fd 23bf
000000c0: ca2f 5d3f 986b 003f 4f55 b83e ebc5 0b3f
000000d0: 2837 253f e1ad 91bd b26b 933e 387e 40bf
000000e0: 560c b33d 1852 79bd 2550 233e 98d1 713e
000000f0: 0334 9fbd 9019 f73e e60b 0640 536d 613f
00000100: d789 1840 e315 c73f 6d17 043f 0be8 7a3f
00000110: a64d 2840 020c fe3f 6a98 0b40 74f5 ed3e
00000120: c84b e23e c48e db3e 5000 933e 3004 1f3e
00000130: 751c 193f a4db 983c 398a 093d 6005 8e3e
00000140: da40 ee3f cb04 a73e 9e55 403e 0ba4 1a3e
00000150: e414 113e 5b4c dc3e 80cd 813e c1c2 c73f
00000160: 360d 3e3f 6e06 a23e 207b 843e a6ae 2d3e
00000170: 5733 ae3d ced5 133e 2d4c 8a40 94ea 7d3f
00000180: 6748 633e 50df e93e ffed 853f 2c8a f53f
00000190: 85b2 15be ca28 5a3e 85ba 83be 89cd d13f
000001a0: ecbc 8d3f 6d28 f33d 989b 1a3f 75fb f53f
000001b0: 7155 063f bc36 a93f 80af d53f f30b f13f
000001c0: af8d 6d3e 7a59 423e fa68 d83f 7309 813e
000001d0: da4a f73e 78d0 f83f e235 f43e 208a 983f
000001e0: 2de8 113f 342f f03f eb9a e73e 7d90 7d3e
000001f0: bebe 003f d179 c13d 9877 eabe ae09 403f
00000200: 162a 613d 70b6 ccbe 6743 103f 5b76 713f
00000210: 5fd4 e23d 90d6 15bc 4d56 2fbe d711 cbbd
00000220: 8ede a6bd 967c 073e 7620 a13e 224c ef3e
00000230: 1837 ba3e 651b 473f 0bcf ef3e 0bbc 373e
00000240: 7c8c c63d 4aaf d93d 9023 0b3f fe09 0d3d
00000250: 06e0 7e3f 3534 9b3f e427 893c f75f ae3f
00000260: bd85 513e f2d7 513f b708 ae3e 9397 5a3e
00000270: 23f5 013f 5a32 ef3e 315a b7bc 7a69 e73e
00000280: d3cf ee3c b797 a03e 1cab b43e b059 8c3f
00000290: 2004 0a3e 05cf 613d b305 3f3c d681 5f3f
000002a0: ede8 cf3e 1b10 003e a67c aa3e 1457 7e3f
000002b0: b60f b83d db51 343f a085 643f b112 ac3f
000002c0: e810 e63d 120f 1a3f 75d8 2c3f 0fa6 313e
000002d0: c66d dc3e 8f9f 493f 74d6 fa3e 0e13 383f
000002e0: 9ebb 583e b423 733f 0736 d03c ba0d 943e
000002f0: b1c9 093f f3e5 813f 35e0 b53d e5ee dc3d
00000300: 6f1e 333e 69c0 0b40 6252 983e 5e72 a43e
00000310: cc8d 10be c11b ac3d cb78 f33f 36ac 3d3f
00000320: ef6d e23e 3e9a a53e cb08 233f a020 153c
00000330: 8848 0e3e e5a8 a33d d681 6e3e 0c77 3e3e
00000340: 7af9 943e fb12 983e c962 ac3e 0e0e c6bb
00000350: 0b3f 1c3c b76b 1b3d 51eb 9e3e 4f28 273f
00000360: af79 b73e 3570 aebd 5870 663e 9941 ae3e
00000370: 52d0 9d3e e5e1 643e 33e9 c9bc b0c4 1d3f
00000380: fe80 0b3d 4e0a 0340 43a0 d83d 8fba ac3f
00000390: d891 643e 55fa 623c 8a98 8f3f 5ef3 d73f
000003a0: a534 973f 7bcb b13e f706 083f 5932 0b40
000003b0: 60f0 8f3e dc9e 1140 7b40 f53f e79b cd3f
000003c0: a144 b33d 4367 873f b4f4 fd3f 824e 8c3e
000003d0: 2c37 d43e 86b5 0f40 0530 0f3f 7352 dd3f
000003e0: bf73 ef3e f228 0f40 c262 5b3e accb 223f
000003f0: 4da3 0040 9feb c83f 5acd 803e 3f4c 3b3e
0.047576204 -0.82063127 -0.07589677 0.48521754 1.7378701 0.7295525 -1.4713402 0.19326708
-0.39601678 0.64593506 -0.41490224 0.5797033 -0.37973535 0.14693429 0.19428651 0.21336876
-0.047449082 -0.17739694 0.12955108 0.61825716 0.20203082 0.74146813 -0.11740995 0.2589312
-0.2066485 0.6266769 0.01545124 -0.1323259 -0.15647405 -0.053966716 1.6673352 -0.11416374
1.4856255 -1.0673313 0.93866926 -0.4987173 2.4945908 1.2741369 -0.8418795 -1.2094489
-0.120303705 1.3724371 0.35051268 0.1952173 1.1599234 0.47466323 0.11129973 -0.6405812
0.86401045 0.50164175 0.36002585 0.54598874 0.64537287 -0.07113243 0.28793103 -0.75192595
0.08742587 -0.060869306 0.15948541 0.2361511 -0.07773592 0.4826169 2.0944762 0.8805744
2.383413 1.5553554 0.51598245 0.9801032 2.6297393 1.9847414 2.1811776 0.46476328
0.44198442 0.4288236 0.28711176 0.15528941 0.59809047 0.01865942 0.033579085 0.27738476
1.8613541 0.32620844 0.1878266 0.1510164 0.14168125 0.43027005 0.25352097 1.5606309
0.7423891 0.3164553 0.25875187 0.16961154 0.08505886 0.14437029 4.321799 0.9918606
0.22195588 0.45678186 1.0463256 1.9182792 -0.14618881 0.21304622 -0.2572824 1.6390849
1.1073279 0.11872945 0.6039367 1.9217364 0.52474123 1.3219829 1.6694183 1.8831772
0.23198579 0.18979445 1.6907036 0.25202522 0.48299295 1.943862 0.4769736 1.1917152
0.569949 1.8764405 0.4523538 0.24762149 0.5029105 0.09447063 -0.45794368 0.7501477
0.054971777 -0.3998294 0.5635285 0.9432122 0.11075663 -0.009145394 -0.17122765 -0.09915512
-0.08147918 0.1323112 0.31470078 0.46737772 0.36370158 0.77776176 0.4683765 0.17942826
0.09694764 0.10629137 0.5435114 0.034433357 0.9956058 1.2125307 0.016742654 1.3623036
0.20461173 0.8197013 0.33991024 0.21346883 0.50764674 0.46718103 -0.022381874 0.4519766
0.029151833 0.3136575 0.35286796 1.096487 0.13478136 0.05512907 0.011659074 0.8730749
0.40607396 0.12506144 0.33298224 0.9935162 0.089873716 0.704374 0.89266396 1.3443204
0.11233693 0.60179245 0.6751779 0.17348503 0.430525 0.7875909 0.4899174 0.71904075
0.2116532 0.94976354 0.025416387 0.28916723 0.5382338 1.01483 0.08880655 0.10787753
0.17492078 2.1836188 0.29750353 0.32118505 -0.14116591 0.08403731 1.9021238 0.740909
0.44224498 0.3234424 0.6368529 0.009102017 0.13894856 0.079911985 0.23291716 0.186001
0.29096586 0.2970198 0.33669117 -0.006044156 0.009536515 0.03794452 0.31038907 0.6529588
0.35835025 -0.085174955 0.22503793 0.34034422 0.30822998 0.22351797 -0.02464733 0.61628246
0.034058563 2.047504 0.105774425 1.3494433 0.2232126 0.013853629 1.1218426 1.6871145
1.1812941 0.34725556 0.5313563 2.174948 0.2811308 2.275321 1.9160303 1.6063203
0.08753324 1.0578388 1.9840302 0.27403647 0.41448343 2.2454543 0.55932647 1.7290787
0.46767995 2.236874 0.21424392 0.6359203 2.009967 1.5696906 0.2515667 0.18290804

tensor_r1 f4 [1, 150, 50]
00000000: aea2 953f 2990 e43d 0091 54bf bdaa 793e
00000010: 3451 a83f 2c5c 54bf c1fc 863c 97ac f1bf
00000020: adc4 9d3f 1f03 893e ed38 ae3f f9b8 833f
00000030: 556b d4be 51e5 a9bf 9505 5cbf f9df 9d3f
00000040: 345c 3bbf 4890 8c3f 3acb f2be e9b1 833f
00000050: 15e6 db3e e52d fa3e 62a0 24bf b44a 44be
00000060: aeb0 b8bf 8336 91bf 4701 03be 159a bebe
00000070: c8c7 803f f25f 61be 6f6e db3f 2faa 8e3f
00000080: 6c51 1f3f b8af 24c0 752e 18be 49cd 90bf
00000090: 6d29 cf3f 671d a2bf a29b 64be 82e3 303f
000000a0: 8b88 7bbe c75b 863f b1d1 843e 5218 c43f
000000b0: 0523 a13e d94e d83f 10f9 d6bf c822 cf3c
000000c0: cca2 6140 25f7 e53f fa51 aabf 09e5 bebf
000000d0: 8deb e53e 0c3a b33e bdfd 853f 9689 87bf
000000e0: a2f0 823f 1a39 59bf d369 a33d adea afbf
000000f0: 2920 80bf 1538 213f 5ff1 2b3f a13c 44be
00000100: ead9 383e b3b7 423f d1ba cd3e cdf6 1bbf
00000110: 4842 aebf 35dd 69be ebf5 8f3e dfe9 b2bf
00000120: 457c 9cbe df65 223f 0ea3 79be e726 95bf
00000130: 12ba 20bf a6da 3a3e 52ee 9bbd 5785 d03d
00000140: f723 863f 5cd0 19bf e464 c43e 2797 c2be
00000150: 032c 733f 690c cb3d ef2d 483e 9d33 2e3f
00000160: 614f bb3e dca6 763f 15f4 5a3f 6127 72be
00000170: d6a8 9dbd 867e aabb 7755 693e 6ab8 c6bf
00000180: e118 43bf 0d24 38bf 0a77 8fbe 6f89 993e
00000190: 3786 79be 5772 a5be 8129 a03f 47d2 cabf
000001a0: 6a8f 7e3f 3a43 4f3f 61e7 96bf 47a7 2ebf
000001b0: 1736 683e 1856 3f3f 646e 01c0 a71e 1cbf
000001c0: 05b4 aa3d 3610 05be 1260 f4bf 93a5 fe3e
000001d0: da70 2d3f 7c3f 193e 7fa5 0ac0 315d a63f
000001e0: c175 d6be a667 ed3d be62 8e3e 0f23 a0be
000001f0: b267 ee3c e955 733f c8c9 abbe 068a 49bd
00000200: a885 04bf 4f7e 883f 4084 783f f951 e5bf
00000210: b6dd efbe fe45 2a3f 7aa0 15bf 22a4 a4be
00000220: 99fd 30bf ddce 18bf 8aa0 543e 79bb b43f
00000230: f7fc 2bbe 4501 42be cf9e 183f 6689 d5be
00000240: ffc3 d4bd bfc0 92bf 7650 9cbf 52d8 923e
00000250: a2cb 3e3c 4d37 b73f 2f7c 1c3f 8b9c 86be
00000260: 2825 8c3f 2486 41bf bfd9 23bf 61c4 08bf
00000270: 05a2 92bf 9923 c63f 63a3 69bf b14a 843f
00000280: f814 b5be f788 acbf 5cde a9bd 118a cc3e
00000290: 0b0c 1ebd 8d6f 78bf 82e9 85bf 2bec 80bd
000002a0: 7219 903f f779 3a3e 3f80 903e b515 8f3d
000002b0: 43b4 f2be 4157 debe 45b4 f6bd 4e23 a83f
000002c0: 3ad3 2ebf 0b7e 8f3e 5847 91bf 2a5a 673f
000002d0: 82ca 663e df2d 223f f553 fabe 86bd dbbe
000002e0: 9a04 723e 7cd2 d83e ebb1 dfbe b3dd 82bd
000002f0: d60e 3cbe 100d aabd 5a86 fb3e bbf3 d63e
00000300: c5a8 cb3e e117 713e 03b4 d6bd 0910 1fbf
00000310: ce61 123e eec3 073f cc29 c7bd 5eb0 a1bf
00000320: 72f8 9abf 0931 203f 5c6d c23f da71 19bf
00000330: 567a 1540 2518 bb3f 66a7 74bf f3b3 2dbf
00000340: 31f9 593e ebda d63f 1174 823f 3ec0 d83f
00000350: ee64 6fbf 3a44 abbe 0f19 ca3d 5906 a83e
00000360: e0b8 0abf 0094 cc3f 6058 e7be 6e04 e5bd
00000370: ce80 44bf f6f2 c93e ebdd 5d3e 2276 bb3e
00000380: 4cd4 243d 814a 4bbf 321c 5abf f07d 083e
00000390: ba56 10bd 64c1 a7bf aba5 2f3f 97d2 5f3f
000003a0: 0bfa cf3d 73da 5c3f 721c 2ec0 6a69 8e3e
000003b0: f83c ab3c e46c 3dbf ddea e43d 327f 7e3d
000003c0: 0df1 3cbe 657f a5bf a76e cabe 9fc8 813d
000003d0: 837d 533e a7f2 11bf 1867 b8be 4f4b 1c3f
000003e0: e7f9 cb3e 6218 94bc 6826 5d3f 9f8f 373f
000003f0: 6b53 97bf c481 81bd e14d ae3f 57fe 13bf
1.1690271 0.11160309 -0.8303375 0.24381538 1.3149781 -0.82953143 0.016477944 -1.8880795
1.2325646 0.26760194 1.3611122 1.0290824 -0.41488138 -1.3273107 -0.8594602 1.2333976
-0.73187566 1.0981531 -0.47420675 1.0288669 0.42948976 0.4886314 -0.64307225 -0.19169122
-1.4428918 -1.1344761 -0.12793456 -0.3722693 1.0060968 -0.22009256 1.7143077 1.1145686
0.62233615 -2.573225 -0.14861472 -1.1312648 1.6184517 -1.2665223 -0.22324994 0.6909715
-0.24563806 1.0496758 0.25941232 1.5319922 0.3147203 1.6899062 -1.6794758 0.02528514
3.5255613 1.7966048 -1.3306267 -1.4913646 0.44906273 0.35005224 1.046806 -1.0588863
1.0229685 -0.84852755 0.07979169 -1.3743492 -1.0009815 0.629762 0.6716518 -0.19163753
0.18051878 0.7606155 0.40181592 -0.60923463 -1.3613977 -0.2283829 0.28117308 -1.3977622
-0.3056356 0.6343669 -0.24378607 -1.1652497 -0.6278392 0.1824747 -0.07613815 0.101816826
1.0479726 -0.60083556 0.38358223 -0.38005945 0.9498903 0.099144764 0.19548772 0.68047506
0.36584 0.9634836 0.8552869 -0.23647834 -0.076982185 -0.005203071 0.22786509 -1.5525029
-0.7620984 -0.7193001 -0.28020507 0.29987666 -0.24367605 -0.32313797 1.2512666 -1.5845422
0.9943758 0.80961955 -1.1789361 -0.68223995 0.22676884 0.74740744 -2.0223627 -0.6098427
0.08335117 -0.12994465 -1.9091818 0.49735698 0.6775032 0.14965624 -2.166351 1.299719
-0.41886714 0.11592035 0.2780971 -0.31276748 0.02910218 0.95052963 -0.33552384 -0.049203895
-0.51766443 1.0663546 0.970768 -1.7915641 -0.4684884 0.6651305 -0.5844799 -0.32156473
-0.6913696 -0.5969065 0.20764366 1.4119712 -0.16795717 -0.18945797 0.5961732 -0.4170639
-0.10388946 -1.1465071 -1.2212055 0.28680664 0.0116452295 1.4313751 0.6112699 -0.26291308
1.0948839 -0.7559531 -0.6400413 -0.5342465 -1.1455694 1.5479614 -0.91264933 1.0335294
-0.3536756 -1.3479298 -0.08294365 0.39949086 -0.038585704 -0.97045213 -1.0461886 -0.062950455
1.1257765 0.18210588 0.28222844 0.06986562 -0.47403154 -0.43425944 -0.120461024 1.3135774
-0.68291056 0.2802585 -1.1349897 0.90371954 0.22538188 0.63351244 -0.4889218 -0.42918032
0.23634568 0.42348087 -0.43690428 -0.06389942 -0.18365034 -0.08303273 0.4912594 0.41982827
0.39777198 0.23544265 -0.10483553 -0.6213384 0.14295122 0.5303334 -0.09724769 -1.2631948
-1.210707 0.6257482 1.5189624 -0.5993935 2.3355918 1.4616743 -0.9556793 -0.67852706
0.21286465 1.6785558 1.0191671 1.6933668 -0.9351338 -0.3345049 0.09868061 0.32817343
-0.54188347 1.5982666 -0.45184612 -0.111824855 -0.7675904 0.39443177 0.21666686 0.36613566
0.040241525 -0.7941056 -0.8519927 0.13329291 -0.03523896 -1.3105893 0.68612164 0.8743071
0.10155114 0.8627083 -2.7204862 0.278148 0.020903096 -0.7399428 0.11177609 0.06213302
-0.18451329 -1.2929503 -0.39537546 0.063370936 0.20653348 -0.57010883 -0.36016154 0.6105241
0.39839098 -0.018078033 0.8638673 0.71703523 -1.1822332 -0.06323579 1.3617517 -0.57809967
