DeepDoubleX/94X/V01/DDCvB.onnx (onnx, 169128 bytes, 26 tensors)

ID_pred_5/kernel:0 f4 [100, 2]
0	0xbde676ff	-0.112531655
1	0xbe39d092	-0.1814597
2	0x3dea683f	0.114456646
3	0x3cca7427	0.024713589
4	0xbc4547cf	-0.012041046
5	0x3db4da8d	0.08830748
6	0xbde11d93	-0.10991969
7	0x3d4f5cfb	0.050625782
8	0xbcec74ea	-0.028864343
9	0xbe0ebbc4	-0.13938814
10	0x3d97edb7	0.074183874
11	0xbbaa01f9	-0.0051882234
12	0x3d512fcd	0.051070977
13	0xbdfc79e8	-0.12327939
14	0xbd87e78d	-0.06635962
15	0xbe30a2f4	-0.17249662
16	0x3c852010	0.01625064
17	0x3e1f2942	0.15543082
18	0x3d04b6ea	0.032401003
19	0xbd6c7fdf	-0.057739135
20	0xbd4034ea	-0.046925463
21	0x3c9ead04	0.01936961
22	0xbd6b56f3	-0.057455968
23	0x3d147989	0.036248717
24	0xbe2bfb2b	-0.16795032
25	0xbdb4506c	-0.08804402
26	0x3e083533	0.13301544
27	0xbd74431c	-0.059634313
28	0x3dc730f3	0.09726133
29	0xbe0849ea	-0.13309446
30	0xbe8985de	-0.26859945
31	0x3e41148c	0.18855494
32	0xbf0d4d45	-0.5519603
33	0x3f119132	0.56862175
34	0xbe5db98f	-0.21652816
35	0x3d3c6538	0.045994967
36	0xbd854cb4	-0.065087706
37	0x3c7f77f9	0.015592569
38	0x3d03e752	0.032203026
39	0xbd89a652	-0.06721176
40	0x3e2441fc	0.16040796
41	0x3d4f6821	0.050636414
42	0xbdab29f6	-0.08357613
43	0x3db8c017	0.09021013
44	0xbdaaf0af	-0.08346688
45	0xbc0ab5dd	-0.008466211
46	0x3e29e3b0	0.16590762
47	0x3dc98a83	0.09840872
48	0x3dc075aa	0.09397443
49	0xbc5b1d08	-0.013373621
50	0xbd598f5b	-0.05311523
51	0x3d4e94f7	0.050435033
52	0x3d71a47c	0.058994755
53	0xbdd6cb44	-0.104879886
54	0x3d00f5dd	0.031484473
55	0x3df4b288	0.11948115
56	0xbda0b780	-0.078475
57	0x3cf35614	0.029704131
58	0xbe54107d	-0.20709415
59	0xbd0e0401	-0.034671787
60	0x3d0efd02	0.034909256
61	0x3e2dd7b0	0.1697681
62	0x3f00d22f	0.50320715
63	0xbefddee6	-0.4958412
64	0x3d47cdbf	0.0487802
65	0x3df624c9	0.12018735
66	0x3d37ac49	0.04484204
67	0xbdd8b9dd	-0.105823256
68	0x3e0e8668	0.1391846
69	0x3c7e0ebc	0.015506443
70	0xbd1da9cf	-0.03849202
71	0x3da4fd38	0.0805611
72	0xbd07c358	-0.03314528
73	0x3d3bec22	0.04587949
74	0x3e4bc481	0.19899179
75	0xbe0b57c3	-0.13607697
76	0xbe156b17	-0.14591633
77	0x3db4e207	0.08832174
78	0xbe26cbf6	-0.16288742
79	0x3d47f636	0.04881879
80	0x3d23f5e9	0.04002944
81	0x3de9270f	0.11384403
82	0x3e37b7c4	0.17941195
83	0x3c94b7d3	0.01815406
84	0x3e1a67c0	0.1507864
85	0x3d5213b5	0.051288325
86	0xbd62e197	-0.05539092
87	0xbe078c0c	-0.13237017
88	0x3d7dbacf	0.061945733
89	0x3e3a0b43	0.18168359
90	0xbcdda211	-0.027054818
91	0xbe1ea3c9	-0.15492167
92	0x3d01a09c	0.03164731
93	0x3e168d20	0.14702272
94	0xbcfd73f4	-0.03093908
95	0x3d49a405	0.049228687
96	0x3d822348	0.063543856
97	0xba5a0588	-0.0008316864
98	0x3cf87819	0.030330705
99	0x3dc9e2cd	0.09857712
100	0xbe74c706	-0.23904046
101	0xbd461de3	-0.048368346
102	0x3e3f0ddf	0.18657635
103	0xbdb6ea41	-0.08931399
104	0xbe0ade80	-0.1356144
105	0x3e0cf862	0.13766626
106	0xbd82b5b9	-0.06382317
107	0xbe34a2b5	-0.17640193
108	0xbe314973	-0.17313175
109	0x3c9ea7f1	0.01936719
110	0xbd24ab4d	-0.040202428
111	0x3d2dc314	0.04242237
112	0xbbfef9c2	-0.0077812383
113	0xbdcb3536	-0.099222586
114	0xbe0afa89	-0.13572134
115	0x3cd2e3f6	0.025743466
116	0xbce84ad6	-0.028355997
117	0xbdd247eb	-0.102676235
118	0x3da04eaf	0.07827508
119	0xbd3a0e20	-0.045423627
120	0x3e078fa7	0.13238393
121	0xbd727c1b	-0.059200387
122	0xbe401492	-0.18757847
123	0x3cc647a9	0.024204092
124	0x3e0660cc	0.13122863
125	0x3d88e4b4	0.06684247
126	0x3cf541e9	0.029938655
127	0xbd968cfa	-0.07351108
128	0xba9979e4	-0.00117093
129	0x3e0e536c	0.1389901
130	0xbcea0b45	-0.028569827
131	0x3e56674e	0.20937845
132	0xbd55a679	-0.052160714
133	0x3db0d86d	0.0863503
134	0x3d93b2e8	0.07211858
135	0xbd1c085a	-0.038093902
136	0xbd5e13e0	-0.054218173
137	0x3d8b17c0	0.06791639
138	0xbc403181	-0.011730553
139	0xbde76486	-0.1129847
140	0xbc832aa9	-0.016011553
141	0x3deea8c8	0.11653286
142	0xbdf61f42	-0.12017681
143	0xbd6f985a	-0.058494903
144	0x3ca56ab1	0.020192476
145	0xbdc61968	-0.096728146
146	0x3dbe2bb9	0.09285683
147	0x3c0feb91	0.008784191
148	0xbd93164d	-0.07181988
149	0x3d89f6d4	0.06736532
150	0xbd4100cf	-0.04711991
151	0x3e54a1ed	0.20764895
152	0x3e106f0d	0.14104863
153	0x3d8cdaa8	0.06877643
154	0xbda95dbb	-0.08269831
155	0x3ce18be2	0.027532522
156	0x3d595d7b	0.053067666
157	0xbdc84a21	-0.09779764
158	0x3ced9c76	0.02900527
159	0x3e056780	0.13027763
160	0xbd44138e	-0.04787021
161	0x3d19e505	0.037571926
162	0xbd72e994	-0.05930479
163	0xbe1b6283	-0.15174298
164	0xbd96d071	-0.07363976
165	0xbe184b6e	-0.14872524
166	0x3d7eb7d0	0.062187016
167	0xbe11525f	-0.14191578
168	0x3d03f8f8	0.032219857
169	0x3de4f77b	0.11180016
170	0xbe1f1fcd	-0.15539475
171	0x3d4c2f3b	0.04984973
172	0xbd6168f9	-0.05503175
173	0x3c85fae6	0.01635499
174	0xbdc61e2d	-0.09673724
175	0x3e1407aa	0.14456049
176	0xbdadbb78	-0.084830225
177	0xbe1d1f0c	-0.15343875
178	0x3b46c463	0.0030329458
179	0xbdcce9f6	-0.10005562
180	0xbdb58fcf	-0.0886532
181	0x3de4cbe2	0.111717
182	0x3e1abe4b	0.15111654
183	0x3c9a7d77	0.018858654
184	0xbbd99dbc	-0.006641118
185	0x3d936e1a	0.071987346
186	0x3d15842f	0.036503013
187	0xbd703cf9	-0.058651898
188	0xbe534c83	-0.20634656
189	0x3e0757a3	0.13217025
190	0xbdfefad0	-0.124501824
191	0xbd7167d2	-0.0589369
192	0xbe0cc91f	-0.13748597
193	0x3d007b44	0.031367555
194	0xbb7b844f	-0.0038378423
195	0x3d826b11	0.063680775
196	0x3d636268	0.05551377
197	0xbcd99a06	-0.026562702
198	0x3e04c254	0.12964755
199	0x3b041538	0.002015425

ID_pred_5/bias:0 f4 [2]
0	0x3dc1660a	0.094432905
1	0xbdc15ded	-0.09441743

fc1_relu_5/kernel:0 f4 [127, 100]
0	0x3c9b0d7e	0.018927332
1	0xbf0aeac7	-0.5426449
2	0xbd428430	-0.047489345
3	0x3d5684a6	0.052372597
4	0x3d45b857	0.048271503
5	0xbd5ebd89	-0.054379974
6	0x3e2fb472	0.17158678
7	0x3ea33d42	0.31882674
8	0xbde7a8f8	-0.11311525
9	0xbe8df413	-0.27725276
10	0xbe33bf99	-0.17553557
11	0x3e4a92d4	0.19782573
12	0x3da47415	0.080299534
13	0xbda710a4	-0.08157471
14	0x3d41b226	0.047289036
15	0x3d13e5dd	0.036107887
16	0xbc620c63	-0.013796899
17	0xbdd0867b	-0.101819
18	0x3cb9a7c6	0.022663008
19	0x3e15e6bf	0.14638804
20	0x3e847b42	0.25875288
21	0xbd8ff06b	-0.07028278
22	0xbb1a0956	-0.00235041
23	0x3dec3bcf	0.11534845
24	0xbeae8fcd	-0.34094086
25	0xbdc10f82	-0.09426786
26	0x3d922dc6	0.07137637
27	0xbdfacf76	-0.12246601
28	0xbeaa3eb0	-0.33250952
29	0xbdbb7898	-0.09153861
30	0xbdbae868	-0.09126359
31	0xbe945970	-0.28974485
32	0xbdee24e3	-0.11628129
33	0xbddc1a00	-0.107471466
34	0x3dac0786	0.083998725
35	0x3c85b108	0.016319767
36	0x3d86b4a9	0.06577427
37	0xbca8ea4f	-0.02061954
38	0xbd71e148	-0.059052736
39	0xbd65c66f	-0.056097444
40	0x3ed12239	0.40846422
41	0xbe1952f4	-0.1497305
42	0xba22bafd	-0.0006207673
43	0xbe2791b3	-0.16364174
44	0x3d843517	0.064554386
45	0x3dc93053	0.0982367
46	0xbe6ca6f7	-0.23110567
47	0x3d8ab5ac	0.067729324
48	0x3cf1b5b2	0.029505584
49	0x3ed8fa87	0.42378637
50	0x3e920ae1	0.28523925
51	0xbd5a88e7	-0.053353216
52	0x3dcb978e	0.09941016
53	0x3e4bdfa5	0.19909532
54	0xbc8b1926	-0.016979765
55	0xbf214ad2	-0.6300479
56	0xbcb27d1a	-0.021788169
57	0x3e5f4c73	0.21806507
58	0xbe42e3ff	-0.19032286
59	0xbd7ceb9d	-0.061748136
60	0xbef398c5	-0.4757749
61	0x3c877f39	0.016540157
62	0xbedd18ba	-0.43182927
63	0xbdebcb37	-0.115133695
64	0xbf779b66	-0.96721494
65	0xbea6b0a3	-0.32556638
66	0xbd54b11a	-0.05192671
67	0x3e1508c3	0.14554124
68	0xbeb2caa6	-0.34920233
69	0xbf209d7f	-0.6274032
70	0x3e141a30	0.14463115
71	0xbb20aa6e	-0.0024515647
72	0xbe4255af	-0.18977998
73	0x3e7dd449	0.24788012
74	0x3e8d4bfc	0.27597034
75	0xbdcced6b	-0.100062214
76	0x3e323260	0.17402029
77	0xbe008b91	-0.1255324
78	0xbe7914d9	-0.24324359
79	0x3f2ff3bb	0.6873128
80	0xbefe9212	-0.49720818
81	0x3f08f4a0	0.5349827
82	0x3bad0bb1	0.0052809347
83	0xbe1f7c25	-0.15574701
84	0x3da0f644	0.078594714
85	0x3e5601de	0.2089915
86	0x3e370861	0.1787429
87	0xbd7e8e95	-0.062147696
88	0x3e112773	0.14175205
89	0xbde0a0da	-0.1096818
90	0x3e013045	0.1261607
91	0xbe8e8912	-0.2783895
92	0x3dd7433f	0.10510873
93	0x3df4f554	0.11960855
94	0x3d736c0b	0.05942921
95	0x3f098ff8	0.53735304
96	0xbe82652f	-0.25467822
97	0x3bd0c0bd	0.0063706324
98	0x3da21263	0.07913663
99	0xbe7cd16e	-0.24689266
100	0xbe7c0505	-0.2461129
101	0x3ed67bb8	0.41891265
102	0x3ec0effa	0.37683088
103	0x3e57177a	0.2100505
104	0xbe636fb1	-0.22210576
105	0x3d206e57	0.03916773
106	0xbe63104b	-0.22174184
107	0x3e615e03	0.22008519
108	0x3cc26843	0.023731356
109	0x3ebaa14c	0.36451185
110	0x3e689cc5	0.22716053
111	0xbdf17a0e	-0.11790858
112	0x3e08d791	0.13363482
113	0xbf88c057	-1.0683697
114	0x3ecc0053	0.39843997
115	0xbded5553	-0.1158854
116	0xbbf70c3b	-0.0075393
117	0x3f3fafae	0.7487744
118	0x3ec5f133	0.38660583
119	0x3e474952	0.19461563
120	0xbda31831	-0.079635985
121	0x3d0059d5	0.03133567
122	0x3e31715d	0.17328401
123	0xbe472d5b	-0.19450895
124	0xbe49640f	-0.19667076
125	0xbdc7567c	-0.097332925
126	0xbf0f9ffe	-0.56103504
127	0x3f1747c5	0.59093887
128	0x3eaf221c	0.3420571
129	0x3e64ffa8	0.2236315
130	0x3d81c9cc	0.06337318
131	0x3d5ccfa8	0.053908974
132	0xbc0cbb27	-0.0085895425
133	0x3e38d6d0	0.18050694
134	0xbff0e01a	-1.881839
135	0x3ec4796f	0.38373896
136	0x3ea2deff	0.31810758
137	0x3ef6c40d	0.4819645
138	0xbf0094f8	-0.5022731
139	0xbcf5aa15	-0.029988328
140	0x3f0a1d06	0.53950536
141	0x3c9bd156	0.019020718
142	0xbece5206	-0.40296954
143	0x3e64f323	0.22358374
144	0xbe56a84d	-0.20962639
145	0xbdeddb53	-0.116140984
146	0x3ebf0ce2	0.37314516
147	0x3e77903b	0.24176113
148	0xbe9b9c35	-0.30392614
149	0xbed96b5f	-0.4246473
150	0xbfa4802d	-1.2851616
151	0xbfeff800	-1.8747559
152	0xbeddd382	-0.4332543
153	0xbf015a70	-0.5052862
154	0x3e80ae92	0.25133187
155	0xbc333ff2	-0.010940539
156	0x3f0dd25d	0.55399114
157	0xbf512838	-0.81701994
158	0xbf40669c	-0.7515657
159	0xbbf4ed01	-0.007474542
160	0x3e3db951	0.18527724
161	0xbf14bc21	-0.5809956
162	0x3d9ff0aa	0.07809575
163	0xbff52609	-1.9152232
164	0x3d91b399	0.07114334
165	0x3ef6940f	0.48159835
166	0x3eff6e1f	0.49888703
167	0x3d6278dc	0.05529104
168	0x3e050809	0.12991346
169	0x3f0baebc	0.545635
170	0xbf497b9d	-0.78704244
171	0x3ed0eb29	0.40804413
172	0xbd667111	-0.056260172
173	0x3f16a723	0.5884878
174	0xbef37bc5	-0.47555366
175	0xbe13b6c7	-0.14425193
176	0xbe982667	-0.297168
177	0xbef8c231	-0.48585656
178	0x398508ea	0.00025374378
179	0xbf66b2ea	-0.9011675
180	0x3f91fa58	1.1404524
181	0xbec3cbb5	-0.38241354
182	0xbe86bd45	-0.26316276
183	0x3d92d72a	0.071699455
184	0x3de84890	0.11341965
185	0x3e796188	0.24353611
186	0x3e476117	0.1947063
187	0x3e91c703	0.28472146
188	0x3edeb47e	0.4349708
189	0xbea01427	-0.31265375
190	0x3e732a29	0.23746552
191	0x3d13e4c3	0.036106836
192	0x3e84380c	0.2582401
193	0x3cecb77b	0.028896084
194	0x3f4edcd4	0.80805707
195	0xbe1dd463	-0.1541305
196	0xbf3269be	-0.696926
197	0xbd44bf6d	-0.04803412
198	0xbf3f7260	-0.747839
199	0x3e553a74	0.2082308
200	0x3e950dcf	0.29112098
201	0xbeb22058	-0.347903
202	0x3f15fa04	0.5858462
203	0x3f83d843	1.0300373
204	0x3f1a91d4	0.60378766
205	0x3e8d552f	0.27604052
206	0x3e417b97	0.18894802
207	0xbe658e92	-0.22417668
208	0x3f0b28db	0.54359215
209	0x3dfa1474	0.122109324
210	0xbf4a9367	-0.7913117
211	0xbe86fc5c	-0.2636441
212	0xbe7b807b	-0.2456073
213	0x3f80f1c0	1.0073776
214	0xbf9843b5	-1.1895663
215	0x3ff041f1	1.8770124
216	0x3d777a2b	0.060419243
217	0x3f995d24	1.1981549
218	0xbe5e6cc4	-0.21721178
219	0xbe89216e	-0.26783317
220	0xbea90ab8	-0.3301599
221	0xbe953b94	-0.29147017
222	0xbe2d9f30	-0.16955256
223	0x3e904510	0.2817769
224	0x3ec4e1b9	0.38453463
225	0xbdbfb02e	-0.093597755
226	0x3f2e6c78	0.6813426
227	0xbe4125fb	-0.18862145
228	0xbf0cc5d2	-0.5498935
229	0xbe944eeb	-0.2896646
230	0x3e8ff15f	0.2811384
231	0x3e5d4918	0.21609914
232	0xbf171460	-0.59015465
233	0xbdba0006	-0.09082036
234	0x3fcd93aa	1.6060688
235	0x3f089b86	0.5336231
236	0xbf092269	-0.5356813
237	0xbebf0c9b	-0.37314305
238	0x3fe561ee	1.7920511
239	0x3fe30610	1.7736225
240	0xbe26e472	-0.16298082
241	0x3ebbc7c3	0.36675844
242	0x3fb5253e	1.415199
243	0x3e0ff4ca	0.14058223
244	0xbe3e7dab	-0.18602626
245	0x3f2484f4	0.6426537
246	0xbf2c4327	-0.67289966
247	0xbf18c94d	-0.5968216
248	0x3e2a4900	0.1662941
249	0x3d109e49	0.035307202
250	0xbdeddf85	-0.116148986
251	0x3fa22f69	1.2670718
252	0x3f8ad548	1.0846338
253	0x3b08730a	0.0020820522
254	0x3d9d316f	0.07675444
255	0xbd523f78	-0.05133006

fc1_relu_5/bias:0 f4 [100]
0	0x3e79e3c2	0.24403289
1	0xbf1d4a9c	-0.6144197
2	0xbee03c68	-0.43796086
3	0xbf5708de	-0.83997905
4	0xbf322b7d	-0.6959761
5	0xbe44a87d	-0.19204898
6	0xbfb1f760	-1.3903618
7	0xbf31f242	-0.6951028
8	0xbf671a31	-0.9027434
9	0xbdcd9b51	-0.1003939
10	0xbe1de737	-0.15420233
11	0xbf1ff0f8	-0.62477064
12	0xbe9137be	-0.2836284
13	0xbff00ee5	-1.8754545
14	0xbfed22f7	-1.8526295
15	0xc01a36d5	-2.4095967
16	0xc05e99ae	-3.4781299
17	0xc0105904	-2.255433
18	0xbe8a590e	-0.27021068
19	0xbe3cce38	-0.18438041
20	0xbf8857dc	-1.0651813
21	0xbf610235	-0.8789399
22	0x3daf35c7	0.08555179
23	0x3ebbb604	0.36662304
24	0xbeae64dc	-0.34061325
25	0xbf8941b9	-1.0723182
26	0xbf8c909d	-1.0981632
27	0xbec0a974	-0.37629282
28	0xbf446958	-0.7672324
29	0xbfb9b9cf	-1.4509829
30	0xbf476687	-0.7789082
31	0xc009544b	-2.1457698
32	0xbee87794	-0.4540373
33	0xbf9cdea7	-1.2255448
34	0xbe6b8767	-0.2300087
35	0xbec13161	-0.37732986
36	0xbed18667	-0.40922853
37	0xbfbade00	-1.4598999
38	0xbff59da7	-1.9188737
39	0xbffb4e2b	-1.963323
40	0xbe958005	-0.29199234
41	0xbf6b6947	-0.91957515
42	0x3f0ea9c0	0.5572777
43	0x3e23147f	0.15925787
44	0xbf309920	-0.6898365
45	0xbf3dcc19	-0.74139553
46	0xbfa3a9f8	-1.2786245
47	0xbe9fd545	-0.312174
48	0xbd1ee40e	-0.03879171
49	0xbf051197	-0.51979965
50	0xbfd9d697	-1.7018613
51	0xbfd022f8	-1.6260672
52	0xbffb8841	-1.9650956
53	0xbf22ca52	-0.63589966
54	0xbfecadfe	-1.8490598
55	0xbf046123	-0.5171072
56	0xbe4382df	-0.19092892
57	0xc0038289	-2.0548422
58	0x3e70c055	0.23510869
59	0xbf0e92c8	-0.5569272
60	0xbf570c34	-0.84002995
61	0xc005d70b	-2.0912502
62	0x3dfcdc58	0.12346715
63	0x3e7333cd	0.23750229
64	0xc00d29c0	-2.2056732
65	0xbfeea504	-1.8644109
66	0xbf57d8e4	-0.84315324
67	0xbf08f54b	-0.5349929
68	0xbf874825	-1.0568892
69	0xbf404137	-0.7509951
70	0xbf6dfea1	-0.9296666
71	0xbf0d6420	-0.55230904
72	0xbf21f8f8	-0.6327052
73	0xbe840054	-0.257815
74	0xbfb794f1	-1.4342328
75	0xbfaf45b7	-1.369315
76	0x3e9be87d	0.30450812
77	0xbee7846f	-0.45218226
78	0xbfa293f2	-1.2701399
79	0xbf3f0f35	-0.7463258
80	0xbee228ba	-0.44171697
81	0xbc9e457e	-0.019320246
82	0x3f347533	0.7049133
83	0xbfbbb57a	-1.4664757
84	0xbec3a493	-0.38211498
85	0xbfd0d7b5	-1.6315829
86	0xbf0a6938	-0.540668
87	0xc0024a1e	-2.0357738
88	0x3e1e3a75	0.15451987
89	0xbf1f9ab8	-0.6234546
90	0xbfd94651	-1.6974584
91	0xbf8d1af6	-1.1023853
92	0xbf2d69d2	-0.67739594
93	0xbf250ce6	-0.64472806
94	0xbff87cc6	-1.9413078
95	0xbebfda57	-0.37471268
96	0xbfcc2717	-1.5949429
97	0x3d6ec784	0.05829574
98	0x3ea98404	0.33108532
99	0xbf80d618	-1.0065336

scale f4 [27]
0	0x3e3de6b9	0.18545045
1	0x3f652776	0.8951334
2	0x3f195a9c	0.59903884
3	0x3ee54892	0.4478193
4	0x3eea5354	0.457667
5	0x3edbf8fc	0.42963398
6	0x3ebc767d	0.3680915
7	0x3edc7ca5	0.43063846
8	0x3d0425a4	0.03226246
9	0x3cf67815	0.030086556
10	0x40089d0b	2.1345851
11	0x3f425124	0.7590506
12	0x3f15fbbf	0.5858726
13	0x3ea969b4	0.33088458
14	0x3e530a90	0.20609498
15	0x3e1448f9	0.14480962
16	0x3e5867b5	0.21133311
17	0x3dd873fe	0.10568999
18	0x3c643974	0.0139297135
19	0x3ca3295f	0.019917188
20	0x3d6d15eb	0.05788223
21	0x3d870e3c	0.06594512
22	0x3c787a19	0.015165829
23	0x3d52edf3	0.051496457
24	0x3e13feb2	0.14452627
25	0x3e1ba16f	0.15198301
26	0x3d92a8a0	0.07161069

bias f4 [27]
0	0xc023af06	-2.5575576
1	0xbfb509f6	-1.4143665
2	0xbfb23d2e	-1.392492
3	0xbfba3bf6	-1.4549549
4	0xbf6b3472	-0.918769
5	0xbdc12a25	-0.094318666
6	0xbe8fecde	-0.28110403
7	0xbdd81102	-0.10550119
8	0xbeba0d66	-0.36338347
9	0xbd9e02a6	-0.07715349
10	0x3e5b65ec	0.21425599
11	0xbea11142	-0.3145848
12	0x3e5ae03c	0.21374601
13	0xbf1eb457	-0.61993927
14	0xbdc3a6be	-0.09553288
15	0xbf405595	-0.7513059
16	0xbf1d7d04	-0.61518884
17	0xbf3798f5	-0.7171777
18	0xbe99c97a	-0.30036527
19	0xbe7a2ff0	-0.24432349
20	0xbd9f9225	-0.07791547
21	0xbee1357a	-0.43986112
22	0xbe9395f3	-0.2882534
23	0xbe45cbc0	-0.19316006
24	0xbeec5108	-0.46155572
25	0xbe97da9e	-0.2965898
26	0xbeed7fad	-0.4638647

mean f4 [27]
0	0x00000000	0.0
1	0x00000000	0.0
2	0x00000000	0.0
3	0x00000000	0.0
4	0x00000000	0.0
5	0x00000000	0.0
6	0x00000000	0.0
7	0x00000000	0.0
8	0x00000000	0.0
9	0x00000000	0.0
10	0x80000000	-0.0
11	0x00000000	0.0
12	0x80000000	-0.0
13	0x00000000	0.0
14	0x00000000	0.0
15	0x00000000	0.0
16	0x00000000	0.0
17	0x00000000	0.0
18	0x00000000	0.0
19	0x00000000	0.0
20	0x00000000	0.0
21	0x00000000	0.0
22	0x00000000	0.0
23	0x00000000	0.0
24	0x00000000	0.0
25	0x00000000	0.0
26	0x00000000	0.0

var f4 [27]
0	0x3f800000	1.0
1	0x3f800000	1.0
2	0x3f800000	1.0
3	0x3f800000	1.0
4	0x3f800000	1.0
5	0x3f800000	1.0
6	0x3f800000	1.0
7	0x3f800000	1.0
8	0x3f800000	1.0
9	0x3f800000	1.0
10	0x3f800000	1.0
11	0x3f800000	1.0
12	0x3f800000	1.0
13	0x3f800000	1.0
14	0x3f800000	1.0
15	0x3f800000	1.0
16	0x3f800000	1.0
17	0x3f800000	1.0
18	0x3f800000	1.0
19	0x3f800000	1.0
20	0x3f800000	1.0
21	0x3f800000	1.0
22	0x3f800000	1.0
23	0x3f800000	1.0
24	0x3f800000	1.0
25	0x3f800000	1.0
26	0x3f800000	1.0

tensor_w f4 [1, 150, 32]
0	0x3e4a48c3	0.19754319
1	0x3f5fed92	0.8747188
2	0x3c34a2e5	0.011025165
3	0x3e05dc06	0.13072214
4	0x3e24bdbf	0.16088007
5	0x3e2462b5	0.16053279
6	0xbcbcf192	-0.023064408
7	0xbd6901a0	-0.056886315
8	0x3e0d7f09	0.13817991
9	0x3c74a60c	0.014932167
10	0x3d33dff0	0.043914735
11	0x3ddfc2e1	0.10925842
12	0x3ce49e04	0.027907379
13	0x3f4e74a1	0.8064671
14	0x3e188c3f	0.1489725
15	0x3ea0805c	0.3134793
16	0x3ebffb98	0.37496638
17	0x3d648a53	0.05579598
18	0xbeb0b9a6	-0.3451664
19	0x3e15067f	0.1455326
20	0x3cac50aa	0.021034557
21	0xbd2307f0	-0.03980249
22	0x3e1459cc	0.1448738
23	0x3de027b6	0.10945074
24	0x3e157bbb	0.1459798
25	0xbd2d483b	-0.042305212
26	0x3f1b8985	0.60756713
27	0x3d8506d0	0.0649544
28	0x3e3b1f70	0.18273711
29	0x3e9828e5	0.297187
30	0x3f7cc09c	0.987314
31	0x3d81d9bd	0.063403584
32	0x3f5325f8	0.8247981
33	0x3e2e4225	0.1701742
34	0xbe288ee2	-0.16460755
35	0x3fd5d075	1.6704241
36	0x3f12a8d8	0.57288885
37	0x3de463a9	0.11151821
38	0x3bcc4c3b	0.0062346733
39	0x401115a9	2.266947
40	0x3edab326	0.42714804
41	0x3de706b0	0.112805724
42	0x3dc4eb42	0.09615184
43	0x3f7a68fc	0.97816443
44	0x3de06e16	0.10958497
45	0x3e235e8d	0.15954037
46	0xbf0efecc	-0.5585754
47	0x3ff252e3	1.8931545
48	0x3f0d7256	0.5525259
49	0x3fb49e37	1.4110783
50	0x3f3517d1	0.70739466
51	0x3f036b7c	0.51335883
52	0x3de1b1f0	0.11020267
53	0x3ea05a44	0.31318867
54	0x3fb474ac	1.4098105
55	0x3d6c18ae	0.057640724
56	0x3d99875b	0.0749652
57	0xbead7ebe	-0.3388576
58	0x400148de	2.0200725
59	0xbf2a1262	-0.664343
60	0x3f422593	0.75838584
61	0xbd0bd114	-0.03413494
62	0x3fb71369	1.4302799
63	0x3ee21d87	0.44163153
64	0x3ecec2d6	0.40383023
65	0x3f899de0	1.0751305
66	0x3f184142	0.59474576
67	0x3fca8ed7	1.5824841
68	0x3efe90ea	0.49719936
69	0x3e783801	0.24240114
70	0x3e9989f1	0.29988053
71	0x40035cc7	2.0525377
72	0x3ee4d7b5	0.4469582
73	0x3bbdb4e6	0.005789387
74	0x3de67493	0.112527035
75	0x3d90ed11	0.07076467
76	0x3ea16b90	0.31527376
77	0x3c5692a1	0.0130964825
78	0x3eb9cacd	0.36287537
79	0x3f8e9feb	1.1142553
80	0x3e52dce7	0.2059208
81	0x3de4c7c8	0.11170918
82	0x3e00b366	0.12568435
83	0x3f8fff8e	1.1249864
84	0x3d726f7d	0.059188355
85	0x3f1e65d9	0.6187416
86	0x400ee8d1	2.23296
87	0x3e01ef2a	0.1268889
88	0x3f9c08fc	1.2190242
89	0xbfbe4f45	-1.4867941
90	0x3f537547	0.82600826
91	0xbfbb5bee	-1.463743
92	0x3f63fd60	0.89058495
93	0x3fc0c7d1	1.5060979
94	0x3dd7b122	0.10531832
95	0x3fb7945e	1.4342153
96	0xbf0fad42	-0.56123745
97	0x3ec43f9b	0.38329777
98	0x3fbb4013	1.4628929
99	0x3da4603c	0.08026168
100	0xbea2a0ea	-0.31763393
101	0xbd01a4b9	-0.031651232
102	0x3d9d7900	0.076890945
103	0x3dfda4ed	0.12384973
104	0x3ea68d1d	0.32529536
105	0x3f4feede	0.8122386
106	0x3cf06093	0.029342925
107	0x3fa27e55	1.2694803
108	0x3c70b3a9	0.014691272
109	0xbef3d639	-0.47624376
110	0xbdd5fc2d	-0.10448489
111	0xbe170f2b	-0.1475188
112	0xbd86f867	-0.06590348
113	0x3f0204c8	0.50788546
114	0x3e5b4a97	0.21415173
115	0xbe612c85	-0.21989639
116	0x3f7b56fa	0.9817959
117	0x3e4ca08e	0.19983122
118	0x3c8dde55	0.01731793
119	0x3fa72f90	1.306139
120	0x3fec513d	1.8462292
121	0xbc708d8f	-0.014682188
122	0xbe95d48b	-0.2926372
123	0xbe64b84d	-0.2233593
124	0xbe108b95	-0.14115746
125	0x3e937c8b	0.28805956
126	0xbdcc00a3	-0.09961059
127	0xbd82263d	-0.063549496
128	0x3ee9236b	0.45534834
129	0x3f4f70be	0.81031406
130	0xbdeebf31	-0.116575606
131	0x3eeb83ae	0.459989
132	0x3f02338d	0.5085991
133	0x3f297488	0.6619344
134	0x3ecaec96	0.39633626
135	0x3dddca2e	0.10829578
136	0x3f48951c	0.7835252
137	0xbe26965b	-0.16268294
138	0x3e35524a	0.17707172
139	0x3ee8298e	0.45344204
140	0x3e072d3f	0.13200854
141	0x3dcde90a	0.10054214
142	0x3f2e5d56	0.6811117
143	0x3f90983c	1.1296458
144	0x3f0e24f2	0.55525124
145	0xbd66ea85	-0.056376
146	0x3f80aaf9	1.0052177
147	0xbe49ca61	-0.19706108
148	0xbe297237	-0.16547476
149	0x3ea6b544	0.3256017
150	0x3edf0cf6	0.43564576
151	0x3db427a0	0.0879662
152	0x3d7667ed	0.060157705
153	0x3ea218bf	0.31659505
154	0xbd14a32e	-0.036288433
155	0x3eda1cd3	0.42600116
156	0x3e8ccac4	0.27498448
157	0x3e3c1de1	0.18370773
158	0x3e370ff5	0.17877181
159	0x3e077b65	0.13230665
160	0x3f076063	0.5288145
161	0xbddb4754	-0.10706964
162	0x3e8b64d6	0.2722537
163	0x3ff62a01	1.9231569
164	0x3eb91c41	0.3615437
165	0x3edf8bf5	0.43661466
166	0x3d1eff63	0.038817775
167	0x3feb3baa	1.8377583
168	0x3ecfb02c	0.40564096
169	0x3e19a515	0.1500438
170	0x401cf371	2.4523585
171	0x3f5751c7	0.8410916
172	0x3feab977	1.8337849
173	0x3eaa73b6	0.33291405
174	0xbe683c2c	-0.22679204
175	0x3f165526	0.58723676
176	0x3f27bc46	0.6552166
177	0x3f6982c5	0.91215163
178	0x3eee95db	0.46598706
179	0x3d5c57fa	0.05379484
180	0x3e261cc3	0.16221909
181	0x3fce8156	1.613322
182	0x3eda5eec	0.42650545
183	0x3ea1d85f	0.3161039
184	0x3ea79186	0.32728213
185	0x3f1de93a	0.61684
186	0x3f9d669f	1.2296942
187	0x3eda0554	0.4258219
188	0x3eefc557	0.46830246
189	0x3eac98cf	0.33710334
190	0x3f43012f	0.7617368
191	0x3f3014e4	0.68781877
192	0x3f8249f7	1.0178822
193	0x3fe45885	1.7839514
194	0xbc90db9e	-0.017682847
195	0x3e90fd40	0.28318214
196	0x400b8af5	2.1803563
197	0x3e0758d7	0.13217483
198	0x3f242fd2	0.6413547
199	0x3f31bd95	0.69429904
200	0x3fa96479	1.3233787
201	0x3e39f271	0.1815889
202	0x3f7ff4c0	0.99982834
203	0x3e967797	0.29388115
204	0x3f8969e3	1.0735439
205	0xbec3f9b8	-0.38276458
206	0x3fe0c8da	1.7561295
207	0x3e8939e7	0.26801988
208	0x3fd15048	1.6352625
209	0x3efc5d58	0.49289966
210	0x3fc3da81	1.5301057
211	0x3eacdcad	0.33762112
212	0x3e482580	0.19545555
213	0x3f5dafa5	0.8659614
214	0x401f0ad9	2.485037
215	0x3e8f3a77	0.27974293
216	0x3f7f99d3	0.9984409
217	0x3d4917d6	0.049094997
218	0xbf122e45	-0.5710185
219	0xbf2687a3	-0.65050715
220	0xbd80cf22	-0.062895074
221	0x403af405	2.9211438
222	0xbcc4f124	-0.024040766
223	0xbdb1dc8d	-0.08684645
224	0xbdcd4cf0	-0.1002444
225	0x3d1955a9	0.037435208
226	0x3d8e65df	0.06953024
227	0x3d2098eb	0.039208334
228	0xbc950b16	-0.018193763
229	0x3f6e2ede	0.93040264
230	0x3d30e628	0.043188244
231	0xbdc086fe	-0.09400748
232	0x3d499266	0.049211882
233	0x3ed7728b	0.42079577
234	0x3b886ab0	0.0041631088
235	0x3d21c87e	0.039497845
236	0xb9ce4cb0	-0.00039348518
237	0x3e4ad1bd	0.19806571
238	0xbd29a10d	-0.041413356
239	0x3e921ddb	0.28538403
240	0xbe4fcc11	-0.20292689
241	0x3d52c172	0.051454015
242	0x3e058c47	0.13041793
243	0x3ca295fa	0.019846905
244	0x3e7ebb5d	0.24876161
245	0x3d18fcec	0.03735058
246	0x3e14ef02	0.14544299
247	0x3e78c0f0	0.2429235
248	0x3f7ac22d	0.9795254
249	0x3e6d8bd2	0.23197868
250	0xbd4abe02	-0.04949761
251	0x3ded8b3c	0.115988225
252	0x3d12367d	0.035696495
253	0x3cf6b0dc	0.03011363
254	0x3cd67939	0.02618085
255	0xbb2ac069	-0.0026054627

tensor_r f4 [1, 150, 50]
0	0x3e865c17	0.26242134
1	0x3cc64584	0.02420307
2	0x3d8d2ecd	0.06893692
3	0xbe0dfc8e	-0.13865873
4	0xbecd2bd3	-0.40072498
5	0xbbcc7132	-0.00623908
6	0x3d920213	0.07129302
7	0x3e5b93d0	0.21443105
8	0xbe0d8eaa	-0.13823953
9	0xbe1047ec	-0.14089936
10	0x3df3c045	0.11901907
11	0xbd23f29e	-0.0400263
12	0x3de9e146	0.114199206
13	0xbd4bf0dc	-0.04979025
14	0xbe1a6557	-0.1507772
15	0xbd1eecd6	-0.038800083
16	0x3e62f761	0.2216468
17	0xbecefb8c	-0.4042629
18	0x3e128140	0.14307117
19	0x3f24b6b8	0.64341307
20	0xbde4335f	-0.11142611
21	0xbe1cf22c	-0.15326756
22	0x3ea17947	0.3153784
23	0xbcbdcaaa	-0.023167927
24	0x3b9ba439	0.0047498015
25	0x3cb56781	0.022144081
26	0x3e021d6a	0.12706533
27	0xbe87ed27	-0.2654812
28	0x3ebf1dfb	0.3732756
29	0xbe58b611	-0.21163203
30	0x3d49b70f	0.049246844
31	0xbdcf8943	-0.101336025
32	0xbe3094a5	-0.17244203
33	0x3d81654f	0.06318151
34	0x3dd88482	0.10572149
35	0xbc02e058	-0.007988058
36	0xbd8d5bd2	-0.06902279
37	0xbe4d7275	-0.20063193
38	0xbe93b6c8	-0.2885039
39	0xbe252f2f	-0.1613128
40	0x3d6833a2	0.056689866
41	0x3e831e47	0.25609037
42	0xbddea856	-0.10871951
43	0x3e19a0f2	0.15002802
44	0x3ef0dcd5	0.4704348
45	0x3da75240	0.08169985
46	0x3d92de18	0.07171267
47	0xbe108868	-0.14114535
48	0x3dcf8dc6	0.10134463
49	0xbf06a17b	-0.5259015
50	0xbe960f3b	-0.29308495
51	0x3f582ec7	0.84446377
52	0x3e696b90	0.22794938
53	0x3e444818	0.19168127
54	0x3e9fb65c	0.31193817
55	0xbdc2604a	-0.09491022
56	0x3dcb7bf0	0.099357486
57	0x3d8953fd	0.067054726
58	0x3dd29491	0.10282243
59	0xbe31a89d	-0.17349477
60	0xbe5aa57d	-0.21352191
61	0xbebfcdce	-0.37461704
62	0x3f238110	0.6386881
63	0xbd8ab557	-0.06772869
64	0xbcdce2be	-0.026963588
65	0x3da57256	0.080784485
66	0x3c98bffa	0.018646229
67	0xbf633c12	-0.88763535
68	0xbe38f1ff	-0.18061064
69	0xbe0006f5	-0.12502654
70	0xbe22f8ed	-0.1591527
71	0xbe428770	-0.18996978
72	0xbeada65a	-0.3391598
73	0xbca50466	-0.020143699
74	0x3b404a24	0.0029341066
75	0xbd91feb8	-0.07128662
76	0xbf01739a	-0.5056702
77	0xbe995195	-0.29945055
78	0xbf055df4	-0.52096486
79	0x3e549041	0.20758153
80	0xbec7e068	-0.39038396
81	0xbcfd3a99	-0.03091173
82	0x3e3074ab	0.17232005
83	0xbd824dec	-0.06362519
84	0x3e5653d9	0.20930423
85	0x3cac2266	0.021012496
86	0xbe43812b	-0.19092242
87	0xbdec7848	-0.11546379
88	0x39022583	0.0001241174
89	0x3d83d5e7	0.06437283
90	0xbdce8efb	-0.10085865
91	0xbd39d653	-0.04537041
92	0xbe14d373	-0.14533786
93	0x3e993119	0.2992027
94	0xbdbe7a39	-0.09300656
95	0x3dbe3645	0.09287695
96	0xbc60b59b	-0.013715173
97	0xbe877566	-0.26456755
98	0xbe5996f5	-0.21248992
99	0xbe331c67	-0.17491303
100	0x3ecab21a	0.39589006
101	0x3efce357	0.49392197
102	0xbec9ec5f	-0.3943815
103	0xbdf70293	-0.12061038
104	0xbe1721c7	-0.14758979
105	0x3eb1876f	0.3467364
106	0x3d9a0897	0.0752117
107	0x3e2185d7	0.15773712
108	0xbc5197af	-0.012792512
109	0xbe7937f4	-0.2433775
110	0xbc18da56	-0.009329399
111	0x3cee3e8b	0.029082557
112	0x3ed43c62	0.41452318
113	0x3e4a8f0d	0.19781132
114	0x3d777f8e	0.06042438
115	0xbeb6ff7e	-0.357418
116	0x3da5ecd2	0.081018105
117	0xbf5a5b15	-0.8529523
118	0x3e8bb543	0.2728673
119	0xbd1ae143	-0.037812483
120	0x3e029f96	0.1275619
121	0xbe2a7c61	-0.1664901
122	0xbdd83409	-0.105568
123	0x3c535ae4	0.012900088
124	0xbe0519c9	-0.12998118
125	0xba833387	-0.0010009863
126	0x3e46d323	0.1941648
127	0xbdd59428	-0.10428649
128	0xbeb8c841	-0.36090282
129	0x3eb2a55c	0.34891784
130	0xbc198a3c	-0.009371337
131	0x3e584c67	0.21122895
132	0xbf0d3683	-0.55161303
133	0xbecdbb5c	-0.40182006
134	0x3e6743bd	0.22584434
135	0x3d91cec0	0.071195126
136	0x3cb2582d	0.021770561
137	0xbebee588	-0.37284493
138	0xbebd0e3d	-0.36924925
139	0xbd773315	-0.06035145
140	0xbe3da939	-0.18521585
141	0xbe8d1087	-0.27551672
142	0x3e269c9c	0.16270679
143	0xbe51c0b6	-0.2048367
144	0x3e23706b	0.15960853
145	0xbe0d01f7	-0.13770281
146	0x3e064e81	0.13115884
147	0x3e9062b2	0.282003
148	0x3ecbf73f	0.3983707
149	0x3eb32e84	0.34996426
150	0x3e68d5c6	0.22737798
151	0x3f275ca5	0.6537574
152	0x3edf74dc	0.43643844
153	0xbf200cc9	-0.6251951
154	0x3e91dabd	0.28487197
155	0x3db97b1b	0.09056684
156	0x3dd2110e	0.10257159
157	0x3eaa6136	0.3327729
158	0xbed526fd	-0.41631308
159	0x3eea6151	0.45777372
160	0xbdf2a547	-0.118479304
161	0x3f0afe9d	0.5429476
162	0x3f3235ad	0.6961315
163	0x3f192da4	0.5983527
164	0x3d096ba2	0.033549912
165	0xbf431009	-0.7619634
166	0x3cc7957e	0.024363276
167	0xbf47a6c0	-0.77988815
168	0xbe50995f	-0.20371006
169	0xbd6bdd7f	-0.057584282
170	0x3e8a7b53	0.27047214
171	0x3e1b6355	0.15174611
172	0xbe0d05b4	-0.13771707
173	0x3da95c92	0.082696095
174	0xbdbe37af	-0.092879646
175	0x3ed02410	0.40652514
176	0x3adc6c15	0.0016816879
177	0x3e4e078e	0.2012007
178	0xbea00ab3	-0.31258163
179	0xbd94c305	-0.072637595
180	0x3ecd4938	0.40094924
181	0x3c9fa5ac	0.019488178
182	0x3f424c15	0.7589734
183	0x3e0a0a9a	0.13480607
184	0x3eaf98d7	0.34296295
185	0xbe7afb40	-0.24509907
186	0x3f22b912	0.63563645
187	0xbf12d6fc	-0.5735929
188	0xbd995133	-0.07486191
189	0xbd3d1d2e	-0.046170406
190	0xbd491186	-0.049088977
191	0xbe476e77	-0.19475733
192	0x3f556a8b	0.83365697
193	0xbe47920a	-0.19489303
194	0xbef08f85	-0.46984497
195	0xbe55db41	-0.2088442
196	0xbe81867e	-0.25297922
197	0xbe5f234c	-0.21790808
198	0x3daf71e7	0.08566647
199	0xbd14feee	-0.036375932
200	0x3eb01801	0.34393314
201	0x3dd0cdbd	0.101954915
202	0xbea9e3a4	-0.3318149
203	0x3e1e4469	0.15455784
204	0xbebb3dd2	-0.36570603
205	0x3f3427db	0.70373315
206	0xbe887b62	-0.26656634
207	0xbdcc060c	-0.09962091
208	0xbed68984	-0.4190179
209	0xbeb8d9ff	-0.36103818
210	0x3e22c077	0.15893732
211	0xbe162e9e	-0.1466622
212	0x3eb4b2b3	0.35292587
213	0xbecc3343	-0.3988286
214	0x3f6c87c2	0.9239465
215	0xbdbc5f4a	-0.091978624
216	0xbe890e65	-0.26768795
217	0xbeceb2ab	-0.40370688
218	0xbea08293	-0.3134962
219	0xbec2f8d8	-0.38080478
220	0x3f0ebae8	0.55753946
221	0xbfa79241	-1.3091508
222	0xbdf8b038	-0.12142986
223	0x3e334ae0	0.17509031
224	0x3d8523d2	0.06500973
225	0x3e81a5cc	0.25321805
226	0xbe19d9ca	-0.15024486
227	0xbd4d734c	-0.050158784
228	0x3d3a7735	0.04552384
229	0xbe36aed3	-0.17840128
230	0xbe561b6e	-0.20908901
231	0xbee0d0c3	-0.43909273
232	0xbf4156b8	-0.7552295
233	0xbe01f8c2	-0.1269255
234	0x3f05ffe2	0.5234357
235	0xbe7c232b	-0.2462279
236	0x3e12797c	0.14304155
237	0xbef01a2b	-0.46894965
238	0xbdd60fcc	-0.10452232
239	0xbed3e970	-0.41389036
240	0x3e2e217c	0.17004961
241	0x3e0de222	0.13855794
242	0xbec74330	-0.38918447
243	0x3db3d44e	0.08780728
244	0xbf40f3d6	-0.75372064
245	0x3e92e4fa	0.2869032
246	0x3e991714	0.2990042
247	0xbedf73b2	-0.43642956
248	0xbf0c728d	-0.5486229
249	0xb8612760	-5.368085e-05
250	0xbe8b1658	-0.27165484
251	0xbee20fc8	-0.44152665
252	0x3f3358a1	0.7005711
253	0xbcc04fa1	-0.02347547
254	0xbedbc146	-0.42920893
255	0x3ebbfd54	0.36716712

tensor_b f4 [1, 300]
0	0x3e231e0c	0.1592943
1	0x3eb93c05	0.36178604
2	0x3efb2c4d	0.49057236
3	0x3e11dbfe	0.14244077
4	0x3f18bf70	0.5966711
5	0x3e578aeb	0.21049087
6	0x3eb056ef	0.34441325
7	0x3ec43c46	0.38327235
8	0x3f005c00	0.5014038
9	0xbdd8b5d1	-0.10581554
10	0x3f4f7102	0.8103181
11	0x3f1e27f3	0.6177971
12	0x3ee1afb4	0.44079363
13	0x3ec71905	0.38886276
14	0x3f5e71de	0.868925
15	0x3ec03b33	0.37545165
16	0x3e96aa4f	0.2942681
17	0x3dfca169	0.12335474
18	0x3f132911	0.5748454
19	0x3f53f018	0.8278823
20	0x3f08a1b8	0.53371763
21	0x3e6f420a	0.23365036
22	0x3f252b37	0.64519066
23	0xbd38fc59	-0.045162532
24	0x3f376c32	0.7164947
25	0x3f395f95	0.7241147
26	0x3e929475	0.2862889
27	0x3f7ca7ef	0.98693746
28	0x3e2665b4	0.16249734
29	0x3f29eb3f	0.6637458
30	0x3ee24259	0.44191244
31	0xbd255a32	-0.04036922
32	0x3ef7e937	0.48420116
33	0x3f25a860	0.64710045
34	0x3eda6599	0.42655638
35	0x3e57688d	0.21035977
36	0x3f1887fc	0.59582496
37	0xbe3317d3	-0.17489557
38	0x3e0cb7cb	0.13741986
39	0x3f315538	0.6927066
40	0x3ea88404	0.3291322
41	0x3eec3cfc	0.46140277
42	0x3ea4dfa8	0.32201886
43	0x3dd0111e	0.10159515
44	0x3e7c5a6a	0.24643865
45	0x3f16f5bf	0.5896873
46	0x3fa5f2c6	1.2964714
47	0x3e89a246	0.26881617
48	0x3f156075	0.58350307
49	0x3ef33844	0.47503865
50	0xbe5e6c15	-0.21720918
51	0xbe75fc7f	-0.24022101
52	0xbeec41db	-0.46143994
53	0xbedf27c9	-0.4358504
54	0xbf8990b9	-1.0747291
55	0xbef60e81	-0.4805794
56	0xbe6ff698	-0.23433912
57	0xbf830a52	-1.0237525
58	0xbec98fd6	-0.3936755
59	0xbf081283	-0.53153247
60	0xbef07bc2	-0.4696942
61	0xbf41c546	-0.7569164
62	0xbeebb101	-0.4603348
63	0xbf05805c	-0.52148986
64	0xbf0926b7	-0.535747
65	0xbf9947b7	-1.1975011
66	0xbf245b07	-0.64201397
67	0xbef4ab21	-0.4778681
68	0xbf08fac8	-0.5350766
69	0xbfe55cb5	-1.7918917
70	0xbf55e934	-0.83558965
71	0xbebdfdf6	-0.3710782
72	0xbe344d7b	-0.17607681
73	0xbea6c4f9	-0.32572153
74	0xbecb684d	-0.39728013
75	0xbf66d722	-0.90172017
76	0xbf45de21	-0.77292067
77	0xbf2e0354	-0.6797383
78	0xbec35d10	-0.3815694
79	0xbf23422a	-0.63772833
80	0xbee72f41	-0.4515324
81	0xbf518fed	-0.8186024
82	0xbf52b644	-0.82309365
83	0xbf22eabc	-0.63639426
84	0xbf87260e	-1.0558488
85	0xbf473679	-0.77817494
86	0xbf099bbf	-0.53753275
87	0xbd55a1c7	-0.052156236
88	0xbf40a712	-0.7525493
89	0xbf19f9a8	-0.6014657
90	0xbfc165b5	-1.5109164
91	0xbe87a964	-0.26496422
92	0xbdc1f5a9	-0.09470684
93	0xbf04eeae	-0.51926696
94	0xbf0ad16c	-0.542258
95	0xbead7c8a	-0.33884078
96	0x3e0c6d4b	0.13713567
97	0xbed30054	-0.41211188
98	0xbfadc802	-1.3576663
99	0xbeb53c2e	-0.35397476
100	0xbdfa43e4	-0.1221998
101	0x3ecb1516	0.39664525
102	0xbe1af3db	-0.15132086
103	0xbe9aac5b	-0.30209622
104	0xbdf4a260	-0.11945033
105	0x3d81cf38	0.06338352
106	0xbdd69d93	-0.10479274
107	0x3e095d3c	0.13414472
108	0xbd9f54f5	-0.07779876
109	0xbe8b2e01	-0.27183536
110	0xbb96d36f	-0.0046028416
111	0x3efcb017	0.49353096
112	0x3d0aa3b8	0.03384754
113	0xbd115e55	-0.035490353
114	0x3debc7d3	0.11512723
115	0x3dbe06dc	0.09278652
116	0xbe0acd70	-0.1355493
117	0xbf7a0ace	-0.97672737
118	0xbe1c97f4	-0.1529234
119	0xbeabb2a0	-0.33534718
120	0x3e8b1183	0.27161798
121	0x3e83f2d4	0.257712
122	0xbedffca9	-0.43747452
123	0xbe44e202	-0.1922684
124	0xbdbb3d3e	-0.091425404
125	0xbd2c01c2	-0.041993864
126	0xbec84ab5	-0.39119497
127	0x3e360cbd	0.17778297
128	0xbe780cd0	-0.24223638
129	0x3d9f1307	0.07767301
130	0xbe059188	-0.13043797
131	0x3e2833fe	0.16426083
132	0x3e8b1043	0.27160844
133	0xbe8abbf6	-0.27096528
134	0x3eb0fdb8	0.34568572
135	0xbea4e876	-0.32208604
136	0xbedd71a5	-0.43250766
137	0xbe82d40d	-0.25552407
138	0xbe151860	-0.1456008
139	0xbc7cd66a	-0.01543198
140	0x3f137d4c	0.5761306
141	0xbddcff5a	-0.10790892
142	0x3f1d40e4	0.6142714
143	0x3ec45056	0.3834254
144	0xbdfec126	-0.12439184
145	0xbf01a016	-0.50634897
146	0x3c472fec	0.012157422
147	0xbe797594	-0.24361259
148	0xbc11dafe	-0.008902309
149	0x3a78fdf4	0.0009498291
150	0x00000000	0.0
151	0x00000000	0.0
152	0x00000000	0.0
153	0x00000000	0.0
154	0x00000000	0.0
155	0x00000000	0.0
156	0x00000000	0.0
157	0x00000000	0.0
158	0x00000000	0.0
159	0x00000000	0.0
160	0x00000000	0.0
161	0x00000000	0.0
162	0x00000000	0.0
163	0x00000000	0.0
164	0x00000000	0.0
165	0x00000000	0.0
166	0x00000000	0.0
167	0x00000000	0.0
168	0x00000000	0.0
169	0x00000000	0.0
170	0x00000000	0.0
171	0x00000000	0.0
172	0x00000000	0.0
173	0x00000000	0.0
174	0x00000000	0.0
175	0x00000000	0.0
176	0x00000000	0.0
177	0x00000000	0.0
178	0x00000000	0.0
179	0x00000000	0.0
180	0x00000000	0.0
181	0x00000000	0.0
182	0x00000000	0.0
183	0x00000000	0.0
184	0x00000000	0.0
185	0x00000000	0.0
186	0x00000000	0.0
187	0x00000000	0.0
188	0x00000000	0.0
189	0x00000000	0.0
190	0x00000000	0.0
191	0x00000000	0.0
192	0x00000000	0.0
193	0x00000000	0.0
194	0x00000000	0.0
195	0x00000000	0.0
196	0x00000000	0.0
197	0x00000000	0.0
198	0x00000000	0.0
199	0x00000000	0.0
200	0x00000000	0.0
201	0x00000000	0.0
202	0x00000000	0.0
203	0x00000000	0.0
204	0x00000000	0.0
205	0x00000000	0.0
206	0x00000000	0.0
207	0x00000000	0.0
208	0x00000000	0.0
209	0x00000000	0.0
210	0x00000000	0.0
211	0x00000000	0.0
212	0x00000000	0.0
213	0x00000000	0.0
214	0x00000000	0.0
215	0x00000000	0.0
216	0x00000000	0.0
217	0x00000000	0.0
218	0x00000000	0.0
219	0x00000000	0.0
220	0x00000000	0.0
221	0x00000000	0.0
222	0x00000000	0.0
223	0x00000000	0.0
224	0x00000000	0.0
225	0x00000000	0.0
226	0x00000000	0.0
227	0x00000000	0.0
228	0x00000000	0.0
229	0x00000000	0.0
230	0x00000000	0.0
231	0x00000000	0.0
232	0x00000000	0.0
233	0x00000000	0.0
234	0x00000000	0.0
235	0x00000000	0.0
236	0x00000000	0.0
237	0x00000000	0.0
238	0x00000000	0.0
239	0x00000000	0.0
240	0x00000000	0.0
241	0x00000000	0.0
242	0x00000000	0.0
243	0x00000000	0.0
244	0x00000000	0.0
245	0x00000000	0.0
246	0x00000000	0.0
247	0x00000000	0.0
248	0x00000000	0.0
249	0x00000000	0.0
250	0x00000000	0.0
251	0x00000000	0.0
252	0x00000000	0.0
253	0x00000000	0.0
254	0x00000000	0.0
255	0x00000000	0.0

tensor_w1 f4 [1, 150, 32]
0	0xbd191e30	-0.037382305
1	0x3f21426f	0.62991995
2	0x3d5fef52	0.054671593
3	0xbf1c0b70	-0.6095495
4	0xbe8b5024	-0.2720958
5	0x3e75e496	0.2401298
6	0xbd756fc3	-0.059921037
7	0x3f401c83	0.75043505
8	0x3eec2307	0.46120474
9	0x3c4b8473	0.012421715
10	0x3df3850f	0.11890613
11	0x3f204782	0.6260911
12	0x3dd346e4	0.10316256
13	0x3e730116	0.23730883
14	0xb8ed36f7	-0.00011311279
15	0x3fafbc62	1.3729365
16	0x3e81231a	0.25222093
17	0xbe9edff7	-0.31030247
18	0x3f369c76	0.7133249
19	0xbc704a8b	-0.01466621
20	0xbb87d1ad	-0.0041448683
21	0x3ef44aa4	0.47713196
22	0x3fa25bcb	1.2684263
23	0x3e96b897	0.29437706
24	0x3e22c080	0.15893745
25	0x3d6e95f8	0.05824849
26	0x3d05431b	0.0325347
27	0xbe18cdfd	-0.14922328
28	0x3fac75c1	1.3473436
29	0x3fe231f0	1.767149
30	0x3fc3698d	1.5266587
31	0x3fd4a051	1.6611425
32	0x3e385113	0.17999677
33	0x3f375bd9	0.71624523
34	0x3e19257e	0.14955708
35	0x3fef3769	1.8688785
36	0x3f1f8dcf	0.6232576
37	0x3d38edb2	0.04514856
38	0x3e4d1d33	0.2003067
39	0x3f27cb98	0.65545034
40	0x3f49a16e	0.7876195
41	0x3dee23e5	0.1162794
42	0x3d825d04	0.063653976
43	0x3f0c2f55	0.5475972
44	0x3e01a2f3	0.12659816
45	0x3ebbd4de	0.36685842
46	0x3e562bac	0.20915097
47	0x3e3a6a61	0.18204643
48	0x3f6a232d	0.91459924
49	0x3f50be27	0.8154015
50	0x3f68fdeb	0.9101245
51	0x3d3c894d	0.046029378
52	0x3d94c6d5	0.07264487
53	0xbf093e18	-0.5361037
54	0xbc09ee0d	-0.008418572
55	0x3f3da9ea	0.74087393
56	0x3f760808	0.96106005
57	0x3e0b8d26	0.13628063
58	0x3de190e3	0.11013963
59	0x3ea0cdc8	0.31407
60	0x3ef16e2e	0.47154373
61	0x3e3178e3	0.17331271
62	0xbda77b31	-0.08177794
63	0x3ee1da25	0.44111744
64	0xbd07376a	-0.03301183
65	0xbeb9a250	-0.36256647
66	0x3f2e0529	0.67976624
67	0x3e8712cd	0.2638153
68	0xc02d7e65	-2.7108395
69	0x3f27b881	0.65515906
70	0x3eb8d873	0.36102638
71	0xbf313200	-0.6921692
72	0xbfc7b284	-1.5601354
73	0x3e9633b9	0.29336336
74	0x3f3134ea	0.69221365
75	0x3efaba6c	0.48970354
76	0x3f5f096f	0.8712377
77	0x3ecf680e	0.40509075
78	0xc00b99fd	-2.1812737
79	0xbce51ce7	-0.027967883
80	0xbf982ada	-1.1888077
81	0xbf1003ba	-0.56255686
82	0x3fd5ac6c	1.6693244
83	0x3e209f91	0.1568587
84	0xbe6f4452	-0.23365906
85	0x3e719cfa	0.23595038
86	0xbd81aff5	-0.06332389
87	0xbf895d4c	-1.0731597
88	0x3fb2a4c2	1.395653
89	0x3f0409d2	0.51577485
90	0x3f1d4d47	0.6144604
91	0x3eb491c1	0.3526745
92	0xbe89ef1c	-0.26940238
93	0xbe606887	-0.21914874
94	0xbe117634	-0.14205247
95	0xbf32a445	-0.69781905
96	0x3bbd9f4b	0.0057868115
97	0x3f8227a4	1.0168347
98	0x3e36d5e5	0.17855032
99	0x3f5b6fe0	0.8571758
100	0x3fae9660	1.3639641
101	0x3dfc8dbb	0.123317204
102	0x3e58589c	0.21127552
103	0x3f322529	0.6958795
104	0x3f977f77	1.1835774
105	0x3e84f21e	0.2596597
106	0x3e4361f7	0.1908034
107	0x3eed36bc	0.46330822
108	0x3c8718bd	0.016491288
109	0x3ece52d9	0.40297583
110	0x3fa3cfab	1.279775
111	0xbd15659b	-0.03647385
112	0x3f8f8032	1.1210997
113	0xbf300adf	-0.6876659
114	0x3dd175f0	0.10227573
115	0x3d6a7296	0.057238184
116	0x3e5edaa6	0.21763095
117	0x3ea4d5ef	0.32194468
118	0xbd785ee4	-0.06063737
119	0x3fa11eda	1.258754
120	0xbc961dd6	-0.018324774
121	0x3db296e0	0.08720183
122	0x3e374ee4	0.17901188
123	0x3e292a15	0.1651996
124	0x3e455ddc	0.19274086
125	0xbd7bd0e0	-0.061478496
126	0xbdbf9cbb	-0.09356066
127	0x3d050980	0.032479763
128	0x3e82c841	0.25543407
129	0x3f8c4b73	1.0960525
130	0x3f450373	0.7695839
131	0x3ee405c2	0.44535643
132	0x3fcc4868	1.5959597
133	0x3e204281	0.15650369
134	0x3f302561	0.68807036
135	0x3f3da5d8	0.7408118
136	0x3f57f96b	0.84364957
137	0x3f0789d2	0.5294467
138	0x3f11f546	0.5701488
139	0x3f5df710	0.8670511
140	0x3f01aec7	0.50657314
141	0x3f8b9d33	1.0907348
142	0x3f2fa56e	0.686118
143	0x3e393b0e	0.18088934
144	0x3f20a5e3	0.62753123
145	0x3ddcd126	0.107820794
146	0x3f6b382d	0.9188259
147	0x3eaa692a	0.3328336
148	0x3f465cf4	0.77485585
149	0x3dc2df3b	0.09515234
150	0x3e48c57b	0.19606583
151	0x3f5ff282	0.8747941
152	0x3f2c63af	0.67339605
153	0x3e90ab05	0.28255478
154	0x3f31a5d7	0.69393677
155	0x3f45ade6	0.7721847
156	0x3e8eeea1	0.27916434
157	0x3e4206bd	0.18947883
158	0x3e15a226	0.14612636
159	0x3e5b2407	0.21400462
160	0x3d86f7e1	0.06590248
161	0x3f315d76	0.69283235
162	0x3fb7af15	1.4350306
163	0xbf1c9bc2	-0.6117517
164	0x3eae1a1d	0.34004298
165	0x3fad8ea7	1.3559159
166	0xbe3ec140	-0.18628407
167	0xbf352f73	-0.70775527
168	0xbed761a0	-0.4206667
169	0x3f7520dc	0.95753264
170	0x3fb0347f	1.376602
171	0x3ed50d6e	0.4161181
172	0x3f7c6358	0.98589087
173	0x3ea948f5	0.33063474
174	0x3f24f6e6	0.6443924
175	0x3e9ff247	0.3123953
176	0xbf6c5d04	-0.9232943
177	0x3f1afc68	0.6054139
178	0x3f53ed42	0.827839
179	0x3f63960d	0.88900834
180	0x3e69ac20	0.22819567
181	0x3f5e46a7	0.86826557
182	0x3eec18e0	0.46112728
183	0xbf688460	-0.9082699
184	0x3f51bfaa	0.8193308
185	0x3f1bf8d3	0.6092655
186	0x3f5631b2	0.8366958
187	0xbcfb648e	-0.030687597
188	0xbea7158e	-0.32633632
189	0x3e8a5522	0.27018076
190	0x3eba990d	0.36444893
191	0x3e28ba2e	0.16477272
192	0x3de1fa35	0.11034051
193	0xbe3fc423	-0.18727164
194	0x3fac9f5f	1.3486136
195	0x3e76ae46	0.24089918
196	0xbf8c2e7f	-1.095169
197	0x3f8f40ce	1.1191652
198	0x3e9cfad8	0.3066013
199	0xbd24956a	-0.040181555
200	0xbf8e4bcf	-1.1116885
201	0x3fb8f43b	1.4449533
202	0x3faed8eb	1.3659948
203	0x3b5af916	0.0033412627
204	0x3f8a30a9	1.07961
205	0x3e909f9c	0.28246772
206	0xbf363dca	-0.7118803
207	0x3e848186	0.2588007
208	0x3dbc68a6	0.091996476
209	0x3dbe2d2f	0.09285962
210	0x3f517008	0.8181157
211	0x3f37a568	0.71736765
212	0x3fa48dc3	1.2855762
213	0xbebdb8c3	-0.37055025
214	0x3e74d940	0.23911
215	0xbf715210	-0.9426584
216	0x3f9fbffe	1.2480466
217	0x3f7e56bb	0.9935109
218	0x3f7d157c	0.9886091
219	0x3f02acfc	0.51045203
220	0x3e1d946d	0.15388651
221	0x3d4a6501	0.04941273
222	0x3e1c06d5	0.15236981
223	0x3dfd6f05	0.12374691
224	0x3d731ec5	0.059355516
225	0x3f61c688	0.8819356
226	0x3dc4994e	0.09599553
227	0x3f00cb31	0.50310045
228	0x4000fe98	2.0155392
229	0x3e6d142b	0.23152225
230	0x3e5b7d31	0.21434475
231	0x3ee58e71	0.44835237
232	0x3f4f460d	0.80966264
233	0xbc5bf5b9	-0.013425284
234	0x3e83dfb6	0.25756615
235	0x3f0ccc4b	0.54999226
236	0x3e1f990d	0.15585728
237	0x3ebca2f7	0.36843082
238	0x3fad483b	1.3537668
239	0x3cea55de	0.028605398
240	0x3d6a2c11	0.05717093
241	0x3f304586	0.68856084
242	0x3da16788	0.07881075
243	0x3e2a5b81	0.16636468
244	0x3e13d964	0.14438397
245	0x3fe2dcd2	1.7723639
246	0x3e40b915	0.18820603
247	0x3e993d20	0.29929447
248	0x3e6b73db	0.22993414
249	0x3d869b99	0.06572647
250	0x3de0c7d1	0.10975612
251	0x3dc25e9c	0.094907016
252	0x3eb93f3b	0.36181054
253	0x3f141684	0.57846856
254	0x3e80c7ed	0.2515253
255	0x3f1729d0	0.59048176

tensor_r1 f4 [1, 150, 50]
0	0x3f117d7a	0.5683209
1	0x3dadf09f	0.084931605
2	0xbf0c1a3d	-0.54727536
3	0x40295ebb	2.646407
4	0xbecf6d67	-0.40513155
5	0xbe432c9d	-0.19059987
6	0x3f12db8c	0.5736625
7	0x3e9c8854	0.3057276
8	0x3d458a8a	0.048227824
9	0xbf8164dc	-1.0108905
10	0xbe3f18a0	-0.18661737
11	0x3f17f0c2	0.5935174
12	0xbe96d71d	-0.29460993
13	0xbe7accc5	-0.24492176
14	0xbf5d16ee	-0.8636311
15	0x3f0b1ee3	0.54344004
16	0x3f8301fb	1.0234979
17	0xbf1589ef	-0.58413595
18	0x3f091412	0.5354625
19	0x3ea9244c	0.33035505
20	0x3f257b3f	0.64641184
21	0x3e0fde24	0.14049584
22	0x3e9615fe	0.29313654
23	0xbf71ed91	-0.9450312
24	0x3f24913f	0.6428413
25	0x3eec63b1	0.46169809
26	0x3f082750	0.53184986
27	0x3e8fa927	0.2805874
28	0xbf22ca65	-0.6359008
29	0xbf860719	-1.0470916
30	0x3e1fe4ac	0.15614575
31	0x3eadc077	0.33935902
32	0x3f01743e	0.50567997
33	0xbca6b585	-0.020350227
34	0xbec725a1	-0.38895896
35	0xbef598fb	-0.47968277
36	0x3f1a475f	0.60265154
37	0x3d867e98	0.065671146
38	0xbf3c9e24	-0.73678803
39	0xbee5187e	-0.4474525
40	0xbf1f4f0e	-0.6223
41	0x3ec06386	0.3757593
42	0x3f1118b6	0.5667833
43	0xbf94d404	-1.1627202
44	0xbfc79bdd	-1.5594441
45	0xbbb3d438	-0.005487945
46	0xbeb6514b	-0.35608897
47	0xbeba5f4e	-0.36400837
48	0xbe986b78	-0.29769492
49	0xbf803122	-1.0014994
50	0x3cefb8fa	0.029263008
51	0x3f48b76d	0.78404886
52	0x3c3de816	0.011590978
53	0x3e293ad6	0.1652635
54	0x3dfdc6a8	0.12391406
55	0x3ed89963	0.42304525
56	0xbf66cc0d	-0.90155107
57	0x3e0d0df1	0.1377485
58	0x3f56a8e7	0.83851475
59	0xbf7edf60	-0.99559593
60	0xbee893ad	-0.45425168
61	0xbefeb77d	-0.49749365
62	0x3ea8679e	0.32891554
63	0x3f802ee9	1.0014316
64	0x3ea149d4	0.3150164
65	0xbf0ce964	-0.55043626
66	0xbf20352f	-0.6258115
67	0xbdee280a	-0.116287306
68	0xbe29dfce	-0.16589281
69	0xbf70fee6	-0.94138944
70	0x3e301efc	0.1719932
71	0x3fa76419	1.3077422
72	0xbf3996fa	-0.72495997
73	0xbe312bc4	-0.17301852
74	0x3f5a6e9a	0.85325015
75	0xbf06cd7a	-0.5265728
76	0x3cc990ae	0.024605121
77	0xbf1d7eb5	-0.61521465
78	0xbf290988	-0.6603017
79	0xbe018cd7	-0.12651382
80	0xbdc5e309	-0.09662444
81	0xbf62866a	-0.8848635
82	0x3e69e87b	0.2284259
83	0xbf945911	-1.1589681
84	0x3d83903b	0.06423994
85	0xbb3f7a8f	-0.0029217338
86	0x3f7fbe5a	0.9989983
87	0xbeee13d4	-0.46499503
88	0x3f81d913	1.0144371
89	0x3f451fc5	0.770016
90	0x3f01b486	0.5066608
91	0x3f59ac64	0.8502867
92	0x3ed41d72	0.41428715
93	0xbe55884b	-0.20852773
94	0x3f09c5f4	0.5381768
95	0x3ec5cca5	0.38632694
96	0x3ede69d6	0.4344012
97	0x3d647629	0.05577675
98	0x3d3b4257	0.045717563
99	0xbf89ffb9	-1.0781165
100	0x3ef82e8e	0.48473018
101	0x3ea05cac	0.31320703
102	0x3ef0b912	0.47016197
103	0x3ed2e764	0.41192162
104	0xbfa80db6	-1.3129184
105	0xbe5bab83	-0.21452145
106	0xbe7a0604	-0.24416357
107	0xbed947f7	-0.42437717
108	0x3ee465ae	0.44608825
109	0x3e0e2a3e	0.13883302
110	0xbfb70734	-1.4299073
111	0x3f599776	0.84996736
112	0x3d8eb570	0.069682
113	0xbf882fa4	-1.0639539
114	0x3f21cacd	0.63200074
115	0x3f20312d	0.62575036
116	0xbdfcf661	-0.123516805
117	0xbe11cdb4	-0.14238626
118	0x3fdcadfe	1.7240598
119	0x3e91232e	0.28347152
120	0xbf1f1694	-0.62143826
121	0x3cb46ab3	0.022023534
122	0xbfef95a4	-1.8717542
123	0x3f4cd9c0	0.8001976
124	0x3f0c4972	0.5479957
125	0x3ee754d6	0.45181912
126	0xbe832db6	-0.25620812
127	0xbf536f83	-0.8259203
128	0xbe767e00	-0.24071503
129	0x3e7f2a1a	0.24918404
130	0x3e949515	0.2901999
131	0x3fc4a4d0	1.5362797
132	0xbcb0b69f	-0.021571456
133	0xbf22cfa4	-0.63598084
134	0x3f21c03c	0.6318395
135	0x3ea852a6	0.32875556
136	0x3eb65ffa	0.356201
137	0x3e895346	0.26821345
138	0xbe8bde21	-0.27317908
139	0x3f0c19c5	0.5472682
140	0xbe966fbb	-0.2938212
141	0x3eed37d5	0.4633166
142	0x3ff5611b	1.9170259
143	0x3f806a0c	1.0032363
144	0x3f2325c3	0.63729495
145	0xbf641346	-0.8909191
146	0xbeb238cf	-0.34808967
147	0x3eb729d8	0.35774112
148	0x3f3df8ac	0.7420757
149	0xbc6f41cd	-0.0146030905
150	0x3f2c3792	0.67272294
151	0x3e436227	0.19080411
152	0x3e96e1d7	0.29469177
153	0xbde45d99	-0.11150665
154	0xbf1dd4e2	-0.6165296
155	0xbf4d4823	-0.80188197
156	0xbd5ba861	-0.053627376
157	0xbee6b531	-0.45060113
158	0x3ddd05cc	0.10792121
159	0x3f0a2b08	0.5397191
160	0x3c931624	0.017954893
161	0x3ee1e4da	0.44119912
162	0x3e873a46	0.26411647
163	0x3ec95ed5	0.39330164
164	0x3edf663e	0.43632692
165	0x3f28038a	0.656304
166	0x3f5393c2	0.82647336
167	0xbf57381e	-0.84070003
168	0x3e1fac6e	0.1559312
169	0xbf909d40	-1.1297989
170	0x3fac7858	1.3474226
171	0x3f300b12	0.6876689
172	0x3f060f25	0.5236686
173	0x3e0e5a24	0.13901573
174	0x3f0716a5	0.5276893
175	0x3e2da9a3	0.16959243
176	0xbe9ac726	-0.30230063
177	0xbf5cb44f	-0.8621263
178	0x3e0d9f48	0.13830292
179	0xbe7ed138	-0.24884498
180	0xbef5baa5	-0.4799396
181	0xbeaeeb7c	-0.34164035
182	0xbef5b1ef	-0.47987315
183	0xbf1859f9	-0.5951229
184	0x3b3ebb39	0.0029103293
185	0x3f0aa63f	0.5415992
186	0x3f8248e6	1.0178497
187	0x3f594b60	0.8488064
188	0xbe723f96	-0.23657069
189	0xbf428bef	-0.7599477
190	0xbedc3b0a	-0.43013793
191	0x3f407d08	0.7519078
192	0xbf98854c	-1.1915679
193	0x3ecd2324	0.40065873
194	0x3f0bd6e6	0.54624784
195	0x402b8632	2.6800656
196	0xbe1e275c	-0.15444702
197	0xbf7aadb7	-0.9792132
198	0xbde49fba	-0.11163278
199	0xbfa9dda1	-1.3270761
200	0x3fd57a18	1.6677885
201	0xbe9692c9	-0.29408863
202	0x3e95d02b	0.29260382
203	0xbd52bd32	-0.051449962
204	0xbe0512f7	-0.12995516
205	0xbeb93762	-0.36175066
206	0xbf9499ca	-1.1609433
207	0x3f77795a	0.9666954
208	0xbf7bb1c2	-0.9831811
209	0xbf99aced	-1.2005898
210	0xbe05d0a3	-0.1306787
211	0xbe9d1da4	-0.30686677
212	0xbed1145b	-0.40835842
213	0x3e907de4	0.28221047
214	0x3f20666c	0.62656283
215	0x3f1bda10	0.6087961
216	0xbee3e4da	-0.44510537
217	0x3f8ba008	1.0908213
218	0xbfae32f9	-1.3609306
219	0x3ed410ab	0.41418967
220	0xbf017acd	-0.50578004
221	0x3d1e0897	0.03858241
222	0xbec1796c	-0.3778795
223	0x3fbf86ee	1.4963052
224	0x3e989cd4	0.2980715
225	0x3eb62880	0.35577774
226	0xbe427bc6	-0.18992528
227	0xbe8d7703	-0.2762986
228	0x3f55bc1f	0.83490175
229	0xbe4a57ff	-0.1976013
230	0x3f30bb2b	0.69035596
231	0x3e8270eb	0.25476775
232	0xbe6bcaea	-0.23026624
233	0xbf51162c	-0.81674457
234	0x3f3391c3	0.7014429
235	0xbe80aa27	-0.25129816
236	0x3bccc92e	0.0062495684
237	0xbe93aaf2	-0.28841358
238	0xbf711663	-0.94174784
239	0x3e4061dc	0.1878733
240	0xbed3a6be	-0.41338152
241	0x3edea32a	0.4348386
242	0xbfaae7a8	-1.3351946
243	0xbdbc2d6f	-0.09188353
244	0x3f8ca480	1.0987701
245	0x3e5f6843	0.21817116
246	0x3fb32941	1.3996965
247	0xbe801fe6	-0.25024337
248	0xbec2ef3c	-0.38073146
249	0xbf06b3a1	-0.5261784
250	0x3f4a60b6	0.7905382
251	0x3e0bd56d	0.13655634
252	0x3ff16894	1.886004
253	0xbf96467b	-1.1740259
254	0xbf2b451c	-0.6690233
255	0x3f855842	1.0417559
