DeepDoubleX/94X/V01/DDCvB_mass_independent.onnx (onnx, 168976 bytes, 26 tensors)

ID_pred/kernel:0 f4 [100, 2]
-0.0043117837 -0.06725973 -0.043362416 0.049315922 0.020482853 0.11777581 0.014083638 -0.05577357
0.13244262 -0.120695315 -0.07643146 0.13530244 -0.19623664 -0.087126 -0.12980233 -0.1457673
-0.115366936 -0.01158565 -0.14891645 -0.08886612 0.014969531 -0.1294665 0.009623277 0.09708193
-0.15530579 -0.030403128 0.011500684 -0.04589837 0.11266768 0.18508372 0.029224208 0.18115658
-0.03800502 -0.14453584 0.073234156 0.20391066 0.18497732 0.132388 0.022156062 0.083094
0.056913193 0.11128621 0.009905347 -0.043964308 0.014393148 -0.06368624 -0.085498385 -0.03308033
-0.022890262 -0.10240556 -0.015959304 0.055706225 -0.086081654 -0.0084881345 0.088213615 0.037829164
-0.07171102 -0.006641055 -0.08558915 -0.028984895 0.05819757 0.18957944 -0.075670116 0.13410524
0.0756809 -0.0071362793 0.12894444 0.048537783 0.024441103 -0.114620216 -0.010798831 -0.059979234
-0.032568667 -0.13208242 0.062022008 -0.025925739 -0.0238316 0.047536634 -0.07233242 0.008075252
0.015661718 0.0752856 -0.057058327 0.005509895 -0.06312 0.09877237 0.033205766 -0.029380858
-0.043735873 -0.13289133 -0.00782174 0.1478165 -0.0012233226 -0.09785761 -0.023124939 -0.10553536
-0.005055937 -0.12077035 -0.06888055 -0.014948264 -0.021625994 -0.05858517 0.062263474 -0.102888584
0.13473871 0.06348395 0.05341556 0.10622805 -0.07927381 0.0042398176 -0.0011448369 -0.06806108
0.08998268 0.05009084 0.04883561 0.17345622 0.032463126 -0.10559062 0.18791041 0.119800285
0.013664921 0.07621516 -0.06325356 0.008172062 0.08776584 -0.17543413 -0.02965876 0.1317382
-0.029874943 -0.08658082 -0.08182837 -0.11458899 0.089290574 0.042583317 0.006106815 0.09560282
-0.042017467 0.061802857 0.05852999 0.015329739 -0.20166975 0.15734588 0.039739437 -0.023046859
-0.45734027 0.46178755 0.083885424 0.01612773 -0.016201869 0.14998317 0.047268126 0.1071695
0.099833205 0.04871886 -0.17589277 -0.07538778 -0.021505132 -0.12837845 -0.11010782 -0.03819495
-0.16865459 -0.09419723 0.043318827 -0.033773217 -0.014233497 -0.081377946 0.06549548 0.09767555
-0.18890917 -0.08352425 -0.1216999 -0.15248425 -0.018778209 -0.07389567 -0.08161749 -0.015546026
-0.024580479 -0.118185125 0.0934592 0.0071648685 -0.055078592 -0.12190169 0.030476732 -0.024544034
0.058326755 0.003250537 -0.13909149 -0.06918107 -0.06401032 -0.12646759 0.05184044 -0.029602867
0.1314481 0.046613008 -0.04604649 0.047422092 0.08614348 0.16584063 0.39028177 -0.40839908
00000000: dd49 8dbb 78bf 89bd ca9c 31bd 7eff 493d
00000010: a8cb a73c 7234 f13d 0fbf 663c d472 64bd
00000020: 0a9f 073e 1b2f f7bd 1988 9cbd b98c 0a3e
00000030: 42f2 48be 1e6f b2bd e7ea 04be 0644 15be
00000040: 8045 ecbd bdd1 3dbc 8e7d 18be 71ff b5bd
00000050: c442 753c de92 04be f3aa 1d3c e4d2 c63d
00000060: 7b08 1fbe fb0f f9bc 5d6d 3c3c eeff 3bbd
00000070: 50be e63d 9686 3d3e 9b67 ef3c 1c81 393e
00000080: 27ab 1bbd 3401 14be cafb 953d f5cd 503e
00000090: b26a 3d3e b890 073e a180 b53c 302d aa3d
000000a0: cf1d 693d 06ea e33d 094a 223c eb13 34bd
000000b0: 3dd1 6b3c ee6d 82bd c719 afbd 3d7f 07bd
000000c0: 5c84 bbbc 02ba d1bd 16bd 82bc 362c 643d
000000d0: 944b b0bd d111 0bbc 57a9 b43d c1f2 1a3d
000000e0: 3add 92bd 359d d9bb 5d49 afbd bb71 edbc
000000f0: 9360 6e3d 1d21 423e eff8 9abd e252 093e
00000100: 96fe 9a3d 73d7 e9bb 030a 043e 8ecf 463d
00000110: b538 c83c 01be eabd 94ed 30bc c9ac 75bd
00000120: b966 05bd 9d40 07be ca0a 7e3d 3762 d4bc
00000130: 7d3a c3bc c6b5 423d 0523 94bd 104e 043c
00000140: 014d 803c 562f 9a3d feb5 69bd 598c b43b
00000150: 0f45 81bd 2b49 ca3d c502 083d 20b0 f0bc
00000160: 6324 33bd aa14 08be c126 00bc 355d 173e
00000170: e557 a0ba 9269 c8bd 8370 bdbc ec22 d8bd
00000180: 46ac a5bb 7256 f7bd 3f11 8dbd 90e9 74bc
00000190: ff28 b1bc 01f7 6fbd fc07 7f3d 40b7 d2bd
000001a0: f2f8 093e e003 823d 46ca 5a3d 188e d93d
000001b0: 4f5a a2bd 2bee 8a3b 5a0e 96ba 9c63 8bbd
000001c0: d748 b83d 0d2c 4d3d d907 483d 829e 313e
000001d0: 0ef8 043d e53f d8bd 966b 403e da59 f53d
000001e0: d5e2 5f3c b216 9c3d 158b 81bd 1de4 053c
000001f0: 94be b33d 01a5 33be eef6 f2bc 61e6 063e
00000200: 4cbc f4bc 4951 b1bd a295 a7bd a2ad eabd
00000210: fadd b63d d86b 2e3d ad1b c83b 69cb c33d
00000220: 821a 2cbd fe24 7d3d 25bd 6f3d 9629 7b3c
00000230: 8482 4ebe 471f 213e d2c5 223d c4cc bcbc
00000240: 8128 eabe 6b6f ec3e 1fcc ab3d 4d1e 843c
00000250: c8b9 84bc 3095 193e 399c 413d af7b db3d
00000260: 5a75 cc3d 6d8d 473d 3c1d 34be e964 9abd
00000270: 882b b0bc a475 03be 3580 e1bd 4f72 1cbd
00000280: cab3 2cbe 7aea c0bd 156f 313d c955 0abd
00000290: 9d33 69bc 7ba9 a6bd 7f22 863d 1e0a c83d
000002a0: 6871 41be c30e abbd cc3d f9bd d524 1cbe
000002b0: c2d4 99bc 9d56 97bd 1227 a7bd c2b4 7ebc
000002c0: 005d c9bc 0b0b f2bd 8967 bf3d 46c7 ea3b
000002d0: 179a 61bd 98a7 f9bd 57aa f93c 9210 c9bc
000002e0: 09e8 6e3d f606 553b 006e 0ebe ceae 8dbd
000002f0: d817 83bd b880 01be a456 543d b681 f2bc
00000300: 559a 063e 48ed 3e3d 3f9b 3cbd ab3d 423d
00000310: fe6b b03d 20d2 293e 03d3 c73e af19 d1be

ID_pred/bias:0 f4 [2]
-0.010200997 0.010220991
00000000: 1522 27bc f275 273c

fc1_relu/kernel:0 f4 [127, 100]
-0.12146254 -0.016286794 -0.05565812 0.043067157 0.06051235 0.22621898 -0.48309478 0.117768265
0.21538228 0.15892759 -0.45854452 -0.17455958 -0.11067085 -0.26761037 0.059245955 -0.18584073
-0.4127658 -0.120782465 0.007131024 -0.21424927 -0.052498378 0.010679168 0.27490985 0.017738296
-0.12031575 -0.61776096 -0.13546637 -0.10288273 -0.20424587 0.7913409 0.2514485 0.049409747
-0.2897667 0.16260122 0.11767226 -0.09506469 0.072048746 -0.30237576 -0.093122646 -0.34874314
-0.15989162 -0.31622252 -1.149611 -0.6306968 0.16947564 0.8599863 -0.48883337 -0.0052095694
-0.41744885 0.15629505 -0.30080485 0.06921216 0.10928819 -0.2571294 0.03858993 0.033886172
-0.08998828 -0.29419997 -0.1418639 0.021607645 0.06141112 0.06280637 0.046016652 -0.11882102
-0.06370807 -0.114793785 0.12943985 -0.031829573 -0.65406954 0.40190437 -0.0041710874 -0.12849689
-0.03138759 -0.7946026 -0.2305276 -0.09203911 0.062650666 0.43213093 0.027616538 0.2167569
-0.07625296 0.08048522 0.4440267 0.19703257 -0.3913985 0.13813104 -0.1024342 -0.15765205
0.021726325 0.08571192 0.6534319 0.079854235 -0.039169848 0.025544275 0.13590485 -0.49368113
-0.13853933 0.020180203 0.07360385 -0.4204469 0.930686 -0.8401585 -0.32204902 0.072625585
-2.4951844 -1.1693252 0.16253777 -0.654823 -0.48427433 0.07581843 -0.15512937 -0.021250004
0.27019945 -0.27522632 -0.5327939 0.37249815 0.6035515 -0.1579153 0.09922268 0.37487614
0.6059297 -0.33123493 -0.17700413 0.30310166 -0.11736301 0.44699407 0.063159205 -0.20038669
0.41799656 -0.07544504 0.42411715 0.5541243 -0.00043527968 0.66647846 -0.14925084 -1.4617465
-1.8755075 -1.872703 0.23298858 -0.6220276 0.51200664 0.5631041 -0.5259771 1.3366125
-0.37076107 -1.4441383 0.14618757 -0.0018122306 -0.04966462 0.13126363 0.22288962 0.43129
0.36556554 0.6677869 0.28551957 -0.44007757 -2.6210418 1.3582649 0.24284737 0.11174553
0.53588706 -0.37849408 0.55350745 0.15706709 0.085869625 -0.26226634 -0.4740424 0.10607337
-0.6043318 -0.55011535 -0.10099249 0.5180634 0.036343355 -0.4234798 -0.1998361 0.67946684
-0.4224834 -0.08532266 -0.29419723 0.37974414 -0.0038210903 -0.2039343 -0.15313713 -0.18395784
-0.5881225 -0.24391012 0.14200997 0.37621123 -0.31968296 0.32233 -0.09387154 -0.21546946
-0.3757697 0.31397933 0.08400053 -0.2599243 -0.43485352 0.19445913 0.40311474 0.16726986
-0.22609624 -0.86230713 -0.038390737 0.3997974 1.4741044 1.2816502 0.32311353 0.8295816
-0.084121026 -0.2775919 0.72375935 0.6688757 0.97278464 0.22842646 0.26648328 -0.6265076
-0.2813396 1.0350386 0.18723911 0.54125744 -0.26990703 0.41871354 -0.085079744 -1.0179354
1.2635928 -0.94311094 -0.80800956 0.30559668 -0.48957536 -0.12952903 -0.66691494 1.3272107
0.4434857 -2.0305715 0.13382128 0.8369303 1.2806785 1.9027008 -0.12398904 -0.37571758
-0.5582173 -0.90054977 -0.08652402 -0.056641478 0.662368 0.38716093 -0.46575126 -0.74211615
0.28929338 -0.65784913 0.16020952 -1.0706584 0.70819414 0.7423472 0.4340778 0.32453102
00000000: 5ac1 f8bd e26b 85bc c5f9 63bd 3067 303d
00000010: ccdb 773d f3a5 673e 3358 f7be 7d30 f13d
00000020: 2c8d 5c3e eabd 223e 59c6 eabe bfbf 32be
00000030: 66a7 e2bd 3a04 89be e3ab 723d 084d 3ebe
00000040: 0a56 d3be cc5c f7bd 5dab e93b 2964 5bbe
00000050: 8a08 57bd adf7 2e3c fcc0 8c3e e74f 913c
00000060: 1b68 f6bd 9525 1ebf b2b7 0abe 2eb4 d2bd
00000070: d425 51be 5195 4a3f dcbd 803e e061 4a3d
00000080: 4d5c 94be ef80 263e 27fe f03d 47b1 c2bd
00000090: 4b8e 933d ffd0 9abe 16b7 bebd 768e b2be
000000a0: a1ba 23be ebe7 a1be 7426 93bf 5875 21bf
000000b0: 068b 2d3e 1028 5c3f 5e48 fabe 09b5 aabb
000000c0: dbbb d5be cf0b 203e 1803 9abe 1bbf 8d3d
000000d0: 7dd2 df3d 77a6 83be 7910 1e3d 3acc 0a3d
000000e0: c64b b8bd 61a1 96be c544 11be 8402 b13c
000000f0: 3a8a 7b3d a0a0 803d f57b 3c3d 6f58 f3bd
00000100: 6079 82bd 0119 ebbd e18b 043e ba5f 02bd
00000110: 1a71 27bf 69c6 cd3e 9ead 88bb b094 03be
00000120: 4690 00bd 136b 4bbf 6d0f 6cbe 007f bcbd
00000130: fe4e 803d 4440 dd3e 143c e23c 85f5 5d3e
00000140: 832a 9cbd 6fd5 a43d 7857 e33e e8c2 493e
00000150: 6265 c8be 3972 0d3e 06c9 d1bd 8a6f 21be
00000160: 68fb b13c bb89 af3d 5047 273f 9e8a a33d
00000170: 9070 20bd 3a42 d13c a42a 0b3e c6c3 fcbe
00000180: 41dd 0dbe f450 a53c 9ebd 963d d144 d7be
00000190: 7041 6e3f a114 57bf 9ce3 a4be b9bc 943d
000001a0: 1ab1 1fc0 73ac 95bf 4d70 263e 7ba2 27bf
000001b0: cef2 f7be b146 9b3d 3cda 1ebe 7d14 aebc
000001c0: 9557 8a3e 77ea 8cbe 2e65 08bf 14b8 be3e
000001d0: 5a82 1a3f 8cb4 21be 4335 cb3d c4ef bf3e
000001e0: 351e 1b3f a097 a9be 9240 35be 2430 9b3e
000001f0: 055c f0bd 68dc e43e 9d59 813d 2b32 4dbe
00000200: a503 d63e ee82 9abd e225 d93e 17db 0d3f
00000210: 4036 e4b9 559e 2a3f 36d5 18be 821a bbbf
00000220: a110 f0bf bbb4 efbf 8f94 6e3e 333d 1fbf
00000230: de12 033f 9727 103f 6fa6 06bf 1e16 ab3f
00000240: 65d4 bdbe 86d9 b8bf 32b2 153e 5e88 edba
00000250: 216d 4bbd f969 063e 2d3d 643e 0bd2 dc3e
00000260: 682b bb3e 15f4 2a3f 9f2f 923e d951 e1be
00000270: 26bf 27c0 a0db ad3f fbac 783e d7da e43d
00000280: e52f 093f fac9 c1be aab2 0d3f 32d6 203e
00000290: 6adc af3d c647 86be afb5 f2be ff3c d93d
000002a0: 7db5 1abf 5cd4 0cbf 27d5 cebd ce9f 043f
000002b0: c5dc 143d 58d2 d8be d6a1 4cbe 8af1 2d3f
000002c0: bf4f d8be a6bd aebd 05a1 96be d36d c23e
000002d0: 426b 7abb 27d4 50be fbcf 1cbe 725f 3cbe
000002e0: 328f 16bf 93c3 79be 106b 113e c29e c03e
000002f0: 7cad a3be 7008 a53e b93f c0bd 07a4 5cbe
00000300: e364 c0be e6c1 a03e 7808 ac3d cc14 85be
00000310: 1fa5 debe 4b20 473e 0e65 ce3e ca48 2b3e
00000320: c685 67be 29c0 5cbf 9b3f 1dbd 3fb2 cc3e
00000330: 74af bc3f 1d0d a43f 236f a53e 765f 543f
00000340: a547 acbd 8720 8ebe 4b48 393f 703b 2b3f
00000350: 6a08 793f a0e8 693e 7f70 883e cd62 20bf
00000360: be0b 90be 257c 843f 9cbb 3f3e d98f 0a3f
00000370: 4131 8abe 9f61 d63e 4a3e aebd b54b 82bf
00000380: 69bd a13f b86f 71bf b7d9 4ebf 2b77 9c3e
00000390: 9fa9 fabe 42a3 04be f0ba 2abf 0ae2 a93f
000003a0: 8f10 e33e e2f4 01c0 7208 093e 1041 563f
000003b0: 46ed a33f b38b f33f f7ed fdbd 0e5e c0be
000003c0: 54e7 0ebf 6e8a 66bf 8133 b1bd e500 68bd
000003d0: f390 293f f539 c63e f376 eebe 53fb 3dbf
000003e0: 431e 943e cd68 28bf f70d 243e 560b 89bf
000003f0: 364c 353f 770a 3e3f 723f de3e ee28 a63e

fc1_relu/bias:0 f4 [100]
0.022944365 -1.4684478 -1.1058552 -1.08709 -2.2578163 -1.9747758 -1.4859197 0.62175035
-0.7527087 -0.5268957 -2.2704935 -1.1740389 -2.342218 -0.41628 -1.1399431 -2.490704
-1.5746922 -1.3065013 0.43191457 -0.5281656 -0.36193848 0.5569132 -1.101118 -0.9313312
-0.21330184 -0.7153826 -1.0277535 0.012378575 -0.44459313 -0.7301529 -1.5756353 -2.5528648
-1.090732 -0.9464889 -2.056019 -0.006329697 -1.1131357 -0.26316845 -0.557591 -1.2573106
-0.63613915 -0.8939405 -2.992157 -0.54623795 -0.97684205 -2.7661927 -1.6379486 -1.3539884
-1.4820107 -0.30981112 0.056502875 -2.4947808 -0.92970836 -0.3262338 -1.7196422 0.25180998
0.24019726 -1.862066 -2.1658413 -0.854572 -0.5466439 -0.46144733 -1.7405785 -2.572598
0.7613131 0.5999968 0.49761096 -1.5756327 -2.1173222 0.014085653 -2.7654488 -0.9806119
-4.088427 -1.1378622 -2.3476198 -1.0878851 0.5910349 -2.1250374 -1.5320415 -0.7201918
-0.63331383 -0.87192833 -0.53256303 -0.599474 -2.5882022 -0.018122815 -1.0316824 -0.98096216
-1.5297155 -0.6420458 -1.6414378 -0.005969253 0.29209313 -0.46834642 0.5943748 -1.1658013
-0.5484866 -1.311198 -0.8041381 -3.1242654
00000000: d2f5 bb3c 19f6 bbbf aa8c 8dbf c425 8bbf
00000010: 1080 10c0 74c5 fcbf 9e32 bebf 082b 1f3f
00000020: 84b1 40bf a3e2 06bf c44f 11c0 e846 96bf
00000030: e6e6 15c0 a722 d5be a8e9 91bf b267 1fc0
00000040: 848f c9bf 6f3b a7bf e823 dd3e dc35 07bf
00000050: 0050 b9be dd91 0e3f 6ff1 8cbf b96b 6ebf
00000060: cc6b 5abe 5023 37bf 6d8d 83bf 82cf 4a3c
00000070: b6a1 e3be 4deb 3abf 6bae c9bf 2362 23c0
00000080: 1b9d 8bbf 194d 72bf d195 03c0 5969 cfbb
00000090: 3b7b 8ebf 04be 86be 49be 0ebf 8eef a0bf
000000a0: 04da 22bf 49d9 64bf 807f 3fc0 40d6 0bbf
000000b0: 5212 7abf 4d09 31c0 4da8 d1bf 7e4f adbf
000000c0: 87b2 bdbf 909f 9ebe 8f6f 673d 7daa 1fc0
000000d0: 5e01 6ebf 1e08 a7be 3c1d dcbf 3ded 803e
000000e0: 45f6 753e 2e58 eebf 259d 0ac0 3bc5 5abf
000000f0: dbf0 0bbf d342 ecbe 47cb debf 72a5 24c0
00000100: 6ae5 423f 6499 193f ddc6 fe3e 55ae c9bf
00000110: 3582 07c0 83c7 663c 1dfd 30c0 6209 7bbf
00000120: 65d4 82c0 78a5 91bf 673f 16c0 d23f 8bbf
00000130: 104e 173f 9d00 08c0 f019 c4bf 7d5e 38bf
00000140: db20 22bf b236 5fbf 0d56 08bf 2177 19bf
00000150: 1ba5 25c0 4c76 94bc 2b0e 84bf 5620 7bbf
00000160: b8cd c3bf 1d5d 24bf a21a d2bf b999 c3bb
00000170: 3b8d 953e 1acb efbe f228 183f fa38 95bf
00000180: 9e69 0cbf 56d5 a7bf ffdb 4dbf f7f3 47c0

scale f4 [27]
0.18750325 0.90418696 0.6521652 0.45421058 0.46583018 0.43765345 0.39979705 0.38032475
0.028061189 0.030269787 2.298703 0.6027008 0.729229 0.28157514 0.21922456 0.14854956
0.2252169 0.111500874 0.014253401 0.020556247 0.047569547 0.06479743 0.013965259 0.051492225
0.13486381 0.14655153 0.078921914
00000000: da00 403e cc78 673f 4cf4 263f 4a8e e83e
00000010: 4b81 ee3e 1d14 e03e 33b2 cc3e edb9 c23e
00000020: 94e0 e53c 58f8 f73c f31d 1340 9a4a 1a3f
00000030: c0ae 3a3f 9e2a 903e 677c 603e 601d 183e
00000040: 429f 663e 925a e43d 1987 693c 9365 a83c
00000050: 49d8 423d 84b4 843d 8bce 643c 83e9 523d
00000060: bd19 0a3e 9b11 163e d0a1 a13d

bias f4 [27]
-2.608208 -1.4494644 -1.5472354 -1.436312 -1.006601 -0.13336164 -0.2566842 -0.035011973
-0.31127632 -0.11912998 0.26613918 -0.30220217 0.28185216 -0.56331927 -0.12015056 -0.7951881
-0.6319511 -0.72070503 -0.3121957 -0.24590567 -0.10666469 -0.44683692 -0.22820118 -0.15526041
-0.4365406 -0.28169957 -0.49622345
00000000: e1ec 26c0 0d88 b9bf cf0b c6bf 12d9 b7bf
00000010: 4dd8 80bf f48f 08be 1d6c 83be b768 0fbd
00000020: 9c5f 9fbe 6bfa f3bd 6543 883e 3eba 9abe
00000030: ed4e 903e b135 10bf 7f11 f6bd 7391 4bbf
00000040: 8cc7 21bf 2080 38bf 1dd8 9fbe b2ce 7bbe
00000050: 0473 dabd cfc7 e4be 92ad 69be 96fc 1ebe
00000060: 4082 dfbe ed3a 90be 0011 febe

mean f4 [27]
0.0 0.0 0.0 0.0 0.0 0.0 0.0 0.0
0.0 0.0 -0.0 0.0 -0.0 0.0 0.0 0.0
0.0 0.0 0.0 0.0 0.0 0.0 0.0 0.0
0.0 0.0 0.0
00000000: 0000 0000 0000 0000 0000 0000 0000 0000
00000010: 0000 0000 0000 0000 0000 0000 0000 0000
00000020: 0000 0000 0000 0000 0000 0080 0000 0000
00000030: 0000 0080 0000 0000 0000 0000 0000 0000
00000040: 0000 0000 0000 0000 0000 0000 0000 0000
00000050: 0000 0000 0000 0000 0000 0000 0000 0000
00000060: 0000 0000 0000 0000 0000 0000

var f4 [27]
1.0 1.0 1.0 1.0 1.0 1.0 1.0 1.0
1.0 1.0 1.0 1.0 1.0 1.0 1.0 1.0
1.0 1.0 1.0 1.0 1.0 1.0 1.0 1.0
1.0 1.0 1.0
00000000: 0000 803f 0000 803f 0000 803f 0000 803f
00000010: 0000 803f 0000 803f 0000 803f 0000 803f
00000020: 0000 803f 0000 803f 0000 803f 0000 803f
00000030: 0000 803f 0000 803f 0000 803f 0000 803f
00000040: 0000 803f 0000 803f 0000 803f 0000 803f
00000050: 0000 803f 0000 803f 0000 803f 0000 803f
00000060: 0000 803f 0000 803f 0000 803f

tensor_w f4 [1, 150, 32]
-0.17759858 0.06768741 -0.035125874 -0.014274333 0.008287484 -0.022313576 -0.04501815 -0.59463876
0.028015826 0.14741223 0.01240991 -0.02342917 -0.37081 0.24824856 0.096952185 -0.66404974
0.21715173 -0.26381835 0.21801518 -0.09730253 0.1319105 -0.03924749 -0.5339786 -0.0507348
-0.14398667 -0.07331359 0.17493555 -0.04370624 -0.24662662 0.17867287 0.021503069 -0.25578514
-0.2058349 0.04341945 -0.16333705 0.13128151 0.35565493 0.32251588 -0.38704598 -0.6199179
-0.40789938 -0.15300643 -0.48840812 -0.1889509 0.11114371 0.048376694 0.34216857 0.3003044
0.014232263 -0.6547759 -0.09131106 -0.36523718 0.27149403 0.48423395 0.02775201 0.15922566
-0.10705909 1.0029868 -0.17747034 0.0035201868 0.14471753 -0.08625997 0.33554938 -0.3302304
0.17179102 0.8073783 0.025823368 -0.048954654 0.12910444 0.05602957 0.07081866 -0.17166975
0.015583828 0.12631351 0.38842422 -0.056545157 0.31798944 -0.1921523 0.43765196 0.06476997
-0.3056867 -0.3739811 0.11248557 0.09550432 -0.1844326 0.024243673 0.12281465 0.030620655
0.49223626 -0.034471136 0.10960339 0.053478748 0.36185658 0.22647342 -0.07494671 0.15800716
0.5183001 3.3868701 -0.29843187 -0.02408846 0.6133137 0.4854909 2.2650878 0.50973356
-0.5620715 -0.9238526 -0.04810503 0.61283743 0.12837836 0.29818043 0.36661726 0.11265924
0.48880562 -1.2264603 0.7946026 0.28912058 1.7761881 0.82214665 0.15373039 0.06479306
0.81021374 0.6860553 -0.9136841 0.10331991 0.15465161 0.07171643 0.31889293 0.74152184
-0.3089388 0.0020376153 -0.054689858 0.013831857 0.20649572 0.2502417 0.14285995 0.44063428
0.03701043 -0.11634955 0.025604542 0.1020598 0.15822636 0.03072647 0.0693475 -0.04899908
0.015269681 0.31996378 -0.24878083 0.105675004 0.14706917 0.048917614 0.028033977 0.03174606
0.42280072 0.08606415 1.0978309 0.022660397 0.1814055 0.26519665 0.026846947 0.12898687
1.8575847 0.84919673 2.5578942 2.0531476 0.75272816 -0.038776197 0.27209044 -0.36801356
-0.5642668 0.3669423 -0.5900782 0.40505406 0.24129552 0.5953465 0.20105627 0.40811294
0.30075458 0.49663267 1.530813 -0.0005738165 0.6913511 0.031363823 0.30157903 0.058635797
0.9044763 1.0418642 0.11880048 0.062207505 0.28153968 1.3064046 0.4213567 0.20029853
-0.15692106 -0.16865194 -0.03446459 0.2276416 -0.7557616 -0.30678147 1.9757864 -2.098241
-0.373941 4.0207777 -0.52601475 0.13666697 0.12137295 0.42163646 -0.02395498 3.2899508
0.31839737 1.2611959 0.51152843 3.945198 0.048225153 5.289331 2.0311751 3.3898582
-0.20121147 0.20620964 -0.58448833 4.4719877 0.09371572 3.4584255 0.3698684 1.5000862
0.47723556 7.2947383 -0.10021786 -0.20183185 0.6240521 1.7822691 2.408199 -0.76181364
0.48174354 0.040109687 0.49551114 2.8890998 0.07552565 4.681315 2.9091823 0.6034814
4.8393893 2.4290233 2.3372707 0.3351005 3.723481 1.1938044 -0.3138575 0.10394065
1.4137255 -0.70448184 0.37470102 0.15193461 0.08493371 0.2592981 4.7872305 0.5714322
00000000: 67dc 35be b29f 8a3d 26e0 0fbd e4de 69bc
00000010: 3ac8 073c f6ca b6bc f464 38bd 3f3a 18bf
00000020: 7281 e53c 3bf3 163e ef52 4b3c 88ee bfbc
00000030: cfda bdbe df34 7e3e de8e c63d 2aff 29bf
00000040: 065d 5e3e 3313 87be 5f3f 5f3e 8d46 c7bd
00000050: 8c13 073e fac1 20bd d2b2 08bf 4bcf 4fbd
00000060: 3e71 13be 6f25 96bd 4e22 333e 5005 33bd
00000070: b08b 7cbe 05f6 363e 3427 b03c 45f6 82be
00000080: 62c6 52be 98d8 313d d441 27be a96e 063e
00000090: 6718 b63e cd20 a53e e42a c6be f1b2 1ebf
000000a0: 30d8 d0be b8ad 1cbe a110 fabe 587c 41be
000000b0: 509f e33d a426 463d b830 af3e 80c1 993e
000000c0: 702e 693c 659f 27bf 4b01 bbbd 5e00 bbbe
000000d0: 4401 8b3e 83ed f73e 2f58 e33c 0d0c 233e
000000e0: cc41 dbbd df61 803f c9ba 35be efb2 663b
000000f0: d530 143e 11a9 b0bd 21cd ab3e f613 a9be
00000100: fce9 2f3e 58b0 4e3f 878b d33c ad84 48bd
00000110: f433 043e 437f 653d 6009 913d 32ca 2fbe
00000120: 5053 7f3c 5458 013e 8adf c63e e59b 67bd
00000130: 83cf a23e 93c3 44be eb13 e03e 1ea6 843d
00000140: f882 9cbe 737a bfbe d65e e63d c597 c33d
00000150: e6db 3cbe ab9a c63c 3f86 fb3d 2bd8 fa3c
00000160: 6406 fc3e 9b31 0dbd be77 e03d 880c 5b3d
00000170: 4445 b93e a6e8 673e a97d 99bd a1cc 213e
00000180: 51af 043f 7bc2 5840 10cc 98be 2955 c5bc
00000190: 2002 1d3f 4392 f83e 33f7 1040 e67d 023f
000001a0: ebe3 0fbf 9b81 6cbf c809 45bd eae2 1c3f
000001b0: 9e75 033e 1bab 983e 42b5 bb3e e3b9 e63d
000001c0: bb44 fa3e a7fc 9cbf 136b 4b3f 9d07 943e
000001d0: 225a e33f 3478 523f 806b 1d3e 39b2 843d
000001e0: 2b6a 4f3f 52a1 2f3f 34e7 69bf 6499 d33d
000001f0: fe5c 1e3e 10e0 923d ef45 a33e 60d4 3d3f
00000200: 3a2d 9ebe 8389 053b 7902 60bd 039f 623c
00000210: 9d73 533e ae1f 803e e149 123e d19a e13e
00000220: 4098 173d ac48 eebd 9ec0 d13c ba04 d13d
00000230: 1706 223e 14b6 fb3c 1006 8e3d 42b3 48bd
00000240: af2d 7a3c 4bd2 a33e 67c0 7ebe 236c d83d
00000250: 4d99 163e d65d 483d 83a7 e53c 2808 023d
00000260: 5679 d83e 6742 b03d b985 8c3f 4ca2 b93c
00000270: 5dc2 393e dbc7 873e 21ee db3c 2215 043e
00000280: 56c5 ed3f f564 593f 8ab4 2340 c566 0340
00000290: cbb2 403f cad3 1ebd 704f 8b3e 466c bcbe
000002a0: ca73 10bf dcdf bb3e 5d0f 17bf 3f63 cf3e
000002b0: 2c16 773e a168 183f b2e1 4d3e 2ef4 d03e
000002c0: 81fc 993e a346 fe3e aef1 c33f 2c6c 16ba
000002d0: 63fc 303f 5a77 003d 9168 9a3e 172c 703d
000002e0: c28b 673f ce5b 853f ab4d f33d 4ccd 7e3d
000002f0: f825 903e 4438 a73f 11bc d73e 0f1b 4d3e
00000300: eaaf 20be 18b3 2cbe be2a 0dbd e11a 693e
00000310: 9879 41bf 7612 9dbe 92e6 fc3f 9549 06c0
00000320: 3275 bfbe 36aa 8040 e7a8 06bf 6df2 0b3e
00000330: 6292 f83d bce0 d73e 3c3d c4bc 8e8e 5240
00000340: fb04 a33e de6e a13f 87f3 023f 207e 7c40
00000350: bd87 453d 3342 a940 c6fe 0140 70f3 5840
00000360: 610a 4ebe 9f28 533e 07a1 15bf 861a 8f40
00000370: 07ee bf3d d856 5d40 645f bd3e d302 c03f
00000380: 3858 f43e 7f6e e940 053f cdbd 02ad 4ebe
00000390: e1c1 1f3f 6521 e43f ef1f 1a40 3806 43bf
000003a0: 17a7 f63e 0e4a 243d a3b3 fd3e 03e7 3840
000003b0: 31ad 9a3d 55cd 9540 0b30 3a40 c27d 1a3f
000003c0: 47dc 9a40 1e75 1b40 d895 1540 4b92 ab3e
000003d0: 834d 6e40 95ce 983f eeb1 a0be d6de d43d
000003e0: f5f4 b43f ec58 34bf d0d8 bf3e bf94 1b3e
000003f0: baf1 ad3d b8c2 843e fe30 9940 6149 123f

tensor_r f4 [1, 150, 50]
-0.43767765 -0.18424548 0.4338252 0.40637866 -0.19760214 -0.17318739 0.040983245 0.20126328
-0.29570606 -0.06814552 -0.24613506 -0.41947454 0.24401478 0.40093914 0.17854498 0.09208672
-0.013729383 -0.543789 -0.12542078 0.80184245 0.26449716 -0.103296496 -0.1681887 -0.29083115
0.43795046 0.3668151 -0.7994811 0.001604704 -0.3836172 -0.29464394 -0.2712514 0.37651157
-0.42425257 -0.18679892 0.2814996 0.23027605 -0.7766703 -0.3147957 -0.1950155 -0.094999574
0.34411532 -0.23128855 0.029234244 0.26777437 -0.6634879 0.030482236 0.20750181 -0.26389343
0.15301432 -0.2122381 -0.26057842 0.5424729 0.36790735 -0.075379714 0.26976374 -0.35938498
-0.65224624 -0.43447652 0.047707897 0.016704023 -0.14804675 -0.039579254 -0.09574866 -0.15087686
0.15280482 0.05847767 0.5126365 0.083060965 0.8596652 -0.049750913 0.19677438 0.3158978
0.622601 -0.120778315 0.42940736 -1.5465739 -0.043279987 0.2701617 0.73386407 0.5528837
-0.347188 -0.36416242 0.0074664135 -0.7256608 -0.3371623 -0.1598293 -0.1206863 0.34141853
0.09710268 0.28428608 -0.48184717 -0.057555698 -0.059497964 0.21219897 -0.12678555 -0.0022402427
-0.040567547 0.111328594 0.17598593 -0.24334618 0.1579001 0.23782855 0.012906411 0.25445944
-0.113626406 -0.0116702 0.43211782 -0.083285995 -0.5252334 -0.1486238 -0.53441733 0.15972626
0.022025324 0.21440694 0.19131598 0.13512844 -0.09916282 -0.521033 -0.119414814 0.2010129
0.0016064814 0.23880492 0.18416569 0.02454255 -0.192703 0.027106375 0.29902118 -0.26189253
0.17075911 -0.49221534 0.18808587 -0.10374252 0.053329732 -0.4842347 0.06451664 0.23414257
0.019420467 0.02603331 0.14754902 0.08396887 0.14965242 0.11118713 0.40739766 0.38075277
-0.4446757 0.023569372 0.010437614 0.2881224 0.18401319 -0.0024155988 -0.06016145 0.15358776
-0.23455529 -1.1646926 -0.39564836 -0.124430045 0.9801142 -0.047468893 -0.53275174 -0.018623162
0.23206991 -0.47316182 -0.33365285 -0.45296928 0.6131987 0.113217235 -0.123691365 -0.28491566
0.0825849 0.043389596 0.22642536 -0.21078116 -0.006792007 0.22500134 -0.08152957 0.032289006
-0.07841059 0.19989988 0.034643054 0.44451958 -0.013848693 0.1772765 -0.18361586 -0.43689772
-0.2239145 0.12897252 0.0055495463 -0.04532099 0.09510791 -0.036649834 0.5356558 0.20391653
0.09195151 0.4171399 0.0038428283 0.045596033 0.012806004 -0.14904156 -0.7186578 0.16277067
-0.13050385 -0.5255351 -0.18028173 0.24427274 0.7654774 0.15184246 0.004875469 0.0154235875
-0.32004336 -0.060688265 -0.19364752 -0.34712806 -0.048487324 0.58055747 0.3611826 0.3074074
0.367774 -0.40186834 -0.11474282 -0.09944688 0.26208183 -0.3836472 -0.6672359 0.09872141
-0.11766503 0.39325327 0.43009079 -0.057100635 0.10831157 0.11824955 -0.42242065 -0.29916793
-0.13138987 0.25258029 0.19359612 -0.18798897 0.05419817 0.012497592 0.022847703 0.085316904
0.6954188 -0.26170447 -0.5777167 0.25877142 -0.06920185 -0.5657706 -0.23371534 -0.3820914
-0.3373555 -0.07515409 -0.12314134 -0.29778174 -0.8437108 -0.3416089 -0.3437468 -0.34468234
00000000: 4917 e0be d9aa 3cbe 561e de3e dd10 d03e
00000010: 3758 4abe 0958 31be 0cde 273d f617 4e3e
00000020: c966 97be e18f 8bbd d40a 7cbe 5ec5 d6be
00000030: 03df 793e e547 cd3e 7fd4 363e f697 bc3d
00000040: 35f1 60bc c235 0bbf 4e6e 00be 8c45 4d3f
00000050: 2c6c 873e 1d8d d3bd a939 2cbe d2e7 94be
00000060: 0b3b e03e 30cf bb3e cbaa 4cbf ee54 d23a
00000070: 7969 c4be 92db 96be 77e1 8abe 20c6 c03e
00000080: a237 d9be 3748 3fbe b720 903e 7ccd 6b3e
00000090: ddd3 46bf e72c a1be 25b2 47be 238f c2bd
000000a0: e22f b03e e8d6 6cbe a77c ef3c b919 893e
000000b0: 58da 29bf e2b5 f93c 5b7b 543e 0a1d 87be
000000c0: c9af 1c3e f254 59be 896a 85be 81df 0a3f
000000d0: 5a5e bc3e ae60 9abd 791e 8a3e 4f01 b8be
000000e0: 9cf9 26bf b573 debe 5b69 433d e0d6 883c
000000f0: 9199 17be db1d 22bd e017 c4bd 777f 1abe
00000100: de78 1c3e 4886 6f3d 253c 033f de1b aa3d
00000110: 0513 5c3f 9dc7 4bbd 397f 493e 5bbd a13e
00000120: c762 1f3f 9f5a f7bd 48db db3e 22f6 c5bf
00000130: 5b46 31bd a252 8a3e 84de 3b3f c989 0d3f
00000140: a0c2 b1be 7f73 babe d1a8 f43b e8c4 39bf
00000150: 89a0 acbe 4baa 23be 612a f7bd 69ce ae3e
00000160: c5dd c63d f28d 913e acb4 f6be 86bf 6bbd
00000170: 23b4 73bd b04a 593e 12d4 01be 09d1 12bb
00000180: 282a 26bd 3f00 e43d a835 343e be2f 79be
00000190: 90b0 213e 5489 733e 6975 533c 8248 823e
000001a0: f6b4 e8bd 5e34 3fbc 8c3e dd3e d991 aabd
000001b0: b275 06bf d630 18be 93cf 08bf 488f 233e
000001c0: 746e b43c 7e8d 5b3e 56e8 433e 1c5f 0a3e
000001d0: e015 cbbd 6b62 05bf c18f f4bd 53d6 4d3e
000001e0: 9290 d23a 4789 743e ee95 3c3e 750d c93c
000001f0: ef53 45be 300e de3c 4e19 993e c716 86be
00000200: 7adb 2e3e a603 fcbe 9599 403e f576 d4bd
00000210: 4770 5a3d 9ced f7be 4d21 843d 12c3 6f3e
00000220: ac17 9f3c cf43 d53c 1717 173e dff7 ab3d
00000230: 7c3e 193e 14b6 e33d 6d96 d03e 07f2 c23e
00000240: 89ac e3be 8e14 c13c 8702 2b3c c784 933e
00000250: f46d 3c3e 064f 1ebb da6b 76bd 1c46 1d3e
00000260: 432f 70be a614 95bf 6c92 cabe 2ed5 febd
00000270: c4e8 7a3f be6e 42bd 6b62 08bf 9a8f 98bc
00000280: bca3 6d3e 4442 f2be 8cd4 aabe 97eb e7be
00000290: 97fa 1c3f 70de e73d e651 fdbd 77e0 91be
000002a0: 4622 a93d 4ab9 313d 0ddc 673e 04d7 57be
000002b0: 7c8f debb c066 663e faf8 a6bd 7a41 043d
000002c0: bb95 a0bd 8eb2 4c3e e0e5 0d3d 1298 e33e
000002d0: a1e5 62bc f987 353e cc05 3cbe 0fb1 dfbe
000002e0: d849 65be 5f11 043e f8d8 b53b 81a2 39bd
000002f0: f0c7 c23d 231e 16bd bd20 093f 7fcf 503e
00000300: 1351 bc3d 5c93 d53e f6d7 7b3b e8c2 3a3d
00000310: 46d0 513c 5a9e 18be f5f9 37bf 5bad 263e
00000320: cda2 05be 7889 06bf c69b 38be a222 7a3e
00000330: 54f6 433f 977c 1b3e 66c2 9f3b 37b3 7c3c
00000340: b9dc a3be 4294 78bd 894b 46be c5ba b1be
00000350: a59a 46bd 6a9f 143f edec b83e 8164 9d3e
00000360: e04c bc3e b0c1 cdbe 49fe eabd ceaa cbbd
00000370: 972f 863e 686d c4be f9cf 2abf 732e ca3d
00000380: 5dfa f0bd 7e58 c93e dc34 dc3e 5be2 69bd
00000390: 75d2 dd3d d22c f23d 8547 d8be 8a2c 99be
000003a0: 118b 06be 3452 813e 103e 463e 2e80 40be
000003b0: e6fe 5d3d b3c2 4c3c 1b2b bb3c a1ba ae3d
000003c0: f706 323f 21fe 85be 3ee5 13bf b07d 843e
000003d0: b3b9 8dbd 58d6 10bf 1353 6fbe 7ca1 c3be
000003e0: dcb9 acbe 63ea 99bd 8731 fcbd d976 98be
000003f0: 6efd 57bf 5de7 aebe 95ff afbe 347a b0be

tensor_b f4 [1, 300]
0.39949304 0.009256714 0.92444885 0.704479 0.7018737 0.268257 0.6800872 0.6961479
0.75598377 0.024806313 0.8250882 0.68840516 0.72439164 1.291376 0.7018689 0.5974822
0.8364861 -0.09433191 0.2551006 -0.010882543 0.4057428 0.3926486 0.6642237 0.75129133
0.8307714 0.24096541 0.19466521 0.11481623 0.63869774 1.0527442 0.6281993 0.037303943
0.45628414 0.9387381 0.20086004 -0.39057353 0.4384235 1.0203601 0.7430104 0.44976175
-0.80564994 -0.56887287 0.9840022 0.7414516 0.98171884 -0.10459669 0.31121364 0.4138923
0.7729335 0.7651501 -0.63025886 -0.10216071 -0.41411996 -0.7559616 -0.010295441 -0.2628711
-1.3207388 -1.4218713 -0.5929764 -0.8864946 -0.19167012 -0.39499995 -1.4248923 -0.7062614
-0.6208029 -0.2494402 -0.937782 -0.2159541 -0.7051821 0.6252819 -0.6147114 -0.766911
-0.9746975 -0.8249569 -0.3425051 -0.48538807 -0.6636767 -0.72606266 -0.57578695 -1.0674324
-0.848784 -0.45566103 -0.45789364 -0.67005014 -0.67050666 -0.95444137 -0.9427155 -0.14772919
-1.0139563 0.75233024 0.2820752 -0.857419 -0.50027215 -0.28525078 0.19203395 -0.58640385
0.34667292 -0.036779698 -0.07913248 0.17500004 -0.32256904 -0.09962269 -0.079623505 -0.272153
0.23235303 -0.40767908 0.49034053 -0.5398473 0.057072934 -0.07309423 0.3186713 0.13949728
0.25552642 0.8744428 -0.06954858 -0.093425944 0.2768264 -0.7683921 0.47254938 -0.25282276
-0.03353772 0.12738323 -0.2252689 0.10156376 0.1813508 -0.24048816 -0.07292253 -0.15703216
-0.100859754 0.10898769 0.2874032 -0.18344463 -0.38729307 0.23969218 0.16367395 0.5664734
0.13453223 0.69147754 0.27340934 -0.11969795 0.22223262 -0.8119214 -0.20478305 -0.035514742
-0.5769081 0.40337095 0.2437223 0.33300468 0.06045582 0.16369389 0.0 0.0
0.0 0.0 0.0 0.0 0.0 0.0 0.0 0.0
0.0 0.0 0.0 0.0 0.0 0.0 0.0 0.0
0.0 0.0 0.0 0.0 0.0 0.0 0.0 0.0
0.0 0.0 0.0 0.0 0.0 0.0 0.0 0.0
0.0 0.0 0.0 0.0 0.0 0.0 0.0 0.0
0.0 0.0 0.0 0.0 0.0 0.0 0.0 0.0
0.0 0.0 0.0 0.0 0.0 0.0 0.0 0.0
0.0 0.0 0.0 0.0 0.0 0.0 0.0 0.0
0.0 0.0 0.0 0.0 0.0 0.0 0.0 0.0
0.0 0.0 0.0 0.0 0.0 0.0 0.0 0.0
0.0 0.0 0.0 0.0 0.0 0.0 0.0 0.0
0.0 0.0 0.0 0.0 0.0 0.0 0.0 0.0
0.0 0.0 0.0 0.0 0.0 0.0 0.0 0.0
00000000: 5a8a cc3e 79a9 173c aea8 6c3f bc58 343f
00000010: ffad 333f fb58 893e 321a 2e3f c036 323f
00000020: 2788 413f 9c36 cb3c fb38 533f 523b 303f
00000030: bb71 393f cf4b a53f aead 333f 98f4 183f
00000040: f423 563f 1731 c1bd 8c9c 823e b24c 32bc
00000050: 85bd cf3e 3d09 c93e 900a 2a3f a154 403f
00000060: 6fad 543f a3bf 763e 5156 473e c624 eb3d
00000070: b281 233f 52c0 863f abd1 203f 05cc 183d
00000080: 139e e93e 2451 703f 41ae 4d3e 41f9 c7be
00000090: 0c79 e03e 299b 823f ee35 3e3f 2c47 e63e
000000a0: 133f 4ebf a7a1 11bf 91e7 7b3f c6cf 3d3f
000000b0: ed51 7b3f ca36 d6bd 6557 9f3e b1e9 d33e
000000c0: f8de 453f e1e0 433f a558 21bf a239 d1bd
000000d0: 8807 d4be b386 41bf 36ae 28bc 0a97 86be
000000e0: f80d a9bf e1ff b5bf 4dcd 17bf 4ff1 62bf
000000f0: 2c45 44be 6f3d cabe df62 b6bf 8ccd 34bf
00000100: f0ec 1ebf 406d 7fbe 7b12 70bf 1223 5dbe
00000110: d086 34bf 7912 203f ba5d 1dbf 4754 44bf
00000120: c685 79bf 6030 53bf d45c afbe c984 f8be
00000130: b7e6 29bf 3edf 39bf c666 13bf a0a1 88bf
00000140: e949 59bf 674c e9be 0971 eabe 6888 2bbf
00000150: 53a6 2bbf 4556 74bf ce55 71bf 5246 17be
00000160: 52c9 81bf b798 403f 296c 903e d07f 5bbf
00000170: d611 00bf 640c 92be 8ca4 443e 901e 16bf
00000180: 1d7f b13e 4fa6 16bd 3610 a2bd 3633 333e
00000190: c527 a5be fb06 ccbd a611 a3bd a357 8bbe
000001a0: f4ed 6d3e 50bb d0be ea0d fb3e 6f33 0abf
000001b0: 4fc5 693d 6db2 95bd e228 a33e 60d8 0e3e
000001c0: 5cd4 823e 7cdb 5f3f 7c6f 8ebd 1a56 bfbd
000001d0: 31bc 8d3e 58b5 44bf fef1 f13e fc71 81be
000001e0: d95e 09bd c070 023e e4ac 66be a900 d03d
000001f0: 06b4 393e 8742 76be 6858 95bd 0acd 20be
00000200: 8f8f cebd f034 df3d 8326 933e e9d8 3bbe
00000210: 474b c6be de71 753e 259a 273e 6704 113f
00000220: d1c2 093e ac04 313f 4ffc 8b3e 3324 f5bd
00000230: f390 633e 15da 4fbf a6b2 51be e877 11bd
00000240: 40b0 13bf a386 ce3e 5792 793e 977f aa3e
00000250: 86a0 773d 5f9f 273e 0000 0000 0000 0000
00000260: 0000 0000 0000 0000 0000 0000 0000 0000
00000270: 0000 0000 0000 0000 0000 0000 0000 0000
00000280: 0000 0000 0000 0000 0000 0000 0000 0000
00000290: 0000 0000 0000 0000 0000 0000 0000 0000
000002a0: 0000 0000 0000 0000 0000 0000 0000 0000
000002b0: 0000 0000 0000 0000 0000 0000 0000 0000
000002c0: 0000 0000 0000 0000 0000 0000 0000 0000
000002d0: 0000 0000 0000 0000 0000 0000 0000 0000
000002e0: 0000 0000 0000 0000 0000 0000 0000 0000
000002f0: 0000 0000 0000 0000 0000 0000 0000 0000
00000300: 0000 0000 0000 0000 0000 0000 0000 0000
00000310: 0000 0000 0000 0000 0000 0000 0000 0000
00000320: 0000 0000 0000 0000 0000 0000 0000 0000
00000330: 0000 0000 0000 0000 0000 0000 0000 0000
00000340: 0000 0000 0000 0000 0000 0000 0000 0000
00000350: 0000 0000 0000 0000 0000 0000 0000 0000
00000360: 0000 0000 0000 0000 0000 0000 0000 0000
00000370: 0000 0000 0000 0000 0000 0000 0000 0000
00000380: 0000 0000 0000 0000 0000 0000 0000 0000
00000390: 0000 0000 0000 0000 0000 0000 0000 0000
000003a0: 0000 0000 0000 0000 0000 0000 0000 0000
000003b0: 0000 0000 0000 0000 0000 0000 0000 0000
000003c0: 0000 0000 0000 0000 0000 0000 0000 0000
000003d0: 0000 0000 0000 0000 0000 0000 0000 0000
000003e0: 0000 0000 0000 0000 0000 0000 0000 0000
000003f0: 0000 0000 0000 0000 0000 0000 0000 0000

tensor_w1 f4 [1, 150, 32]
0.10419008 0.47657183 0.08083152 0.04974708 -0.09971071 -0.06676293 -0.20708351 0.66752315
0.8923795 0.6184408 0.36578566 0.8414567 -0.02741744 -0.091374494 0.014957872 -0.019758638
-0.2269858 0.01725197 0.013291041 -0.09168331 0.101667054 0.17339079 0.103051744 0.15945826
0.11587956 -0.25643763 0.36567426 0.73199016 0.048916355 -0.10710013 -0.23337756 0.180848
-0.02352904 0.2701375 -0.04100131 0.14695567 -0.2301896 -0.08655117 -0.28670916 0.622108
0.6871771 0.44305855 0.17316143 0.32498458 -0.057305254 -0.03893467 0.10252344 0.100824796
0.009782039 0.1347799 0.22202678 0.12402743 -0.0024169509 0.053955317 0.35662273 0.229067
0.12986231 0.77673566 0.4315491 0.42994553 -0.18871605 0.14210719 -0.032703295 -0.25430793
0.55010676 0.30395418 0.38983873 -0.3433506 0.65889597 2.2877932 1.3672521 0.3159655
0.18950924 0.07427027 0.33773935 0.04265105 0.22696267 0.3651358 0.84718746 0.38002315
-0.11955961 0.011039688 0.4225742 0.47287488 0.49868116 0.31563702 0.30558705 0.3694521
-0.33413222 -0.15790157 0.49185294 0.5654494 0.38409707 -0.6237246 0.5773269 -0.27832922
0.650052 0.6621969 0.21803346 0.43119997 0.18968986 0.026130373 1.3096421 0.94222325
1.1388992 0.6201524 0.33701038 0.8980875 0.48797792 0.24371085 0.6503761 -0.09492281
-0.030386036 0.4014508 0.7353612 0.32081574 -0.14751291 0.44086888 0.65706974 1.1350268
0.4859302 0.67335033 0.74465585 0.08801619 0.12328163 0.3184119 0.33696246 -0.040672798
1.526142 1.2038821 0.6187153 0.4842919 -0.2352411 0.89755243 -0.1426059 0.9168948
0.1940144 0.049738035 0.07454543 0.948892 1.2839293 0.93618685 0.07831686 0.18870747
0.74376756 0.41728002 0.81706303 -0.10830691 0.5363797 0.11775158 0.47107878 1.1701814
0.23205137 -1.6472799 0.5445382 0.61778885 1.2254776 0.13736393 -0.15012729 0.543138
0.32001048 1.4967294 0.011277729 -1.1644448 0.37516314 1.7685795 -3.1547241 3.6359153
2.1606352 0.9213747 -0.57494587 1.7337856 -0.058198787 0.45252547 -0.26973647 1.273156
-0.655393 -1.1652642 1.0358802 0.93920684 0.8940669 -0.2603318 0.76983666 -0.14047933
-1.1041468 -3.676012 -0.74511373 3.090118 0.94135785 -0.8141526 0.08818921 0.39599416
0.025654651 0.3687384 -0.058024615 1.3675238 0.103385754 0.6916519 0.71038103 0.4274549
0.39919746 0.46547562 1.2528185 0.3599163 0.021275032 0.05780984 0.27286202 -0.08511212
1.3074118 1.470198 0.32455492 -0.08643607 -0.03874857 0.17432964 0.21454272 0.17370725
1.5689571 0.2537738 0.36598757 -0.8355258 0.4982055 1.3807069 0.20264243 0.9130865
2.28048 0.11917289 0.4030725 0.12354502 0.13166238 0.2319425 -0.5065672 0.1424972
0.21058886 0.14285626 0.22239482 0.088485576 1.7694305 1.6252923 -0.06394368 0.29252943
0.059313472 0.03530814 1.8810345 -0.11884637 0.80375516 0.23130003 0.5788936 1.7166823
0.22755629 0.18131937 0.9482572 -0.20079055 -0.32656932 0.25658897 -0.30893224 0.57761824
00000000: 9c61 d53d 3901 f43e ff8a a53d 98c3 4b3d
00000010: 2135 ccbd 01bb 88bd b30d 54be cce2 2a3f
00000020: fc72 643f 2352 1e3f 4248 bb3e b569 573f
00000030: 8a9a e0bc 8d22 bbbd dd11 753c dedc a1bc
00000040: f76e 68be 0154 8d3c abc2 593c 76c4 bbbd
00000050: d136 d03d 5b8d 313e cb0c d33d 0749 233e
00000060: 4352 ed3d cb4b 83be a839 bb3e b563 3b3f
00000070: 845c 483d 5057 dbbd 87fa 6ebe 3830 393e
00000080: f9bf c0bc 764f 8a3e fdf0 27bd 8c7b 163e
00000090: d3b6 6bbe bd41 b1bd 8bcb 92be 7842 1f3f
000000a0: d7ea 2f3f 92d8 e23e 3b51 313e 6164 a63e
000000b0: eab8 6abd f679 1fbd cff7 d13d 3b7d ce3d
000000c0: d844 203c be03 0a3e fd5a 633e 1802 fe3d
000000d0: b565 1ebb 4000 5d3d 4197 b63e 8a90 6a3e
000000e0: a0fa 043e 26d8 463f 01f4 dc3e d221 dc3e
000000f0: c83e 41be 8c84 113e e4f3 05bd a634 82be
00000100: ccd3 0c3f e29f 9b3e f198 c73e a6cb afbe
00000110: 68ad 283f 346b 1240 1e02 af3f 3bc6 a13e
00000120: b60e 423e 031b 983d 2cec ac3e deb2 2e3d
00000130: e768 683e 14f3 ba3e 47e1 583f 6592 c23e
00000140: abdb f4bd cfdf 343c a55b d83e a81c f23e
00000150: 2353 ff3e 2d9b a13e e875 9c3e d328 bd3e
00000160: 6113 abbe f3b0 21be 26d4 fb3e 4bc1 103f
00000170: 5fa8 c43e 6aac 1fbf b2cb 133f 2b81 8ebe
00000180: cf69 263f bc85 293f 2a44 5f3e 3ec6 dc3e
00000190: 0f3e 423e 5d0f d63c 5aa2 a73f 8b35 713f
000001a0: 73c7 913f 4fc2 1e3f a08c ac3e 10e9 653f
000001b0: 3ed8 f93e 568f 793e 0c7f 263f e466 c2bd
000001c0: 23ec f8bc f68a cd3e a240 3c3f f641 a43e
000001d0: a00d 17be 91b9 e13e b935 283f 8f48 913f
000001e0: d8cb f83e b060 2c3f c4a1 3e3f d541 b43d
000001f0: 147b fc3d e206 a33e 5886 ac3e 8598 26bd
00000200: 9f58 c33f cf18 9a3f 2064 1e3f 1cf5 f73e
00000210: 0be3 70be ffc5 653f 4807 12be 9eb9 6a3f
00000220: b6ab 463e 1cba 4b3d 46ab 983d 96ea 723f
00000230: cc57 a43f f1a9 6f3f 9764 a03d 883c 413e
00000240: 8d67 3e3f baa5 d53e 0b2b 513f 03d0 ddbd
00000250: 2e50 093f be27 f13d 3d31 f13e 81c8 953f
00000260: e09e 6d3e 11da d2bf db66 0b3f 6927 1e3f
00000270: 73dc 9c3f 21a9 0c3e f8ba 19be 180b 0b3f
00000280: 6ad8 a33e d494 bf3f 39c6 383c 870c 95bf
00000290: 6215 c03e d060 e23f 00e7 49c0 d6b2 6840
000002a0: d947 0a40 36df 6b3f a72f 13bf b0ec dd3f
000002b0: da61 6ebd 6bb1 e73e e61a 8abe c7f6 a23f
000002c0: d6c7 27bf 6127 95bf b997 843f dc6f 703f
000002d0: 91e1 643f 364a 85be 0414 453f d0d9 0fbe
000002e0: af54 8dbf c843 6bc0 c6bf 3ebf 7ec4 4540
000002f0: d4fc 703f 4e6c 50bf 8b9c b43d bfbf ca3e
00000300: b429 d23c 48cb bc3e 38ab 6dbd 050b af3f
00000310: e9bb d33d 1910 313f 88db 353f 5edb da3e
00000320: 9c63 cc3e d252 ee3e 5b5c a03f f346 b83e
00000330: fa48 ae3c 03ca 6c3d 92b4 8b3e 434f aebd
00000340: 4559 a73f 732f bc3f 102c a63e 6505 b1bd
00000350: d2b6 1ebd 7883 323e 16b1 5b3e 50e0 313e
00000360: 96d3 c83f a4ee 813e b962 bb3e 05e5 55bf
00000370: cb14 ff3e 01bb b03f 7f81 4f3e 09c0 693f
00000380: 62f3 1140 eb10 f43d 855f ce3e 2c05 fd3d
00000390: 81d2 063e 5682 6d3e 63ae 01bf c9ea 113e
000003a0: 9ba4 573e e948 123e 78bb 633e ed37 b53d
000003b0: b37c e23f 9409 d03f e7f4 82bd 6bc6 953e
000003c0: aff2 723d 459f 103d bdc5 f03f ba65 f3bd
000003d0: e6c2 4d3f ead9 6c3e 5f32 143f 3fbc db3f
000003e0: 8404 693e c9ab 393e fcc0 723f 0a9c 4dbe
000003f0: 1834 a7be a15f 833e 5e2c 9ebe cade 133f

tensor_r1 f4 [1, 150, 50]
0.47711876 -1.2597172 -0.18030155 -0.13249375 0.44269827 0.21848102 -0.99392664 -0.4130621
1.6874866 -0.4480216 -1.6019257 -0.04673077 1.5453849 0.30241263 -0.040314343 0.7550793
0.6773321 0.66464835 -0.0061530485 0.70552593 -1.8321618 0.008133945 0.85156405 -0.88389784
0.6138985 -0.97456896 -0.10096022 -0.90523714 -0.76999795 -2.2272615 0.5834171 1.6061013
1.3670269 0.47020638 -1.9075291 -0.9411283 -0.28898278 2.0916042 1.748889 1.552627
0.9176642 -3.0698726 0.22183153 -0.47178653 -0.550822 0.37393633 -0.39118 -0.8839193
0.5292384 1.0995445 0.13951711 -0.2362893 0.89568895 -0.11929446 -0.08122539 2.0212624
-1.4802296 0.5035835 1.4709252 1.2555436 0.9587668 0.5006274 -0.959906 0.1687932
0.2977193 -0.17561619 -0.18669568 0.5801769 0.64563066 0.090922244 -1.3191836 -0.88877106
0.8343725 0.8125429 -0.97173864 -0.20749477 -0.22734962 -0.3425012 -0.6357413 0.0060072225
0.6494574 1.0027142 -0.8122911 -0.034198277 0.77926767 -0.072803356 0.70388705 1.022798
-0.44250193 0.30179885 0.4627167 -0.7446781 -0.22355339 0.13041522 0.31828937 -0.57205373
0.54082596 -1.3721056 -0.20730418 0.79098606 0.44007406 -0.44007164 -0.8647889 -0.09244559
1.1704092 -0.42886 -0.4700275 0.020517265 -0.9750123 0.9794675 0.20720518 -0.08774257
-0.728403 0.2867314 -0.68892956 -0.25249875 -0.6153251 0.8036554 1.3745451 -0.3978246
-0.3446829 -0.036380954 -0.18738465 0.31203336 -0.14224826 -0.7221884 -0.8518126 -0.2995683
0.62702376 -0.3306858 1.3159521 0.9323423 0.24676009 0.02848326 1.2644701 1.4253389
0.0090381205 -0.15535009 -1.1333722 0.15195936 0.83772653 0.47827825 -0.44693038 -0.06238072
0.0788516 -0.61709464 -0.18255202 0.3654055 -0.048930436 0.0016922079 -0.28409576 1.187115
-0.3249469 0.38373786 0.4368552 -2.0278337 -0.6659765 0.3163875 -1.1137233 -0.41884455
-0.68474376 -1.0130539 1.1375313 -0.13723996 -0.3808127 -0.5227064 0.75813687 1.6383806
-0.00731559 -0.034669332 -0.8684531 -0.5912322 -0.44717723 1.1106033 0.16263278 -0.2919578
0.13478783 -0.6268473 0.64678305 0.865255 0.25640142 -0.57055265 -0.09437902 0.6914462
-1.2213676 0.7136312 0.019580264 0.1299128 0.11342863 0.61450887 -0.23263828 -1.05468
0.28368023 -0.21611129 -0.33424392 0.20068496 -0.3562126 0.03749138 0.063540466 2.1214325
0.16633372 0.9420207 0.47320276 -0.045047775 0.88699013 0.15937136 0.20208605 -0.59451836
-0.6187851 -0.093491115 0.49363038 1.23708 -0.91579974 -0.009353373 -0.5545991 0.15010351
0.685667 0.32975233 -0.20917135 -0.49699652 0.5710229 -0.21019347 0.33524603 0.61538833
-0.17794813 0.6757424 -0.2944063 0.50502646 -0.7040055 0.92825234 0.6129286 0.41000137
0.9996343 0.09373257 -0.27484664 0.8587988 -0.30516374 1.1294785 0.28819013 0.83078074
-0.087884 -0.43188405 -0.0013769211 -0.7814792 -0.15075748 0.1589621 -0.40842605 0.92546695
-0.38359818 -0.7532831 1.0879611 0.2394417 0.60822594 -0.455149 -0.080653585 1.6545329
00000000: e948 f43e 6a3e a1bf f8a0 38be 71ac 07be
00000010: 59a9 e23e 7db9 5f3e fa71 7ebf e07c d3be
00000020: 90ff d73f 1663 e5be e70b cdbf c468 3fbd
00000030: 2ccf c53f d4d5 9a3e a720 25bd e14c 413f
00000040: a365 2d3f 6526 2a3f 839f c9bb 599d 343f
00000050: 4784 eabf 3d44 053c 1a00 5a3f 2147 62bf
00000060: 7428 1d3f 5a7d 79bf 3bc4 cebd 9fbd 67bf
00000070: 961e 45bf 748b 0ec0 d35a 153f ba94 cd3f
00000080: bdfa ae3f e4be f03e ea29 f4bf c9ed 70bf
00000090: 8df5 93be d8dc 0540 98db df3f 7bbc c63f
000000a0: 0aec 6a3f cb78 44c0 ce27 633e 018e f1be
000000b0: ac02 0dbf 9574 bf3e bf48 c8be 8948 62bf
000000c0: 2b7c 073f e0bd 8c3f 93dd 0e3e d2f5 71be
000000d0: df4b 653f a750 f4bd 7f59 a6bd 5d5c 0140
000000e0: 2a78 bdbf d9ea 003f 4747 bc3f a7b5 a03f
000000f0: be71 753f 1e29 003f 66bc 75bf 20d8 2c3e
00000100: aa6e 983e bbd4 33be 272d 3fbe 7986 143f
00000110: 0d48 253f 7135 ba3d 02db a8bf 8086 63bf
00000120: 7099 553f d002 503f ddc3 78bf 8279 54be
00000130: 57ce 68be 515c afbe f1bf 22bf 3cd8 c43b
00000140: d742 263f f058 803f 4ff2 4fbf 7e13 0cbd
00000150: 167e 473f ed19 95bd f131 343f 0beb 823f
00000160: 9d8f e2be 6185 9a3e 34e9 ec3e 39a3 3ebf
00000170: 2eeb 64be 918b 053e d3f6 a23e 1d72 12bf
00000180: 9273 0a3f 28a1 afbf 8c47 54be 107e 4a3f
00000190: 6351 e13e 1251 e1be ce62 5dbf 1d54 bdbd
000001a0: f8cf 953f 8a93 dbbe 72a7 f0be d313 a83c
000001b0: 689a 79bf 62be 7a3f 982d 543e 60b2 b3bd
000001c0: 9e78 3abf 75ce 923e b05d 30bf 8447 81be
000001d0: f285 1dbf 5cbc 4d3f 18f1 af3f aaaf cbbe
000001e0: 477a b0be 3204 15bd c3e1 3fbe d6c2 9f3e
000001f0: 87a9 11be 57e1 38bf 6410 5abf 0461 99be
00000200: a184 203f a64f a9be 1e71 a83f fcad 6e3f
00000210: adae 7c3e ba55 e93c 28da a13f 8171 b63f
00000220: a014 143c 1814 1fbe 5712 91bf 3c9b 1b3e
00000230: 3f75 563f e3e0 f43e 0fd4 e4be ed82 7fbd
00000240: f37c a13d eaf9 1dbf ebee 3abe 6e16 bb3e
00000250: 486b 48bd 13cd dd3a 0075 91be 62f3 973f
00000260: 715f a6be 4a79 c43e 7cab df3e 07c8 01c0
00000270: 707d 2abf 8bfd a13e 7c8e 8ebf cb72 d6be
00000280: 5e4b 2fbf c0ab 81bf a09a 913f a288 0cbe
00000290: e2f9 c2be 16d0 05bf 4215 423f 75b6 d13f
000002a0: 9eb7 efbb 6e01 0ebd f152 5ebf fe5a 17bf
000002b0: 6af4 e4be 4028 8e3f 3589 263e 7e7b 95be
000002c0: d205 0a3e 1179 20bf 9393 253f 5a81 5d3f
000002d0: 0c47 833e bd0f 12bf ca49 c1bd 9e02 313f
000002e0: c655 9cbf 89b0 363f ca66 a03c dc07 053e
000002f0: 454d e83d 7450 1d3f bb38 6ebe c1ff 86bf
00000300: 893e 913e 474c 5dbe 0522 abbe 5c80 4d3e
00000310: 7f61 b6be 9090 193d 8121 823d 8dc5 0740
00000320: 6353 2a3e 4528 713f a247 f23e 0484 38bd
00000330: c911 633f 3f32 233e a5ef 4e3e 5b32 18bf
00000340: b368 1ebf 4578 bfbd 1fbd fc3e a358 9e3f
00000350: da71 6abf e43e 19bc 35fa 0dbf bcb4 193e
00000360: df87 2f3f 4cd5 a83e 0431 56be 5476 febe
00000370: 8f2e 123f f53c 57be 5ea5 ab3e 178a 1d3f
00000380: 0938 36be 74fd 2c3f 6cbc 96be 6a49 013f
00000390: b439 34bf f2a1 6d3f e4e8 1c3f b3eb d13e
000003a0: 09e8 7f3f ddf6 bf3d b3b8 8cbe 3dda 5b3f
000003b0: 6c3e 9cbe c092 903f a88d 933e 0cae 543f
000003c0: 87fc b3bd e81f ddbe ce79 b4ba 050f 48bf
000003d0: 2b60 1abe f6c6 223e 381d d1be 67eb 6c3f
000003e0: fb66 c4be 29d7 40bf 4f42 8b3f 3430 753e
000003f0: b2b4 1b3f 4a09 e9be b52d a5bd bcc7 d33f
