HLT/ParticleNetAK4/V00/particle-net.onnx (onnx, 938331 bytes, 42 tensors)

pf_conv.conv.0.weight f4 [23]
00000000: 090e 5340 d84e 4740 86fe 8140 719c 5840
00000010: 3835 733f f60d 673f 2844 383f d454 883f
00000020: 9ab6 7140 ff31 d63f d4f0 8a3f 6dc7 543f
00000030: 232d 883f 1ca2 ba3f 9a6a 2d40 c0f1 0e3f
00000040: b1d0 0440 a7cc de3f 7684 ab3f 5434 d33f
00000050: 6223 9a3e 7f04 2440 d8a8 b03f
3.2977316 3.1141872 4.0623198 3.3845484 0.9500308 0.9025568 0.71979 1.0650887
3.77677 1.6734008 1.0854745 0.831168 1.0638775 1.4580722 2.7096314 0.5583763
2.0752375 1.7406205 1.3399799 1.6500344 0.3010512 2.5627744 1.3801527

pf_conv.conv.0.bias f4 [23]
00000000: 1b51 023a fb08 303a 49cd de3a 605e 19ba
00000010: f7ec 00ba b8f7 3339 09e4 ad37 a7bb 7939
00000020: e270 b438 7618 4a39 4226 49ba 48ae 0bba
00000030: 47da 80b8 7967 81ba 1765 34ba 8d07 7437
00000040: 0f19 0aba d5d1 5fb8 df9d 2bb9 5512 69b9
00000050: a5be 2938 3bf2 123a d589 c2b7
0.0004971192 0.00067152054 0.0016998436 -0.000585055 -0.0004918123 0.00017163053 2.0729394e-05 0.00023816396
8.604095e-05 0.00019273334 -0.00076732424 -0.0005328399 -6.144173e-05 -0.0009872756 -0.00068815186 1.4545291e-05
-0.0005268016 -5.3362764e-05 -0.00016366642 -0.00022227441 4.047029e-05 0.0005605553 -2.3190785e-05

pf_conv.conv.0.running_mean f4 [23]
00000000: 31e2 a53c 320c ab3d a916 fa38 8800 a1b9
00000010: fabe 173c 07cd 313a 740e 76bd a5bd f1be
00000020: cfc3 ebbe 6af1 693e b912 183b 6ab7 c93e
00000030: 521b 563a 3ecc 55be bef5 cd3e c78b 0e3d
00000040: d25d f63e b378 003d 9b49 873e 9047 a33d
00000050: 628e 603d 395e b53d c5db 2a3e
0.020249458 0.083519354 0.0001192515 -0.0003070871 0.009261841 0.00067825656 -0.060072377 -0.47215
-0.46047828 0.22845998 0.002320452 0.39397746 0.0008167523 -0.20878693 0.4022655 0.03480127
0.48118454 0.031365108 0.26423344 0.07972634 0.054823287 0.08855862 0.16685398

pf_conv.conv.0.running_var f4 [23]
00000000: 641f 7b3e bf73 903e a270 173c 0665 303c
00000010: 0ab0 f23e edf6 693e 4d3e 913d fa3e 7f3e
00000020: f62c 6c3e 7c71 343e cda6 923f da0b 963f
00000030: 3da4 513f c282 2a3f 5b9b 9d3e 97ed 133c
00000040: f5ed 7a3e daef 193f 7e9b 1e3f 3c1a 2b3e
00000050: c68e 3640 9354 de3c 2113 f33d
0.24523693 0.28213307 0.009243162 0.010766273 0.47399932 0.22848101 0.07091961 0.24926367
0.23064026 0.17621416 1.1457154 1.1722367 0.8189123 0.6660577 0.3078259 0.009028814
0.24504836 0.6013161 0.6195601 0.16709226 2.8524642 0.027139938 0.11868883

sv_conv.conv.0.weight f4 [11]
00000000: d430 1540 7c90 8a40 8047 193f dfc3 c6bd
00000010: 360d 2ebe d926 0040 b1fa 6d3f 124a 0b40
00000020: 1e18 f73c 93f8 823f 748e 1240
2.3311052 4.3301373 0.59874725 -0.09705328 -0.16997227 2.002371 0.9296065 2.176396
0.030162867 1.0232109 2.2899446

sv_conv.conv.0.bias f4 [11]
00000000: 92a8 cf37 1830 7937 0533 f6b5 36b8 f9b5
00000010: f651 a736 a10f 4f38 619a bb36 5bf9 ad36
00000020: 9a57 afb7 13ad e636 0bcc c5b7
2.475482e-05 1.4852754e-05 -1.8343277e-06 -1.8605558e-06 4.9865293e-06 4.93672e-05 5.5910064e-06 5.1848306e-06
-2.0902418e-05 6.8746826e-06 -2.3579245e-05

sv_conv.conv.0.running_mean f4 [11]
00000000: 2724 84bd 2e27 1a3d f5f9 fd37 d591 a43a
00000010: 8c09 ee3a 0b57 453d 99f5 ca3c 9339 e1bc
00000020: b483 d23b b809 133c 655f d43b
-0.06452208 0.03763502 3.0276346e-05 0.0012555668 0.0018160804 0.048178714 0.024775313 -0.027493274
0.0064243916 0.008974485 0.0064810985

sv_conv.conv.0.running_var f4 [11]
00000000: 5813 9e3d 2df1 ac3d b997 613a 0b51 493d
00000010: e0af 163e e52b ba3e d6ea dd3d d023 673c
00000020: e576 7f3c 61c1 eb3c 4336 803c
0.07718533 0.08444438 0.0008605677 0.049149554 0.14715528 0.36361614 0.10835807 0.014107659
0.0155923115 0.028778734 0.015650874

pn.fc.0.0.weight f4 [128, 256]
00000000: 305e e93c 06dc 88bc 0fad 303b f88e 8e3b
00000010: 5447 bbbb 9472 453c e2f3 cc3c 824e 2a3c
00000020: 8022 ddbc 126e 193d a6e3 743c 4c3b 70bd
00000030: c1e7 833c e5e0 76bd a0be 0dbd 7e75 023d
00000040: 3036 76bc dc8a 863d 0ee0 93bd 02e8 d5bb
00000050: bef9 02bd 8068 263d 402a f4bc 5a0c 0fbd
00000060: 309f b3bc 2884 afbd e568 cdbc 938e 8c3c
00000070: 8e36 9abd c244 82bc 94ba 5cbd ca10 a83c
00000080: f205 48bd c5c5 75bd fc22 70bc 9337 14bd
00000090: c063 40bd 88dd 0cbc 070d f7bc fa20 88bd
000000a0: 9b44 0d3c a45d 143d 06e2 bd3c 802b 233d
000000b0: feda 2e3c c21e 993c aa7c b3bd 46a0 b43c
000000c0: 617d 21bb 59be 9b3c fa50 163d dd68 92bd
000000d0: 8806 25bd 56ea d73c ee99 b9bc e6e4 83bc
000000e0: 660d 1dbc 20e1 39bd 0978 1a3d 7ec3 0d3d
000000f0: 4a23 9dbc 84a5 0cbd 303e b13c eb80 1dbd
00000100: 5014 2abd 58af 0b3d 14ca 323c ce44 063d
00000110: 9870 443d dee8 7ebd 7af7 9d3c c4f7 77bd
00000120: eed9 60bd 1e2c 243d d5ae 82bd 9b80 613d
00000130: 90e7 81bc cf00 05bd 1e4b eb3c ce02 d3bc
00000140: 4c75 3c3b a859 8f3c 461d 76bd f68a 9ebc
00000150: 9b05 933c 6e22 a03c cb40 873c 162c 213c
00000160: 2cb4 14bc 7474 08bd 5e9b 11bd 4a2b 15bc
00000170: 1a70 1d3d 12a1 073c 4c30 6a3d 2d1a 053b
00000180: 7f24 3abc e38a 9a3c e2ce 0b3d f0a3 97bc
00000190: 1056 8dbd b1a7 e03b 2558 033d 1861 913b
000001a0: fc1d 8f3c acdb 4dbc 3efb a2bb ce2e 003c
000001b0: 8e7d 69bc e6af af3c bf07 42bd ccf3 923c
000001c0: 3c42 debc 3a92 6bbd 688f 56bc 9016 f8bc
000001d0: e2d4 14bd f5fe b9bd 4bf8 23bb 7a85 723c
000001e0: 38c5 5f3d c675 2b3d fc2e 2b3d fe56 513d
000001f0: 08ac 57bd 9586 05bd 3053 223d ac44 2f3d
00000200: 3b89 103d 9ca7 f03b c6b3 08bc 6ae6 73bd
00000210: 5240 35bd f800 85bd f6c2 72bc 0a24 84bc
00000220: bd61 bfbd 48b1 bf3c 6a51 4a3d 860f 8eba
00000230: eed3 d6bb caac 8cbd d393 51bd 1205 55bc
00000240: 184f 293b da0e d8bc 5e36 53bc 955a 57bc
00000250: 1432 043c 0247 163d 1cd3 3a3d e8d3 acbd
00000260: a466 85bd 0c8b 343d 34d3 47bd be51 ddbb
00000270: 46ae 4ebd 5d78 3e3c 90fe e8bc be22 83bd
00000280: 1c78 0abd 20cd 80bd c5f0 143c f8eb 5dba
00000290: 8642 44bd 4404 51bd ca40 89bd 91ed e13c
000002a0: a0f2 8bbd 1cba 5ebc 535d 4e3b 2c8b babc
000002b0: 86a0 46bd f2f7 22bd 6405 48bd 9767 9f3c
000002c0: f4ae 88bd 76de 7d3c cbb4 1fbd 2ebd 093c
000002d0: 4ca4 8abd 58a0 6fbd e41e 0f3d 002b 1fbd
000002e0: 20d5 17be 3280 de3b b0fc 463d c2a3 ef3c
000002f0: 34fb ca3c 64bf 123d 4893 51bc da7e 05bd
00000300: d019 4cbd 2ad0 72bd ef3a 03bc 6edc 10bc
00000310: 51b8 70bd 5e2f fdbc e084 c0bc c8da 4ebd
00000320: ac0f a0bc 350c 58bd 1082 20bc 26f0 1cbc
00000330: 0236 e93b a6d1 e8bc 7847 01bd 54c0 57bd
00000340: f0e4 743c 4c68 42bc dc98 6abd 5c5b 0c3c
00000350: 501c 27bd 1a13 8ebb 44eb ab3d baa1 81bd
00000360: 1aac 53bc 5653 40bc 5cb4 283d 0673 9cbb
00000370: 04ce 4a3b 3e81 b53c f11e 52bd 78f4 583c
00000380: 2e34 90bd 6245 73bd 12d4 373d 50cb 013d
00000390: 2dc9 68bd 2aa8 63bd b610 3bbd 0e7e 133c
000003a0: 3ea2 ffbc 9245 cebc 82cd cf3b c028 8b3c
000003b0: e82f a2bc 3cae e5bc 86eb d8bc 02dc 093c
000003c0: 7cda 0fbb 47ae 8fbb 48be ddbc eca6 6bbd
000003d0: 6095 613d 4e78 85bc 1ccc 46bd 0a0f d73c
000003e0: 98d9 2dbc 1e2a 11bd 7bf1 2fbd 5aae 29bd
000003f0: 2dbd 123d 8cc9 04ba 6470 153b 6487 0d3d
0.028487295 -0.016706478 0.002695862 0.0043505393 -0.00571529 0.012051243 0.025018636 0.010394694
-0.02699399 0.037458487 0.014946854 -0.0586503 0.01610172 -0.06027307 -0.034605622 0.03185033
-0.015027568 0.06569454 -0.072204694 -0.0065279016 -0.031976454 0.040627003 -0.029805303 -0.03492389
-0.021926492 -0.08570129 -0.025074432 0.017157828 -0.07529937 -0.015901927 -0.053888872 0.020515818
-0.048833795 -0.06000306 -0.014656778 -0.036185812 -0.04697013 -0.008597739 -0.03015758 -0.06646915
0.008622314 0.036222115 0.023179065 0.039836407 0.010672329 0.018691424 -0.08764012 0.02204908
-0.0024641382 0.019011663 0.03669832 -0.07148907 -0.04028943 0.026356857 -0.022656407 -0.016100358
-0.009585714 -0.04538071 0.03771213 0.034610264 -0.019181866 -0.034337536 0.021636099 -0.038453024
-0.041523278 0.034102768 0.010912437 0.03278046 0.04795894 -0.0622338 0.019283045 -0.060539022
-0.054895334 0.040081136 -0.06381003 0.05505429 -0.015857488 -0.032471474 0.028722342 -0.025758173
0.0028756438 0.017498806 -0.06008651 -0.019353371 0.017947009 0.019547667 0.016510388 0.009837171
-0.009076159 -0.033314183 -0.03554856 -0.009104559 0.038436987 0.008278148 0.057174966 0.0020309791
-0.01136124 0.018865054 0.034132846 -0.018510789 -0.06901181 0.006855928 0.032066483 0.0044366233
0.017470352 -0.012564581 -0.004973798 0.007823659 -0.014251126 0.02144618 -0.04737067 0.017938517
-0.027131192 -0.0575125 -0.013095714 -0.030284196 -0.036335833 -0.09081832 -0.002501982 0.014802331
0.05463144 0.041860364 0.041792855 0.051108353 -0.052654296 -0.03259905 0.039630115 0.0427901
0.035287123 0.0073441993 -0.008343643 -0.05954591 -0.044250794 -0.064943254 -0.01481699 -0.016130466
-0.09344814 0.023399964 0.04939405 -0.0010838367 -0.0065560257 -0.068688944 -0.051166367 -0.013001697
0.0025834497 -0.02637427 -0.01289138 -0.013144155 0.00806858 0.036688812 0.045611486 -0.084388554
-0.06513718 0.044077918 -0.048785403 -0.006754129 -0.05045917 0.0116253765 -0.028441697 -0.06403111
-0.03380595 -0.062891245 0.009090607 -0.0008465643 -0.047915004 -0.05102946 -0.06701811 0.0275791
-0.068333864 -0.013594177 0.003148873 -0.02277144 -0.04849293 -0.03978724 -0.048833266 0.019458575
-0.06673995 0.015494933 -0.038990777 0.00840692 -0.067696184 -0.058502525 0.03494157 -0.038859367
-0.14827394 0.0067901844 0.048580825 0.02925289 0.024777986 0.035827056 -0.012791462 -0.03259168
-0.049829304 -0.059280552 -0.008009656 -0.008841617 -0.058769528 -0.030906375 -0.02350086 -0.050501615
-0.019538723 -0.052746017 -0.009796634 -0.00957874 0.007117034 -0.02842028 -0.0315623 -0.052673653
0.014947161 -0.011865687 -0.057274684 0.008566704 -0.040798485 -0.004335773 0.08394483 -0.06329675
-0.01291945 -0.011738619 0.04118763 -0.004774454 0.0030945549 0.022156354 -0.05129904 0.01324188
-0.070412025 -0.05939234 0.04487998 0.031688035 -0.05683248 -0.055580296 -0.045670234 0.009002222
-0.031205293 -0.025179658 0.006341637 0.016987205 -0.019798234 -0.028037183 -0.026479494 0.00841427
-0.0021950295 -0.004384789 -0.027068272 -0.057532236 0.055074096 -0.016292717 -0.048534498 0.026252288
-0.01061096 -0.035440557 -0.042954903 -0.04142604 0.035824943 -0.0005065433 0.0022802586 0.034552947

pn.fc.0.0.bias f4 [128]
00000000: 8227 9ebd 2b5a c5bc 40e5 7d3e 9f8c cc3d
00000010: 58c0 9bbd a52f 2c3e ecb8 a7be bff8 623e
00000020: b0a8 6d3e 737b 893e e44b aebd 76d9 923e
00000030: ae04 de3d 33f8 9c3e 93dd 563e 9dd3 003f
00000040: 5a38 e7bb f4b2 d4bc a43a 5d3e 42a0 283e
00000050: c042 8bbd dc7f 1abd c6bc 4bbe f34a 1d3e
00000060: e44b 33bd 9404 a83d 12a8 503d 33e9 bf3d
00000070: 084a 083e e3be a53e 058a 473e dce9 8cbd
00000080: 48d1 8f3e ea38 2b3e 523a dcbd 60e9 a3be
00000090: cad2 fcbe b5fe 7ebd 6be5 813e c545 753e
000000a0: b297 93bd ee8b 403e 0336 87bd e713 5f3d
000000b0: d644 34bc 4850 2abf dbe9 60bd 9121 4abf
000000c0: eb80 2e3e bb80 3a3e c631 f4be 2e6a a5bc
000000d0: 3d2b 283f 4852 d73d f593 26bd ced4 e83d
000000e0: 4a45 9f3e 188b efbb 2161 52bd fe03 fcbd
000000f0: 04ec 90bd c7e3 333e c9f9 b1bd a696 323e
00000100: 2336 653e 02d2 65bd 807a 573e aed1 96be
00000110: 61e2 95be 61c2 b73d e872 bbbd cce2 0ebd
00000120: 24b1 87bd ea07 d9bc 6394 793d b618 b73d
00000130: 87b3 2a3e b7d6 0e3d cca8 483e 1258 c43d
00000140: 304e bdbd e042 a8bd 4adc 7a3e 361c 6c3d
00000150: d54b 193e 506c 8abf 2cec 18bd dc7e 71bd
00000160: 078d c4be c4c1 923e 9f6e e93d cb2d b53d
00000170: e6c8 ddbc 228d 703d ece6 bbbd dd72 4b3e
00000180: 36ae 323e 29b6 ba3d 38bc 9ebd b3e9 3f3e
00000190: 9f55 033e 180f 6f3e f4d5 803e c3a4 d23d
000001a0: e794 733b 4458 483d c638 943e d676 31be
000001b0: b830 acbb 1e5f 083e e635 28bd 57c2 d13d
000001c0: 328b 16bc 22d6 373e 94b2 0bbe 11d6 aa3e
000001d0: 5547 1b3e 06eb 9c3d 92dc a23e 0f40 8b3e
000001e0: ec36 f33e f990 54bd 983e 89bd 186f 8dbd
000001f0: 532b 853d 80f4 163e 4217 66bd d6bf ca3e
-0.07722379 -0.024090847 0.24794483 0.09987759 -0.07605046 0.1681505 -0.32758272 0.22165202
0.2320888 0.26851997 -0.08510569 0.28681535 0.10840736 0.3065811 0.20982961 0.50322896
-0.007056278 -0.025964238 0.21604401 0.16467384 -0.06799841 -0.037719592 -0.1989623 0.15360622
-0.043773547 0.08203998 0.050941534 0.09370651 0.1330949 0.32372198 0.19486244 -0.06880543
0.28089356 0.1672093 -0.10753311 -0.32013988 -0.4937957 -0.062254626 0.25370345 0.23952396
-0.07206668 0.18803379 -0.06602099 0.05446234 -0.01100274 -0.6652875 -0.054910522 -0.7895747
0.17041366 0.1821317 -0.47694224 -0.020192232 0.65690976 0.10513741 -0.040668447 0.11368714
0.3110755 -0.0073102824 -0.05136216 -0.12305449 -0.070762664 0.17567359 -0.08690221 0.1744028
0.22383933 -0.056108482 0.21042824 -0.29456848 -0.29274276 0.08972622 -0.09152776 -0.03488426
-0.06625584 -0.026493032 0.06093253 0.0894026 0.16670047 0.034872737 0.19595641 0.095871106
-0.09243429 -0.082158804 0.24498096 0.05764409 0.14970334 -1.0814304 -0.037334606 -0.058958873
-0.38388845 0.28663456 0.113980524 0.08846625 -0.027073335 0.058728345 -0.09174904 0.19868036
0.17449269 0.091167755 -0.07750744 0.18741493 0.1282563 0.23345602 0.25163233 0.10285332
0.003716761 0.0489123 0.28949565 -0.17330489 -0.005254831 0.13317534 -0.041067027 0.102421455
-0.00918846 0.17952779 -0.13642341 0.33366445 0.1516393 0.07662015 0.31808907 0.2719731
0.4750284 -0.05189607 -0.06701392 -0.06905955 0.06502404 0.14741707 -0.056174524 0.39599484

pn.fc.1.weight f4 [4, 128]
00000000: 07d7 59bd 977b c93d b8fd 9bbd 0187 bebe
00000010: a22f 1a3d 1ca4 99be 156e b8bc 1ec2 013f
00000020: dc48 81be e6ec 163e 9525 d6bd b0ac e13d
00000030: a804 bd3d 4cbd a43d 609e 033e e8bc 3cbf
00000040: 6bef c33d 1db0 88be 49de babe fdfc 02be
00000050: 0674 3cbd e17e c93c 340b e53d fdd0 893e
00000060: 4291 143e e710 9bbe 15ac 2ebe 7301 65be
00000070: 98ba 87be 8cfe 803e 6fc1 adbe 1481 65bd
00000080: 101f 54be e110 6bbe bee6 a3bc 3af4 37be
00000090: fcb7 af3d 9c1f ae3c 20e8 f83d 30f4 1e3d
000000a0: 1a37 923d fdb8 61bd e82a 8d3b 4554 a0bd
000000b0: 3343 f53d 8a29 fd3d 4e73 283d 72dc dfbe
000000c0: d919 0bbf 13a9 bf3d 2a22 a4be 4b02 0e3d
000000d0: caf8 0b3e 6afe c6be b46e 94bc 33c0 943d
000000e0: 1d76 3d3e d1cd ffbe 8a68 84bd 690d 1cbf
000000f0: bd3a 52b9 ccdd 17bf 1a29 883a bf51 163e
00000100: 578f 83be 1aca 3ebb 16eb b5be caea 9cbf
00000110: d034 043f b492 013e bac5 443d 3054 0abe
00000120: 0628 ae3c ae1f fb3c ba4e 283e 4937 4cbe
00000130: e742 0f3e cfa7 033e 616f 073e b9a4 483e
00000140: e6cd 21be fb99 e8bb 5eb1 9ebe 49f5 b13d
00000150: 76f5 31bf 1fcc 86bf 746f 9ebd 530a b7bd
00000160: 3997 183e 8d68 9fbe cc1d 023e 8a34 bc3d
00000170: 542e 28be fca5 c43d 67e5 2d3d faee efbe
00000180: d82b 15bf 4b74 103e 5e6d 83bd 173b 133e
00000190: ba23 69be 4819 103f ced0 84be 2f0f 7dbe
000001a0: 1545 2b3e 1339 503e 5366 85bf 8ecb d93c
000001b0: 9bc0 ff3d 97aa 213e 2618 973d 1ea8 96bd
000001c0: 6182 4b3e 8a47 bebd ca3e 54bd f11d 703e
000001d0: 350c 70be f5aa 05bf 685b 153e 2ce8 173e
000001e0: 5e61 283e 281e c5bd 0ab3 583d f6ef 563d
000001f0: 25cf 663e 7f46 1e3e ce0a 39bc 1b7c dc3d
00000200: d2fe 833d c9d4 af3d 5532 233e 94fb 77be
00000210: ca30 a6ba d8f2 2ebe 7a35 093e aec5 52be
00000220: cc12 12be 2d55 f73c 2ff3 073e 2457 c93d
00000230: 84c2 973d 5bd7 633d 9d0e e33d 2e04 88be
00000240: c1c9 a03d 800f acbe 901f a43c 01fc 1ebe
00000250: 540a 32bd c806 ca3d 4e68 edbd caa6 34be
00000260: f0ca 6c3d c55b 7cbe 38f2 14be dd56 7b3d
00000270: fe17 f9bd a97c 29be 68e0 45be c49e 1ebd
00000280: ac6b f5bd 080e f83d 1efb 3e3d aa82 8dbe
00000290: 3499 123f 94d6 f0bc b39b d03d 3d63 eabd
000002a0: 7020 8dbd 0e99 b5bd 92ed 623c b471 003e
000002b0: 4dcf d63d 8062 efbf c56b fb3c 9d36 bfbe
000002c0: 375c 21be 6afa 9f3d 26c2 1a3f daa1 9a3c
000002d0: 2414 133d 85fa 553d d8f8 023d e8c1 5a3d
000002e0: 662c 05be 7b1a d43d 24c8 753d 4e5c aa3e
000002f0: 4e9f d73b 3ada d2bb 3f02 57bd 9722 59ba
00000300: cb1a ff3d 9177 80bd 9e41 3fbe 9dcc 88bf
00000310: bbcc c93e 582d ed3d 7cb7 b4bc bc9b cfbd
00000320: 6cef 6bbc b21b 213d e1eb babd 256b 913d
00000330: 110d f7bd 1bc1 e73d 655f 96bd c4d5 88bd
00000340: aefb 2cbd fa5b e53d e588 c43d 99c7 983d
00000350: 5557 bf3a b46d 14bf a432 953d 9004 f33c
00000360: 723c 033e 69a3 9f3c b0c0 8abd 3181 a23d
00000370: b071 1b3d c360 a23d 0a4f 0f3d 2262 dd3b
00000380: bdec 37be 1710 f73d ba73 eabc 14a8 16be
00000390: 4d42 a93d 0832 99be d359 13be 67f4 98be
000003a0: 9391 273e 1d1b 343e 83f7 3c3d 847a 513e
000003b0: d29f 803c 83da 0fbd f058 a9bd fa39 fa3d
000003c0: 62f6 61bd deee e03d 08b3 80bd b182 a1bd
000003d0: e62b d23d 2980 903d abbc 5cbe e8e2 dfbd
000003e0: 025c 00bd 6d89 d53c 44a1 933d 364b 263d
000003f0: 013b 373e dbfb 5fbd afc1 1a3d b9ce d03d
-0.05318358 0.09838026 -0.076167524 -0.37212375 0.037643082 -0.30008018 -0.022513429 0.50686824
-0.252509 0.14738807 -0.10456387 0.11019266 0.09229404 0.08043918 0.12853384 -0.7372575
0.0956715 -0.26696864 -0.36497715 -0.1279182 -0.046009086 0.024596633 0.111837775 0.26917258
0.14508536 -0.30286333 -0.17057832 -0.22363834 -0.26509547 0.25194204 -0.3393664 -0.0560313
-0.20714974 -0.22955658 -0.020007487 -0.17964259 0.08580014 0.021255307 0.12153649 0.038807094
0.07139416 -0.05510806 0.0043080933 -0.07828573 0.11975708 0.123614386 0.041125588 -0.43722874
-0.54336315 0.0935842 -0.32057315 0.034670155 0.13669124 -0.38865978 -0.018119194 0.072632216
0.18502088 -0.49961713 -0.06465252 -0.6095796 -0.00020049042 -0.5932281 0.0010388226 0.14679621
-0.25695297 -0.002911216 -0.3553092 -1.2259152 0.51643085 0.12653619 0.04804013 -0.13508677
0.021259319 0.030654754 0.16436282 -0.19942965 0.13990365 0.12856983 0.13226081 0.19594087
-0.158012 -0.007098434 -0.30994695 0.086893626 -0.6951517 -1.0531043 -0.07736102 -0.08937516
0.14901437 -0.31134453 0.12706679 0.091897085 -0.16423923 0.096019715 0.042455103 -0.46862012
-0.58270025 0.14106862 -0.064173445 0.1437801 -0.22767535 0.56288576 -0.25940555 -0.24712823
0.16725571 0.20334272 -1.0421852 0.02658632 0.124879085 0.15787731 0.07377653 -0.073562846
0.19873954 -0.09290989 -0.051817693 0.23448922 -0.23442157 -0.52213985 0.1458565 0.1483466
0.16443393 -0.096248925 0.05290512 0.05247494 0.22539957 0.1545658 -0.01129408 0.10765859
0.064450875 0.085855074 0.15937169 -0.24217063 -0.0012679335 -0.17084825 0.13399306 -0.20583221
-0.14264983 0.030191982 0.13276361 0.09831074 0.07410148 0.0556253 0.11086772 -0.2656569
0.078509815 -0.33605576 0.020034581 -0.1552582 -0.04346688 0.09864575 -0.1159216 -0.1764175
0.057810724 -0.24644382 -0.14545524 0.061362136 -0.12162779 -0.1655146 -0.19323885 -0.03872563
-0.119834274 0.12112051 0.046626203 -0.2763875 0.5726502 -0.029399194 0.10185947 -0.114447095
-0.068909526 -0.088670835 0.0138505865 0.12543374 0.10488758 -1.8701935 0.030691037 -0.37346354
-0.15757833 0.078114346 0.60452497 0.018876005 0.03590788 0.052240867 0.031975597 0.05340758
-0.13005218 0.10356613 0.060005322 0.33273548 0.00658027 -0.006434706 -0.052492376 -0.00082830474
0.12456282 -0.062728055 -0.18677375 -1.0687443 0.3941401 0.11580914 -0.022060148 -0.10137126
-0.014400344 0.039333053 -0.091270216 0.07100514 -0.12063039 0.11316129 -0.07342414 -0.066813976
-0.042232208 0.11199184 0.09596423 0.07459945 0.001459817 -0.57979894 0.072850496 0.029665262
0.12816027 0.0194871 -0.067750335 0.079347976 0.037950218 0.07928612 0.034987487 0.006756083
-0.17961402 0.12063616 -0.028619636 -0.14712554 0.08264599 -0.29920983 -0.14389734 -0.29873964
0.16364126 0.17588468 0.046134483 0.20456892 0.015701208 -0.0351205 -0.082689166 0.122180894
-0.05516661 0.1098306 -0.062841475 -0.078862555 0.10262279 0.070556946 -0.21556346 -0.10931951
-0.031337745 0.026066506 0.07208493 0.04059907 0.17893602 -0.054683547 0.037782367 0.10195679

pn.fc.1.bias f4 [4]
00000000: f8d3 a5bf fb16 4abf 197d c73e 7a3d 6e3f
-1.2955313 -0.78941315 0.3896263 0.93062556

445 f4 [32, 23, 1]
00000000: 1dd1 dd3d 5a0e 4cbd c185 3e3f 7423 833c
00000010: fac7 13be d4ea 8d3b 64d5 cabd 5ddb b6bd
00000020: 7b2b 93be e7e2 07bd 5567 4d3d 2f0f 3c3e
00000030: 8215 c13d ab9f 753c e9ff 33be 441f a43d
00000040: fdcb 5c3e 1573 133a be2b 53bd d178 58bb
00000050: 00b1 2e3d 0e1d babb d4e1 8ebb 5cb7 bc3c
00000060: a265 e5bb 113d 9ebd 0877 953f 2cbe 693c
00000070: 84d6 5b3b 5492 593c 7440 463c 0e01 853c
00000080: a317 003d 2f12 963c fb19 033b dc9c 8abd
00000090: 93e4 d4bb c084 3a3c 4639 8abe 288c c03d
000000a0: d354 aeba 408a ac3c feb4 e9bb 4db5 223c
000000b0: 4f13 8ebb 9dd2 a23b 8590 743d 4d57 47bd
000000c0: 5dad c53b 5fd7 82bb 8d5b 03bb 9eb9 993b
000000d0: 7dfa 0ebd 9c00 8aba cb2a 233d fe4a 31bc
000000e0: 8476 8dbb adee 9cbb 02b1 96bb 032e 073a
000000f0: 4f71 97bc a4e5 3c3e 2d36 04be 9bbf 033f
00000100: 73ac c4bc b022 1bbf ea5c 013e 36b3 a03d
00000110: a979 713c 8fdd 403d d581 b4bc cc5f 133e
00000120: d529 0ebc f1a3 cd3c dc0e 32be 8d29 593d
00000130: 6904 a83d 7ef5 c3bd d29a 25be cd37 91bc
00000140: ff10 9bbe 9273 b3bd 8edf 57bd 434f 40bb
00000150: 67f8 be3d 7aac b0bd 70b8 e43c 22b1 5d3d
00000160: 97de da3d 91f4 e6bd c009 163f 7ee0 183e
00000170: 6348 14bd f585 23bd 9292 39bc 0816 423d
00000180: c907 993d 1dfb 823d d699 1bbd c5d7 49be
00000190: 932f 2dbe f312 ffbd b80e 043d 42b5 32bd
000001a0: 9992 5cbf dc79 813e 9d1b 133d 99df 423d
000001b0: 0d32 5a3e 331a cf3c 8a19 b2bd 3a22 043e
000001c0: e57b 9039 6f94 ebbc fecc 12bd 3761 c93e
000001d0: d941 aa3e acaf 243b 3cae 91ba 4c86 3abc
000001e0: 427b cdbc 410d 833d 3e61 cfbd c4b4 423b
000001f0: dc7e 163d 106f 1ebc 6a4f 89bc fcd6 8b3c
00000200: 073f a0bd efb5 83be 7ccd 68bd da5a 71be
00000210: 353e 623c d925 253d f664 283d 75c5 ad3b
00000220: 2c6f 3ebe 62e9 41be a6b0 72be bd65 a03e
00000230: 9613 3f3b d5a1 d9bb da5f 643c fd55 3ebb
00000240: c6d4 673d f67e e33c 047f 1cbd 7fcb fbbc
00000250: 90c8 78bc 1b5c bebd 2804 8a3c f949 62bd
00000260: 039c 78bd 1020 bebe e30c d2bb 12c9 493f
00000270: 5f20 fbbd 1cb3 b83d d16c 653e 7813 e6bd
00000280: 134e 0fbb 7645 efbc d516 75bd 44b2 933c
00000290: 850f ce3b 5656 883f 02d1 a13c 612d ae3e
000002a0: 4ee1 bd3d 8dcb 953c ad52 883d 5eaf 9a3c
000002b0: eb69 51be 610f 913d 813c 8abe ca1c a3be
000002c0: 348f 99bc a2c6 abbd 8142 92bd 6c79 2e3d
000002d0: 0534 2a3e 58a6 9e3e 61e4 b0bd 0ce3 17bd
000002e0: ce24 133d 5375 a4bd 4a42 8ebc 64b2 57bb
000002f0: ed78 2f3d e941 1dbe 2b3f e73d 0c32 dabc
00000300: acbb 97be b57e adbe d392 403e 3bff 8c3e
00000310: 1190 b0bd 0467 fdbd 1ba8 fd3d 9d42 95bd
00000320: 720a e13d c536 ccbc b448 3f3f 2c74 aebd
00000330: a37a 963c 70ae 483d 30e2 e3bc 7add dbbb
00000340: 1584 ca3c 50dc 40bf 4b3d e1bb 773f ac3d
00000350: db67 8abb 5074 19bc 6b8b 963c 3862 06bb
00000360: 6a64 063d 0e56 533d fb37 983b 647f 993b
00000370: 6217 8c3b 897b 2ebd 3355 48bd f3a1 bb3d
00000380: 84c6 f1bb d4d7 6e37 b159 a3ba 3bba 723b
00000390: 9940 1bbc 3360 eabb b929 35bd 0422 3f3d
000003a0: cd42 7d3c 50dc 0c3b 1168 f0bc 25d8 3bbb
000003b0: 806b 27be 83b6 3fbd 1177 063f cb17 8f3d
000003c0: 736c b73e 9740 3f3e 8c2d f4bc d725 d2bd
000003d0: 0be1 d03c a121 043c 3ee9 ac3d 64e2 c23c
000003e0: d67a ff3c 26a4 6a3e 218a 053c a9ee 20bd
000003f0: fa09 b43d 7ca1 473e 91fc dabe 595a 85bd
0.10830901 -0.049818374 0.7442284 0.016008116 -0.14431754 0.004330972 -0.09903982 -0.08928559
-0.2874411 -0.033175375 0.050147373 0.18365167 0.094279304 0.014991681 -0.1757809 0.08013776
0.2156219 0.00056247535 -0.051555388 -0.0033030997 0.04264927 -0.005679733 -0.004360417 0.023036651
-0.007000641 -0.07726491 1.167695 0.014266532 0.003354461 0.013279516 0.012100328 0.016235854
0.03127254 0.018319217 0.00200045 -0.067682 -0.0064969747 0.011384189 -0.2699682 0.09401733
-0.0013300426 0.021062016 -0.0071321717 0.009930921 -0.004335798 0.0049689547 0.059708137 -0.04866724
0.0060326294 -0.0039929594 -0.0020043582 0.0046913167 -0.034906853 -0.0010528746 0.039835732 -0.010821102
-0.0043171067 -0.0047891946 -0.0045987377 0.00051566976 -0.018486647 0.18446976 -0.12911291 0.5146424
-0.024008011 -0.60599804 0.126331 0.07846682 0.014738479 0.047086295 -0.022034565 0.14392012
-0.008676966 0.025102587 -0.17388481 0.05301814 0.08203966 -0.09568308 -0.1617234 -0.017726803
-0.30286404 -0.08762278 -0.052703433 -0.0029344119 0.09324723 -0.08626647 0.027919978 0.054124005
0.10686987 -0.11277116 0.5860863 0.14929387 -0.036201846 -0.039922673 -0.011326449 0.047384292
0.07472188 0.06395552 -0.037988506 -0.19711216 -0.1691268 -0.12454786 0.0322406 -0.043629892
-0.8616119 0.25288284 0.035915006 0.04757652 0.21308155 0.025281047 -0.086962774 0.12903681
0.0002755813 -0.028757302 -0.035840027 0.39331982 0.33253363 0.0025129123 -0.0011114548 -0.011384558
-0.025083188 0.06399012 -0.10125969 0.0029709795 0.036742076 -0.009670034 -0.0167615 0.017070286
-0.078245215 -0.25724742 -0.05683659 -0.23569813 0.013808777 0.040319297 0.04111191 0.0053030797
-0.18597096 -0.18936685 -0.23700199 0.3132762 0.0029155961 -0.0066416063 0.013938868 -0.0029042952
0.0565994 0.0277705 -0.03820707 -0.030736683 -0.015184537 -0.092949115 0.016847685 -0.055246327
-0.06069566 -0.37133837 -0.0064102276 0.78822434 -0.12262034 0.090185374 0.22404791 -0.11234182
-0.0021866604 -0.029207926 -0.059836227 0.01802934 0.006288471 1.0651348 0.019752983 0.34018996
0.09271489 0.018285537 0.06656394 0.01888245 -0.20450561 0.070830114 -0.26999286 -0.31857902
-0.018745042 -0.083874956 -0.07141591 0.042596266 0.16621406 0.30986285 -0.0863731 -0.037081763
0.03592377 -0.0803019 -0.017365593 -0.0032912726 0.042839933 -0.15357174 0.11291345 -0.026635192
-0.2963537 -0.33885732 0.18806009 0.27538475 -0.086212285 -0.12373164 0.12385579 -0.07288096
0.109883204 -0.02492846 0.7472031 -0.08518252 0.018369025 0.04899448 -0.027817816 -0.0067097517
0.024721185 -0.7533617 -0.006873762 0.084105425 -0.0042238063 -0.00936611 0.018377027 -0.002050532
0.032810606 0.05159574 0.0046453453 0.0046843756 0.0042752484 -0.04259828 -0.048909377 0.09161749
-0.0073784012 1.4236157e-05 -0.0012462643 0.0037037272 -0.0094758505 -0.007152581 -0.044229243 0.0466633
0.015457821 0.0021493621 -0.029346498 -0.0028662768 -0.16349602 -0.046804916 0.5252543 0.0698696
0.35824928 0.18676983 -0.029806875 -0.102611236 0.025497934 0.008064658 0.08442925 0.023789592
0.031186502 0.2291418 0.008150608 -0.039290104 0.087909654 0.19495195 -0.42770818 -0.06511373

446 f4 [32]
00000000: 1f0f cd40 7e2e a83f 2d5b 403d a713 ec3e
00000010: 202d 0840 b6b5 933f b0f3 623f 495a a4bd
00000020: 3f57 b5bc fb86 953f 2d06 0e40 b85d 1d40
00000030: 79d9 3f3f 3688 943f 44c7 f5be 3603 edbe
00000040: 825b be3e 9345 9b3e dfe6 27bf 6765 143f
00000050: 61e6 ef3f 8116 053f 2929 df3f 21a9 6f40
00000060: a350 e03c e58e b53f ea1b e63f cd82 3cbb
00000070: f77a 8cbf 1aab 02bf dcaa cdbe 4e52 db3f
6.408096 1.3139188 0.046961952 0.46108744 2.1277542 1.1539829 0.8865309 -0.08025033
-0.022136329 1.1681818 2.219127 2.4588451 0.7494121 1.1604068 -0.4800359 -0.46291512
0.3717919 0.30326518 -0.65586656 0.5796723 1.8742181 0.51987463 1.7434436 3.7446978
0.0273822 1.4184233 1.7977269 -0.0028764487 -1.0975026 -0.5104233 -0.40169418 1.7134492

448 f4 [32, 11, 1]
00000000: 8338 08bf 332d 2c3e 759d 9fbc 67c6 583d
00000010: 970a 153d 9c12 283e 6ee6 87bc 998d 94bd
00000020: 9dea 0bbd 6327 943e 82de a43b 11db f13d
00000030: 1e84 2abf e485 1f3d b463 433e 183e cfbd
00000040: 2a14 b73d 4fc9 513d c759 d3bd 7af5 42bc
00000050: 4086 a13e b1fb a4bc 21ca b1bc 4aad 0bbd
00000060: 0137 e6bc a65a 8d3c 00fc 533d cbb2 3d3e
00000070: 4479 2fbe 42ad b23d ff2f a4bc 7c2f 9c3d
00000080: 7fc4 b03c 239e a93d 55d6 e8bd 1239 3a3c
00000090: dd85 18bc 74cb 61bc 73e0 473c 6f28 07bf
000000a0: 2985 d3bd c65d 993c 11b1 4b3d 1eca 793e
000000b0: e853 1b3a f6fc 993c 9e23 803c 19e8 313c
000000c0: df29 2fbb 5d95 243d 0475 14bc 46c5 6d3a
000000d0: 171b 5cbd 598f 193a bc64 08be 6a7a 08be
000000e0: 7cd1 803d 4d38 1ebd 8b56 c23c e4ef 83bd
000000f0: 6b68 5d3d b222 d03d 659c 9fbe c37a 673c
00000100: a394 8ebd 27c1 963d 10d1 9db9 dedf b13c
00000110: ded8 fd3d da6f 50bd 9fb7 00be 6573 ab3b
00000120: eaa2 483c 91b4 c53d 94fb 7dbe 9631 853c
00000130: 3873 81bf bdab 85bd efab ab3e 5a60 70bd
00000140: ef9d f5bd a56f a0be 18af 0bc0 2fba 14be
00000150: 45b6 45be 4c1e 91bc f011 33bd d97a 15bd
00000160: db09 14be 6a8e 0d3d c6a8 103e ddc0 34bd
00000170: efcc fab8 c8c5 333d 5ae5 3f3e 166a fc3d
00000180: b944 a9bc c3e0 3dbb a331 8e3d 8bf5 bb3b
00000190: 2254 a73c e3f8 a93d 11bf 263c 11af 0ebd
000001a0: adf1 5ebd ed34 3cbd 7848 5c3e f4d4 6fbb
000001b0: aa1f e53e da9d 193e 22fb ef3e 5438 fd3d
000001c0: 51ae 8a3b c736 a03d c2a5 34bd bb83 22bd
000001d0: 353a d73d 0883 0ebe 3808 083c 7072 02bd
000001e0: 4f00 ad3d c7c0 26bd 2cdf 01be a4d3 823d
000001f0: 6b92 a23c a776 0a3d f52b 67be f82a 69bd
00000200: 5bb7 403d e283 47b8 3e52 353e 4ace 873d
00000210: af56 573c 9fce 99bc 1230 beba e3c2 c53a
00000220: dbdd 72bb bdf8 7a3a 8cd9 893b d688 c73c
00000230: 353a 80bc 43bd a8bc 51db 04bd 7ced 59bd
00000240: 90a2 2e3d 57ae 4b3d 492d 21be 5b67 893e
00000250: 2512 3d3e c204 ffbd 70f3 d3bc 509b e5be
00000260: 939a 083e 8036 b1bf 8d3d 1abd 42fe 473e
00000270: 205a 85bd e3ce 413c 8b32 93bd e3d0 1ebd
00000280: 309d 103e e311 40be 2e95 dcbd 847d 0bbe
00000290: 7f72 b8bf 8c27 aabd 917c 1cbf fd1e 6b3d
000002a0: 7efb 9bbd 327d 283d d512 d2bd f518 03bd
000002b0: 403a b7bd d17e afbc 72ec 33bc 5600 9f3d
000002c0: ca07 16bd 4ce6 423d 9106 973d 48e8 0f3d
000002d0: 7cc6 4d3d 87b3 1fbd 9fbe a6be a553 853e
000002e0: fe77 32bc 083b 80be 06ac 4ebe efac 92be
000002f0: b0a5 013e 6e81 4e3d c104 a03d 3b70 cf3d
00000300: 841a 08bd f009 e0bc f6be 1ebf c2f6 f23b
00000310: c23a 88be 17ef c03d 6e64 e4bd c5bd 003d
00000320: 6652 9abd 47e9 293e 8c82 83bd 7a89 963d
00000330: 94c7 8d3c 691f 443f 2930 24bf 9bd8 76bf
00000340: 3f55 fdbf cf54 cf3e dab5 bbbe d68a 573d
00000350: dfc8 56bd 3a53 443d c308 373d cf4e e13d
00000360: 1d14 8f3d b193 6bb9 8749 333e d840 243d
00000370: 2fb9 093f 9a12 ebbe 27a1 1c3d e460 fb3c
00000380: b722 d93d 18ff 3f3e 8dc6 073e 8275 6dbe
00000390: 26a3 0fbe 5365 853d 77d0 8cbc 4f5e 103e
000003a0: f5f1 22bd ea60 5740 3ef3 a73d 00da 773c
000003b0: 5327 263e 2c12 ddbc 9f99 11be ef46 88be
000003c0: bb3c 22bd 3c33 c23b b52c 233d d7c7 1cbc
000003d0: d087 a7bf 49e9 3fbc 0c1c 81bd 4a0a e13c
000003e0: da73 1ebd 1a4f 32bc cb91 9bbb 8dfb c6bb
000003f0: 63fc 32bc a4b2 7bbe 1a87 213e 5e85 443c
-0.5321123 0.16814117 -0.019484261 0.052923586 0.036387052 0.16413349 -0.01658937 -0.0725357
-0.03415929 0.289363 0.005031408 0.11809362 -0.66607845 0.038946047 0.19081002 -0.10119265
0.08939393 0.051217373 -0.10319858 -0.0118993465 0.31547737 -0.020139547 -0.021702828 -0.03410081
-0.0281024 0.017255139 0.051753998 0.18525235 -0.17136103 0.087244526 -0.020042418 0.076262444
0.021578072 0.08282115 -0.113690056 0.011366146 -0.009309259 -0.013781417 0.012199509 -0.5279607
-0.10328133 0.018721472 0.04972941 0.24393508 0.0005925284 0.018797379 0.015641984 0.010858559
-0.0026727838 0.040181506 -0.009061102 0.00090702286 -0.053736772 0.0005857847 -0.13319677 -0.13327947
0.06289956 -0.03862791 0.023722908 -0.0644224 0.05405466 0.101628676 -0.31174007 0.01412839
-0.06961944 0.0736106 -0.00030101137 0.021713194 0.1239488 -0.05088792 -0.12570046 0.005232262
0.012245873 0.09653581 -0.24803 0.016258996 -1.0113287 -0.06526897 0.33529612 -0.058685638
-0.11993014 -0.31335178 -2.1825619 -0.14524148 -0.19307812 -0.017714642 -0.04371828 -0.03649411
-0.14456885 0.034559645 0.14126882 -0.04412924 -0.00011959101 0.04388979 0.18739834 0.12324922
-0.020662652 -0.002897308 0.06943061 0.005736058 0.02042586 0.082994245 0.01017739 -0.034834925
-0.0544297 -0.04594891 0.2151202 -0.0036595436 0.4475072 0.15001622 0.46871287 0.12364259
0.004232206 0.07822948 -0.04410339 -0.03967641 0.10509149 -0.13917172 0.008302741 -0.031847417
0.084473245 -0.04071119 -0.1268279 0.063880235 0.019845208 0.033804562 -0.22575362 -0.056925744
0.04704986 -4.7568123e-05 0.17707154 0.066311434 0.013143226 -0.018775282 -0.0014510176 0.0015087988
-0.0037058506 0.0009573808 0.004206842 0.02435724 -0.015652755 -0.02059806 -0.03243572 -0.053205
0.0426355 0.04972681 -0.15739931 0.26836666 0.18463953 -0.12452079 -0.025872916 -0.44845057
0.13340215 -1.3844757 -0.037656356 0.19530585 -0.065113306 0.011829111 -0.07187375 -0.03877343
0.14122462 -0.18756823 -0.10770641 -0.13622099 -1.4409941 -0.08308324 -0.61127573 0.0574026
-0.07616328 0.04113502 -0.10257498 -0.032006223 -0.08946657 -0.021422775 -0.010981666 0.07763736
-0.036628522 0.04758291 0.07374299 0.03513363 0.050238118 -0.03898957 -0.32567307 0.26040378
-0.010892866 -0.25045037 -0.20182809 -0.28647563 0.12660861 0.050416403 0.07813407 0.10128828
-0.033228412 -0.027348489 -0.62010133 0.0074146697 -0.2660733 0.09420603 -0.11151968 0.03143098
-0.075352475 0.16592894 -0.06421384 0.0735044 0.01730708 0.7661043 -0.64135987 -0.96424264
-1.979164 0.4049439 -0.3666218 0.05262264 -0.05243766 0.047930934 0.04468609 0.1100136
0.06986258 -0.00022466366 0.17508517 0.040100902 0.5379819 -0.4591263 0.038239624 0.03068585
0.106023245 0.18749654 0.13259335 -0.23189357 -0.1402708 0.06513467 -0.017189248 0.14098476
-0.03978153 3.3652902 0.08200692 0.015127659 0.16225938 -0.026986204 -0.14218758 -0.26616618
-0.0396087 0.005926518 0.039837558 -0.00956913 -1.3088322 -0.011713334 -0.06304178 0.027470727
-0.038684703 -0.010883117 -0.0047476045 -0.0060724677 -0.0109244315 -0.24579865 0.15774193 0.011994688

449 f4 [32]
00000000: c4bd 32bf f2d2 8f40 b8d6 583e e74e e93f
00000010: 5721 9d3f a7bf a63e b4c5 edbe c31c bfbf
00000020: 53d7 58be 17f8 0e3f 1c72 0040 2852 f53e
00000030: b900 bfbf ca5d 3b3f f21c 3240 7fc9 fd3f
00000040: 1678 823f 5d77 adbf 2066 8c3e 93c5 1e3e
00000050: 66cb cdbf 5e0f 0ebf b6a0 64be 8075 b03f
00000060: 2459 f9bf 6806 1040 b8c3 d53f c210 2740
00000070: 6567 2e40 525a 5a40 0599 a440 8a8e 853f
-0.6982081 4.4945 0.21175659 1.8227204 1.22758 0.32568094 -0.46439898 -1.4930652
-0.2117589 0.55847305 2.0069647 0.47914243 -1.4922096 0.73189986 2.7830167 1.9827117
1.0192897 -1.3552052 0.27421665 0.15505056 -1.6077697 -0.554922 -0.22326931 1.3785858
-1.9480329 2.250391 1.6700354 2.6103978 2.7250607 3.4117627 5.143679 1.0434124

451 f4 [64, 64, 1, 1]
00000000: d25c b5bc bee3 7c3c 30ab b43d eb28 20bd
00000010: 46b3 a3bc 26ac 723d 416d 343e 6720 203d
00000020: eddb b53c 245d c4bd 3de4 2f3e 905f 26be
00000030: 6570 79bd 5116 60bd d696 3e3c b1c8 20be
00000040: aac5 37bc 2ea8 1cbe 0f59 6e3e 26ef e33d
00000050: 70b0 1e3e 9b96 1c3c ba1e d8bd 7094 363e
00000060: 1a2c 933b 5eb1 033d 6c5e f4bd 1abe 8abd
00000070: 533c f93d 4edb 7a3d 7cd3 e33d a89f 1f3e
00000080: 8c75 633d 3882 c73d 2109 e6bc 5b43 933d
00000090: 14f0 d6bc d978 ac3d efef 4d3c d906 ab3d
000000a0: a9c7 0e3d 7192 043e b6d7 cb3d 4d74 0cbd
000000b0: 08f1 bf3c abaa c13d 08fc f7bc a452 78be
000000c0: c094 cd3c a90f 1bbd 61b1 093e 3c3b 8a3d
000000d0: 192e 503d de1e e8bd 18e4 6bbd 31f4 26ba
000000e0: bd5e e5bc 0957 983d 320d 663d 2c45 e53d
000000f0: 9f01 b9bd 783e 0f3e ac99 9c3d a571 f9bd
00000100: 7ffd 3b3c e04b 393b b565 cabd b845 433d
00000110: 493e c73d c3c3 a3bd 4d00 26bd 35ce 57bd
00000120: 8d57 053e fc36 073e 502a 94bc ccd6 d5bc
00000130: 5fe7 2a3c aee7 bdbe 0647 5cbc 687e 983d
00000140: 955e f53d 2bf9 53be 616d 3cbe 4ca7 18be
00000150: 032f 193d a64c 553d 625e d13d 84d8 c3bd
00000160: abd5 683c ded3 373c 91da bc3e 1df9 5bbc
00000170: 0f6a d7bc 70ff 41be 34f9 0bbe 2de2 f33d
00000180: c8a3 a6bc e1dd b73d c6b1 2abd d5c8 163e
00000190: bb9e 353e 4e0a 42be c90b 793d 770f e3bd
000001a0: bd3e 0b3d eb1b b03c 68ca b0be 0408 443c
000001b0: ccc4 ecbb facc 74be d926 e1bb 4113 8b3d
000001c0: c317 87be a01f 83be 3ab3 9fbe 133e b1bd
000001d0: 94f1 39be f940 bbbd bb5f 9c3e 574b 4fbe
000001e0: 9d39 cebd 1914 7e3d 864c e63e 14a8 0ebd
000001f0: 4f18 2fbd 6406 04be e75a e43c 38c7 0bbd
00000200: 342d 683c 3956 dfbd 992c 03bd 2b55 593d
00000210: ca24 34bd 821b 803d 611a a83c 6bb0 15bb
00000220: 6627 183c c902 f0be 0fc3 12bc 08a1 f63d
00000230: 0beb 163d 967e 87bd afc2 96bd 9a7d 34bd
00000240: f05c 973c c129 c33d aa2e c93b 40ae 9a3c
00000250: 53a6 2dbd 70b0 52be 66ba 88bb 5894 a8bd
00000260: ca6e b43d 7d4e d1bd 4006 eabd 5da4 593d
00000270: a471 3abd 62e3 183e c025 36bd e141 8a3c
00000280: 4df4 0fbe 4f14 8cbd b3a0 a3bd 6a0e f2bb
00000290: 96f1 8bbc 82f9 833d 1296 d4bc 1e9e e03c
000002a0: 172e eb3c 0821 8a3e 8817 0b3d 130d 1f3e
000002b0: ab61 893d 2b59 35bd 4a91 e03b 35f5 c5bd
000002c0: 81ae 2d3d b1c1 933c 751d 2a3c 3edb b3b9
000002d0: d634 2cbd fa88 8dbd bbc4 2b3d 7504 963d
000002e0: da6f 94bc 5401 41bc 89a1 61bd c915 0cbc
000002f0: 6b16 0a3e d8d1 a23d 8731 493d 91ce 7fbd
00000300: 2e0b aebc 8875 0a3d 7780 bdbc 2e1e b23c
00000310: f206 b73b b075 333d 484e 293b 5b5f 43bd
00000320: cd8e 06bc f8dc f2bc de02 873d 99f0 b53b
00000330: 665c 963c 9158 e8bd a654 6c3d 74ec 33bb
00000340: ee4c 6fbd b533 87bd d997 40ba 34a3 03bd
00000350: 3a08 a53c 77f0 dcba 3ea4 aabc 0756 0a3a
00000360: 45c3 8b3d 2f0c 103d 32ac db3c 22a1 20be
00000370: 08cf 363c 9b02 04bd 23bb 26be 23b3 bebd
00000380: 79cf e5bc 8d49 87bf d8fe abbc a5bd 563c
00000390: d1c0 92be 7ce5 a63c 459b 2bbc 284c 703d
000003a0: b7d4 a83c cf77 873c bcb8 bd3c cc85 3e3d
000003b0: 27da 3d3d cca6 56bd d18f f93c 732c d03c
000003c0: 98c6 45bd b249 98bc b21b 303d a874 9cbc
000003d0: a807 24bc 2ff5 8b3d 0a4e e73d 4d31 93bd
000003e0: 70c8 833c 95b1 983f 376d 813d f146 00bc
000003f0: 6794 42bd 6136 b1bb 98ef 01bd 96cb 4dbc
-0.022138987 0.015435157 0.08821714 -0.039101522 -0.019982945 0.059246205 0.17619802 0.0390934
0.022199595 -0.09588078 0.1717691 -0.16247392 -0.060898203 -0.054708783 0.011632642 -0.15701558
-0.01121656 -0.1529853 0.2327616 0.11129598 0.15496993 0.0095573915 -0.105527356 0.17830062
0.0044913413 0.032151572 -0.11932072 -0.0677454 0.12169709 0.0612443 0.11124322 0.15588248
0.055532023 0.09741634 -0.028080525 0.071905814 -0.026237525 0.08421487 0.012569412 0.083509155
0.03485838 0.12946488 0.09953253 -0.0342906 0.023430362 0.094563805 -0.030271545 -0.24250275
0.025095344 -0.03785673 0.13446571 0.06749579 0.050825212 -0.113340124 -0.057590574 -0.0006368785
-0.027999276 0.07438476 0.056164928 0.11194834 -0.09033512 0.13988674 0.07646498 -0.12179879
0.011474012 0.0028273985 -0.0988268 0.04767391 0.09728677 -0.07996323 -0.04052763 -0.05268689
0.13021679 0.13204569 -0.018086582 -0.0261034 0.01043114 -0.3709082 -0.013444668 0.07445985
0.11980931 -0.20700519 -0.184011 -0.14907569 0.03739835 0.05207505 0.1022308 -0.095627815
0.014211099 0.011219947 0.36885503 -0.013426092 -0.02629569 -0.18945098 -0.13669282 0.11908374
-0.020341769 0.08977867 -0.041673444 0.14725049 0.17736332 -0.18949243 0.060802255 -0.11086934
0.03399538 0.021497687 -0.34529424 0.011964802 -0.0072256085 -0.23906317 -0.006871086 0.06790782
-0.26385316 -0.25610065 -0.31191427 -0.08654418 -0.18158561 -0.09143252 0.30541787 -0.20243584
-0.100695826 0.062030885 0.44980258 -0.03482826 -0.04274779 -0.12893063 0.027875377 -0.034125537
0.0141709335 -0.109051175 -0.032024954 0.053059738 -0.043980397 0.06255247 0.020520391 -0.002284075
0.009286737 -0.46877125 -0.008957638 0.12042433 0.03684525 -0.06615941 -0.07361352 -0.044065095
0.018476933 0.09529448 0.006139596 0.018881917 -0.042394947 -0.20575118 -0.004172611 -0.08231419
0.08810194 -0.102200486 -0.11426973 0.053135265 -0.045518532 0.1493049 -0.044469595 0.016877117
-0.14058037 -0.06839811 -0.07989635 -0.007386972 -0.01708297 0.06444074 -0.025950465 0.027419146
0.0287085 0.26978326 0.033957988 0.15532331 0.06708082 -0.04427449 0.0068532573 -0.0966591
0.042402748 0.018036695 0.010383 -0.0003430489 -0.042042576 -0.06910892 0.041935664 0.07325069
-0.018119741 -0.011780102 -0.055085693 -0.008550116 0.13485114 0.07950181 0.0491195 -0.062452856
-0.021245565 0.033803493 -0.023132546 0.021742906 0.0055855447 0.043813407 0.0025834013 -0.04769836
-0.008212757 -0.029646382 0.06592344 0.005552363 0.018354606 -0.11345018 0.057697915 -0.002745417
-0.058422975 -0.06601659 -0.0007346846 -0.032138065 0.020145524 -0.0016856332 -0.02083027 0.00052771013
0.06824354 0.03516787 0.026815508 -0.15686467 0.0111577585 -0.032229047 -0.16282324 -0.09311511
-0.028053032 -1.0569321 -0.020995542 0.013106738 -0.28662732 0.020373099 -0.010474031 0.05866638
0.020609243 0.016536621 0.023159377 0.046514317 0.046350624 -0.052405164 0.030464085 0.02541182
-0.048285097 -0.018589828 0.042995162 -0.019098595 -0.010011591 0.068338744 0.11294182 -0.07187138
0.016086787 1.1929194 0.06319659 -0.007829414 -0.04750481 -0.005408094 -0.031722635 -0.012560746

452 f4 [64]
00000000: 605a 863e 8b94 a9bf 98d4 8bbd 58f7 37be
00000010: f043 e8bc dfad 40bf d764 31c0 c0b3 66bd
00000020: 672e 1ebe 404d febc 4e28 2340 b86d 3b3f
00000030: dca0 febe 4adc 6f3e e2d0 59c0 c62c 6bbf
00000040: 0c4e 10be e058 39bd a856 de3d 4591 06c0
00000050: 4c0e d9bf 38f6 3c3f 54f1 21be f561 253f
00000060: 3e5d 233f b4ef 943f 04f9 573f 9ec3 c9bd
00000070: c114 6bbf e2fb b53f 88fb bdbe 40d4 5a3f
00000080: 9896 70be f498 0ac0 2cee 203d f02e ccbf
00000090: 00d3 f2bf 8c5c 4a3f acc5 5cbf 01cb 483f
000000a0: 3437 b9be aa57 333f b001 1f3f bc54 cfbd
000000b0: 6747 453f c0f3 e2be f0a4 8d3e 94c5 a03f
000000c0: d08c bfbc 3046 a4bd 9411 9b3e bf49 92be
000000d0: 8562 31c0 00c4 033c 2130 023f 3235 d93e
000000e0: 2a6b 87bf d5ea 09c0 1a39 36bf 724a 99be
000000f0: beff 313e 5407 6d3f f6fd af3e 485a ddbe
0.26240826 -1.3248457 -0.068276584 -0.17965448 -0.028352708 -0.75265306 -2.7717798 -0.056323767
-0.15447389 -0.031042695 2.549335 0.7321429 -0.497321 0.23423877 -3.4033742 -0.91865194
-0.14092273 -0.045250773 0.10856372 -2.1026165 -1.6957488 0.738132 -0.15814716 0.64602596
0.6381415 1.1635652 0.8436434 -0.09851764 -0.9182854 1.4217494 -0.37105966 0.8548012
-0.23494947 -2.1655855 0.03928964 -1.5951824 -1.8970642 0.79047465 -0.86239123 0.7843476
-0.3617493 0.7005564 0.6211195 -0.10123584 0.77062076 -0.44326591 0.276649 1.2560296
-0.023382574 -0.080212 0.3028685 -0.2857189 -2.7716382 0.0080423355 0.5085469 0.42423397
-1.0579579 -2.154958 -0.7118088 -0.2993961 0.17382714 0.92589307 0.34373444 -0.43232942

454 f4 [64, 64, 1, 1]
00000000: 8916 5c3d e265 06be 5bea 51bd 8fb9 2b3e
00000010: d154 75bd d20b db3e f369 a7be 73f3 c3bd
00000020: f702 b23d c412 08be faaf a83b ac7d ccbc
00000030: 67ea 1b3d e7ab 083e f09e 44be 5c6d 173e
00000040: b6fa 00be c1c1 ec3b ce5b e03d 1c76 903d
00000050: 9648 713d ebc9 e63b 8c7a f63c 38ed 0ebe
00000060: caa5 6c3e 3894 5bbd 8a81 c03d 7551 21bd
00000070: 37ae 3a3e a7d5 a0bd ba06 21be 8833 e23d
00000080: b5bf 373e 0627 66bd 2e81 513d 579c 503e
00000090: 24a6 23be 44f2 85bc a7c8 0b3e 788e dfbd
000000a0: 3c88 833d 3cc7 6ebe ef72 b23d 93a0 c53c
000000b0: f23c 483d f730 b8bb 66b3 053e 08c5 71bd
000000c0: 876c c23d cce6 203d 562c 2dbd 786e 92bd
000000d0: 9338 f7bd ff8a 4a3d 71f0 793c ee71 ff3c
000000e0: 3201 643e 4084 a8bd b32b 333d cc72 a7bd
000000f0: 8498 fdbc 90a7 8cbe d09e 0ebe 1b7a dfbd
00000100: 67ec 1e3e af8d d4bd 0224 e53d 88af 9a3e
00000110: e811 c3be 3bfc 65bd 152a d3bd 61b8 1abe
00000120: f452 d43b 293b 283e 835c f43d 65c0 033e
00000130: ca39 353e d596 64bc 7344 da3d 8d38 b8bd
00000140: 6901 a4bd 1fd5 223d 434d 8abd 44f2 5bbd
00000150: 74b8 90be 1ee3 95be 4162 663c d210 93bd
00000160: 2e75 93be 5ad4 0dbe 0a10 89be 3aed 363e
00000170: bdf3 5c3d 02db 183d 0263 833b 9370 4dbd
00000180: ab71 22be 7044 413d e495 cc3c c38c b63c
00000190: 82d6 513e 6148 10bd 0463 2d3e 78d3 e0bd
000001a0: d953 913d 933a 523e 0adf 3bbc ef27 65bc
000001b0: 4879 033e 8639 5fbe 8318 a73d 66fc 5fbd
000001c0: d250 c53d 4d24 b33c 58e3 ca3c 155d 18bf
000001d0: 2dab 753d 9384 acbd af4d 83bb e1a1 c3be
000001e0: 2b84 dc3d 0233 123c 9356 e7bd f325 d03d
000001f0: 5e04 6b3c cef4 35be 9c57 c03d b42d 88be
00000200: ab20 86bd 02f1 373d 8c89 8a3d f7f6 7fbd
00000210: c986 6cbc 08fb 57bd 5a04 f9bd 5dc4 46bd
00000220: cdab 0fbe cad9 333d 038a febc 4ac6 8d3c
00000230: 66d6 02be 2e94 9ebc 4e94 0bbb 8a79 113c
00000240: e32e 993b 74a9 42be 4e37 0ebe 099b 383d
00000250: 5d13 873d 755e 3f3d e2a3 483c 57b8 a1bb
00000260: d995 f9bb 4a31 f13b c19a 25bc b667 51bd
00000270: 4616 4ebd c882 693d 6991 e2bd 73b4 1b3e
00000280: 3cc5 3cbc c8be 1dbe 603f d93b fc89 7c3c
00000290: 6384 623d 7c58 ecbb 9749 bf3d ec21 75bc
000002a0: a32f 923d 165f 2a3d a905 2f3c d1c0 7e3e
000002b0: 6e1a 383c c1ea 933c 91f1 933d c292 b03d
000002c0: a594 e13c 86e4 0cbd 758c 143c 6e2f 923b
000002d0: 3888 0abc 3c3c 40bc d678 9fbc 2f43 f03c
000002e0: 2a64 283d 0868 613d 16d0 87bc 2477 b8bb
000002f0: 63f6 36bd 4cae d1bb b5a5 ec3c 22af fabc
00000300: 87fb 083d 6102 c7ba 49be 5c3e 8e5f 8b3d
00000310: c42c b8be a15a 71bd 55b0 b5bd b64a c33d
00000320: aced 7e3d ccc5 a3bd d758 793e 1021 b4bd
00000330: aa49 22bd af0f 643d 791a 823e 1fd5 ea3d
00000340: 3652 a0be 746f 39be d3bd 2cbe 9cd8 053c
00000350: ca00 b13e 0fd9 10be da35 3dbd e668 e63d
00000360: 0e41 2f3e 3c60 ab3e 7b5b 8abd 8e77 a2be
00000370: 2191 adbd 46aa 963d 1d1a 2e3e 96af e03d
00000380: 55d4 813d 4fde a33d a52c b03d fa54 2a3e
00000390: 6119 8e3d f614 a33c 7a19 743e 55b0 f0bd
000003a0: a0d8 923d 6726 04be 2ff4 a4bd cc1c b2bd
000003b0: e144 7fbe 978a 20be 4f5d 05be ebdd 4fbd
000003c0: fc89 d3bd 6625 0f3d ce97 d73d deda 67be
000003d0: bc5d 083e abd5 12bd 48c2 d53d 79ef 5bbe
000003e0: 0c25 47bd 1081 3c3d 2f48 bebe 3c31 9d3d
000003f0: 2a03 0bbe 147f 8a3d 34c2 6f3d d89f c83d
0.05373243 -0.13124803 -0.05124889 0.16770004 -0.05989534 0.42782456 -0.3269802 -0.09567919
0.08691972 -0.13288409 0.005147931 -0.024962269 0.03806534 0.13346826 -0.19201255 0.14787811
-0.12595639 0.0072252457 0.1095501 0.070537776 0.058907114 0.0070431135 0.030087732 -0.1395768
0.23110119 -0.05360815 0.093997076 -0.039384324 0.1823052 -0.07853251 -0.15725222 0.11044985
0.17944224 -0.05618956 0.051148586 0.20372139 -0.15981346 -0.016350873 0.13650762 -0.10915846
0.06422469 -0.2331819 0.08713328 0.02412442 0.048886247 -0.0056210714 0.13056716 -0.059025794
0.09493356 0.039282605 -0.04227861 -0.071499765 -0.120713376 0.049448963 0.01525508 0.031182256
0.22266081 -0.0822835 0.043742847 -0.08176193 -0.030956514 -0.2747159 -0.1392777 -0.10911962
0.15519868 -0.103785865 0.111885086 0.30212045 -0.380996 -0.05614875 -0.10310761 -0.15109397
0.0064796153 0.16428818 0.11931708 0.12866361 0.17697826 -0.013951977 0.10657587 -0.08995161
-0.080080815 0.03975403 -0.06753018 -0.05369784 -0.28265727 -0.2927484 0.0140615115 -0.071809426
-0.28800339 -0.13850537 -0.2677005 0.17863932 0.053943384 0.037318237 0.0040096054 -0.050156187
-0.15863673 0.047184408 0.024973817 0.022283917 0.20491984 -0.035225276 0.16932303 -0.109778345
0.07096071 0.20530157 -0.011466751 -0.013986572 0.12839234 -0.21799287 0.08158972 -0.054684065
0.09634556 0.021867895 0.02476661 -0.5951703 0.0599777 -0.08423724 -0.0040070633 -0.3820944
0.107673965 0.008923294 -0.112958096 0.10163488 0.014344303 -0.17769167 0.0939171 -0.2659737
-0.065492 0.044907577 0.06764516 -0.062491383 -0.014436432 -0.052729636 -0.12159033 -0.04852711
-0.1403038 0.04390887 -0.031071668 0.017306466 -0.12777099 -0.019357767 -0.0021298113 0.008879075
0.004674779 -0.19009954 -0.13888285 0.045069728 0.0659549 0.04672094 0.012246104 -0.004935305
-0.00761674 0.007360612 -0.010107697 -0.051124297 -0.05031421 0.05700949 -0.11062891 0.15205555
-0.011521634 -0.15404809 0.0066298693 0.015413757 0.055302035 -0.0072126966 0.09340208 -0.014961701
0.07137992 0.041594587 0.010682502 0.24878241 0.01123677 0.018056275 0.072238095 0.08621742
0.0275367 -0.034397624 0.009066691 0.0044612205 -0.008455329 -0.011733111 -0.019466799 0.02932891
0.04111115 0.055030853 -0.016578715 -0.005629437 -0.044668566 -0.0063989516 0.028887609 -0.030601088
0.033443 -0.0015183204 0.21556963 0.06805335 -0.35971653 -0.05892432 -0.08871523 0.09535734
0.06223838 -0.07996711 0.24350296 -0.08795369 -0.039621033 0.05567902 0.25410822 0.11466431
-0.31312722 -0.18108922 -0.16869287 0.0081693195 0.34570915 -0.14145301 -0.046193935 0.112504765
0.1711466 0.33471859 -0.0675573 -0.31731838 -0.08474947 0.07356696 0.17002149 0.1097099
0.06339327 0.080013864 0.08602265 0.16633978 0.069384344 0.019907456 0.23837844 -0.11752383
0.07170224 -0.12905274 -0.08054387 -0.08696899 -0.24928619 -0.15677868 -0.13023876 -0.050748747
-0.10329053 0.034947775 0.10527001 -0.22642085 0.13317007 -0.0358483 0.10437447 -0.2147807
-0.048619315 0.04602152 -0.37164447 0.07675406 -0.13575426 0.067625195 0.058534816 0.09796113

455 f4 [64]
00000000: 6b7b a5bf 80aa fc3e a349 243f 6e59 67bf
00000010: f8f7 883e 7832 733e ec7d 0cbf de25 65bf
00000020: 6871 a13d 34b2 ef3f 4f17 ce3f 1d28 40bf
00000030: 08df 803e 5020 093e 1118 0440 ca14 093f
00000040: 0c5b 4a3f c8d6 d73e 5eb1 25c0 f019 eb3e
00000050: f442 bbbe 710f 973f cc68 1fc0 8f99 c23f
00000060: e802 45be 12d1 8a3f be7e 693e 62c2 dcbf
00000070: 0e97 d53f 39ce 25c0 cd25 f03f a609 bd3f
00000080: b0b3 1a3f 94fd 2a3f f01d b13d bd72 febf
00000090: 2064 ae3d 1e92 9c3f e81d a1be 98de cd3f
000000a0: daa3 43bf 3434 2140 405e 643e 96d5 703f
000000b0: 7403 22bf 0c54 adbe 80b6 313f 90ce 0a3f
000000c0: 5bf8 083f cef5 dbbf c0fe 813c 507c 0f3f
000000d0: 906b 063f 8d85 e53f b30a 8b3f 10fa 65be
000000e0: bbaa d1be 8fdc 09bf 803e 0e40 1402 433f
000000f0: e09c c23d 1c11 d5bf d8ef cfbd 28b4 09c0
-1.2928289 0.4934883 0.6417486 -0.90370834 0.26751685 0.23749721 -0.5487964 -0.89510906
0.07882959 1.8726258 1.6100863 -0.7506121 0.2517016 0.13391232 2.063969 0.53547347
0.79045177 0.42156053 -2.5889506 0.45918226 -0.3657452 1.1801587 -2.4907713 1.5203112
-0.1923939 1.0845053 0.22802255 -1.7246821 1.6686723 -2.5907118 1.8761536 1.476857
0.6043043 0.6679318 0.08648288 -1.9878765 0.08515191 1.2232091 -0.3146813 1.6083555
-0.7642189 2.5188112 0.22301579 0.94075906 -0.6328652 -0.33853185 0.694191 0.5422144
0.5350396 -1.7184389 0.015868545 0.5604906 0.5250788 1.7931381 1.086264 -0.22458673
-0.4095057 -0.5385217 2.2225647 0.76175046 0.09502578 -1.6645846 -0.101531684 -2.1516209
