HLT/ParticleNetAK4/V00/particle-net-with-tauh.onnx (onnx, 938847 bytes, 42 tensors)

pf_conv.conv.0.weight f4 [23]
2.3107655 2.1580951 2.7183359 2.1090028 0.8477477 0.4944171 0.43228853 1.232333
2.2187636 1.3111941 0.7422818 0.5714059 0.8450922 0.812546 1.7616651 0.47815883
1.677481 1.3033307 0.9846824 1.1047965 0.17360237 1.7099549 0.9834185
00000000: 95e3 1340 3b1e 0a40 37f9 2d40 e7f9 0640
00000010: fe05 593f 3d24 fd3e ec54 dd3e 16bd 9d3f
00000020: 3900 0e40 35d5 a73f 2e06 3e3f a847 123f
00000030: f657 583f 0403 503f 3e7e e13f 3cd1 f43e
00000040: b3b7 d63f 8ad3 a63f 2514 7c3f f969 8d3f
00000050: d2c4 313e cddf da3f 51c1 7b3f

pf_conv.conv.0.bias f4 [23]
-0.0021061134 0.0012248398 0.0019459038 0.0007880966 -0.00034799552 0.00056011515 -0.0007294778 2.3471399e-05
0.00025439402 0.00022439285 -1.160893e-05 -9.221807e-05 -0.00025937986 -0.00055319123 0.00025230233 0.0002540968
0.00039335835 -0.00072480546 -0.00044862457 0.00034392325 -9.7829536e-05 0.00026305276 0.00032080253
00000000: b806 0abb ce8a a03a b20d ff3a 4498 4e3a
00000010: 2b73 b6b9 b1d4 123a 6d3a 3fba 72e4 c437
00000020: 3060 8539 ff4a 6b39 fac3 42b7 3365 c1b8
00000030: 60fd 87b9 0904 11ba 7247 8439 4c38 8539
00000040: aa3b ce39 df00 3eba 5f35 ebb9 9950 b439
00000050: d529 cdb8 58ea 8939 6331 a839

pf_conv.conv.0.running_mean f4 [23]
0.021132922 0.085746154 0.000102946025 1.1332068e-05 -0.008155378 0.0006809496 -0.058311142 -0.4489907
-0.43871334 0.21162423 0.0044572917 0.37464273 -0.0008660248 -0.19793795 0.3893529 0.032780595
0.4581371 0.033483654 0.25093487 0.07508014 0.060891323 0.08182135 0.15429334
00000000: f31e ad3c ae9b af3d bae4 d738 dd1e 3e37
00000010: 229e 05bc c181 323a aad7 6ebd 1ce2 e5be
00000020: 099f e0be 06b4 583e 790e 923b 2cd1 bf3e
00000030: f105 63ba 3fb0 4abe 4359 c73e f244 063d
00000040: f290 ea3e 2826 093d 897a 803e 9ec3 993d
00000050: 2e69 793d f491 a73d 13ff 1d3e

pf_conv.conv.0.running_var f4 [23]
0.24231705 0.27974364 0.009010603 0.0103732515 0.46729162 0.21164791 0.068945676 0.24792588
0.2297577 0.16680859 1.1017879 1.1382198 0.78371304 0.65923965 0.3148839 0.008527874
0.24401909 0.571747 0.6020584 0.15747358 2.709057 0.02556864 0.11157503
00000000: f621 783e 8f3a 8f3e 35a1 133c 92f4 293c
00000010: d940 ef3e 3bba 583e 6433 8d3d 48e0 7d3e
00000020: 9a45 6b3e dfcf 2a3e 6307 8d3f 30b1 913f
00000030: 6ba1 483f eec3 283f 7638 a13e 7fb8 0b3c
00000040: 24e0 793e 035e 123f 8020 1a3f c140 213e
00000050: 3161 2d40 5375 d13c 7381 e43d

sv_conv.conv.0.weight f4 [11]
1.839369 3.1607585 0.5110287 -0.10951046 0.15773037 1.7504406 0.6864461 1.6228516
-0.038972065 0.5475123 1.7100753
00000000: 7270 eb3f de49 4a40 c7d2 023f 0547 e0bd
00000010: 1284 213e 700e e03f eeba 2f3f 9ab9 cf3f
00000020: 2ca1 1fbd c429 0c3f bfe3 da3f

sv_conv.conv.0.bias f4 [11]
-4.266943e-06 -1.6253207e-05 -1.4305887e-05 3.482479e-06 2.2818128e-06 3.0458145e-06 -4.618845e-06 5.5398204e-06
6.5196496e-06 1.9390181e-06 -5.5550126e-06
00000000: c32c 8fb6 7f57 88b7 5103 70b7 89b4 6936
00000010: 3f21 1936 b266 4c36 94fb 9ab6 b2e2 b936
00000020: 5dc3 da36 1420 0236 3265 bab6

sv_conv.conv.0.running_mean f4 [11]
-0.05713768 0.034036204 -5.0185048e-05 0.00085984665 -0.0010174413 0.041124668 0.02712159 -0.027197959
0.005292144 0.008754269 0.005303303
00000000: 3309 6abd 8c69 0b3d c97d 52b8 5567 613a
00000010: aa5b 85ba 5772 283d 192e de3c 41ce debc
00000020: b969 ad3b 116e 0f3c 54c7 ad3b

sv_conv.conv.0.running_var f4 [11]
0.06945355 0.073679075 0.0009552385 0.040388327 0.14070122 0.34447876 0.11982838 0.013439758
0.010957679 0.029286057 0.01097223
00000000: aa3d 8e3d 0ee5 963d f868 7a3a 3b6e 253d
00000010: fb13 103e 855f b03e 9568 f53d 6e32 5c3c
00000020: d687 333c 50e9 ef3c dec4 333c

pn.fc.0.0.weight f4 [128, 256]
-0.47149545 -0.20228148 -2.0647547 -0.22423144 -1.4874609 -0.28906718 0.014906103 0.20073669
-0.53998333 -0.9036285 0.23484202 0.16892473 0.68138736 -0.7338594 0.3327837 0.4960692
-1.0991386 0.5735665 -0.89803916 -0.7848768 1.4870074 0.6393822 -0.38977805 -0.69500554
-0.048670832 0.8674357 -0.4875827 0.20595524 -0.20692 -0.6328674 0.38132343 0.7173384
0.2330841 -0.2211883 0.043916196 0.64784837 0.0073047173 -0.88692176 -0.32867983 0.67589915
-0.3491419 0.39378104 -0.6881951 -0.21036217 -2.253978 -0.07799741 -0.6520166 -0.8453732
0.83012414 -0.47930497 -0.767283 -0.0186948 -0.6504309 -0.6124217 0.103003144 0.28564417
-1.3920809 0.39574808 0.035806503 -0.017706078 -1.299218 -0.34687394 -1.523232 0.34207293
-0.058394358 -0.64419603 -1.4311093 -1.6307701 -0.839486 0.31071 -1.8305389 -1.1837533
-0.0181668 -0.46201184 -0.13441463 -0.39512527 1.7286857 -0.24927351 0.08939825 -0.20622166
0.35197476 0.4366232 0.0532437 -0.09460688 -1.4817907 0.03880971 -0.3561838 -0.17412835
0.3547079 -1.1015918 -0.3751979 0.37272066 -1.2871164 1.049187 0.42472646 0.53870314
0.016801208 -0.26326898 0.25605792 1.193147 -0.7604382 0.5610542 0.18639895 0.46300277
-2.5230777 0.6819109 0.669542 1.1496438 0.30915272 -1.5750362 0.23158741 0.46918094
-1.4520379 -0.07044217 -0.31506383 -0.49421072 -0.5428623 0.5878355 -0.4623447 0.22012633
-0.81516993 -0.5169586 0.18061236 -0.83052427 -0.26972666 0.29671967 0.32714435 -1.1503739
0.006810705 0.27317798 -0.72089505 0.051590316 0.52076906 -0.2693359 -0.26500985 -0.86559254
-1.7607461 -0.35317907 1.0818211 -0.8708193 -1.1977205 0.73691386 -0.06945121 -0.009832372
-1.0258335 0.91533375 1.1119612 -0.13748956 -0.771262 -0.7224817 -0.038789947 -0.73951757
-0.035515126 0.56420445 -0.8428714 -1.1764761 -0.7612539 -0.16290562 -1.2581333 -0.36927763
0.76380956 -0.7720026 -0.6031226 0.18305951 0.076222785 -0.28609556 0.9168193 0.5655398
0.8802711 0.33558998 0.16832407 -1.0450681 0.5044637 1.8201022 -0.2638105 0.008608337
-0.5024244 -0.15401785 -0.8990496 0.48794705 0.7941727 1.0435615 0.43334877 -1.9724699
-0.102693796 -0.8250646 0.075602405 -0.3309796 -0.011155494 0.6729075 -1.0499456 0.039808832
0.24382406 -0.26929504 -0.41696674 -0.029693363 -0.24779445 0.24282 1.8695798 -1.4141825
0.6297014 -0.093418665 -0.62604094 1.0693352 -0.08251852 0.5930237 -0.7988383 0.17725538
-0.16074623 0.8540278 0.26901397 0.6502696 -0.71164596 0.8823914 1.3023685 -0.030867347
-1.1726979 0.49430016 0.47881794 0.024651535 0.9800694 -0.012535996 0.45689058 -0.37783626
-0.48146054 0.5448322 1.0518883 -0.78148526 -0.38013962 -1.0199571 -0.07829405 0.29774505
-0.5465777 0.56747204 -1.2839813 0.021032518 -0.41809097 0.43340632 -0.6298525 -0.8145998
0.7035966 -0.0014747359 0.69930893 0.09045947 0.59898335 0.29218644 -0.4023151 -0.022708219
-0.047857676 0.7197645 1.5236472 -0.3873846 0.31065866 -1.318433 0.89038575 -0.5203525
00000000: da67 f1be e022 4fbe f124 04c0 ed9c 65be
00000010: 1e65 bebf 9d00 94be ba38 743c eb8d 4d3e
00000020: 593c 0abf 3354 67bf 6d7a 703e 9bfa 2c3e
00000030: 676f 2e3f 36de 3bbf a062 aa3e c8fc fd3e
00000040: 93b0 8cbf 41d5 123f e5e5 65bf b0ed 48bf
00000050: 4256 be3f 8dae 233f fd90 c7be e2eb 31bf
00000060: 115b 47bd 4410 5e3f 71a4 f9be eee5 523e
00000070: d6e2 53be 9903 22bf d33c c33e 7da3 373f
00000080: 99ad 6e3e 307f 62be 78e1 333d 64d9 253f
00000090: 695c ef3b 4e0d 63bf b948 a8be ba07 2d3f
000000a0: bac2 b2be ab9d c93e 8e2d 30bf 2e69 57be
000000b0: 2d41 10c0 1bbd 9fbd 8fea 26bf 616a 58bf
000000c0: 0483 543f 7667 f5be a96c 44bf d625 99bc
000000d0: a482 26bf abc7 1cbf 50f3 d23d f43f 923e
000000e0: b52f b2bf 7e9f ca3e d7a9 123d 560c 91bc
000000f0: c74c a6bf 7699 b1be 44f9 c2bf 2f24 af3e
00000100: ec2e 6fbd 08ea 24bf 972e b7bf 13bd d0bf
00000110: 8ee8 56bf 6215 9f3e 194f eabf 3a85 97bf
00000120: 8ad2 94bc d18c ecbe fda3 09be dc4d cabe
00000130: 9345 dd3f 8e41 7fbe 6e16 b73d c52b 53be
00000140: 0936 b43e 138d df3e 1116 5a3d 40c1 c1bd
00000150: 51ab bdbf eef6 1e3d b95d b6be b44e 32be
00000160: 469c b53e f600 8dbf f019 c0be 3ed5 be3e
00000170: 3bc0 a4bf c24b 863f bf75 d93e 73e8 093f
00000180: b0a2 893c 31cb 86be 061a 833e 0ab9 983f
00000190: 14ac 42bf 40a1 0f3f 5edf 3e3e b30e ed3e
000001a0: 1b7a 21c0 b691 2e3f 1b67 2b3f 8727 933f
000001b0: 4449 9e3e c99a c9bf 4025 6d3e 7c38 f03e
000001c0: 61dc b9bf fc43 90bd 0c50 a1be 3009 fdbe
000001d0: 06f9 0abf 637c 163f 72b8 ecbe cc68 613e
000001e0: faae 50bf 6657 04bf 72f2 383e 3d9d 54bf
000001f0: 9d19 8abe a4eb 973e 777f a73e 743f 93bf
00000200: 562c df3b fcdd 8b3e 948c 38bf 5e50 533d
00000210: 1f51 053f 65e6 89be 5faf 87be 7997 5dbf
00000220: 2160 e1bf e3d3 b4be 1d79 8a3f 03ee 5ebf
00000230: e84e 99bf 63a6 3c3f 703c 8ebd f517 21bc
00000240: 834e 83bf 5053 6a3f bf54 8e3f 10ca 0cbe
00000250: 6d71 45bf 90f4 38bf 35e2 1ebd 0651 3dbf
00000260: 4f78 11bd b46f 103f 6cc6 57bf c596 96bf
00000270: 89e1 42bf bbd0 26be 830a a1bf f511 bdbe
00000280: 0689 433f f6a1 45bf 3e66 1abf f473 3b3e
00000290: b11a 9c3d 1e7b 92be abb4 6a3f 37c7 103f
000002a0: 7259 613f 73d2 ab3e 255d 2c3e cbc4 85bf
000002b0: 8824 013f 1cf9 e83f 2b12 87be fb09 0d3c
000002c0: e39e 00bf dbb6 1dbe 1d28 66bf 32d4 f93e
000002d0: e74e 4b3f 6c93 853f e4df dd3e e579 fcbf
000002e0: 2051 d2bd 6f37 53bf 6fd5 9a3d 2876 a9be
000002f0: 88c5 36bc aa43 2c3f 9e64 86bf 960e 233d
00000300: 04ad 793e 0ae1 89be aa7c d5be 7f3f f3bc
00000310: d4bd 7dbe cea5 783e 644e ef3f ef03 b5bf
00000320: 1c34 213f 4952 bfbd 3844 20bf fadf 883f
00000330: 78ff a8bd 67d0 173f ab80 4cbf 6f82 353e
00000340: a99a 24be 91a1 5a3f 33bc 893e 1278 263f
00000350: 6e2e 36bf 67e4 613f 03b4 a63f 85dd fcbc
00000360: f71a 96bf e914 fd3e a027 f53e 04f2 c93c
00000370: d4e5 7a3f c763 4dbc 90ed e93e c173 c1be
00000380: ff81 f6be 207a 0b3f 47a4 863f 6b0f 48bf
00000390: a9a1 c2be f48d 82bf a258 a0bd 0a72 983e
000003a0: 84ec 0bbf d945 113f 8059 a4bf 634c ac3c
000003b0: 0510 d6be 6fe7 dd3e 033e 21bf 9d89 50bf
000003c0: e81e 343f ed4b c1ba e905 333f d142 b93d
000003d0: f956 193f 7699 953e 3ffc cdbe 9606 babc
000003e0: 6906 44bd 7c42 383f df06 c33f 4657 c6be
000003f0: a70e 9f3e 6ac2 a8bf 52f0 633f d235 05bf

pn.fc.0.0.bias f4 [128]
0.30360734 0.15788323 -0.078380644 -0.06847142 0.0015776874 -0.047420226 -0.051730894 0.20670442
0.24210362 0.10989252 -0.013334541 -0.03225534 -0.041787982 0.20498452 0.056335244 0.36232167
-0.004248379 -0.11921298 -0.027941283 -0.034180596 0.22718857 0.1433114 0.13482027 0.24410321
0.15513772 -0.042120203 0.009609447 0.16549139 0.10377901 0.25626996 0.26890013 -0.18868475
0.096648954 0.26401109 0.2590686 -0.03374494 0.17671892 -0.0641158 0.31407374 0.25682312
-0.07540305 0.14103994 0.28514716 -0.00066171086 -0.090382665 -0.10828565 0.13738626 0.13528521
0.008581852 0.10507309 0.19647546 0.1676661 -0.028064465 0.56485933 0.32948762 0.20958021
0.06879285 0.28760123 0.090665154 0.33616346 0.1072632 0.054362886 -0.13223866 0.2341019
-0.0070609604 0.09058205 0.2538765 -0.15310238 0.2719006 -0.054864008 0.089758076 0.09553565
0.06983116 -0.35709286 -0.043144908 0.1368978 -0.077638894 0.19484746 0.15126085 -0.049346615
0.18699783 0.15054266 -0.08690022 -0.13489959 0.22980478 -0.034522817 0.34698328 0.064577125
-0.033676706 0.3017685 0.11752556 0.16893849 0.1883642 0.0529341 0.35033718 0.18867467
-0.0035225628 0.21141735 -0.09472476 -0.023890398 -0.026408687 -0.00035121717 -0.048241224 0.16606736
0.351386 0.076031744 0.16152789 -0.0069599566 0.4913083 0.27383208 0.06772298 -0.18702072
-0.063742146 0.20916025 0.13729486 0.25002378 0.2467219 0.104106516 0.3498413 0.25844568
0.2617538 0.23748532 -0.016744139 0.08323657 0.29787573 0.4257328 0.23820613 0.06496695
00000000: 6c72 9b3e 24ac 213e 0886 a0bd be3a 8cbd
00000010: 68ca ce3a b63b 42bd c6e3 53bd 53aa 533e
00000020: 03ea 773e 540f e13d 1e79 5abc 2d1e 04bd
00000030: e029 2bbd 76e7 513e c9bf 663d 3a82 b93e
00000040: fc35 8bbb ef25 f4bd 1ee5 e4bc f400 0cbd
00000050: 1fa4 683e 39c0 123e 530e 0a3e 31f6 793e
00000060: 6cdc 1e3e 3c86 2cbd f170 1d3c 9376 293e
00000070: 178a d43d d135 833e 47ad 893e 9336 41be
00000080: e3ef c53d 762c 873e a4a4 843e 2238 0abd
00000090: cef5 343e 254f 83bd 46ce a03e 527e 833e
000000a0: ea6c 9abd c66c 103e cffe 913e aa76 2dba
000000b0: 8c1a b9bd dec4 ddbd fcae 0c3e 3588 0a3e
000000c0: e59a 0c3c 8f30 d73d dd30 493e aab0 2b3e
000000d0: 73e7 e5bc 9f9a 103f 9ab2 a83e 329c 563e
000000e0: 44e3 8c3d 7840 933e a7ae b93d 9e1d ac3e
000000f0: cfac db3d 9eab 5e3d 9269 07be 69b8 6f3e
00000100: a15f e7bb 1583 b93d 1afc 813e dfc6 1cbe
00000110: 8e36 8b3e 15b9 60bd 15d3 b73d 32a8 c33d
00000120: a403 8f3d e0d4 b6be b7b8 30bd f02e 0c3e
00000130: 2401 9fbd 1886 473e 20e4 1a3e ad1f 4abd
00000140: 5c7c 3f3e db27 1a3e bef8 b1bd 1e23 0abe
00000150: f251 6b3e cc67 0dbd cba7 b13e 0341 843d
00000160: 96f0 09bd 6781 9a3e 3eb1 f03d 36fe 2c3e
00000170: 8be2 403e 6dd1 583d 655f b33e ef33 413e
00000180: ccda 66bb ca7d 583e 0eff c1bd ccb5 c3bc
00000190: 0857 d8bc 9223 b8b9 9798 45bd 900d 2a3e
000001a0: dee8 b33e 88b6 9b3d 9167 253e 5910 e4bb
000001b0: c38c fb3e b833 8c3e 59b2 8a3d 5c82 3fbe
000001c0: 3e8b 82bd 1b2e 563e 0697 0c3e 1e03 803e
000001d0: aaa4 7c3e cc35 d53d 661e b33e fe52 843e
000001e0: 9804 863e 5a2f 733e 012b 89bc ef77 aa3d
000001f0: 2b83 983e a6f9 d93e 4fec 733e 640d 853d

pn.fc.1.weight f4 [5, 128]
-0.11748881 -0.34274468 -0.11809796 0.0009478631 0.20723578 0.04848701 0.088974044 -0.55307233
-0.59654903 0.1771353 0.08057335 -0.008280331 0.041008692 0.19317749 0.12720451 -0.12883994
0.07623065 -0.083050765 0.040439107 0.04232827 0.195779 0.27160463 -0.0399451 0.68006957
0.1321033 -0.00786903 -0.37745774 0.12656367 -0.22392905 -0.5957104 -0.4390391 -4.8388457
-0.6118082 0.18467736 0.076050386 0.083853886 0.09963371 0.019664718 -0.24908236 -0.40492424
-0.038014844 0.18811534 0.106620796 -0.043559127 -0.026480269 -0.0025226767 0.0093107 0.11216495
-1.4016912 0.17823657 -0.9058684 -0.38518816 0.105944596 -0.48163363 0.18219857 0.13785781
-0.4918791 -0.4214206 -0.24023724 0.36892614 -0.22792709 -0.40931937 0.046976134 0.35371712
0.08208132 -0.5055251 -0.6713045 -0.65868443 0.22839256 -0.8218102 -0.11240687 0.037036184
0.16384855 1.1750056 -2.1253133 2.449999 -0.024117075 0.21569124 0.1357954 0.0069574546
0.082989044 0.43961135 0.06761618 -0.048174363 0.21394242 -0.021846611 -0.23809141 -1.7972655
-0.079420276 0.20111106 -0.549103 -1.302175 0.23674692 -3.0612552 0.2213617 0.06463652
-0.032662332 -0.75816226 0.07792504 -0.035681404 0.40697774 0.11450002 0.012480855 0.16502701
0.2144548 -0.68384355 0.17079017 -0.4598339 0.12954861 0.18817581 0.10313576 0.12696055
0.085902765 -0.0047448664 -0.74906063 -0.5994427 0.10359692 0.20790254 0.24006966 -0.5777732
0.09682264 0.0917438 0.10083912 -1.7742314 0.105977304 -0.06554079 0.11413602 -0.24038021
0.12041182 -0.4175465 0.07378177 -0.030031277 0.121972054 0.05310463 0.13335536 -0.07205213
0.16554512 0.1443685 0.011615511 -0.03748312 -0.035859793 -0.3754885 0.12311204 0.34961635
0.08678133 0.025377024 -0.0042328592 0.053217426 -0.62021184 -0.20791994 0.16490144 -0.31954113
0.13098903 0.049919765 0.10135008 0.13132256 -0.027487637 -0.20831612 -0.34267724 0.12912902
0.10879751 -0.17336437 0.07112515 -0.010627719 0.10927876 -0.04773024 0.15413688 -0.24901699
0.0075095533 -0.26999682 0.18279605 0.047418304 0.024757804 -0.011047506 -0.14917298 -0.465736
0.11216673 -0.5104641 -0.30712554 -0.1338463 0.13065556 0.07770385 0.1449106 0.14372313
-0.2885996 0.10243957 0.09948823 -0.22728656 0.16627729 -0.26021236 0.008851371 -0.1675096
0.08628812 -0.39124298 -0.30677593 -0.7978657 -0.02694744 0.11854167 0.2660928 0.059404407
-0.17448536 -0.2602764 0.45849633 -0.53479904 0.060832128 -0.28328958 -0.09143773 -0.007235243
0.09204612 -0.39909706 0.00422165 -0.1794202 -0.15266572 0.07782738 0.19839092 0.08107137
-0.023499086 -0.010362801 0.13056687 0.14347573 -0.33974412 0.13581161 -0.09683904 0.05968276
-0.111068875 -0.0050553815 0.035218008 -0.02932351 -0.57541424 0.11621258 -0.0028028707 0.1590538
0.12291009 -0.32384968 -0.35708353 0.15423337 0.08815275 -0.65246487 0.09507026 0.13624774
0.03723826 -0.21130377 0.12021147 -0.300363 0.041300643 -0.45485628 -0.20339051 -0.14231044
-0.25961095 -0.5318851 0.093861766 0.046194244 0.24381576 -0.4358374 -0.27086854 -0.12714268
00000000: f99d f0bd 3b7c afbe 58dd f1bd 047a 783a
00000010: 9e35 543e 519a 463d 0638 b63d 2696 0dbf
00000020: 70b7 18bf f562 353e a403 a53d 3aaa 07bc
00000030: bbf8 273d 52d0 453e e641 023e 9eee 03be
00000040: d11e 9c3d 8516 aabd 7aa3 253d 6860 2d3d
00000050: 4a7a 483e c30f 8b3e 799d 23bd 0a19 2e3f
00000060: 1646 073e 1bed 00bc 2442 c1be e899 013e
00000070: a84d 65be 7a80 18bf bcc9 e0be d3d7 9ac0
00000080: 769f 1cbf 101c 3d3e 4ec0 9b3d 96bb ab3d
00000090: c20c cc3d e717 a13c 720f 7fbe 3b52 cfbe
000000a0: 74b5 1bbd 4fa1 403e 015c da3d 0e6b 32bd
000000b0: 26ed d8bc 7e53 25bb e88b 183c bdb6 e53d
000000c0: 9e6a b3bf a683 363e fee6 67bf 6237 c5be
000000d0: 7bf9 d83d af98 f6be 4392 3a3e 992a 0d3e
000000e0: 94d7 fbbe 71c4 d7be c000 76be e3e3 bc3e
000000f0: b865 69be 4f92 d1be 0c6a 403d 691a b53e
00000100: 401a a83d 186a 01bf 9dda 2bbf 8b9f 28bf
00000110: bddf 693e 2762 52bf 9335 e6bd 41b3 173d
00000120: eac7 273e 9566 963f 2205 08c0 c9cc 1c40
00000130: 2c91 c5bc 2ade 5c3e f30d 0b3e 5cfb e33b
00000140: 29f6 a93d bd14 e13e 5a7a 8a3d 7b52 45bd
00000150: b913 5b3e aaf7 b2bc 3cce 73be cc0c e6bf
00000160: 19a7 a2bd 0ff0 4d3e 0492 0cbf acad a6bf
00000170: c96d 723e 9beb 43c0 a4ac 623e 2760 843d
00000180: f0c8 05bd ec16 42bf 2a97 9f3d aa26 12bd
00000190: 635f d03e fd7e ea3d 807c 4c3c d7fc 283e
000001a0: 0a9a 5b3e 5f10 2fbf 9ee3 2e3e 596f ebbe
000001b0: 64a8 043e 29b1 403e d738 d33d f201 023e
000001c0: caed af3d d37a 9bbb 70c2 3fbf 1475 19bf
000001d0: 9f2a d43d 67e4 543e d2d4 753e f2e8 13bf
000001e0: f34a c63d 2ce4 bb3d be84 ce3d 041a e3bf
000001f0: a10a d93d 403a 86bd 25c0 e93d 3b26 76be
00000200: 799a f63d a8c8 d5be e61a 973d 2704 f6bc
00000210: 7ccc f93d 3e84 593d 4f8e 083e 1190 93bd
00000220: a984 293e 56d5 133e fc4e 3e3c e687 19bd
00000230: b8e1 12bd 0740 c0be 2a22 fc3d ea00 b33e
00000240: 69ba b13d 7ae3 cf3c ccb3 8abb 84fa 593d
00000250: 34c6 1ebf f7e8 54be ecdb 283e e59a a3be
00000260: fd21 063e ab78 4c3d a190 cf3d 6c79 063e
00000270: c12d e1bc d250 55be 6473 afbe 663a 043e
00000280: 3bd1 de3d 6e86 31be 10aa 913d e21f 2ebc
00000290: 8bcd df3d c980 43bd 0fd6 1d3e 4ffe 7ebe
000002a0: b312 f63b 063d 8abe e32e 3b3e b239 423d
000002b0: e1d0 ca3c 9900 35bc cdc0 18be f374 eebe
000002c0: acb7 e53d c6ad 02bf 8f3f 9dbe 010f 09be
000002d0: 92ca 053e 3223 9f3d 7263 143e 282c 133e
000002e0: 54c3 93be d6cb d13d 7cc0 cb3d cfbd 68be
000002f0: 9844 2a3e 8e3a 85be 5705 113c a387 2bbe
00000300: d3b7 b03d 0051 c8be bc11 9dbe ed40 4cbf
00000310: e1c0 dcbc fac5 f23d 513d 883e 0952 733d
00000320: 4aac 32be f342 85be 08c0 ea3e 97e8 08bf
00000330: 1c2b 793d 550b 91be b443 bbbd 9e15 edbb
00000340: ad82 bc3d 7356 ccbe c455 8a3b eeb9 37be
00000350: 6754 1cbe f663 9f3d fd26 4b3e bf08 a63d
00000360: 2881 c0bc bdc8 29bc 52b3 053e 4deb 123e
00000370: f1f2 adbe 3312 0b3e 8c53 c6bd e975 743d
00000380: 1478 e3bd 9da7 a5bb c240 103d dc37 f0bc
00000390: 594e 13bf dc00 ee3d 5eb0 37bb 00df 223e
000003a0: 49b8 fb3d a0cf a5be a7d3 b6be 5aef 1d3e
000003b0: 6e89 b43d f007 27bf 32b4 c23d 8784 0b3e
000003c0: 2587 183d 0460 58be 6e31 f63d 2ec9 99be
000003d0: dd2a 293d ece2 e8be 9a45 50be d4b9 11be
000003e0: baeb 84be 9f29 08bf 993a c03d 2d36 3d3d
000003f0: d7aa 793e 1426 dfbe 48af 8abe b131 02be

pn.fc.1.bias f4 [5]
-0.8695889 -0.9238819 -0.51494133 0.444619 0.8081487
00000000: 619d 5ebf 8683 6cbf 32d3 03bf 1aa5 e33e
00000010: d5e2 4e3f

445 f4 [32, 23, 1]
0.002515625 0.09473633 -0.004410421 0.0013324617 -0.034860525 0.02100387 -0.12625545 -0.05021564
0.17593779 0.8349648 -0.0062757903 -0.33593616 -0.0062813587 0.3998482 -0.004691906 -0.04939314
-0.05700592 -0.0038509166 0.019525895 0.04606234 0.044836253 -0.70856494 -1.4299779 0.08754624
-0.029089997 0.0011595814 0.5135613 0.002953888 -0.015179714 -0.07765794 -0.013132063 -0.0728395
0.25875092 0.00850616 0.7571184 -0.0131545 -0.30594453 -0.23350288 0.0032551014 0.31958854
-0.011461169 0.293411 0.015531807 0.07088861 -0.15199187 0.010333689 0.13706075 0.09404805
0.016226314 -0.00077911787 -0.010279336 0.0089594275 0.052130416 0.8696034 -0.05560656 0.036920704
-0.006150845 0.0127919335 -0.012043631 0.00999437 -0.07183471 -0.116676554 -0.05810685 -0.0020339275
0.14353316 0.061705217 -0.0032101118 0.21398143 -0.13737343 -0.053136893 -0.02157279 0.008549414
-0.010948718 0.44390377 -0.03049743 0.02955444 0.09192454 0.051699046 -0.115674324 -0.009847573
-0.08011324 0.028184453 -0.35108808 -0.16069731 0.25508755 -0.07990949 0.011010124 -0.09529258
0.004324627 -0.03777667 -0.11014654 -0.13876249 0.49336958 -0.040957686 -0.0109547805 0.004354082
0.010496061 0.0051159775 -0.011104553 -0.16865516 0.42249048 0.052093316 0.0073085567 -0.004450237
0.0076503577 -0.15758713 -0.12424516 0.061150678 -0.04764657 0.031782154 -0.16179347 0.17756432
-0.15480445 0.301036 0.15334861 0.1496685 -0.17423464 0.010181614 0.004284814 1.1197994
0.0015912191 0.001963481 -0.0077043856 0.0047279615 -0.018928394 -0.56455797 0.00067064975 -0.014021377
-0.0049238484 0.002872385 0.012519832 -0.042180754 -0.005346392 0.0059746243 -0.0018398325 0.003882841
0.008872548 0.0022999786 -0.10141095 0.10859078 0.003936716 0.0025511924 -0.011312273 -0.0068777767
-0.024034897 -0.00619498 -0.0068108737 0.051210217 0.012518384 -0.0727565 0.0058560446 0.054584138
-0.12769283 -0.015284624 -0.016534328 -0.34885198 0.050838377 -0.6788128 -0.68917716 0.0056294296
0.0019927663 0.012850502 -0.017266974 -0.7608824 0.008521403 -0.17092113 0.0009281895 0.0016011746
0.011662496 -0.0014311674 -0.020211073 0.051387716 -0.007530902 -0.004123477 0.0056364667 0.025799464
0.07177853 -0.0022649714 -0.0062112655 -0.0006389763 0.00021846968 0.021178415 0.0092508765 -0.0028651226
0.26954162 -0.25572768 -0.005301737 -0.023062296 -0.0062621674 -0.015262427 -2.6698458 -0.19343494
-0.014332949 -1.4014748 0.017991606 -0.00831442 -0.013757837 -0.05894947 -0.046111934 0.021595804
0.083268054 0.0013770176 -0.04282866 0.06262809 -0.09822201 -0.2563845 -0.22045416 0.043528423
-0.045383595 -0.49188268 -0.008286705 0.3568808 -0.003227951 -0.0048615555 -0.00041097135 -0.0056151007
0.011959677 0.034845687 -0.011612049 0.003541311 -0.0011214846 0.052606456 -0.12263962 -0.008886824
0.002800891 0.001083734 -0.0042280634 0.0101598175 -0.004923865 -0.0045805476 -1.0935848 -0.19276053
-0.0044399626 0.00701958 -0.011540624 0.016946532 -0.08729393 0.009668784 0.27416894 0.18103462
0.011317302 -0.026381796 -0.008180609 -0.17081437 0.12790976 -0.14178222 -0.3079304 -0.039269954
0.26404163 -0.041011058 0.120584436 0.1768873 0.01242635 -0.064065054 0.15371129 0.0031281605
00000000: 2fdd 243b 1f05 c23d 4b85 90bb ffa5 ae3a
00000010: e9c9 0ebd 4f10 ac3c 1c49 01be eaae 4dbd
00000020: 0929 343e 41c0 553f 25a5 cdbb d3ff abbe
00000030: dbd3 cdbb e7b8 cc3e 8fbe 99bb 7650 4abd
00000040: 0a7f 69bd a95f 7cbb c5f4 9f3c ddab 3c3d
00000050: 38a6 373d 8364 35bf 8409 b7bf 714b b33d
00000060: 254e eebc 18fd 973a c178 033f 0496 413b
00000070: 56b4 78bc 200b 9fbd dd27 57bc e02c 95bd
00000080: 007b 843e 6c5d 0b3c 83d2 413f f985 57bc
00000090: c3a4 9cbe 611b 6fbe 8a53 553b 1ca1 a33e
000000a0: a1c7 3bbc f739 963e 1f79 7e3c 0c2e 913d
000000b0: c2a3 1bbe a24e 293c a759 0c3e 449c c03d
000000c0: 0ced 843c b73d 4cba a96a 28bc 90ca 123c
000000d0: b486 553d 549e 5e3f b4c3 63bd 2a3a 173d
000000e0: 078d c9bb 4295 513c a652 45bc 6dbf 233c
000000f0: 141e 93bd 1ef4 eebd 7301 6ebd a44b 05bb
00000100: 5bfa 123e 9cbe 7c3d bd60 52bb f31d 5b3e
00000110: 9fab 0cbe 12a6 59bd 6bb9 b0bc d712 0c3c
00000120: 4062 33bc 5b47 e33e bfd5 f9bc 271c f23c
00000130: ef42 bc3d 61c2 533d a9e6 ecbd b757 21bc
00000140: 6912 a4bd 15e3 e63c d1c1 b3be d68d 24be
00000150: d69a 823e 96a7 a3bd cf63 343c c228 c3bd
00000160: 9ab5 8d3b b6bb 1abd 8294 e1bd c117 0ebe
00000170: f09a fc3e 3fc3 27bd ae7b 33bc b0ac 8e3b
00000180: acf7 2b3c eea3 a73b dfef 35bc f0b3 2cbe
00000190: ac50 d83e cd5f 553d 9e7c ef3b 4bd3 91bb
000001a0: daaf fa3b 855e 21be 3f74 febd 2279 7a3d
000001b0: 0d29 43bd 012e 023d 30ad 25be 6cd3 353e
000001c0: 0f85 1ebe 6421 9a3e 6b07 1d3e b342 193e
000001d0: 916a 32be c9d0 263c a067 8c3b 9655 8f3f
000001e0: 7490 d03a bfad 003b 1275 fcbb 04ed 9a3b
000001f0: b80f 9bbc df86 10bf 8bce 2f3a ebb9 65bc
00000200: 3c58 a1bb a03e 3c3b fb1f 4d3c bac5 2cbd
00000210: c930 afbb c8c6 c33b 8926 f1ba 4377 7e3b
00000220: 2a5e 113c 3dbb 163b 8bb0 cfbd d864 de3d
00000230: 91ff 803b e831 273b 1d57 39bc f95e e1bb
00000240: d5e4 c4bc 42ff cabb c02d dfbb cec1 513d
00000250: e819 4d3c 5c01 95bd 10e4 bf3b 9e93 5f3d
00000260: e9c1 02be 5c6c 7abc 0073 87bc ba9c b2be
00000270: e73b 503d adc6 2dbf ea6d 30bf 1477 b83b
00000280: 1299 023b e98a 523c 7873 8dbc 30c9 42bf
00000290: 5b9d 0b3c f305 2fbe be51 733a 81de d13a
000002a0: 0e14 3f3c 0296 bbba b191 a5bc ed7b 523d
000002b0: c9c5 f6bb 3b1e 87bb 1cb2 b83b 6659 d33c
000002c0: 9f00 933d ea6f 14bb df87 cbbb f980 27ba
000002d0: 0215 6539 5b7e ad3c fd90 173c c8c4 3bbb
000002e0: 5c01 8a3e bdee 82be 32ba adbb 24ed bcbc
000002f0: de32 cdbb 420f 7abc c1de 2ac0 cf13 46be
00000300: bfd4 6abc 8763 b3bf 2263 933c 3439 08bc
00000310: 8d68 61bc 0075 71bd dedf 3cbd afe9 b03c
00000320: 7188 aa3d 0b7d b43a 1b6d 2fbd 2843 803d
00000330: 9f28 c9bd d444 83be bcbe 61be dc4a 323d
00000340: 26e4 39bd 0cd8 fbbe f6c4 07bc 15b9 b63e
00000350: 088c 53bb af4d 9fbb a477 d7b9 e1fe b7bb
00000360: 85f2 433c 5aba 0e3d 7740 3ebc 5715 683b
00000370: c7fe 92ba de79 573d 7b2a fbbd 0b9a 11bc
00000380: 278f 373b 140c 8e3a 918b 8abb 5d75 263c
00000390: 6058 a1bb 6b18 96bb 96fa 8bbf 0463 45be
000003a0: 1b7d 91bb 8104 e63b e314 3dbc 74d3 8a3c
000003b0: 29c7 b2bd d269 1e3c df5f 8c3e 2461 393e
000003c0: 346c 393c a31e d8bc f607 06bc f6e9 2ebe
000003d0: c7fa 023e 5c2f 11be 0ea9 9dbe 88d9 20bd
000003e0: 7730 873e 36fb 27bd f9f4 f63d f221 353e
000003f0: e497 4b3c 8a34 83bd 7e66 1d3e d301 4d3b

446 f4 [32]
0.5078078 0.8340541 -0.24007353 -0.057543494 1.3397878 -0.064001165 0.23124689 0.377335
-0.6538474 0.11022257 0.079024315 -0.04384191 3.0500288 0.4370974 -0.12895651 -0.26648667
1.5783982 0.15607029 0.6649968 0.9165676 1.7496871 2.3977418 2.1693344 0.8196942
-1.1630986 0.39568508 3.557767 -0.13449912 0.57800204 -0.41943532 0.014996536 1.2958212
00000000: b1ff 013f 9284 553f d6d5 75be bab2 6bbd
00000010: 2b7e ab3f 0b13 83bd fccb 6c3e 0e32 c13e
00000020: 8b62 27bf 5fbc e13d 80d7 a13d 9393 33bd
00000030: ac33 4340 3bcb df3e 2d0d 04be f170 88be
00000040: f408 ca3f e4d0 1f3e 3b3d 2a3f 2da4 6a3f
00000050: bff5 df3f 9a74 1940 60d6 0a40 7bd7 513f
00000060: 6ae0 94bf 3c97 ca3e 74b2 6340 23ba 09be
00000070: f1f7 133f 3ac0 d6be 08b4 753c 78dd a53f

448 f4 [32, 11, 1]
0.067434944 0.069188915 -0.03354956 0.02680232 -0.005269102 -0.0313124 -0.2235621 0.11657689
-0.011173458 0.10606857 -0.010043092 -0.039183505 -0.029492302 -0.020386862 -0.027398253 0.16890746
0.05023753 -0.030613191 -0.2267069 -0.49714002 0.32822406 -1.2549355 0.032668903 0.0015403219
-0.6706623 0.02460216 -0.07776198 -0.009037269 -0.010911707 0.027846122 -0.030386258 0.07107052
0.008000114 0.1512275 -0.16410251 -0.06326331 -0.04477416 0.041138787 0.041787785 -0.019023418
-0.5052247 0.066192105 0.1953278 0.35887188 0.2615257 -0.051120438 0.14478299 -0.035751227
-0.02858141 -0.19254108 0.10548065 -0.023463245 -0.026696075 -0.3331782 -0.070081465 0.6955996
-0.20664768 0.06453299 0.072754 0.4326473 0.2581011 -0.25329745 0.086994655 -0.00597979
0.13147005 0.102012284 0.017852897 0.021350922 0.0055555007 -0.029703312 0.008216761 -0.18709308
0.13318378 -0.15332226 0.016111132 -0.15327102 -0.07225695 0.080928385 -0.002024272 1.8755708
-0.0107916575 0.13929488 0.0030019335 0.037425082 -0.097647525 -0.08656386 0.124665305 0.0071598864
0.023641769 -0.4199551 -0.03769028 0.07006191 -0.001557683 -0.28204504 -0.031652544 -0.049450755
-0.008286796 0.09950719 0.04934452 0.0012713779 0.0001772163 -0.00012700006 -0.0002847362 -0.00016166769
0.00011851897 0.00020128534 -0.00051441346 0.00011550479 0.00040131118 -0.000101078076 -0.086269714 0.021264987
-0.046799023 0.0009047517 0.05585476 -0.551267 -0.039666977 -0.037668027 -0.0010790838 0.0403326
-0.029797938 0.051557448 0.23446576 0.0024209698 0.06334716 -0.046330765 -1.0694537 -0.01609911
0.07169831 -0.026259704 -0.05522604 0.014102748 -0.05542583 -0.020340212 0.096109025 0.009749831
-0.043503314 0.043590177 -0.053934243 -0.21889812 0.011059663 0.14610924 -0.008294118 -0.21804911
0.08983832 -0.04470273 0.025839154 0.03881285 -0.2074633 -0.14314109 0.30637217 -0.30332884
-0.49551344 -0.37493584 0.19914602 -0.2125007 -0.027624892 0.14938538 -0.009993824 0.061234232
-0.036507588 0.034268163 -0.08241381 0.08084838 -0.11931914 0.12600076 -1.0317628 -0.0834359
0.03590905 0.019912256 0.6005896 -0.022538077 -0.041952502 0.013190423 -0.046767257 0.04835639
-0.037515946 -0.29059386 -0.034699135 -0.016441017 0.07904237 -0.01070915 -0.054005776 -0.16698202
0.03103088 -0.11375674 -0.009659201 -0.39294603 0.08281338 0.15057577 -0.06706057 -0.12711428
0.0027002855 -0.29145253 -0.12796438 0.05177653 -0.018030649 0.14702624 -0.3051707 0.095398694
0.08755525 0.07492242 0.046934336 -0.06286444 0.122698635 -0.0062833065 0.0014337725 0.06505392
0.0050159013 -0.13559237 0.11405638 -0.029405413 -0.084833644 -0.259656 -0.05489437 -0.13594796
0.3256104 -0.76333135 -0.81531477 -2.5060453 -0.09128512 0.04101724 0.06616845 0.08638117
-0.14712156 0.013026736 0.0551907 0.17315514 -0.37571955 -0.16421539 -0.61800534 0.011292296
-0.0010142864 0.0018260097 0.0045052255 -0.00012278114 0.0035838154 0.0036900905 0.007623203 -0.005316205
0.0010156346 -0.0042714635 -0.11294306 -0.316745 -0.042249024 0.025138052 -0.051991906 0.12988122
0.3091498 -0.029156953 0.02704027 -0.051082887 0.0052314117 0.0152227245 0.048490968 -0.0026067973
00000000: 551b 8a3d ebb2 8d3d 436b 09bd 8a90 db3c
00000010: 6ea8 acbb 6e41 00bd 77ed 64be ddbf ee3d
00000020: e110 37bc 7a3a d93d c88b 24bc e27e 20bd
00000030: d799 f1bc 5902 a7bc 4d72 e0bc 14f6 2c3e
00000040: dec5 4d3d 84c8 fabc db25 68be 2389 febe
00000050: fc0c a83e baa1 a0bf d4cf 053d a0e4 c93a
00000060: 86b0 2bbf 788a c93c ac41 9fbd 0e11 14bc
00000070: 04c7 32bc 8d1d e43c 9aec f8bc 6c8d 913d
00000080: e912 033c 62db 1a3e 7d0a 28be 3290 81bd
00000090: 1c65 37bd 2581 283d ab29 2b3d 00d7 9bbc
000000a0: 6856 01bf ba8f 873d 0304 483e 0ebe b73e
000000b0: b2e6 853e aa63 51bd fe41 143e e16f 12bd
000000c0: 9023 eabc 7d29 45be 3d06 d83d fe35 c0bc
000000d0: bab1 dabc 5596 aabe df86 8fbd d112 323f
000000e0: 739b 53be df29 843d 0d00 953d f283 dd3e
000000f0: d425 843e 34b0 81be 412a b23d 1df2 c3bb
00000100: 16a0 063e d1eb d03d 3d40 923c 21e8 ae3c
00000110: eb0a b63b 5c54 f3bc 989f 063c 5495 3fbe
00000120: 5461 083e 8300 1dbe 7efb 833c 14f3 1cbe
00000130: 74fb 93bd c8bd a53d a6a9 04bb b412 f03f
00000140: 7ecf 30bc 51a3 0e3e 16bc 443b 0b4b 193d
00000150: 6dfb c7bd 6548 b1bd 8650 ff3d 7b9d ea3b
00000160: 62ac c13c 5b04 d7be 1f61 1abd 9e7c 8f3d
00000170: 2b2b ccba 3568 90be 19a6 01bd e08c 4abd
00000180: 57c5 07bc 6dca cb3d 7b1d 4a3d 5da4 a63a
00000190: 23d3 3939 522b 05b9 a548 95b9 5785 29b9
000001a0: 638d f838 1f10 5339 b4d9 06ba 293b f238
000001b0: 1367 d239 e1f9 d3b8 2dae b0bd e933 ae3c
000001c0: 55b0 3fbd dc2c 6d3a f6c7 643d d61f 0dbf
000001d0: d779 22bd ca49 1abd 0b70 8dba cc33 253d
000001e0: ce1a f4bc e72d 533d cb17 703e 22a9 1e3b
000001f0: 28bc 813d 54c5 3dbd dce3 88bf 48e2 83bc
00000200: 90d6 923d 971e d7bc b334 62bd 360f 673c
00000210: 3206 63bd 84a0 a6bc cfd4 c43d c1bd 1f3c
00000220: 8830 32bd 9d8b 323d 27ea 5cbd d426 60be
00000230: 9733 353c a99d 153e 0de4 07bc 4448 5fbe
00000240: 27fd b73d 361a 37bd a2ac d33c 39fa 1e3d
00000250: 4271 54be 9493 12be d0dc 9c3e eb4d 9bbe
00000260: f0b3 fdbe 97f7 bfbe efec 4b3e c999 59be
00000270: 994d e2bc 7bf8 183e 23bd 23bc bfd0 7a3d
00000280: fb88 15bd c65c 0c3d 92c8 a8bd d693 a53d
00000290: 985d f4bd 5806 013e ce10 84bf 71e0 aabd
000002a0: 5e15 133d 071f a33c 3dc0 193f c6a1 b8bc
000002b0: 63d6 2bbd a51c 583c 068f 3fbd 5a11 463d
000002c0: 52aa 19bd b8c8 94be ae20 0ebd 50af 86bc
000002d0: f7e0 a13d 6e75 2fbc 2935 5dbd 56fd 2abe
000002e0: 7934 fe3c 4bf9 e8bd a041 1ebc 3930 c9be
000002f0: 109a a93d 8930 1a3e 0d57 89bd 3f2a 02be
00000300: 46f7 303b 4439 95be 1809 03be a013 543d
00000310: 03b5 93bc 0c8e 163e 563f 9cbe 6460 c33d
00000320: 2b50 b33d ed70 993d 383e 403d 12bf 80bd
00000330: 6c49 fb3d 32e4 cdbb 6ced bb3a fd3a 853d
00000340: 6e5c a43b bad8 0abe 6496 e93d 9fe3 f0bc
00000350: 43bd adbd a2f1 84be ebd8 60bd f135 0bbe
00000360: 68b6 a63e af69 43bf 78b8 50bf 0c63 20c0
00000370: b1f3 babd b201 283d 5383 873d 9ce8 b03d
00000380: 09a7 16be 176e 553c a50f 623d 954f 313e
00000390: 505e c0be 1428 28be 9935 1ebf 5303 393c
000003a0: cef1 84ba b856 ef3a 92a0 933b d0be 00b9
000003b0: 72de 6a3b 72d5 713b 10cc f93b 8f33 aebb
000003c0: 0b1f 853a a2f7 8bbb b14e e7bd 672c a2be
000003d0: 500d 2dbd 51ee cd3c 77f5 54bd 95ff 043e
000003e0: e248 9e3e 90da eebc 8e83 dd3c 4a3c 51bd
000003f0: 436c ab3b bc68 793c 779e 463d cdd6 2abb

449 f4 [32]
-0.23111516 1.1053959 -0.04595987 2.307424 -0.06307888 0.5675686 1.763166 -0.5120573
0.7783687 -0.04318326 0.2514599 -0.05257971 0.81864685 -0.39759272 -0.6602522 1.7311429
0.6276172 0.37544826 -0.19496427 -0.39618927 -0.315472 -0.7951685 0.014562216 1.1454463
1.872001 -0.27233228 -0.42753547 0.01519037 -1.245294 -0.15656975 -1.3335717 0.7776758
00000000: 74a9 6cbe 9d7d 8d3f 6b40 3cbd d6ac 1340
00000010: 802f 81bd 2d4c 113f 6caf e13f 3016 03bf
00000020: 2c43 473f eee0 30bd 5abf 803e d25d 57bd
00000030: d792 513f 4691 cbbe 4a06 29bf 1796 dd3f
00000040: 85ab 203f c13a c03e b7a4 47be 52d9 cabe
00000050: 8c85 a1be 2a90 4bbf 5c96 6e3c fc9d 923f
00000060: bb9d ef3f 236f 8bbe eee5 dabe 08e1 783c
00000070: cb65 9fbf d253 20be 7ab2 aabf c315 473f

451 f4 [64, 64, 1, 1]
0.17286225 0.22022305 -0.32760146 0.00417375 -0.23674189 0.00020714293 0.225557 0.00032950944
-0.11417697 0.08534101 0.2882295 0.07267119 -0.095878325 0.05707413 0.099985905 -0.15074968
-0.07904344 0.06802668 -0.38015962 0.24437241 -0.34984386 -0.36200455 0.16632243 0.1188633
0.1302256 0.11672064 0.424536 0.08997327 0.055830147 -0.0759333 -0.03588781 -0.3980975
-0.12796666 -0.14916556 0.07281619 -0.20720546 0.183334 -0.095844224 -0.28269705 -0.09256228
-0.07191047 -0.29901192 0.19604455 0.10422414 0.10953253 -0.15942003 0.16701779 -0.05872638
-0.01890354 -0.00470487 0.13943286 -0.11480884 0.07426774 0.20269187 -0.12746057 -0.19790284
-0.19450903 0.007651933 -0.24333161 0.27279302 0.1259431 0.040193498 -0.054762635 0.1533776
-0.33722764 0.13523082 0.018895216 0.12356914 0.13636908 -0.08973486 -0.24245393 0.016180072
-0.114676654 -0.0059504607 -0.0659671 -0.1765423 0.18325195 0.04843023 0.26585406 -0.076605156
0.13826188 -0.20739762 0.14589211 -0.047892608 -0.48759717 0.32168713 -0.039551433 0.003554663
-0.17485268 0.11479977 -0.31008115 0.23805298 0.21035971 0.10426492 -0.15257053 0.113342404
-0.16337423 0.0012959032 0.05342965 0.13997199 -0.09301557 -0.07524744 -0.15398379 -0.05197666
0.11690962 0.10647151 -0.022107841 -0.14568067 0.0071606697 0.008885573 0.056219686 -0.08139425
0.1277162 0.020656059 -0.016189646 -0.097567916 -0.055593554 0.06308467 0.028286835 -0.03756358
-0.0875482 -0.111630015 -0.061601624 0.016760323 -0.07191798 -0.19411725 0.044628482 0.11502643
-0.06475931 -0.0052084858 -0.026023237 -0.034549966 0.025230855 0.029102724 0.040484928 0.032524448
0.027614739 -0.040414985 -0.1664848 -0.0799063 -0.039089326 0.0064109447 -0.04875182 -0.061418597
-0.048128013 -0.033156533 -0.023152245 -0.08818725 -0.022839228 0.00985577 -0.052233696 0.001571426
0.08345291 -0.010165548 -0.03592695 -0.04983035 -0.12345021 0.007128635 0.13111444 0.053169545
-0.017955298 0.5662656 -0.008991246 -0.091667935 0.07064981 -0.01580247 0.061568 0.044620633
-0.023300605 -0.077239476 -0.08207049 -0.009975066 -1.0292126 -0.0057190335 -0.0090818815 -0.019781515
0.023257364 -0.019026669 0.0045046136 -0.07690683 0.30830324 1.052293 -0.38684455 -0.14713657
-0.056793377 -0.00464691 0.19041386 -0.003293573 0.014797361 0.035599895 0.06637483 -0.19970262
0.07656914 0.05545094 -0.2638508 -0.19351093 0.13920486 0.09935303 0.0067937095 0.078338936
-0.060911834 -0.106941015 0.011833557 0.07721807 -0.083639726 0.009650998 -0.02044228 0.19163896
-0.0007132014 0.038174897 -0.0051546367 -0.033512104 0.012725212 -0.11005875 0.028595729 -0.04435983
-0.3169647 0.23198527 -0.036085 -0.10362874 -0.11591117 0.16590358 0.09065027 -0.00051035476
0.02917017 0.26872927 0.43209293 0.18084234 0.20793077 0.1624756 0.12840205 0.014998061
0.20617318 0.0964444 -0.14336225 -0.8110846 0.037566815 0.05972328 0.18967436 -0.8018232
-0.17771007 0.15069017 0.13749695 -0.022225605 0.28269324 -0.22846979 0.061214235 0.061447486
0.21079198 0.18261491 0.08020924 0.17445262 -0.05425505 0.0413145 0.13673708 -0.00070071523
00000000: cd02 313e 2782 613e 61bb a7be f4c3 883b
00000010: 776c 72be 8234 5939 6af8 663e 02c2 ac39
00000020: 9ed5 e9bd 44c7 ae3d d192 933e a2d4 943d
00000030: db5b c4bd 90c6 693d 69c5 cc3d 205e 1abe
00000040: 87e1 a1bd 9251 8b3d 48a4 c2be c33c 7a3e
00000050: bc1e b3be a958 b9be 6d50 2a3e 9a6e f33d
00000060: dc59 053e 3b0b ef3d c85c d93e e843 b83d
00000070: 27ae 643d eb82 9bbd 19ff 12bd 6fd3 cbbe
00000080: b109 03be dbbe 18be a820 953d ab2d 54be
00000090: e8bb 3b3e fa49 c4bd abbd 90be 4b91 bdbd
000000a0: cc45 93bd 1718 99be e7bf 483e 7773 d53d
000000b0: 9752 e03d 013f 23be b606 2b3e 138b 70bd
000000c0: 99db 9abc 4f2b 9abb 7dc7 0e3e e620 ebbd
000000d0: af19 983d 758e 4f3e 0685 02be 0ba7 4abe
000000e0: 602d 47be 11bd fa3b ec2b 79be 87ab 8b3e
000000f0: 3af7 003e f0a1 243d c94e 60bd 040f 1d3e
00000100: 1aa9 acbe f379 0a3e 24ca 9a3c d111 fd3d
00000110: 56a4 0b3e e9c6 b7bd d845 78be 128c 843c
00000120: 98db eabd 15fc c2bb c219 87bd 81c7 34be
00000130: 66a6 3b3e c75e 463d 061e 883e 2ae3 9cbd
00000140: 8694 0d3e 0b60 54be be64 153e 0a2b 44bd
00000150: 56a6 f9be 2db4 a43e af00 22bd 59f5 683b
00000160: 950c 33be 241c eb3d f5c2 9ebe 29c4 733e
00000170: 8968 573e d988 d53d 733b 1cbe 1020 e83d
00000180: 934b 27be 4cdb a93a 0cd9 5a3d d154 0f3e
00000190: f27e bebd 541b 9abd edad 1dbe 7ae5 54bd
000001a0: 506e ef3d bc0d da3d 811b b5bc 502d 15be
000001b0: 0da4 ea3b cb94 113c 9d46 663d 07b2 a6bd
000001c0: 09c8 023e e536 a93c 26a0 84bc b0d1 c7bd
000001d0: 11b6 63bd 8932 813d cbb9 e73c 45dc 19bd
000001e0: 784c b3bd 479e e4bd fc51 7cbd f24c 893c
000001f0: bc49 93bd acc6 46be 5bcc 363d fa92 eb3d
00000200: 87a0 84bd f2ab aabb af2e d5bc 4484 0dbd
00000210: f0b0 ce3c d668 ee3c 86d3 253d 5b38 053d
00000220: 4e38 e23c 2f8a 25bd fe7a 2abe eaa5 a3bd
00000230: 211c 20bd e712 d23b fdaf 47bd 1192 7bbd
00000240: e121 45bd 25cf 07bd c7a9 bdbc 849b b4bd
00000250: 5519 bbbc 187a 213c 00f3 55bd 4ff8 cd3a
00000260: 5ce9 aa3d 668d 26bc 2328 13bd e91a 4cbd
00000270: 77d3 fcbd 5397 e93b dd42 063e 4fc8 593d
00000280: fd16 93bc c8f6 103f 0550 13bc 66bc bbbd
00000290: d9b0 903d 2e74 81bc ba2e 7c3d 20c4 363d
000002a0: e9e0 bebc bb2f 9ebd 9314 a8bd 766e 23bc
000002b0: 3dbd 83bf bb66 bbbb 2ccc 14bc d80c a2bc
000002c0: 3a86 be3c d1dd 9bbc 709b 933b 5481 9dbd
000002d0: ecd9 9d3e 89b1 863f 7d10 c6be f8aa 16be
000002e0: 2ca0 68bd 1b45 98bb dafb 423e fcd8 57bb
000002f0: a170 723c 32d1 113d 87ef 873d d87e 4cbe
00000300: 48d0 9c3d 8620 633d 7417 87be bb27 46be
00000310: b88b 0e3e 9a79 cb3d c49d de3b 2a70 a03d
00000320: b07e 79bd e403 dbbd 89e1 413c 8224 9e3d
00000330: 4e4b abbd 381f 1e3c 9276 a7bc 013d 443e
00000340: 23f6 3aba 485d 1c3d 3ae8 a8bb fd43 09bd
00000350: 687d 503c 7b66 e1bd 9741 ea3c a7b2 35bd
00000360: 3249 a2be 8c8d 6d3e ddcd 13bd 4e3b d4bd
00000370: d662 edbd a1e2 293e d9a6 b93d 54c9 05ba
00000380: 48f6 ee3c e296 893e 493b dd3e bc2e 393e
00000390: ceeb 543e 0160 263e d47b 033e 6dba 753c
000003a0: 101f 533e a484 c53d 8ecd 12be 3ea3 4fbf
000003b0: a9df 193d 66a0 743d ff39 423e 4944 4dbf
000003c0: a1f9 35be 864e 1a3e 00cc 0c3e 7912 b6bc
000003d0: 2bbd 903e fcf3 69be c7bb 7a3d 5cb0 7b3d
000003e0: dad9 573e 67ff 3a3e be44 a43d b5a3 323e
000003f0: 8b3a 5ebd 6539 293d ce04 0c3e 34b0 37ba

452 f4 [64]
0.296987 -1.0842667 0.3082463 0.35286403 -1.8939495 -0.4621595 1.1501896 0.59474605
0.9617751 -0.5841972 0.35822415 0.2685293 0.48734733 0.12748486 0.42714658 -0.023164272
0.43826103 -0.6996754 -0.68542194 0.5061059 -0.8348284 0.1847115 0.6335365 -0.008758403
-1.1112089 -1.5794775 -0.3133015 -0.38788375 -0.15591156 0.71218634 -0.11728442 -0.74024725
0.25263703 -2.7896042 0.22175893 0.3605206 -0.06191215 1.257176 0.27010193 -0.51352394
-0.1860722 -1.3811699 0.034138024 0.31033102 1.1521441 -0.6832509 0.6804086 0.14641269
-0.06582815 -0.6215475 0.62562853 -0.014292963 -0.2090317 -0.6142818 0.64678323 -0.059302993
1.2371871 -0.049370855 0.343532 -0.016900644 1.0640631 -0.103138834 -0.36237845 0.42777613
00000000: ae0e 983e 40c9 8abf 76d2 9d3e 98aa b43e
00000010: f06c f2bf 2ca0 ecbe 6a39 933f 4741 183f
00000020: e536 763f f38d 15bf 2869 b73e ac7c 893e
00000030: 9785 f93e 648b 023e f5b2 da3e 00c3 bdbc
00000040: c063 e03e ed1d 33bf d077 2fbf 2890 013f
00000050: 50b7 55bf 0325 3d3e 732f 223f 687f 0fbc
00000060: 183c 8ebf 522c cabf 0e69 a0be b398 c6be
00000070: 48a7 1fbe d851 363f d032 f0bd d880 3dbf
00000080: a459 813e e088 32c0 c614 633e 2896 b83e
00000090: 9897 7dbd 25eb a03f cd4a 8a3e 4e76 03bf
000000a0: b689 3ebe 2dca b0bf 50d4 0b3d b5e3 9e3e
000000b0: 7579 933f 88e9 2ebf 422f 2e3f 35ed 153e
000000c0: e9d0 86bd bd1d 1fbf 3129 203f 082d 6abc
000000d0: 680c 56be 9241 1dbf 9693 253f b2e7 72bd
000000e0: 265c 9e3f 1839 4abd 6de3 af3e 3873 8abc
000000f0: 3833 883f 743a d3bd ab89 b9be 7905 db3e

454 f4 [64, 64, 1, 1]
-0.032219227 -0.0014562366 -0.40650812 -0.02675143 0.32123384 0.23541288 -0.04566343 -0.057984702
-0.14769006 0.17290509 0.18173762 0.19445162 -0.18791458 0.25400135 0.048769355 -0.17812024
-0.34654784 0.19729534 -0.05371668 -0.01258616 0.054776352 0.056989662 -0.031140383 -0.46617484
-0.16326602 -0.24196266 -0.39500326 -0.43399405 0.06868107 0.036353607 0.021933574 -0.17400602
-0.2009566 -0.11166501 0.16646354 -0.124051124 0.17072791 0.09239605 -0.21487612 -0.020140162
0.0009614156 -0.014041101 -0.12507224 0.028848244 -0.18058462 0.106173255 -0.0564341 -0.012072648
0.003983008 0.1455709 -0.023184143 0.2334635 -0.07685613 0.14030445 -0.22781102 0.011432679
0.38441625 0.11150271 0.019230276 -0.11467547 0.033590037 0.13305399 -0.19727746 -0.1346881
0.13652028 -0.017266411 0.0022023546 0.024826583 0.0453459 0.06401619 -0.12770669 0.065478
0.1208168 -0.08213796 0.0010305749 -0.0009291318 0.014228933 0.027548756 0.017332057 -0.08747198
-0.0021804918 -0.11461166 0.03744799 -0.05353384 0.0001616121 0.028701123 -0.012157021 0.03221963
-0.23387772 0.08409226 -0.027089745 0.06412113 0.19831598 0.01914247 0.14061812 -0.06166188
0.105305396 -0.16314653 0.019167252 0.12632342 0.07014769 -0.21827498 0.09908033 -0.04719583
-0.110638775 -0.07363582 0.058716167 0.19868004 -0.07640506 -0.042659815 -0.3364424 0.13236895
-0.0045063635 -0.006634954 0.15799513 -0.056895107 0.07180104 0.1003584 -0.036795445 -0.032933738
0.0052402737 -0.020746987 0.059824303 -0.05226056 0.010992673 -0.1923984 0.061798483 -0.013369513
-0.026105737 -0.15801485 -0.050236776 -0.1318253 0.081645325 0.11585362 0.058847927 -0.038880166
0.08369469 -0.011829401 -0.031454857 0.0028834923 -0.18175663 0.18965556 0.05225784 -0.19461884
0.08874405 0.040818334 -0.53732497 0.32469484 0.04304656 -0.025963912 -0.06801439 0.101460665
0.09271029 -0.012949376 -0.037446693 0.051143788 0.03350254 -0.076460406 -0.045787927 0.049506124
0.3947405 0.11718533 -0.39629176 0.007061605 0.0054125497 0.03559241 0.17075707 0.15001094
-0.08369604 0.067099065 -0.1326828 0.20826103 -0.0015787025 0.036965095 -0.11893929 -0.042228725
-0.051138423 -0.24716114 -0.11695916 0.031194579 -0.0073519414 -0.053254932 -0.16513714 0.17124975
0.078630574 0.11248859 -0.20840311 0.23595794 -0.2279282 0.023528084 -0.07405118 -0.07261388
-0.09489326 -0.03106728 0.111054406 -0.16536495 -0.06403045 0.0069089103 0.020781452 -0.23171532
0.42695522 0.18568058 0.02636432 0.082871646 -0.20608537 -0.07239211 -0.111591995 -0.0010582885
-0.09096057 -0.21318485 -0.012515148 -0.1424591 -0.08261059 0.09426225 -0.14926536 -0.07988676
-0.006215253 -0.16204132 -0.014579022 0.108176075 -0.010593062 0.012111725 -0.12336854 0.105529524
0.039354578 0.04560893 0.078844264 0.06597983 -0.082020365 -0.07670742 -0.0034571015 0.15009391
0.10938747 0.20514293 -0.04968971 -0.22219194 -0.100171655 -0.013842542 -0.05131885 -0.051606335
0.0074512106 0.11543062 -0.013515884 0.09359028 -0.17134306 -0.09602649 -0.094449066 -0.17533013
-0.056167472 0.06251046 0.17650034 -0.09438755 -0.020820891 0.043107197 -0.11716614 -0.076960735
00000000: 4ff8 03bd 31df beba d521 d0be d125 dbbc
00000010: c378 a43e 1310 713e 9409 3bbd 5e81 6dbd
00000020: 103c 17be 080e 313e 6d19 3a3e 531e 473e
00000030: ae6c 40be 770c 823e 60c2 473d 2765 36be
00000040: b86e b1be ca07 4a3e 0506 5cbd 2e36 4ebc
00000050: 2b5d 603d fe6d 693d 1e1a ffbc 78ae eebe
00000060: 352f 27be 0fc5 77be de3d cabe 7834 debe
00000070: a9a8 8c3d 85e7 143d 0aae b33c a22e 32be
00000080: 91c7 4dbe a0b0 e4bd 6b75 2a3e 840e febd
00000090: 4cd3 2e3e 243a bd3d 7c08 5cbe fbfc a4bc
000000a0: 8207 7c3a a50c 66bc f012 00be 2753 ec3c
000000b0: 2deb 38be 5d71 d93d 7127 67bd 5bcc 45bc
000000c0: e583 823b 8a10 153e acec bdbc 0e11 6f3e
000000d0: bf66 9dbd f8ab 0f3e 4b47 69be 2250 3b3c
000000e0: 35d2 c43e 885b e43d d088 9d3c f9da eabd
000000f0: b595 093d 4e3f 083e 1a03 4abe adeb 09be
00000100: f9cb 0b3e 4a72 8dbc 6155 103b 1e61 cb3c
00000110: 9fbc 393d ec1a 833d 8bc5 02be 5419 863d
00000120: cc6e f73d f237 a8bd 5b14 873a fb90 73ba
00000130: 7820 693c eead e13c f5fb 8d3c 8224 b3bd
00000140: 95e6 0ebb 85b9 eabd 1063 193d 4d46 5bbd
00000150: 6b76 2939 9e1e eb3c 3e2e 47bc bbf8 033d
00000160: a47d 6fbe 9038 ac3d 50eb ddbc f051 833d
00000170: 5813 4b3e abd0 9c3c 32fe 0f3e 2b91 7cbd
00000180: 5baa d73d e20f 27be a404 9d3c ed5a 013e
00000190: 98a9 8f3d 7a83 5fbe a1ea ca3d 6a50 41bd
000001a0: 9596 e2bd 60ce 96bd 5d80 703d c872 4b3e
000001b0: 427a 9cbd 0fbc 2ebd 2e42 acbe ba8b 073e
000001c0: 1eaa 93bb 076a d9bb 7ac9 213e d80a 69bd
000001d0: 6c0c 933d b488 cd3d d2b6 16bd 87e5 06bd
000001e0: 9ab6 ab3b 96f5 a9bc 540a 753d 2b0f 56bd
000001f0: 9d1a 343c 1604 45be 6820 7d3d cd0b 5bbc
00000200: b3db d5bc a5ce 21be 14c5 4dbd 36fd 06be
00000210: aa35 a73d aa44 ed3d 860a 713d cf40 1fbd
00000220: 1f68 ab3d 1bd0 41bc cfd6 00bd f9f8 3c3b
00000230: 691e 3abe 1135 423e 510c 563d 294a 47be
00000240: 71bf b53d 2031 273d 218e 09bf 673e a63e
00000250: 9751 303d 45b2 d4bc 214b 8bbd 9cca cf3d
00000260: e4de bd3d 9f29 54bc b461 19bd 267c 513d
00000270: f639 093d 4697 9cbd 1f8c 3bbd efc6 4a3d
00000280: 6d1b ca3e ddfe ef3d c1e6 cabe 0965 e73b
00000290: c25b b13b 59c9 113d f1da 2e3e 789c 193e
000002a0: d468 abbd 3c6b 893d 00de 07be 6142 553e
000002b0: 77ec ceba b668 173d 7196 f3bd 07f8 2cbd
000002c0: 8676 51bd cf17 7dbe 4988 efbd c68b ff3c
000002d0: 8ee8 f0bb d821 5abd b619 29be 185c 2f3e
000002e0: 1109 a13d 6b60 e63d a067 55be f59e 713e
000002f0: 0366 69be f8bd c03c 25a8 97bd 96b6 94bd
00000300: 6657 c2bd cf80 febc 7e70 e33d 6e55 29be
00000310: 6622 83bd 2464 e23b dd3d aa3c c846 6dbe
00000320: e099 da3e 0d23 3e3e fdf9 d73c 9cb8 a93d
00000330: 0b08 53be 5142 94bd 588a e4bd 45b6 8aba
00000340: 8949 babd 214d 5abe 560c 4dbc cce0 11be
00000350: be2f a9bd 910c c13d 05d9 18be ab9b a3bd
00000360: 52a9 cbbb 29ee 25be dadc 6ebc 6b8b dd3d
00000370: 868e 2dbc 4270 463c a5a8 fcbd dd1f d83d
00000380: 4432 213d 6ed0 3a3d 1a79 a13d 6f20 873d
00000390: 4bfa a7bd c818 9dbd 8a90 62bb 38b2 193e
000003a0: 8a06 e03d fd10 523e 7087 4bbd 4986 63be
000003b0: cc26 cdbd d4cb 62bc b733 52bd 2a61 53bd
000003c0: 4929 f43b e466 ec3d ba71 5dbc 43ac bf3d
000003d0: 8e74 2fbe 89a9 c4bd 836e c1bd be89 33be
000003e0: dd0f 66bd 7c05 803d 81bc 343e 434e c1bd
000003f0: 9390 aabc 2c91 303d cdf4 efbd 979d 9dbd

455 f4 [64]
0.27737296 1.9655879 -0.21952552 0.35394105 2.4078174 0.042510986 0.2727083 1.7481315
-0.18980697 -0.8712061 -0.17573182 0.8482166 0.41037306 -2.9919431 -2.3917143 0.10260174
1.4208484 -1.3911835 -1.205373 -0.961017 -0.87489057 -1.8045195 0.34875917 1.0578387
0.4350866 0.6890139 1.3062689 0.43904233 -0.62815976 -0.28291717 -1.3100696 0.55147
1.838464 -0.9138051 -1.3449552 -1.3399295 -0.89234227 0.9946828 1.0357783 0.8432542
1.0969665 0.08918655 0.20764112 0.31668875 0.6062508 0.16760755 0.07444392 -0.85795313
-2.05243 1.0143452 -1.629653 1.2352356 0.114331126 0.39814097 0.34411705 0.92743564
0.56981987 2.9343984 0.01626472 0.13569546 -0.41725868 -1.965826 -0.47409812 0.37544245
00000000: d403 8e3e 6298 fb3f 4ccb 60be c337 b53e
00000010: ae19 1a40 0020 2e3d 6ca0 8b3e c6c2 df3f
00000020: c25c 42be 5d07 5fbf 0bf3 33be b924 593f
00000030: 6b1c d23e ff7b 3fc0 d911 19c0 dc20 d23d
00000040: 5cde b53f 4d12 b2bf aa49 9abf 3605 76bf
00000050: d4f8 5fbf 7ffa e6bf 9090 b23e 4267 873f
00000060: acc3 de3e 3763 303f d233 a73f 28ca e03e
00000070: 14cf 20bf 85da 90be 5cb0 a7bf 232d 0d3f
00000080: ca52 eb3f 22ef 69bf 7e27 acbf cf82 abbf
00000090: 8b70 64bf 88a3 7e3f 6294 843f 82df 573f
000000a0: 6669 8c3f 70a7 b63d e09f 543e 0725 a23e
000000b0: 4133 1b3f 50a1 2b3e 0e76 983d d1a2 5bbf
000000c0: 035b 03c0 10d6 813f 7898 d0bf 331c 9e3f
000000d0: 7026 ea3d 22d9 cb3e 1c30 b03e 6c6c 6d3f
000000e0: b7df 113f 2fcd 3b40 973d 853c c0f3 0a3e
000000f0: eea2 d5be 30a0 fbbf fdbc f2be fe39 c03e
